Learning/results/mx4/KartAgent/KartAgent-38647.onnx (onnx, 104129 bytes, 7 tensors)

41 f4 [1, 2]
000000 69 fe e5 bb 36 64 13 b9
       -0.0070188534 -0.00014056344

distribution.mu.bias f4 [2]
000000 e4 78 7c 3b 0f 50 bc 3c
       0.0038524205 0.022987394

distribution.mu.weight f4 [2, 128]
000000 d0 6c e0 3b cb 38 5b 3c 8d 28 d9 3b 39 82 7b 3c
       0.006848909 0.01338024 0.0066271485 0.015350872
000010 9d f7 18 bb 53 b6 62 bb 61 60 88 3c 26 da 1c 3d
       -0.0023340948 -0.0034593537 0.01664752 0.03829398
000020 11 06 89 ba db c5 3c 3c 77 24 54 3c 83 c0 e9 bb
       -0.0010454078 0.011521782 0.012948147 -0.007133545
000030 5b 82 a8 3c 9b 4e a2 3c d2 8d 89 3c e5 d3 c6 3c
       0.02056997 0.019812873 0.016791258 0.024270961
000040 27 57 23 3c b1 ed a8 3c ed d1 f0 bb f0 cc 1b 3b
       0.009969509 0.020621153 -0.007349244 0.0023773275
000050 f3 9d 4b 3c 2b 2f c7 3b ef 39 12 3c 2b 6e 82 bb
       0.012427795 0.006078621 0.008924945 -0.003980418
000060 56 c4 ec 3b 16 57 f3 3b 68 d7 f6 3c 1a 0e 62 bb
       0.0072255535 0.007426153 0.03013201 -0.0034493268
000070 a6 20 f7 bb 39 cc bf 38 dd 39 7f 3c fb fa 9d bb
       -0.007541734 9.145629e-05 0.0155777605 -0.004821179
000080 1d 66 b2 39 7f 40 9c bb 00 b0 9e 3c 72 87 53 bc
       0.00034026886 -0.0047684307 0.019371033 -0.012910711
000090 83 43 62 3c 12 49 87 3b 3c 9e 62 bc 93 19 82 bc
       0.013810041 0.0041285837 -0.013831671 -0.015881335
0000a0 71 85 12 bc 9c 83 fe ba d5 cb c0 ba 7b b6 99 bb
       -0.008942948 -0.0019417885 -0.0014709184 -0.004690943
0000b0 97 0e c0 bb 55 c6 92 3c ba 9f 9b 3a 8c 52 9e 3b
       -0.0058611142 0.017916838 0.0011873164 0.0048316177
0000c0 4d 93 d0 3b 74 16 06 3c 9b 77 a4 bc b9 ca 02 bc
       0.006365216 0.008184064 -0.020076564 -0.007982903
0000d0 2e 00 93 3c 2c c4 9d bb 84 e5 13 bb f1 a1 d1 ba
       0.017944422 -0.0048146453 -0.0022567222 -0.0015993697
0000e0 d7 cd 15 bc d2 57 bb bb b3 ac 8e bb 47 db 53 bb
       -0.009143314 -0.005717256 -0.0043540834 -0.0032326744
0000f0 2b 5b a9 39 65 b5 36 3b d8 33 13 3b 42 ad 3b 3c
       0.00032302117 0.0027879116 0.0022461321 0.011454882
000100 e6 69 e6 bb 2d f3 6a b9 5b 94 26 bc 1f ea 57 bc
       -0.007031667 -0.00022406569 -0.010167207 -0.013178377
000110 b5 6d 56 bc 68 f1 bf bb 85 28 26 3c f0 02 21 bd
       -0.01308768 -0.0058576353 0.010141497 -0.039309442
000120 50 c7 96 3b f8 d1 16 3c 66 7a 99 3b b4 71 d7 3b
       0.0046013966 0.009205334 0.0046837805 0.0065748338
000130 d2 d5 bf 3c f9 99 fc ba 31 95 a5 bb 24 9e 7a bc
       0.023417387 -0.0019271962 -0.0050531854 -0.015296493
000140 f7 18 b5 3c b0 3f 01 bc 9f 18 90 3c 06 de 36 bb
       0.02210663 -0.007888719 0.017589865 -0.0027903332
000150 bb 95 44 bc f3 01 56 3c 4e 53 2f bb c0 34 92 ba
       -0.011998589 0.013061988 -0.0026752534 -0.0011154637
000160 07 20 6f 3c 9b c5 8c 3c d6 b8 7e 3a 31 24 83 3b
       0.014595038 0.01718407 0.0009716874 0.004002117
000170 fb 7c 97 bb b2 10 24 bc 69 a3 cb bb 77 8e ec 3b
       -0.004623053 -0.010013746 -0.0062145484 0.0072191316
000180 db f7 c1 bc b0 12 bb bb 46 be 66 bc 35 1d 0e bc
       -0.023677757 -0.005709015 -0.014083451 -0.008673956
000190 cc 9f 0d 3c 24 b6 ff bb 6c 86 34 3c c1 0a db 3b
       0.008644056 -0.0078036953 0.011018377 0.0066846316
0001a0 d2 3e a4 bb 83 f1 fc ba 9f ed 8a bc b0 22 0f bb
       -0.0050123716 -0.001929805 -0.01695901 -0.0021840744
0001b0 51 d6 65 bc be 36 81 3c 08 1d 87 3c 84 89 70 3c
       -0.014028148 0.015773173 0.016493335 0.014681224
0001c0 d3 f6 75 3c 0b 27 b4 bc 43 ad 66 bc 01 3f e8 bb
       0.015012461 -0.021991273 -0.014079395 -0.007087589
0001d0 62 c6 05 bb de 0d 79 3c 77 6d 28 3c 96 97 e5 3b
       -0.0020412435 0.01520106 0.010280005 0.007006596
0001e0 95 6c 5f 3c 41 ef 9f 3c b0 b3 3a bb 63 2b de b9
       0.013636728 0.019523265 -0.002848845 -0.00042375465
0001f0 b5 2f d8 3b 47 ed 4d bb 04 80 a2 3b 44 80 3c 3b
       0.006597484 -0.0031421946 0.0049591083 0.0028762976
000200 93 f4 86 ba a5 fd a6 3c 18 9b ce b9 df bc c1 3b
       -0.0010296277 0.020384619 -0.00039406936 0.0059124078
000210 5c eb 3a 3c 03 80 c4 3c 44 3c e6 bc 35 d8 e2 bc
       0.011408653 0.023986822 -0.028104909 -0.027690986
000220 da 6a a9 bb 67 ae 55 3c 4d 0f 10 3a d8 19 43 bc
       -0.0051702084 0.013042069 0.0005495444 -0.011908017
000230 26 38 f7 bc 6c d2 57 bc fb 33 55 3b f5 e4 de bc
       -0.03017814 -0.013172727 0.0032532203 -0.027208785
000240 00 6b 05 3d bc 99 57 bb 12 8d 70 bc 57 0f 53 3d
       0.032572746 -0.003289803 -0.014682071 0.0515283
000250 8e 15 fb 3b bb 8b 08 3b 76 61 b6 ba b3 c2 af ba
       0.0076624816 0.002083524 -0.0013914544 -0.0013409465
000260 3f 6c 3d 3c 8a a0 a3 3b 4d 57 2d 3d 4a 71 90 3c
       0.011561452 0.004993503 0.042319585 0.017632145
000270 18 58 40 bd e1 b9 96 3c c3 bb e3 bc 58 38 d9 bb
       -0.046959013 0.01839918 -0.027799493 -0.006629031
000280 30 4f 3f ba 5c 32 49 bc 94 2d 10 3c a5 90 7b bc
       -0.00072978716 -0.012280073 0.008799929 -0.01535431
000290 63 54 73 bb a6 39 17 bd d4 3b 26 bc 27 81 67 ba
       -0.0037129156 -0.036920212 -0.0101461 -0.0008831196
0002a0 a5 8c 37 ba 09 77 12 3c b1 64 87 bb 1b 39 6e bb
       -0.00070018537 0.008939513 -0.0041318764 -0.0036349955
0002b0 76 bc 55 3a bf 04 b0 3c de f4 d2 bb 8c 52 92 3b
       0.0008153388 0.021486638 -0.006437882 0.0044654068
0002c0 56 ea 02 3d 9e 2f 26 bd 16 4a 95 ba 84 1f 76 3c
       0.03196176 -0.040572755 -0.0011389877 0.015022162
0002d0 f4 d8 25 3d 97 79 05 bb e7 dd 63 ba 30 77 13 bb
       0.040490106 -0.0020366663 -0.0008692429 -0.0022501461
0002e0 95 c7 7c b9 76 00 a5 3c 54 f8 32 bb 31 22 9b ba
       -0.00024106943 0.020141821 -0.002730866 -0.0011835751
0002f0 07 7d f9 3b 18 c9 b9 bb 47 b1 ff 3c af 64 09 bd
       0.0076137814 -0.005669724 0.031212462 -0.033543285
000300 e4 b3 08 3c 8c 2e 22 bb 01 26 2d bc 79 23 ec bc
       0.0083436705 -0.0024746982 -0.010568143 -0.028825508
000310 35 9b 7e ba 59 d9 4b 3d 39 01 7d 3b 44 21 19 bb
       -0.00097124587 0.049767826 0.0038605465 -0.0023365775
000320 e2 51 46 3c 27 60 8f bb bc 08 38 3c fb ec 1f bc
       0.012104483 -0.004375476 0.011232551 -0.00976109
000330 f4 72 f3 bc 57 94 56 ba fd b0 c9 ba 65 80 6e 3c
       -0.0297179 -0.00081855565 -0.001538783 0.014556979
000340 de 6f 8a 3c 97 1d 0e bc 7d 09 09 bd 1a 45 e1 bc
       0.016899046 -0.008674047 -0.033456314 -0.02749877
000350 04 b0 ca bc e3 89 2a bd b4 10 bd 3b d9 7e d4 3b
       -0.024742134 -0.041635405 0.0057698134 0.006484848
000360 01 84 3a bd 4c 6c 66 3c 22 b3 2c 3c 3f dd 00 bd
       -0.045536045 0.014063906 0.010540755 -0.031460997
000370 f8 ff 89 bc 60 2f fc bc 7b 20 3d bb cb 54 e7 bc
       -0.016845688 -0.030784309 -0.0028858471 -0.028238675
000380 38 55 6d 3c 2c 87 8c 3a 23 43 b9 bc a3 b6 38 3d
       0.01448565 0.0010721437 -0.022615021 0.04509605
000390 61 a3 0c 3a 28 f7 4d b9 b6 a2 1f bd f6 99 99 39
       0.00053649215 -0.00019642396 -0.038973533 0.00029297144
0003a0 c8 af 8d bb 84 32 b6 3b c1 80 a4 bc 8d c3 4a bd
       -0.0043239333 0.005560221 -0.020080926 -0.049502898
0003b0 39 d0 83 bc 37 36 06 3d 03 c4 02 bd 01 21 af bc
       -0.0160905 0.032766547 -0.031925213 -0.021378042
0003c0 3a c6 01 3c c4 9f 30 3d 9a 9e 1b bc 46 ef 85 3b
       0.007920796 0.043121114 -0.009498263 0.0040873615
0003d0 f3 f1 9f 3c 32 e9 39 3c f3 a6 2e bd f1 d9 6d 3b
       0.01952455 0.011347102 -0.042639684 0.0036293233
0003e0 b4 90 e7 3c ea 72 f3 bb 63 05 38 bb e6 f8 30 ba
       0.028267242 -0.0074294703 -0.0028079383 -0.0006750956
0003f0 f5 1b bb 3a 69 d7 aa bb fc 4f 51 3b 8b 16 1f 3b
       0.00142753 -0.005213667 0.0031938544 0.0024274911

network_body.linear_encoder.seq_layers.0.bias f4 [128]
000000 ee dc ed 3a 61 e3 5f 3b 99 fa ff 3a 1c a7 c6 bb
       0.0018147507 0.0034162628 0.001952964 -0.0060624015
000010 f9 2c 41 3b 13 bb e6 bb ad 78 bf 3a 4d 4c 3c 3a
       0.0029476269 -0.007041344 0.0014608108 0.00071830006
000020 24 3c c0 bb 76 13 e0 bc 46 a1 81 3a 2a d5 91 3b
       -0.0058665443 -0.02735303 0.0009889982 0.00445046
000030 48 4e 3c bc 2c 24 30 bc 4b c7 43 3b 99 2f 91 3b
       -0.011493273 -0.010750812 0.0029873427 0.004430723
000040 30 39 b5 3c f7 79 a0 bc 0e 82 86 bc 1e da 28 3d
       0.022121996 -0.019589407 -0.016419437 0.041223638
000050 5b 33 13 bb e8 6d 8f 3b 5f 2b af bb 37 85 36 bc
       -0.002246103 0.0043771155 -0.0053457464 -0.011140159
000060 07 87 1a bb 64 55 fd 3b 67 a6 59 3b 7c 97 61 3b
       -0.0023579018 0.0077311266 0.0033210756 0.0034422567
000070 58 d7 ae bc 47 69 8f 3c a7 8f 20 3c 02 fe b9 ba
       -0.021342918 0.017506255 0.009799874 -0.001419008
000080 5b 6f 40 3b 0b ac 15 bb 60 2c 45 3c ae 7b 13 39
       0.0029363248 -0.0022838141 0.012034506 0.00014065087
000090 1d 55 70 bc 83 09 11 bb 0a 59 4e bb 5f 7d ef 3b
       -0.01466873 -0.0022130914 -0.0031486177 0.0073086466
0000a0 79 08 4f bb 60 7e 53 bb be 48 7f bc 3f 35 44 3c
       -0.0031590743 -0.003227137 -0.015581308 0.0119755855
0000b0 37 0a 34 bc 10 36 e5 bb 05 1a 8f bb 79 da 33 3c
       -0.0109887635 -0.00699497 -0.0043671154 0.010977381
0000c0 f8 cc 63 bc 66 3b 57 3c 37 97 de 3b de 16 07 3c
       -0.013903849 0.01313672 0.0067929286 0.008245198
0000d0 93 2c c5 3b de f1 92 3a 3e d3 35 3b a7 bc 93 3b
       0.0060172766 0.0011210998 0.0027744318 0.004508573
0000e0 0b d8 b7 bc 6f d5 37 3c e7 e3 47 bc c1 5d 3f bc
       -0.022441885 0.01122032 -0.012200332 -0.0116800675
0000f0 5f f7 86 3b 7a 8c eb bb 1a 3b 8b 3b 4c 1f 0b bc
       0.0041188444 -0.007188377 0.004248989 -0.0084913485
000100 dc 8d 87 bb 1d dc 54 3b aa 83 c3 bb 8e cb 3c 3c
       -0.004136784 0.003247983 -0.0059666233 0.011523141
000110 a8 4a 8a 3c 0b c9 0d bc 45 18 a1 3c 62 5f 5f 3c
       0.016881302 -0.008653889 0.019664893 0.013633581
000120 cc 7e f0 3b 2c a5 8c 3c d2 d8 ad 3a d5 5d ca bc
       0.007339334 0.017168604 0.001326347 -0.024702946
000130 a9 38 c4 3b 6f 5c d8 3b 09 ce 2a bc f4 af dd 3b
       0.0059881997 0.006602816 -0.010425099 0.00676536
000140 29 32 fc 3b 7b ec ae 3b 16 d5 36 bb 7f e8 ed bb
       0.0076964092 0.0053382493 -0.0027898005 -0.0072603817
000150 e4 5a bc 3b c4 62 38 3b 8a 89 80 3b 02 4f 17 bc
       0.0057481397 0.002813504 0.003922646 -0.0092351455
000160 f4 fa 29 bb 12 87 76 3b 85 4d bb b9 3d 8f 5a 3a
       -0.0025936933 0.003761713 -0.00035725176 0.0008337384
000170 f1 b2 c6 3b 51 4a 1f bc 9b b6 97 3b 5a 40 51 bc
       0.006063812 -0.009722308 0.0046299226 -0.01277169
000180 a7 0d 17 3c 8a d3 1c bc f4 e6 16 bc 78 6a 61 bb
       0.009219564 -0.009571919 -0.009210337 -0.0034395736
000190 6d 17 20 bb 09 12 96 ba 5d 26 a3 3c 19 f8 26 bc
       -0.0024428025 -0.0011449467 0.019915754 -0.010190987
0001a0 ea 08 40 bc f0 94 37 3c 65 82 8c bc 5a ad aa bc
       -0.011720875 0.011204943 -0.01715202 -0.020834614
0001b0 74 b5 8e 3b 68 0d 9a 3b 18 da 9b 3c c8 9e d9 3b
       0.004355127 0.004701305 0.019024894 0.0066412427
0001c0 39 3f 21 bb 5c 80 28 bb fd c9 c1 38 e3 29 33 bd
       -0.0024604334 -0.0025711274 9.2405804e-05 -0.04374112
0001d0 35 31 e5 3b b1 65 12 bd 8d d7 63 bc 51 cc 2c 3c
       0.0069943913 -0.03574151 -0.013906372 0.01054676
0001e0 25 84 8f bc 68 0e 83 3c df 49 c3 39 10 9b b4 39
       -0.017519066 0.01599808 0.00037248337 0.00034447806
0001f0 b0 0f f9 bb 2d 6b 98 bc 60 55 87 ba bc 5b 35 bb
       -0.007600747 -0.018605793 -0.0010325126 -0.0027673086

network_body.linear_encoder.seq_layers.0.weight f4 [128, 68]
000000 e5 d6 dd 3c 43 67 da bd 9b b1 5e 3e 0c d4 a9 3d
       0.027080009 -0.10664227 0.21747439 0.08292398
000010 41 6f ae 3d 6d 9d ec 3c 10 af 1d bc 8a f3 9b 3e
       0.08517314 0.02888366 -0.009624258 0.30459243
000020 72 5f 2b bd b8 4c c4 3d 8c cc a6 be c0 f4 46 3e
       -0.04183907 0.095849454 -0.32577932 0.19429302
000030 de 11 c5 3c a8 c6 cb bd 78 21 0e 3e b4 3a 19 3e
       0.024056371 -0.0995 0.13879955 0.149638
000040 6b 8d 06 3e c2 08 1a b9 a8 ae 33 be 1b 7f 38 be
       0.13139884 -0.00014689847 -0.17547095 -0.18017237
000050 8e 86 76 3e ed 7f 52 3e a1 65 2f be 1f e3 53 3e
       0.24074766 0.20556612 -0.17128612 0.20692109
000060 31 2b a6 3d 44 a5 05 3e 8e a7 1c 3e ca 47 08 be
       0.08113707 0.13051325 0.15298292 -0.13308635
000070 9e 75 8b 3d af 32 1c 3d 7b 54 9b 3d 3d 49 32 be
       0.06809543 0.038134273 0.07584473 -0.1741075
000080 32 18 9b bd 6a 8a 2b bd 77 c7 54 bc c5 8c db 3c
       -0.07572974 -0.04188005 -0.012987009 0.026800523
000090 23 46 14 be 33 b0 fa bc b0 d3 d4 bd c4 41 a5 3d
       -0.1447988 -0.030601596 -0.10391939 0.080691844
0000a0 dd d6 6f 3c ec 8b bd bd b4 e8 e2 3d 26 46 9b 3d
       0.01463863 -0.092552036 0.11079541 0.07581739
0000b0 5e 24 73 be 7d ba 9c bc 78 64 94 3d 96 7c 0e 3e
       -0.23744342 -0.019131893 0.072457254 0.13914713
0000c0 71 ce 40 bd f2 aa 16 be 90 39 83 bd 06 1a 75 be
       -0.047071878 -0.14713648 -0.064074636 -0.23935708
0000d0 d6 d5 9c be 27 3d a6 3d 6c e9 bd 3c cb eb f8 be
       -0.30631894 0.08117133 0.023182593 -0.48617396
0000e0 a1 4a 16 3b 67 ef 44 3e 1a fb 30 be af 1e db 3d
       0.0022932666 0.1923195 -0.17283288 0.10699212
0000f0 fc 1e 1b be 52 63 91 3d f1 83 9e 3c 6f d7 2b 3d
       -0.15148538 0.07099022 0.019350024 0.0419535
000100 bd 70 a2 bc ed 9e 91 3d c9 c7 cc 3d b3 7b 0f bd
       -0.019829148 0.07110391 0.099990435 -0.03503008
000110 d6 fe 02 be b4 0e a7 bd bd b8 f8 bd df 16 30 3e
       -0.12792525 -0.08157101 -0.12144611 0.17196225
000120 49 e1 07 bd 2e bb e3 bd 6e bc 04 be b2 70 27 be
       -0.033173833 -0.11119686 -0.12962505 -0.16351584
000130 75 15 37 3c 02 30 08 be 2e e1 d0 b9 a5 d2 dc bd
       0.011174549 -0.13299564 -0.00039840624 -0.10782365
000140 49 0c be bd 9a d1 5d 3c 45 eb 56 be c6 f6 7b 3d
       -0.09279687 0.013538742 -0.20988186 0.06151464
000150 ce df 74 3e 5f 27 2d be b2 3a 02 bd 2f 96 39 be
       0.239135 -0.1690955 -0.031794257 -0.18123697
000160 27 b4 71 be eb 5f 24 bd 3b fd d4 3d 66 ce 24 bd
       -0.23603879 -0.040130537 0.103998624 -0.0402359
000170 4e 93 5b be c6 d0 c6 bc 1f 2f 0b be e0 eb 8d 3e
       -0.21442911 -0.024269473 -0.13592194 0.2771902
000180 73 5e 21 3b 04 eb ae 3e 7f 80 f9 3d 6c 1c 16 be
       0.0024622947 0.34163678 0.12182712 -0.1465928
000190 d8 9f 69 3e ba 62 62 3b 03 6a 90 3e a4 fd 23 3d
       0.22814882 0.003454371 0.2820588 0.040036812
0001a0 bd 27 c6 bd a2 79 62 bd a5 6d cb 3b 5c 95 f7 3d
       -0.09675548 -0.05529178 0.006208139 0.12089035
0001b0 b9 2e 0b bd c0 47 c7 3c 16 cb 13 bd 8d eb b4 3d
       -0.033980105 0.024326205 -0.03608235 0.0883399
0001c0 db cb e5 3c b7 9d 3d 3b e7 c8 06 bd 5b 1f 77 bd
       0.028051307 0.0028933117 -0.03290644 -0.060332637
0001d0 ae 6d e9 3d d8 c5 e4 bd a3 1e 7e 3d 23 67 f3 3d
       0.11397873 -0.11170548 0.062040936 0.11884906
0001e0 a2 68 8e 3d 81 6c 5c 3e fc 05 ab 3d 69 19 a0 bd
       0.06953551 0.21525766 0.08350751 -0.078173466
0001f0 ad 72 c1 bb 35 8a 20 be e1 75 bc bd 91 d9 20 be
       -0.005903563 -0.15677722 -0.09202171 -0.15707995
000200 4b 0f 8a bd 63 6a 10 bd e2 4a 43 be f3 21 94 3c
       -0.06741198 -0.03525771 -0.19071534 0.018082594
000210 21 87 2a 3e ba de f0 3d 36 e1 9c bd 42 59 1c bd
       0.1665311 0.11761232 -0.07660143 -0.03817106
000220 0e 1d cf bc b0 0c 45 3d 1d 1e 44 3d 92 ba 75 be
       -0.025282409 0.048107803 0.04788028 -0.23996952
000230 55 ce 1c bd 97 5a 8e bd b1 55 2c be c9 c6 6b 3e
       -0.03828271 -0.069508724 -0.16829564 0.2302505
000240 82 2c be bd 16 a4 95 bd 0d 8c 2b be db f7 42 bd
       -0.09285833 -0.073066875 -0.16752644 -0.047599655
000250 e7 ed f5 bb 3e 4a 36 be 71 b2 41 bc b0 4c b2 bc
       -0.007505167 -0.17801759 -0.011822329 -0.021765083
000260 1e fd 52 bc a7 b9 02 3e 97 bb 41 bd 7a a6 19 3e
       -0.012877731 0.12766133 -0.04729804 0.15004912
000270 66 3e 0d 3e 0a 28 fa 3c af a6 74 3e c9 2a 97 3d
       0.13793334 0.03053667 0.2389171 0.073812075
000280 f4 3a 0d 3e f9 dd 11 be 1a 98 b2 bc d0 cf 54 3d
       0.1379202 -0.14244832 -0.021801043 0.051955998
000290 42 87 82 bd a1 b4 27 3e 5a f3 1a bd 8d 39 73 bd
       -0.06373455 0.16377498 -0.037829734 -0.059381057
0002a0 d9 e1 74 bd 80 3b 75 bd 47 c2 97 3d cd 52 60 3e
       -0.059785698 -0.059871197 0.07410102 0.21906586
0002b0 2d 34 3c be e5 b6 02 be dc 54 af bd 35 27 c1 bc
       -0.18379278 -0.12765081 -0.085611075 -0.023578266
0002c0 14 e8 d7 bc c5 73 1b 3c 7b e3 3c be 75 d2 94 bb
       -0.02635578 0.009488051 -0.18446152 -0.00454169
0002d0 85 5c 1a 3e 48 8d f0 3b 99 09 c3 bd 50 97 a5 3d
       0.15074356 0.007341061 -0.09523315 0.08085501
0002e0 08 01 97 bd 07 3e bb bb 6e 61 1b bd 06 92 01 bc
       -0.073732436 -0.0057141813 -0.037934713 -0.00790835
0002f0 02 e8 58 bd 95 dd 40 3d 7d f9 34 be 18 86 22 bd
       -0.052955635 0.047086317 -0.17673297 -0.039678663
000300 24 33 3c 3e 33 6c 14 3e 53 c7 51 3d e4 92 00 3e
       0.18378884 0.144944 0.05121548 0.12556034
000310 d8 77 ab bd df 0d 01 be 90 7d e8 3c 99 9c c3 bc
       -0.08372468 -0.12602948 0.028380185 -0.023878383
000320 7b 5f 18 3e af 0d c7 bd 88 a7 ca bd ee 8d 3e 3d
       0.14880173 -0.09719407 -0.09895235 0.046522073
000330 c9 51 03 3e 30 bf 12 3d 71 df 04 bd 50 e6 95 bd
       0.12824167 0.03582686 -0.032439653 -0.07319319
000340 fb 47 a2 3d b8 dd fe 3c 07 7b 6a be 79 1b f5 bd
       0.079238854 0.031111583 -0.22898494 -0.119681306
000350 35 eb 88 bd fe e4 41 3c 7f 08 27 3e 82 d8 cb bd
       -0.06685487 0.011834381 0.16311835 -0.09953405
000360 ef 96 31 3e 1b cf 4a bc bb 64 f6 bb d6 06 ad 3c
       0.17342733 -0.012378479 -0.007519332 0.021121424
000370 f9 93 5d 3c 31 21 0b 3e 53 5e 1b be ba 3e f1 bd
       0.013524049 0.1358688 -0.151727 -0.11779542
000380 e1 b4 1f bd 74 17 53 3e f4 c4 a3 bd 6d 5d 4c 3e
       -0.03899086 0.20614415 -0.0799655 0.19957514
000390 a5 ed 94 bd 80 e4 24 be df 5d 91 3d 8c 25 f7 bd
       -0.072718896 -0.16102791 0.070979826 -0.120677084
0003a0 5c e2 f3 3c ab 0d 7f bd 53 f3 a4 3d 46 b0 a3 3d
       0.029771022 -0.062268894 0.08054223 0.07992606
0003b0 ee c0 a5 bc d7 62 24 be 84 1d 23 3e dc 39 18 bd
       -0.020233598 -0.1605333 0.15929228 -0.037164554
0003c0 16 fa 15 3e d0 11 04 be 2f 6c 8e bd 5b 26 b1 3d
       0.14646181 -0.1289742 -0.06954228 0.08649894
0003d0 30 cd 86 3d 14 64 23 3e 33 5e 00 3e 62 af da 3d
       0.06582105 0.15956146 0.12535934 0.10677983
0003e0 5b 03 06 3e 36 4a 9d bc b8 10 13 3e 0c 85 46 3d
       0.13087218 -0.019200426 0.14361846 0.048466727
0003f0 8a 22 01 3e 24 39 ac be 55 9d 95 3c f6 96 56 3d
       0.12610832 -0.33637345 0.018263498 0.05239006

network_body.linear_encoder.seq_layers.2.bias f4 [128]
000000 4c 89 85 39 d1 d5 a7 3b d3 1a 07 bc aa 73 75 3c
       0.0002547003 0.0051219244 -0.0082461415 0.01498119
000010 ed af 60 bb 4b 8d c8 3b 60 13 d8 bb b9 62 32 bb
       -0.0034284547 0.006120359 -0.0065941066 -0.0027219488
000020 51 0a b3 3b 30 a8 0a 3c 8c 06 81 3c 14 bd b8 bb
       0.0054638763 0.008462951 0.015750192 -0.0056377742
000030 7e b9 f3 bb 54 97 5b bb 1d b8 cc bb 61 7f 86 bb
       -0.007437884 -0.0033506947 -0.006247534 -0.00410454
000040 ce 68 3f 3c b0 3e 87 bb c1 1e 38 bc 44 1c 6d 3c
       0.011682702 -0.004127346 -0.011237801 0.014472071
000050 87 02 98 3c dd 21 0a bc 2a 3d 87 bb 10 05 26 3c
       0.018555893 -0.008430925 -0.0041271644 0.010133043
000060 eb 1a 97 b9 87 1c 32 bb 74 96 48 3c d3 e2 3d 3c
       -0.0002882102 -0.0027177648 0.012242902 0.011589724
000070 bd 12 ad bc 77 45 95 3b 6d c9 cc bb 74 98 71 3b
       -0.0211271 0.0045554 -0.0062495978 0.003686455
000080 eb 10 ae 3b 5b b8 74 bb 1c 46 b4 3c 6b 04 99 bc
       0.0053120754 -0.003734133 0.022006087 -0.018678864
000090 c0 35 aa bb f1 3b 6d bc 6f 9d 56 bc 46 4c db bb
       -0.005194396 -0.014479623 -0.0130990585 -0.006692442
0000a0 61 8a 21 3c 83 b0 12 38 da e2 bc 3b 6c 43 99 bb
       0.009859652 3.4973502e-05 0.0057643475 -0.0046772268
0000b0 33 88 26 3a b9 fe b2 3b cb 55 55 bc a2 a9 74 bb
       0.0006352693 0.005462494 -0.013020943 -0.0037332554
0000c0 44 82 55 3c 92 14 69 bc 7b 96 79 3b fe 12 28 3b
       0.013031546 -0.014226096 0.0038084078 0.0025646086
0000d0 f7 a7 5a 3c 53 e5 7c 3a 13 0a d7 bb cc 2a ad bb
       0.01334571 0.0009647209 -0.0065624802 -0.005284643
0000e0 a2 9d 48 bb db 05 69 3b f7 37 92 ba 7a e8 32 bb
       -0.0030611535 0.0035556469 -0.0011155595 -0.0027299211
0000f0 73 9a e3 bb 09 a9 b9 3a ae c7 32 3c 3b 15 4e bc
       -0.006945902 0.0014164756 0.010911865 -0.012578304
000100 1b 7f dc 3a 81 43 31 3c 37 e5 3f bb fa ef 5c bc
       0.0016822548 0.010819317 -0.002928091 -0.013484949
000110 cd d2 59 3a 1b f0 61 3c be fb 53 bb 39 cd d3 bb
       0.0008309305 0.013790156 -0.0032346095 -0.0064636734
000120 87 3b ee 3b 13 ac 3e 3c 0c 40 8b bb 62 ba 5a bc
       0.00727028 0.011637705 -0.0042495783 -0.013350101
000130 e8 a5 72 bb 61 7a 34 39 a4 a3 cc bb a9 63 9e 39
       -0.0037025157 0.00017211727 -0.0062450934 0.0003021036
000140 b8 6c 61 3c e8 d2 7e bb c1 92 2d bc 00 df 9c bc
       0.013758831 -0.0038883034 -0.010594071 -0.019149303
000150 4d 88 67 bc b7 38 93 bc 93 0f 3e 3b d5 4e fa bb
       -0.014131618 -0.01797138 0.0029000982 -0.007638792
000160 7a 9b 69 bc c9 66 c5 39 53 2f 00 3c 27 c4 10 bc
       -0.01425826 0.0003765135 0.007823783 -0.008835829
000170 9e b5 c4 bb 6d 68 a4 bc 46 fb 17 bc f9 e5 e0 bb
       -0.006003096 -0.020069325 -0.009276217 -0.0068633524
000180 7c 5e 36 bb 0a 5f a8 3a be 87 60 bc 4a 6d 3c 3c
       -0.0027827313 0.0012845707 -0.013704238 0.011500666
000190 07 a3 e0 3b b7 f6 40 3b cd 76 5d bc 81 81 2b ba
       0.006855372 0.0029443929 -0.013517094 -0.000654243
0001a0 dd fb 67 bc 3a fd 2a bb ae 8d fa bb 74 b9 a6 bc
       -0.01415917 -0.0026090876 -0.007646284 -0.020352103
0001b0 d2 e8 d9 bb a4 60 5c 3c 09 b1 46 bc 6b 2b 80 bb
       -0.006650069 0.013450775 -0.012127169 -0.003911426
0001c0 6a 23 1e 3c 14 f7 fc 3b 2d f8 da 39 00 29 b6 bb
       0.009651998 0.0077198837 0.00041765106 -0.005559087
0001d0 5e 9f f0 3b bb 79 94 ba 2c fb 99 bc e0 2e 05 3b
       0.007343217 -0.0011327782 -0.018796526 0.002032213
0001e0 c7 88 4b 3c 63 3a bb ba a5 2e f7 3b 80 b5 23 bc
       0.012422747 -0.0014284368 0.0075434023 -0.009992003
0001f0 9d 62 83 bc 26 1c f7 3a 1a c6 26 3c 49 c3 0d 3b
       -0.016038233 0.0018852993 0.010179067 0.0021631292

network_body.linear_encoder.seq_layers.2.weight f4 [128, 128]
000000 c6 b2 2b bd 91 38 85 bd 0f 9b 99 bd d3 09 ac 3c
       -0.04191854 -0.0650493 -0.07500278 0.021000778
000010 1a cb b4 3c 2a 8c ea bc e3 88 af bd 68 52 10 3e
       0.022069503 -0.028631289 -0.08571031 0.14093935
000020 64 26 9f bd 88 48 3a 3d a3 e0 c3 bc 12 25 04 3e
       -0.07770994 0.045479327 -0.023910826 0.12904766
000030 cb 9d 2a 3d 7d 74 ba bd 04 bd 3f 3c 9c 79 12 3a
       0.04165439 -0.091042496 0.01170278 0.0005587579
000040 20 74 ac bd 75 64 fb 3d 28 52 bf 3d 6e 26 08 bd
       -0.084205866 0.1227502 0.09341842 -0.033239774
000050 5b 64 6a bc 7c ca d4 bd 81 b6 35 bd 90 73 b7 bd
       -0.014306153 -0.10390183 -0.044363502 -0.08957589
000060 45 dd 7b 3d c9 b5 bf 3d 77 b9 50 bd 6f a0 ea bd
       0.061490316 0.09360845 -0.050958123 -0.114563815
000070 3c c9 82 3d 96 fc f6 bc 1c 67 2a bc 52 d7 62 3d
       0.06386039 -0.03014974 -0.01040056 0.055381127
000080 06 76 60 3d 58 7c b7 3d 70 2c fb bd 91 e2 c4 bc
       0.054800056 0.089592636 -0.12264335 -0.024033817
000090 e0 bf 14 3e cf d8 6e bc 6b 82 86 3d 59 5c f0 bd
       0.1452632 -0.014578058 0.06567844 -0.11736364
0000a0 0f 4c ca bd 7d e0 3b 3d 71 60 e7 bc ce 18 bd 3c
       -0.09877788 0.045868386 -0.028244229 0.023083117
0000b0 3f 57 46 bc aa 57 8c 3c ef 93 1e be 36 69 d7 bd
       -0.012105762 0.017131645 -0.1548612 -0.10518114
0000c0 a4 33 c7 3c aa 84 80 3d e7 78 65 3c e1 62 10 bd
       0.024316616 0.06275304 0.014005876 -0.03525055
0000d0 2e 9b 81 bc da 35 29 3d 2d fe b5 bd eb d6 de bd
       -0.015821066 0.041311122 -0.08886371 -0.10880836
0000e0 85 2c 1a 3d f1 ec 09 3e 2e b3 c5 bd 33 37 a4 3d
       0.037640113 0.13469292 -0.096533164 0.08018341
0000f0 b5 11 12 be 66 43 0a 3e 7f c2 0f 3d 73 d0 3b bd
       -0.14264567 0.13502273 0.035097595 -0.04585309
000100 b0 4e 08 bd 48 7a c4 bd f4 b9 1f bd b8 59 32 3d
       -0.033278167 -0.09593636 -0.038995698 0.043542594
000110 88 82 3f 3c a9 6c 9e 3c 37 8b fd bd 8d 90 e2 3d
       0.011688836 0.019338923 -0.12380069 0.11062727
000120 24 9f 4b 3c cc 2f 88 bd c8 fd c1 3d 2f 5a 0c 3d
       0.012428079 -0.066497415 0.09472233 0.034265693
000130 24 20 16 3c c6 41 3a bd f0 99 67 bd 47 20 80 bd
       0.009162936 -0.045472883 -0.05654329 -0.062561564
000140 8f 4c a0 bc 5a c6 96 bd 65 f0 76 3d ab 88 68 bd
       -0.019567756 -0.07362051 0.06028785 -0.05677096
000150 ff 0f 1e bc 44 83 61 3d ef 01 d4 3a 1f 14 e0 bd
       -0.009647368 0.055056825 0.0016174893 -0.10941338
000160 45 98 66 bd 42 f9 d0 bd 38 4a 1b be 28 2d 98 bd
       -0.05629756 -0.10203792 -0.15165031 -0.07430488
000170 00 9c 5e bd 4f 71 f0 bd f7 15 a5 3d 9a f6 f3 3c
       -0.054347992 -0.11740362 0.0806083 0.029780675
000180 b0 4c 47 bd 92 d9 18 bd 74 ca c1 bc e6 a9 1e 3e
       -0.04865712 -0.037316866 -0.023656107 0.15494499
000190 5b 25 61 bd 5a a3 aa bd 7c 53 96 bb fc bf 52 3d
       -0.054967266 -0.08331938 -0.004587589 0.05145262
0001a0 7c a1 b7 bc 2f df 32 be 2a 46 36 bd 25 69 f6 3c
       -0.022415869 -0.1746795 -0.044500507 0.030079434
0001b0 c3 7e 80 bd 92 32 00 3e 25 a3 19 3d ee 4e b9 3c
       -0.06274178 0.12519291 0.037509102 0.022620644
0001c0 dd e1 eb 3c 02 0a f9 bd 27 71 e0 3c 68 87 0d be
       0.028794223 -0.12160112 0.027397705 -0.13821185
0001d0 bc 2b 31 bd ac 30 a5 3d 1c 46 82 3d db fc 1c bd
       -0.0432546 0.08065924 0.063610286 -0.03832708
0001e0 40 a1 c8 3d dd f5 2d 3d 41 c8 ff bc 45 9e 3d bd
       0.09796381 0.0424708 -0.031223418 -0.046293516
0001f0 f6 dc 8a bd 46 90 cd 3d 79 d5 8d bd 66 d0 04 be
       -0.06780426 0.100372836 -0.06925482 -0.12970123
000200 19 75 66 3d 77 2c 02 3d e7 f3 60 bd 9b 3e 3e 3d
       0.056264017 0.031780686 -0.054920103 0.046446424
000210 5f c8 9c bd 15 d2 55 3c 64 cd 85 3b aa d5 40 3c
       -0.07655405 0.013050576 0.0040833224 0.0117696915
000220 55 7a 9d bd 61 48 86 bc bf b0 05 be 9d b0 b1 bd
       -0.076893486 -0.016391935 -0.13055705 -0.086762644
000230 f9 04 1a bd 87 ca 5e bc 17 a5 2e bd 02 b6 25 3d
       -0.0376024 -0.013598091 -0.04263791 0.04045678
000240 20 e2 f1 3c d7 df 35 3d 2b 41 cf bc b1 58 77 bd
       0.02952677 0.044402923 -0.02529963 -0.060387317
000250 81 a1 44 3c fe 25 7a be 91 b6 15 be 2e 41 bf 3c
       0.012001396 -0.24428555 -0.14620425 0.02334651
000260 5d 84 3e 3e 58 0b 0d be a8 d0 1d be 49 7a 6a bd
       0.1860518 -0.13773859 -0.15411627 -0.057245526
000270 43 26 88 3b 8b b9 12 bd d5 fb c7 bd 33 02 31 bd
       0.004154952 -0.03582148 -0.0976483 -0.043214988
000280 54 3a 00 3e 8e 66 18 be 4d 03 a6 bc f5 d6 98 3d
       0.1252225 -0.14882872 -0.020265246 0.07462875
000290 c1 52 8a bd 2f 70 98 bd 67 c4 5e 3e 0a cf f4 3d
       -0.06754065 -0.07443272 0.21754609 0.11953552
0002a0 c9 80 c0 3d 16 6f 91 bd 08 77 69 bc a8 30 f7 3d
       0.09399564 -0.07101266 -0.014249571 0.12069827
0002b0 3a f9 6f be f6 b8 2d 3c 80 6b 88 3d 41 00 f3 b9
       -0.23434916 0.01060318 0.06661129 -0.0004634876
0002c0 02 01 60 3d 91 ce 57 3e cb f3 ae 3d 52 15 41 3c
       0.05468846 0.21074893 0.085425936 0.011784868
0002d0 3c f4 14 be 4f d7 63 bd 8f 8c 16 3d 47 83 23 3d
       -0.14546293 -0.055625256 0.03675514 0.039920118
0002e0 fc 78 96 3d 00 1d 1a 3e 15 af 82 bd 4d fe e9 bc
       0.07347295 0.15050125 -0.063810505 -0.028563643
0002f0 70 dc eb bd e0 e1 4d 3d af 46 45 3d 4d 16 13 be
       -0.115166545 0.05026424 0.048163112 -0.14363976
000300 d8 2b 1c 3d 3d db 64 3e 5f e2 a9 3d d3 17 bf 3d
       0.03812775 0.22349258 0.0829513 0.09330716
000310 4c aa 9e be 79 51 b0 3d 72 b7 cb bc de 70 0f bd
       -0.309893 0.0860929 -0.024867747 -0.035019748
000320 c0 81 cc 3d 7d b9 a7 bc f8 c7 6c be 5d 67 aa bd
       0.09985685 -0.02047419 -0.23123157 -0.08320496
000330 c5 0c ca ba 13 cc 5b 3d cc 79 e3 3d 63 6e 82 3d
       -0.0015415183 0.053661417 0.11107215 0.06368711
000340 66 2b b6 3d 45 0d b2 bd 0f 16 96 bc 8b af ff bd
       0.08894996 -0.08693937 -0.018321065 -0.12484654
000350 97 95 a6 bd 26 7b 99 bc ae a7 49 bd 66 d8 9e 3d
       -0.08134001 -0.01873548 -0.049232177 0.077561185
000360 9f 6d 6f bd 82 d8 91 bd fa 0d 9c 3c 35 1f 30 bc
       -0.058454152 -0.07121374 0.019049633 -0.010749628
000370 fd ac b4 bd 11 a1 6f bd fc ee 46 bd df 60 ce 3d
       -0.088220574 -0.058503214 -0.048567757 0.100770704
000380 a4 f0 d0 bd ee 5e 30 3e a9 45 29 ba 9f 63 0a 3e
       -0.102021486 0.17223713 -0.00064572186 0.13514565
000390 f5 25 0a 3d aa 6c 5c bd d3 63 7c bd bd c7 65 3d
       0.033727605 -0.053814568 -0.061618637 0.05609869
0003a0 2a 6b 86 3c 5c 10 bb 3c ad 1e 8b bc c2 d9 ae bd
       0.016408522 0.02283495 -0.0169824 -0.08537628
0003b0 b3 64 3b 3d 6b 5a b1 3d c3 bf da 3b 6a 9a eb 3d
       0.04575033 0.08659824 0.006675692 0.115040615
0003c0 5d ba c4 3c 69 76 3d bd ce 8c 53 bd df df bc bd
       0.024014646 -0.046255503 -0.051647954 -0.092223875
0003d0 db c5 63 3d 3a ac b3 3d 37 2f 9f bd f3 f9 2e bd
       0.05560861 0.08773084 -0.077726774 -0.04271884
0003e0 9c c5 1a 3c f1 cc 6e 3d bc db 4b 3d 1c 58 ce bd
       0.009446528 0.058300916 0.049770102 -0.10075399
0003f0 cc a7 9a 3d 9e 8d 83 bc 95 f6 9c 3d b6 2c 70 39
       0.07551536 -0.01605874 0.07664219 0.0002290484
