Learning/results/test_double1/KartAgent.onnx (onnx, 108225 bytes, 7 tensors)

39 f4 [1, 2]
0.0 0.0
00000000: 0000 0000 0000 0000

distribution.mu.bias f4 [2]
0.0 0.0
00000000: 0000 0000 0000 0000

distribution.mu.weight f4 [2, 128]
0.023297701 0.01758274 0.04124709 -0.0055352766 0.036208425 -0.012937287 -0.030314708 -0.0018933518
-0.0013799217 -0.010112333 -0.012259078 0.013547379 -0.012748564 0.0003672032 -0.0009925273 0.034896776
0.024164677 -0.021597935 0.025877912 -0.016917503 -0.014239632 -0.018999143 -0.0035292467 -0.01679252
-0.017970545 0.018665291 0.037242796 0.013429763 -0.0013934774 0.011583286 0.002761367 -0.011674686
-0.0028280455 0.02053455 0.004352865 -0.005458861 0.019410484 0.02230043 -0.006131708 -0.0064066323
-0.005057336 -0.022612786 0.0049506375 0.008624486 -0.0036028351 0.010467241 -0.009853317 0.012518044
-0.008120992 0.00737134 0.0046025603 -0.014980703 0.0017276452 0.0052308347 -0.0015768027 -0.014553403
-0.012388749 0.00051516487 0.016216816 0.037030444 -0.002705989 -0.023163373 0.0017134171 0.030285755
0.025265232 0.01438583 0.009761163 0.030474378 -0.017150007 0.010007213 -0.0059726224 -0.019712664
-0.013467913 0.011454242 0.0024427164 -0.0011033447 0.020160507 0.01074713 -0.005193488 -0.033197667
0.010432842 0.024429983 0.010917096 -0.0055296663 -0.0126018375 -0.006642781 -0.0013722554 0.028998757
0.043370396 -0.010722072 0.011962054 -0.010938416 -0.012520054 -0.011755686 0.01629096 -0.008663527
0.02618604 0.010902873 0.006300577 0.02128963 -0.030270223 -0.04060255 -0.029161101 -0.009422376
-0.024540521 0.0028867973 0.039579988 0.0019175543 -0.013740602 0.0055881604 0.002792577 0.017473182
-0.013923033 -0.004543114 0.0068687326 0.010965764 -0.012192536 0.016277647 0.009271455 -0.00028674112
-0.0025170527 0.026840923 0.015299737 0.031591855 -0.014415887 -0.016512325 -0.024442201 -0.024196273
-0.002660237 0.013522111 -0.007048043 -0.023153827 -0.0056375787 0.0005066689 0.0037273155 -0.009664418
-0.015643664 -0.002055718 0.0018511588 -0.016580287 0.0014965702 -0.02469449 -0.018623607 -0.005985963
-0.015406425 0.010477644 0.012680194 -0.03099415 0.023566848 0.011034279 0.0144735575 -0.0011031841
-0.029627083 0.03673501 -0.02632804 -0.030317625 -0.013306732 -0.008703181 0.0061267535 0.0018699889
0.0013360649 0.023197189 -0.02030587 -0.0037607562 -0.024817666 0.009660959 -0.005686647 0.0019970536
-0.009235742 0.044317745 0.0204818 -0.008320357 0.015773363 -0.01624775 -0.019062828 0.01682437
-0.013126249 -0.009050163 -0.0075000236 -0.024509212 0.011906857 0.0020986013 0.017425684 0.030714158
0.0024587365 -0.015659593 0.02865837 -0.022190085 -6.998012e-05 0.0024127285 -0.008236936 -0.020011306
-0.023262355 -0.00061741204 -0.010433645 0.012156289 0.006499515 -0.0044546607 -0.010362499 -0.0056322482
-0.022507662 -0.0025538371 -0.023544682 0.0342019 0.00022133533 0.0067348466 0.01230301 0.008376015
0.014354355 0.02581018 0.012300159 -0.017553424 0.012611235 0.012170926 0.00088410836 -0.0022012985
0.0075772665 -0.005329554 0.0048384946 0.003052118 -0.012604463 -0.009664478 0.032065473 -0.014514366
-0.02039381 -0.018356254 -0.0071767615 0.0004610349 -0.0063363607 -0.009558137 -0.037048925 0.016257185
-0.0031445695 -0.009727619 0.011195151 -0.015319988 0.01669787 -0.021765897 0.00922259 0.021281956
-0.017041458 -0.0061203577 -0.021550922 0.017709555 -0.014257661 -0.0028528443 -0.020161984 0.036747035
-0.018739415 -0.034410756 -0.0012875822 0.022044754 -0.0054832133 0.0016100068 -0.04045593 0.01262893
00000000: d2da be3c ae09 903c b5f2 283d 4461 b5bb
00000010: 494f 143d eaf6 53bc 8d56 f8bc 582a f8ba
00000020: 7dde b4ba 33ae 25bc 4dda 48bc d3f5 5d3c
00000030: 5adf 50bc 2e85 c039 b117 82ba ecef 0e3d
00000040: 00f5 c53c 27ee b0bc eafd d33c 9396 8abc
00000050: 584d 69bc 17a4 9bbc ef4a 67bb 7890 89bc
00000060: f736 93bc f4e7 983c e78b 183d 8208 5c3c
00000070: 58a5 b6ba d3c7 3d3c 0df8 343b 2f47 3fbc
00000080: bb56 39bb 1338 a83c 7aa2 8e3b 3fe0 b2bb
00000090: bc02 9f3c 64af b63c 7fec c8bb baee d1bb
000000a0: 02b8 a5bb 733e b9bc f538 a23b b74d 0d3c
000000b0: 8b1d 6cbb ca7e 2b3c cf6f 21bc 7b18 4d3c
000000c0: e90d 05bc 488b f13b 13d1 963b 9f71 75bc
000000d0: 2772 e23a 6c67 ab3b b8ac ceba 6571 6ebc
000000e0: 2efa 4abc 210c 073a 21d9 843c 3cad 173d
000000f0: f656 31bb 1dc1 bdbc bd94 e03a d519 f83c
00000100: 08f9 ce3c 8bb2 6b3c 49ed 1f3c 67a5 f93c
00000110: 2c7e 8cbc 4bf5 233c fdb5 c3bb 747c a1bc
00000120: 85a8 5cbc 93aa 3b3c fb15 203b 1b9e 90ba
00000130: a627 a53c bb14 303c 232e aabb 47fa 07bd
00000140: 83ee 2a3c 6321 c83c 9fdd 323c 3432 b5bb
00000150: f077 4ebc b0ab d9bb 40dd b3ba cd8e ed3c
00000160: 28a5 313d a1ab 2fbc 7efc 433c 0b37 33bc
00000170: ea20 4dbc ec9a 40bc 9f74 853c 77f1 0dbc
00000180: 1b84 d63c f7a1 323c 1275 ce3b 9767 ae3c
00000190: 42f9 f7bc dc4e 26bd 43e3 eebc 4f60 1abc
000001a0: 3409 c9bc 6c30 3d3b a01e 223d 7256 fb3a
000001b0: 4320 61bc e31c b73b ab03 373b eb23 8f3c
000001c0: 6f1d 64bc 67de 94bb 1b13 e13b bfa9 333c
000001d0: 34c3 47bc b358 853c 4de7 173c be55 96b9
000001e0: 23f5 24bb 7fe1 db3c c0ab 7a3c 7666 013d
000001f0: 9d30 6cbc db44 87bc 033b c8bc 4337 c6bc
00000200: 5f57 2ebb d88b 5d3c 45f3 e6bb 18ad bdbc
00000210: 70bb b8bb f9d1 043a fa45 743b 8257 1ebc
00000220: 2427 80bc 3ab9 06bb 95a2 f23a 62d3 87bc
00000230: 9028 c43a 194c cabc 8990 98bc e625 c4bb
00000240: 3b6b 7cbc 6daa 2b3c 97c0 4f3c 72e7 fdbc
00000250: 430f c13c 1fc9 343c 8022 6d3c b798 90ba
00000260: 7fb4 f2bc 7377 163d e7ad d7bc ab5c f8bc
00000270: 7b04 5abc c997 0ebc efc2 c83b 6a1a f53a
00000280: e61e af3a 0808 be3c 7f58 a6bc 0577 76bb
00000290: 6b4e cbbc 0049 1e3c 0d57 babb 00e1 023b
000002a0: 8251 17bc 8686 353d 73c9 a73c 1b52 08bc
000002b0: 2437 813c 001a 85bc a629 9cbc 43d3 893c
000002c0: 7b0f 57bc 2347 14bc c2c2 f5bb 8bc7 c8bc
000002d0: fa14 433c b088 093b 4fc0 8e3c 429c fb3c
000002e0: c122 213b 8c48 80bc f5c4 ea3c fbc7 b5bc
000002f0: 4ac2 92b8 de1e 1e3b 37f4 06bc c0ee a3bc
00000300: b290 bebc d2d9 21ba e1f1 2abc 2c2b 473c
00000310: e2f9 d43b 67f8 91bb 79c7 29bc b98e b8bb
00000320: fd61 b8bc 475e 27bb c7e0 c0bc 4b17 0c3d
00000330: 4016 6839 fdaf dc3b 9092 493c 8e3b 093c
00000340: 872e 6b3c df6f d33c 9b86 493c 33cc 8fbc
00000350: 5a9f 4e3c 9068 473c 82c3 673a a943 10bb
00000360: b84a f83b 8aa3 aebb 3c8c 9e3b 0b06 483b
00000370: f382 4ebc c257 1ebc 1657 033d aacd 6dbc
00000380: eb10 a7bc db5f 96bc 0a2b ebbb 0fb7 f139
00000390: 3fa1 cfbb bb99 1cbc 9dc0 17bd ca2d 853c
000003a0: 1f15 4ebb 9760 1fbc de6b 373c b000 7bbc
000003b0: f9c9 883c 654e b2bc 591a 173c 7f57 ae3c
000003c0: 879a 8bbc 488d c8bb 8f8b b0bc a113 913c
000003d0: f798 69bc c9f6 3abb bf2a a5bc 0f84 163d
000003e0: 6783 99bc 4bf2 0cbd 17c4 a8ba 3397 b43c
000003f0: 87ac b3bb dd06 d33a 1eb5 25bd 92e9 4e3c

network_body.linear_encoder.seq_layers.0.bias f4 [128]
0.0 0.0 0.0 0.0 0.0 0.0 0.0 0.0
0.0 0.0 0.0 0.0 0.0 0.0 0.0 0.0
0.0 0.0 0.0 0.0 0.0 0.0 0.0 0.0
0.0 0.0 0.0 0.0 0.0 0.0 0.0 0.0
0.0 0.0 0.0 0.0 0.0 0.0 0.0 0.0
0.0 0.0 0.0 0.0 0.0 0.0 0.0 0.0
0.0 0.0 0.0 0.0 0.0 0.0 0.0 0.0
0.0 0.0 0.0 0.0 0.0 0.0 0.0 0.0
0.0 0.0 0.0 0.0 0.0 0.0 0.0 0.0
0.0 0.0 0.0 0.0 0.0 0.0 0.0 0.0
0.0 0.0 0.0 0.0 0.0 0.0 0.0 0.0
0.0 0.0 0.0 0.0 0.0 0.0 0.0 0.0
0.0 0.0 0.0 0.0 0.0 0.0 0.0 0.0
0.0 0.0 0.0 0.0 0.0 0.0 0.0 0.0
0.0 0.0 0.0 0.0 0.0 0.0 0.0 0.0
0.0 0.0 0.0 0.0 0.0 0.0 0.0 0.0
00000000: 0000 0000 0000 0000 0000 0000 0000 0000
00000010: 0000 0000 0000 0000 0000 0000 0000 0000
00000020: 0000 0000 0000 0000 0000 0000 0000 0000
00000030: 0000 0000 0000 0000 0000 0000 0000 0000
00000040: 0000 0000 0000 0000 0000 0000 0000 0000
00000050: 0000 0000 0000 0000 0000 0000 0000 0000
00000060: 0000 0000 0000 0000 0000 0000 0000 0000
00000070: 0000 0000 0000 0000 0000 0000 0000 0000
00000080: 0000 0000 0000 0000 0000 0000 0000 0000
00000090: 0000 0000 0000 0000 0000 0000 0000 0000
000000a0: 0000 0000 0000 0000 0000 0000 0000 0000
000000b0: 0000 0000 0000 0000 0000 0000 0000 0000
000000c0: 0000 0000 0000 0000 0000 0000 0000 0000
000000d0: 0000 0000 0000 0000 0000 0000 0000 0000
000000e0: 0000 0000 0000 0000 0000 0000 0000 0000
000000f0: 0000 0000 0000 0000 0000 0000 0000 0000
00000100: 0000 0000 0000 0000 0000 0000 0000 0000
00000110: 0000 0000 0000 0000 0000 0000 0000 0000
00000120: 0000 0000 0000 0000 0000 0000 0000 0000
00000130: 0000 0000 0000 0000 0000 0000 0000 0000
00000140: 0000 0000 0000 0000 0000 0000 0000 0000
00000150: 0000 0000 0000 0000 0000 0000 0000 0000
00000160: 0000 0000 0000 0000 0000 0000 0000 0000
00000170: 0000 0000 0000 0000 0000 0000 0000 0000
00000180: 0000 0000 0000 0000 0000 0000 0000 0000
00000190: 0000 0000 0000 0000 0000 0000 0000 0000
000001a0: 0000 0000 0000 0000 0000 0000 0000 0000
000001b0: 0000 0000 0000 0000 0000 0000 0000 0000
000001c0: 0000 0000 0000 0000 0000 0000 0000 0000
000001d0: 0000 0000 0000 0000 0000 0000 0000 0000
000001e0: 0000 0000 0000 0000 0000 0000 0000 0000
000001f0: 0000 0000 0000 0000 0000 0000 0000 0000

network_body.linear_encoder.seq_layers.0.weight f4 [128, 76]
-0.022830067 0.08780091 -0.059315413 0.14279753 -0.06873074 -0.07099486 0.061901603 -0.21033508
0.0765342 0.009843177 -0.057083625 -0.05987046 -0.07625155 0.0626975 0.090250894 0.09457609
0.14245723 -0.026732298 0.17765711 -0.11310386 0.036212273 0.099678285 0.04318544 -0.16247468
0.070268296 0.13103384 0.021304546 -0.028972832 0.00046815176 0.11687302 -0.15894152 0.07849895
-0.1236631 0.07626489 0.04737436 0.15950283 0.06549425 -0.07268011 -0.050572433 -0.10984736
0.0052201734 0.072354026 -0.14620258 -0.019346206 -0.3092316 0.050653357 0.24872501 0.14792167
0.13678645 0.11521355 0.089804925 0.15507683 -0.12569934 -0.18818343 0.049501915 0.015380867
-0.018578188 0.06118586 0.0894106 0.25479364 -0.0866323 -0.021515474 0.14073761 0.13770275
0.025367182 0.23021723 -0.011534802 -0.026136143 0.062888175 0.01944814 0.0895028 -0.15123004
-0.024930732 -0.018577132 -0.09140119 -0.13808133 0.07883148 -0.116258934 -0.13024612 -0.026617939
-0.13205998 0.06861886 0.028005807 0.20284086 0.06624474 0.02678116 0.23121086 0.045411646
-0.057687733 0.049791064 0.07010876 0.25150067 -0.06374803 -0.044898257 0.0636779 -0.10085638
0.13661858 -0.023763081 -0.04150717 0.02581794 -0.07172174 0.0132423155 0.13949195 -0.26511094
0.090957925 -0.06919218 0.13293986 -0.057409108 0.083827615 0.030073924 -0.053138625 -0.061252348
-0.034550898 -0.11320482 0.10013863 -0.10248772 0.33525455 -0.1051865 -0.12554073 -0.047954027
0.016712956 -0.019360239 0.16074893 0.1912615 0.124288425 -0.050900508 -0.09291514 0.040626775
-0.056345887 0.03272101 -0.083961524 0.10237218 -0.21095224 -0.0057802824 -0.06413107 0.09809404
-0.10119276 -0.09691216 -0.056941953 -0.10347214 0.1700084 0.072388455 0.21854036 0.055644184
-0.06099911 -0.0801426 0.026638981 0.08834537 0.18865174 0.057774708 0.1748017 0.045830045
0.12711404 -0.06756233 -0.038641714 0.014875358 -0.120207496 0.01992686 -0.009879805 -0.020814834
-0.013218617 0.0058235754 -0.096652724 -0.19091472 -0.067961924 -0.095653094 -0.12396432 -0.048648953
0.014384921 0.18421172 0.026286779 0.068127885 -0.12469319 0.043449014 -0.1351925 -0.16607895
0.16757432 0.15466942 -0.032171614 0.049778353 0.18412928 -0.08460838 -0.05707021 -0.03740773
0.058209673 0.1272805 0.013530797 0.113051474 -0.053038023 -0.09712291 0.05476439 0.03532965
0.091944955 -0.07280166 0.025906684 0.019609997 -0.08493815 -0.11883895 0.0106528085 0.04468022
-0.041301146 0.16379657 -0.055439536 -0.067183174 -0.05032949 0.043083392 -0.14313602 -0.15315993
-0.1629162 -0.1605068 0.20329034 -0.103726454 0.181479 0.029699735 -0.1912272 -0.11804185
0.06290358 0.08982816 -0.032257352 -0.02307576 -0.092811525 -0.13134444 -0.09585642 -0.054754768
-0.029692313 0.07455877 -0.21709915 0.100365445 -0.035247907 -0.07467171 0.057737134 -0.09056517
0.025464416 -0.052880697 0.13464005 0.0639265 -0.08329835 0.0626105 -0.022858815 0.016242724
0.00061608973 0.16921702 0.2332188 -0.12021 0.10234346 -0.0014290351 -0.14074449 0.13273025
0.12236429 0.052048188 0.07734835 0.09888524 -0.12678717 0.0058959327 -0.028437084 0.039723594
00000000: 1f06 bbbc f7d0 b33d b8f4 72bd 8439 123e
00000010: b4c2 8cbd c165 91bd 898c 7d3d 1462 57be
00000020: f6bd 9c3d 4745 213c 85d0 69bd ba3a 75bd
00000030: c629 9cbd 8c67 803d 76d5 b83d 1cb1 c13d
00000040: 4fe0 113e b1fd dabc bfeb 353e ffa2 e7bd
00000050: 5253 143d 2124 cc3d 37e3 303d c35f 26be
00000060: d3e8 8f3d bc2d 063e df86 ae3c 6f58 edbc
00000070: 4472 f539 1f5b ef3d 91c1 22be 0fc4 a03d
00000080: 1443 fdbd c430 9c3d 9e0b 423d b654 233e
00000090: d921 863d 4fd9 94bd 0a25 4fbd a7f7 e0bd
000000a0: fd0d ab3b 592e 943d 21b6 15be ef7b 9ebc
000000b0: 9b53 9ebe e579 4f3d c5b1 7e3e c778 173e
000000c0: bf11 0c3e 15f5 eb3d a5eb b73d 76cc 1e3e
000000d0: 54b7 00be 28b3 40be 85c2 4a3d 0800 7c3c
000000e0: 4931 98bc 069e 7a3d e81c b73d 5074 823e
000000f0: 466c b1bd 3841 b0bc 851d 103e f301 0d3e
00000100: d6ce cf3c 11be 6b3e 77fc 3cbc 771b d6bc
00000110: 84cb 803d b551 9f3c 3e4d b73d 0cdc 1abe
00000120: 893b ccbc 122f 98bc 8c30 bbbd 3165 0dbe
00000130: 6672 a13d 2a19 eebd 3d5f 05be dd0d dabc
00000140: bb3a 07be 0b88 8c3d 6f6c e53c 84b5 4f3e
00000150: 52ab 873d 2a64 db3c 8ac2 6c3e 9001 3a3d
00000160: f949 6cbd b7f1 4b3d 2e95 8f3d b2c4 803e
00000170: 548e 82bd 3ce7 37bd 8f69 823d ca8d cebd
00000180: bee5 0b3e cbaa c2bc 6c03 2abd 2580 d33c
00000190: d9e2 92bd 4cf6 583c fad6 0e3e 9fbc 87be
000001a0: 2648 ba3d a1b4 8dbd 6321 083e d025 6bbd
000001b0: d0ad ab3d 975d f63c e3a7 59bd bee3 7abd
000001c0: 3e85 0dbd eed7 e7bd 7b15 cd3d 15e5 d1bd
000001d0: 7ca6 ab3e 056c d7bd c08d 00be 716b 44bd
000001e0: 9ce9 883c 5d99 9ebc 5e9b 243e 0eda 433e
000001f0: ee8a fe3d 0d7d 50bd 4b4a bebd 4368 263d
00000200: f2ca 66bd 7706 063d 05f4 abbd 81a8 d13d
00000210: dd03 58be 8668 bdbb 2757 83bd 87e5 c83d
00000220: 263e cfbd e279 c6bd f73b 69bd 34e9 d3bd
00000230: af16 2e3e 6640 943d 0bc9 5f3e 28eb 633d
00000240: 34da 79bd ce21 a4bd fe39 da3c 6bee b43d
00000250: ec2d 413e 2ca5 6c3d 38ff 323e 49b8 3b3d
00000260: 2f2a 023e 1e5e 8abd c646 1ebd c6b7 733c
00000270: 592f f6bd a83d a33c e8de 21bc df83 aabc
00000280: e692 58bc b1d3 be3b ddf1 c5bd 267f 43be
00000290: 9f2f 8bbd c5e5 c3bd 01e1 fdbd 2044 47bd
000002a0: bbae 6b3c ffa1 3c3e 5f57 d73c a286 8b3d
000002b0: 255f ffbd 98f7 313d e76f 0abe 9a10 2abe
000002c0: 9a98 2b3e a961 1e3e 62c6 03bd 63e4 4b3d
000002d0: 638c 3c3e 2947 adbd 74c2 69bd d938 19bd
000002e0: 446d 6e3d d255 023e 47b0 5d3c 8887 e73d
000002f0: 663e 59bd 60e8 c6bd a050 603d d3b5 103d
00000300: a34d bc3d 0919 95bd 413a d43c 25a5 a03c
00000310: 0ef4 adbd d661 f3bd 1e89 2e3c 9b02 373d
00000320: 642b 29bd 4aba 273e 9114 63bd 5597 89bd
00000330: 4c26 4ebd 3678 303d 4092 12be f5d5 1cbe
00000340: 81d3 26be e55b 24be 582b 503e 896e d4bd
00000350: a2d5 393e dc4c f33c 10d1 43be edbf f1bd
00000360: 98d3 803d d4f7 b73d 4920 04bd 6009 bdbc
00000370: f813 bebd 287f 06be 5f50 c4bd 8946 60bd
00000380: 4b3d f3bc 45b2 983d 3d4f 5ebe 668c cd3d
00000390: 1c60 10bd 7bed 98bd c67d 6c3d 3b7a b9bd
000003a0: c09a d03c 6e99 58bd 15df 093e e6eb 823d
000003b0: 5398 aabd ef39 803d 6942 bbbc 760f 853c
000003c0: 1581 213a 3a47 2d3e e9d0 6e3e a930 f6bd
000003d0: 7399 d13d 764e bbba 531f 10be 70ea 073e
000003e0: 219a fa3d 7b30 553d d068 9e3d 5884 ca3d
000003f0: 7fd4 01be ab32 c13b e3f4 e8bc 35b5 223d

network_body.linear_encoder.seq_layers.2.bias f4 [128]
0.0 0.0 0.0 0.0 0.0 0.0 0.0 0.0
0.0 0.0 0.0 0.0 0.0 0.0 0.0 0.0
0.0 0.0 0.0 0.0 0.0 0.0 0.0 0.0
0.0 0.0 0.0 0.0 0.0 0.0 0.0 0.0
0.0 0.0 0.0 0.0 0.0 0.0 0.0 0.0
0.0 0.0 0.0 0.0 0.0 0.0 0.0 0.0
0.0 0.0 0.0 0.0 0.0 0.0 0.0 0.0
0.0 0.0 0.0 0.0 0.0 0.0 0.0 0.0
0.0 0.0 0.0 0.0 0.0 0.0 0.0 0.0
0.0 0.0 0.0 0.0 0.0 0.0 0.0 0.0
0.0 0.0 0.0 0.0 0.0 0.0 0.0 0.0
0.0 0.0 0.0 0.0 0.0 0.0 0.0 0.0
0.0 0.0 0.0 0.0 0.0 0.0 0.0 0.0
0.0 0.0 0.0 0.0 0.0 0.0 0.0 0.0
0.0 0.0 0.0 0.0 0.0 0.0 0.0 0.0
0.0 0.0 0.0 0.0 0.0 0.0 0.0 0.0
00000000: 0000 0000 0000 0000 0000 0000 0000 0000
00000010: 0000 0000 0000 0000 0000 0000 0000 0000
00000020: 0000 0000 0000 0000 0000 0000 0000 0000
00000030: 0000 0000 0000 0000 0000 0000 0000 0000
00000040: 0000 0000 0000 0000 0000 0000 0000 0000
00000050: 0000 0000 0000 0000 0000 0000 0000 0000
00000060: 0000 0000 0000 0000 0000 0000 0000 0000
00000070: 0000 0000 0000 0000 0000 0000 0000 0000
00000080: 0000 0000 0000 0000 0000 0000 0000 0000
00000090: 0000 0000 0000 0000 0000 0000 0000 0000
000000a0: 0000 0000 0000 0000 0000 0000 0000 0000
000000b0: 0000 0000 0000 0000 0000 0000 0000 0000
000000c0: 0000 0000 0000 0000 0000 0000 0000 0000
000000d0: 0000 0000 0000 0000 0000 0000 0000 0000
000000e0: 0000 0000 0000 0000 0000 0000 0000 0000
000000f0: 0000 0000 0000 0000 0000 0000 0000 0000
00000100: 0000 0000 0000 0000 0000 0000 0000 0000
00000110: 0000 0000 0000 0000 0000 0000 0000 0000
00000120: 0000 0000 0000 0000 0000 0000 0000 0000
00000130: 0000 0000 0000 0000 0000 0000 0000 0000
00000140: 0000 0000 0000 0000 0000 0000 0000 0000
00000150: 0000 0000 0000 0000 0000 0000 0000 0000
00000160: 0000 0000 0000 0000 0000 0000 0000 0000
00000170: 0000 0000 0000 0000 0000 0000 0000 0000
00000180: 0000 0000 0000 0000 0000 0000 0000 0000
00000190: 0000 0000 0000 0000 0000 0000 0000 0000
000001a0: 0000 0000 0000 0000 0000 0000 0000 0000
000001b0: 0000 0000 0000 0000 0000 0000 0000 0000
000001c0: 0000 0000 0000 0000 0000 0000 0000 0000
000001d0: 0000 0000 0000 0000 0000 0000 0000 0000
000001e0: 0000 0000 0000 0000 0000 0000 0000 0000
000001f0: 0000 0000 0000 0000 0000 0000 0000 0000

network_body.linear_encoder.seq_layers.2.weight f4 [128, 128]
-0.09413349 -0.05905757 0.03913707 -0.072649114 -0.091336064 -0.08952273 -0.1227821 0.027133323
-0.04088431 -0.07215021 0.05972149 0.08632122 -0.0077664433 -0.027278103 -0.09833087 0.0040694037
-0.10451499 -0.091995224 -0.08004092 0.026418911 -0.06236556 0.17477353 -0.039048262 -0.08336343
-0.044145618 0.020138538 0.025493424 -0.01306375 -0.01382594 -0.004387313 0.18456823 -0.06773287
-0.034965727 -0.006410034 0.05617789 -0.011303101 -0.06324357 0.02546092 -0.06716326 -0.13148853
-0.017011255 0.15665421 -0.07475608 0.022663603 -0.027451944 0.10101935 0.1308976 0.002002449
0.01253831 -0.044426076 -0.07392379 -0.14413506 -0.11391871 0.1292165 -0.20845325 0.1140246
0.050261565 0.02211013 0.07841005 0.014974603 0.18102844 -0.06972755 -0.026710562 0.10566866
-0.08149189 0.072786555 0.06256965 -0.12709232 0.0820588 0.0069216983 0.11366858 -0.0014168571
0.04514489 0.104676135 -0.0110968985 0.13013965 -0.10288267 -0.056732055 -0.076681234 -0.08254183
-0.024578603 -0.17828387 0.11713904 -0.053618558 -0.014292359 0.12829067 -0.13674733 0.053895533
0.06674966 -0.07208236 0.114889935 -0.026731981 -0.08584397 -0.09375171 -0.05463403 0.015970545
0.04987796 -0.066818446 -0.0032179756 -0.013454207 0.0415939 0.116711944 -0.002681558 -0.06542476
-0.07218154 -0.042130906 -0.043178275 -0.07509978 0.13196044 -0.14386205 0.07492149 -0.085787795
-0.09737928 0.056055997 0.092432104 -0.030100796 -0.0999769 0.12650003 0.03421611 -0.33380815
0.14078426 -0.021242168 0.09041017 0.060968224 0.15174569 0.04049 -0.081281915 -0.1462353
0.111837454 0.05010618 -0.15463243 -0.060784377 0.089611545 -0.008190558 0.14738937 0.0038002315
-0.14063117 -0.14669436 -0.08927457 0.0030028324 0.116483405 0.099181995 0.08220852 0.068378426
-0.1515313 0.060480356 0.10625585 -0.17419624 -0.037340377 0.047620375 -0.08597056 0.079480186
0.091671646 0.047337085 0.13892947 0.13417391 -0.099356644 -0.21945824 0.03351785 0.14776212
-0.022721251 -0.09401108 0.046275854 0.008914171 -0.19557178 -0.015492832 -0.053095154 -0.037789624
0.1465746 -0.013031038 0.056131788 -0.081286386 -0.0007315909 -0.11418584 0.14853074 -0.004020198
-0.06039992 0.16413587 -0.0188776 0.0337643 0.080073625 -0.13969466 -0.2728722 0.13570924
0.04372345 0.0040795757 0.030831428 -0.009376534 -0.15909097 -0.032481734 -0.11983235 0.088621564
-0.031335484 0.091008924 0.05862237 -0.045383308 -0.021737253 -0.11820187 -0.0030170644 -0.027587038
-0.031965144 -0.0055259108 -0.0469099 -0.03359758 -0.029452022 -0.030348035 -0.0051754 0.020206835
0.09481359 -0.11105556 -0.01618727 0.13224004 0.115990445 -0.103414014 -0.12507218 0.061982412
0.056527082 -0.03327374 -0.09957999 0.19843878 -0.056283455 -0.04146242 0.022835776 0.097420394
0.0069822483 0.15494373 -0.031461846 0.059699867 -0.048468158 0.10606623 -0.0064856326 -0.02404562
0.16389123 -0.109773375 0.06363002 0.13839425 -0.0029819144 0.06386873 -0.09228545 -0.08421086
-0.0096861655 0.07024164 -0.09251251 0.1143722 -0.09919866 0.05257809 0.11059022 0.027240483
0.06340906 -0.03736265 0.026754042 0.038916506 -0.029174095 0.018503219 -0.178185 -0.0030413594
00000000: 0fc9 c0bd 5ae6 71bd 314e 203d 0fc9 94bd
00000010: 670e bbbd b157 b7bd 2f75 fbbd b446 de3c
00000020: 4e76 27bd 7dc3 93bd 859e 743d 2ec9 b03d
00000030: a67d febb 5476 dfbc b261 c9bd a258 853b
00000040: f40b d6bd fe67 bcbd 7eec a3bd 796c d83c
00000050: 0873 7fbd d5f7 323e 12f1 1fbd 72ba aabd
00000060: 09d2 34bd 93f9 a43c 96d7 d03c 5709 56bc
00000070: 3286 62bc 73c3 8fbb 74ff 3c3e 88b7 8abd
00000080: 3938 0fbd 430b d2bb ca1a 663d a430 39bc
00000090: d885 81bd 6b93 d03c e48c 89bd eea4 06be
000000a0: 305b 8bbc f669 203e b719 99bd 05a9 b93c
000000b0: e6e2 e0bc 3ce3 ce3d 050a 063e 853b 033b
000000c0: 7c6d 4d3c 1ef8 35bd 5b65 97bd 2498 13be
000000d0: 364e e9bd 5551 043e c574 55be bb85 e93d
000000e0: 12df 4d3d 4e20 b53c 7395 a03d 0a58 753c
000000f0: 855f 393e 51cd 8ebd 1cd0 dabc cf68 d83d
00000100: 38e5 a6bd 1e11 953d 8424 803d 7d24 02be
00000110: 720e a83d 6acf e23b 13cb e83d d6b5 b9ba
00000120: d9e9 383d 7160 d63d c4cf 35bc 5443 053e
00000130: 26b4 d2bd df5f 68bd 0d0b 9dbd b10b a9bd
00000140: 1159 c9bc 0c90 36be 98e6 ef3d 229f 5bbd
00000150: 802a 6abc a15e 033e 7e07 0cbe 90c1 5c3d
00000160: 0cb4 883d eb9f 93bd 6a4b eb3d 07fd dabc
00000170: f7ce afbd e600 c0bd efc7 5fbd a9d4 823c
00000180: d54c 4c3d 1cd8 88bd ace4 52bb 096f 5cbc
00000190: 5e5e 2a3d ac06 ef3d 14bd 2fbb 6bfd 85bd
000001a0: ead3 93bd 7591 2cbd b4db 30bd eacd 99bd
000001b0: a320 073e 9350 13be 7070 993d 83b1 afbd
000001c0: ca6e c7bd f99a 653d 0b4d bd3d f295 f6bc
000001d0: b0c0 ccbd 3989 013e 3126 0c3d e7e8 aabe
000001e0: c029 103e 0e04 aebc f828 b93d d1b9 793d
000001f0: 3963 1b3e d8d8 253d 2277 a6bd b5be 15be
00000200: 090b e53d 233c 4d3d f757 1ebe 0af9 78bd
00000210: 4286 b73d b131 06bc 3ded 163e 4e0d 793b
00000220: 9e01 10be 0c37 16be 96d5 b6bd 2bcb 443b
00000230: da8e ee3d ee1f cb3d f15c a83d fd09 8c3d
00000240: 052b 1bbe 40ba 773d ab9c d93d 8060 32be
00000250: 39f2 18bd 950d 433d 5511 b0bd 82c6 a23d
00000260: 58be bb3d 88e4 413d 8743 0e3e e364 093e
00000270: 7f7b cbbd a9b9 60be 034a 093d f44e 173e
00000280: eb21 babc e288 c0bd c08b 3d3d be0c 123c
00000290: f843 48be a6d5 7dbc 4e7a 59bd 4bc9 1abd
000002a0: a717 163e 2380 55bc 72ea 653d 7a79 a6bd
000002b0: 3cc8 3fba 44da e9bd 7118 183e ddbb 83bb
000002c0: e865 77bd 3c13 283e 32a5 9abc 6f4c 0a3d
000002d0: a4fd a33d 1e0c 0fbe e8b5 8bbe 5df7 0a3e
000002e0: 5c17 333d f6ad 853b 3192 fc3c 09a0 19bc
000002f0: bee8 22be 910b 05bd aa6a f5bd 397f b53d
00000300: a359 00bd e362 ba3d 031e 703d d9e3 39bd
00000310: 5312 b2bc d213 f2bd f1b9 45bb 36fe e1bc
00000320: e2ed 02bd b312 b5bb 9824 40bd 9e9d 09bd
00000330: 5e45 f1bc 719c f8bc 6796 a9bb ce88 a53c
00000340: a12d c23d 1971 e3bd 2a9b 84bc ef69 073e
00000350: 668c ed3d baca d3bd ec12 00be 45e1 7d3d
00000360: f188 673d 0c4a 08bd 98f0 cbbd 8933 4b3e
00000370: 7b89 66bd 80d4 29bd 1812 bb3c 5884 c73d
00000380: 58cb e43b 92a9 1e3e 23de 00bd d987 743d
00000390: 8c86 46bd 4039 d93d 6e85 d4bb 52fb c4bc
000003a0: 1ad3 273e ddd0 e0bd 7550 823d 39b7 0d3e
000003b0: 396c 43bb 9ccd 823d 2700 bdbd be76 acbd
000003c0: b9b2 1ebc d9da 8f3d 3377 bdbd f93b ea3d
000003d0: ab28 cbbd 205c 573d 207d e23d 6f27 df3c
000003e0: 9cdc 813d 9409 19bd 4b2b db3c ea66 1f3d
000003f0: 83fe eebc 1094 973c 2176 36be 8b51 47bb
