Learning/results/ppo/KartAgent.onnx (onnx, 108225 bytes, 7 tensors)

39 f4 [1, 2]
000000 50 e3 61 b9 d7 c6 e0 3a
       -0.00021542353 0.0017149103

distribution.mu.bias f4 [2]
000000 9b eb 39 bb 8a 0a 6b bb
       -0.0028369192 -0.0035864436

distribution.mu.weight f4 [2, 128]
000000 12 01 ab 3b 41 9d 8d bc d3 c9 3f 3a c9 47 03 bc
       0.0052186335 -0.017286899 0.0007316146 -0.00801272
000010 fc cf 15 3c d4 db 5d bc a7 86 ca bb 26 ef d6 3c
       0.009143826 -0.013541181 -0.0061806026 0.026237082
000020 e5 e5 12 bc 73 c0 80 3b da c0 9c bb 1c c5 7b 3b
       -0.008965944 0.0039291917 -0.004783732 0.0038417047
000030 5d e3 23 bd 3f 8c f1 bc df f4 ef 3c 69 8f c7 3c
       -0.040011752 -0.02948582 0.029291568 0.024360375
000040 3c f7 44 3c 92 c8 ad bc c4 e5 91 3c db cc be 3c
       0.012021836 -0.021213803 0.017809756 0.023291042
000050 f2 19 c5 bb 2f a2 22 3a bb 39 34 3c ed 0c 62 bc
       -0.006015056 0.0006203977 0.011000092 -0.013797027
000060 23 33 0d bc 33 ed 17 3d 74 a8 89 3c 1e 78 05 bb
       -0.008618149 0.037091445 0.016803958 -0.0020365785
000070 e3 8c e7 3c e0 3c 96 3c 77 51 30 3c 92 3c 20 bc
       0.028265422 0.018339574 0.01076161 -0.009780066
000080 aa b6 c0 3c 55 cf c6 bb 77 9a 16 3d e1 51 fc 3c
       0.023524601 -0.0060671964 0.036768403 0.030800762
000090 b6 84 b6 ba c4 52 8d 3a 3c 27 8e 3c fb 76 89 3c
       -0.0013925049 0.0010782112 0.017352693 0.016780367
0000a0 ea 48 a2 bc 6d 9e 58 bb 82 ea cf bc 96 62 74 bc
       -0.019810159 -0.0033053413 -0.025380377 -0.014916083
0000b0 7f 3e 9a 3c 1c 94 93 3b 78 3c 61 3c 03 f4 5f 3c
       0.018828629 0.00450374 0.013747327 0.013669017
0000c0 0b 61 90 bc 95 ac 36 bc 9b 43 17 3b 74 63 88 bc
       -0.017624399 -0.011149545 0.0023081067 -0.016648985
0000d0 d2 dc 0c bb e9 ad c3 3c 1c 87 ba 3b bf c9 21 3c
       -0.0021493924 0.023886638 0.005692376 0.00987476
0000e0 31 2f b5 bc 6a 1f a7 ba 52 87 e2 3c 54 6a 5e bb
       -0.02211723 -0.0012750451 0.027652416 -0.0033937888
0000f0 52 bd b5 b9 da 49 0f ba ba 80 f9 bc 8d d6 5a bc
       -0.00034664065 -0.0005466022 -0.03045689 -0.013356817
000100 86 64 4a bc 1e 5a b5 3c 9f 8b 64 3b 43 db d7 3b
       -0.012353068 0.022137698 0.003487326 0.0065874173
000110 5c b3 2f 36 18 8f a9 3b 26 49 a0 3c 04 b0 77 3c
       2.6181433e-06 0.005174529 0.01956613 0.015117649
000120 92 0e ef 3b 09 db 5c 3b 01 f5 2b bc 86 78 1a bc
       0.007295438 0.003369989 -0.010495425 -0.009428149
000130 bb 7b 34 3c 79 21 62 3c c6 e0 7d bc 44 47 20 3c
       0.011015828 0.013801926 -0.015495485 0.009782616
000140 ef ba e2 bb 9f 00 00 3c 15 e7 f5 3b 6c 1b 9e bc
       -0.006919257 0.007812648 0.0075043538 -0.019300185
000150 be 80 6d bd 0e 75 aa 3c 2c 4e 1a bc 8a 42 88 3c
       -0.057984106 0.02080777 -0.009418052 0.01663329
000160 6f 8a dd bb 04 f4 9c 3a 1b 75 fb 3b cd 2c bb bc
       -0.0067608873 0.0011974578 0.007673872 -0.022848511
000170 52 c7 1b 3d 05 b5 7f 3a 04 b1 44 bc 42 10 12 bc
       0.038031884 0.0009754452 -0.012005094 -0.008915009
000180 9b 9d 15 3d 1e 65 95 bc 9a f5 f3 3c 4e 39 ee 3c
       0.036527257 -0.018236693 0.029780198 0.02908006
000190 2e 0e a9 bc cc 36 34 3c 19 37 1a 3c b7 92 46 bc
       -0.020636644 0.010999393 0.00941255 -0.0121199405
0001a0 cd 45 66 ba 29 5c 20 bb 33 f6 d7 3c 0c 26 4b 3c
       -0.0008784205 -0.0024468994 0.026362514 0.012399208
0001b0 b2 67 af bc 7f 4e 4e bb ae ad 28 3d 23 a0 79 bb
       -0.02141175 -0.0031479893 0.04118126 -0.0038089834
0001c0 28 e2 ee 3c 35 f3 11 bb 02 d1 16 3c 3f 6c e4 3c
       0.029160574 -0.0022270207 0.009205105 0.027883647
0001d0 5e a7 f7 3c f8 dd ab 3c 1c f7 b9 bb 81 62 dc 3b
       0.030231174 0.020979866 -0.0056752097 0.00672561
0001e0 f6 1e 1a 3c 72 05 8d bb 42 ff bd 39 c7 7f b6 bc
       0.009406796 -0.0043036276 0.0003623907 -0.022277726
0001f0 25 49 8b bb 5a 91 0d bb 85 79 74 bb 77 6d 9a 3c
       -0.004250663 -0.002160153 -0.0037303877 0.018851025
000200 e3 66 3a 3b 21 86 aa bb 2b d0 b0 bc 03 dc 88 bb
       0.0028442673 -0.0052039777 -0.021583637 -0.004176618
000210 c3 22 2f bb a9 56 19 bd 4d 1e cb bc 44 84 16 3b
       -0.00267236 -0.03743616 -0.024794722 0.002296702
000220 1d d8 59 3c 76 fb 87 bc e6 ed cd bc 2a 38 8f bc
       0.013296154 -0.016599398 -0.025137853 -0.017482836
000230 e7 89 c3 bc ae f0 d5 3a 52 fd 12 bc 9d c9 e0 bb
       -0.023869468 0.0016322338 -0.008971529 -0.0068599717
000240 63 e2 26 bd 42 de 82 3c a5 a1 a3 3b 2f d0 dd bc
       -0.040743243 0.015975121 0.0049936348 -0.027076809
000250 65 8f a3 bb b7 ce 26 3c 6f 81 88 bc f9 a7 e5 3c
       -0.004991459 0.010181121 -0.016663281 0.028034197
000260 7c 82 4e bb aa 2d b1 bc ef ff 42 3c 4d e3 09 3c
       -0.003151088 -0.02162822 0.01190184 0.008416009
000270 3c 29 87 bb d5 dc ee 3b f0 33 d7 bb 83 81 f7 3b
       -0.0041247886 0.007289509 -0.0065674707 0.007553281
000280 53 79 24 3c ba a8 1a bb a8 d9 13 bc 77 66 07 bd
       0.010038692 -0.0023599104 -0.009024061 -0.033056702
000290 bd cd b6 3c b8 c5 84 bc ef 4f 13 bd 86 30 39 bc
       0.0223149 -0.01620756 -0.035964902 -0.011303073
0002a0 49 eb 0a bc a0 9c 55 3c 6d fb 4c bc c8 a3 2b 3c
       -0.008478948 0.013037831 -0.012511116 0.01047606
0002b0 9b 03 d3 bc 70 d1 10 3d 80 ea d9 3a 52 0a 78 bb
       -0.025758555 0.035355985 0.0016625673 -0.0037847948
0002c0 6b 3b df bb dd 7c 9b 3c 9d 95 50 bc 63 71 d1 3a
       -0.006812503 0.018980438 -0.012730983 0.0015979226
0002d0 ba d2 bb 3c 30 b8 bd 3c 0b 61 bc 3c 3e 4f d4 3a
       0.02292763 0.023159117 0.022995492 0.0016197932
0002e0 1b 37 85 3b 11 d4 82 b7 41 49 a1 3b 62 1f 0c ba
       0.004065407 -1.5595959e-05 0.0049220626 -0.00053452526
0002f0 00 e3 04 bd c1 3b 20 3d 46 f9 82 ba cd 1e 00 bd
       -0.032443047 0.039119486 -0.0009992502 -0.031279374
000300 a1 91 73 bc 35 43 92 3c da 94 3b bc aa 55 13 bc
       -0.014866264 0.017854312 -0.011449063 -0.008992592
000310 7a 78 f5 3b 1d 01 3f 3c cb a8 d8 bc 77 16 86 bc
       0.0074911686 0.01165798 -0.026447674 -0.016368134
000320 5c fa 6f 3a a3 b2 83 bb 8b c4 96 3c 28 f0 b5 bc
       0.0009154433 -0.004019098 0.018404266 -0.022209242
000330 38 c6 83 bc c5 c4 ab bb 6c f4 f7 bc 69 f9 89 3c
       -0.016085729 -0.0052419626 -0.030267917 0.01684256
000340 23 dc b2 3c b2 8b f4 3b 48 f8 73 3c fd 13 0c bd
       0.021833485 0.007462942 0.014890738 -0.03419875
000350 2a 14 49 3c 66 ca 29 bc 37 58 d0 3c 7f 3b 50 3c
       0.012272874 -0.010363197 0.02543269 0.0127094975
000360 00 ae d8 3c f0 d1 8f 3c 26 fb 17 bc 17 63 af ba
       0.026450157 0.01755616 -0.009276187 -0.0013380972
000370 98 3e 96 3c 3c 4b 5a bc 19 6c 83 3c 28 d5 99 bb
       0.018340394 -0.013323601 0.016042756 -0.0046945997
000380 43 1f 9b 3c e2 c5 39 bb 64 8a 84 3b 14 bd e5 3c
       0.018935805 -0.0028346707 0.0040448178 0.028044261
000390 d0 d0 12 bb 90 69 06 3d 9a 73 91 3b 4d d8 83 bc
       -0.0022402294 0.032815516 0.0044388296 -0.016094351
0003a0 c8 9b 73 3c 0e 8e 49 3c af a0 44 3c f6 ed b3 bb
       0.014868684 0.012301935 0.012001201 -0.0054910136
0003b0 e2 ed fd bb a4 3c 8d 3b 71 5f 82 3c 5b 33 84 3c
       -0.007749305 0.0043102074 0.01591465 0.01613777
0003c0 d6 43 c3 3c 85 a9 fe 3b 30 50 4f bd 67 d6 38 3d
       0.023836058 0.007771673 -0.050613582 0.045126345
0003d0 c5 99 08 3b 8e d3 6f bb 7f 0c df 3c d7 0a ed bb
       0.0020843607 -0.0036594602 0.027227638 -0.007233958
0003e0 d9 e2 59 bc f0 2a a3 3c 1a 22 3c 3c 48 e0 85 ba
       -0.013298714 0.019917935 0.01148274 -0.0010213936
0003f0 c4 72 08 3d fd e1 0c 3d ca 47 0c bd db ce 0e 3d
       0.033312574 0.034395207 -0.03424815 0.03486524

network_body.linear_encoder.seq_layers.0.bias f4 [128]
000000 d7 e5 10 bb 28 20 61 bb a3 04 49 bb ed 98 34 bb
       -0.0022109651 -0.0034351442 -0.003067293 -0.0027556971
000010 59 c8 a8 3b db db 84 ba 9b c9 4b bb 18 3c 99 3b
       0.0051508364 -0.0010136323 -0.0031095508 0.004676353
000020 6d 01 8c 3b e4 fc 4e ba ff b7 86 bb ac dc db 39
       0.004272631 -0.000789596 -0.0041112895 0.00041935348
000030 ef 44 2a 3b 9d f9 6a 3b b2 f2 31 b9 35 1b 2b bb
       0.002598103 0.0035854348 -0.00016970446 -0.0026108746
000040 f8 76 8d bb 59 03 1d bb 4e 17 6b bb e3 34 db 3a
       -0.0043171607 -0.0023958294 -0.0035872045 0.0016724135
000050 6d 5e 61 bb cc 1f 43 bb 1d 81 8f 3b df 9f 40 3a
       -0.0034388558 -0.002977359 0.004379405 0.00073480414
000060 34 96 16 3b 1e a9 30 ba 29 3a 08 3b 9b fb 94 3a
       0.0022977712 -0.00067390676 0.002078662 0.0011366488
000070 f0 07 a7 3a b5 5e 4a 3a 90 80 5d bb 90 4e d3 ba
       0.0012743454 0.0007719801 -0.0033798553 -0.0016121436
000080 6e 71 4c 3b 0e 93 2a 3b 20 ac 35 3a 15 0d 08 39
       0.003119554 0.0026027593 0.00069302507 0.00012974844
000090 fc e6 fe ba c7 b6 9f 3a b3 3d 87 3b 8f 38 a1 3a
       -0.0019447501 0.0012185209 0.004127228 0.0012300181
0000a0 32 ac 9e bb a1 cd c9 3a 20 c7 e0 3a 47 30 1f ba
       -0.0048423046 0.0015396365 0.0017149188 -0.00060725625
0000b0 d4 23 83 3b 54 ba 35 3b b9 86 81 bb 2d 58 88 3b
       0.004002074 0.0027729468 -0.003952828 0.004160902
0000c0 c1 36 9c bb e5 7a 86 bb e9 7a 8b 3b e1 d8 39 3b
       -0.0047672694 -0.0041040056 0.0042565954 0.002835803
0000d0 54 ea b2 38 c9 3e 97 3b 0d 47 8b bb 61 d6 99 bb
       8.5313484e-05 0.004615639 -0.0042504133 -0.0046947454
0000e0 ed 39 d4 39 4b 11 88 ba d1 b9 88 3b 71 c1 6c bb
       0.0004047895 -0.001038113 0.0041725417 -0.0036126042
0000f0 02 6b 65 bb 0a df 2a 3b 0d 27 01 3b 2d ca b4 3a
       -0.0035006409 0.0026072883 0.0019707114 0.0013793163
000100 30 a9 56 bb d0 c1 32 3b bf 0a 66 bb 34 b1 11 bb
       -0.0032754652 0.0027276166 -0.003510162 -0.0022230865
000110 5c e4 93 3b e3 bf a6 3b 03 36 ea b9 9e fe 5f bb
       0.0045133065 0.0050887926 -0.000446722 -0.0034178863
000120 2f 46 4c bb 10 ce 8f bb 5b 13 9a 3b a8 03 89 bb
       -0.0031169762 -0.0043885782 0.0047020144 -0.004181344
000130 4c b4 5f ba 0c dc 16 3a 9e f6 59 bb 9c df ae 3b
       -0.0008533641 0.00057548354 -0.0033258568 0.005336715
000140 12 f9 0c 3b da 06 21 bb b8 ea 82 bb 18 ea 87 bb
       0.0021510762 -0.0024570734 -0.003995266 -0.004147779
000150 ee eb 8f 3a 82 77 24 bb 15 44 08 bb dd 85 a6 3b
       0.0010980347 -0.0025095646 -0.0020792533 0.0050818757
000160 17 b5 6d bb b3 eb 90 bb 6f 3c 1d 3b e5 ed 1f b9
       -0.0036271268 -0.004422629 0.002399232 -0.00015252044
000170 74 96 36 bb 15 29 87 3b 22 57 3a 3b 1f de f2 39
       -0.0027860673 0.0041247704 0.0028433283 0.0004632333
000180 b3 2d 34 3b cb 83 85 3a b0 6e 59 3b ac 46 84 bb
       0.002749306 0.0010186372 0.0033177547 -0.004036745
000190 06 a8 f8 b9 53 a6 a9 ba e3 66 00 3b 92 d7 46 ba
       -0.00047427433 -0.0012943245 0.0019592575 -0.0007585223
0001a0 be 92 3a bb 31 4e bf b9 66 9d 84 3b 78 1a 10 3b
       -0.0028468813 -0.00036488616 0.0040470837 0.0021988433
0001b0 1f 59 1a bb e2 eb 42 3a e4 aa 1a bb e6 bd ba 3a
       -0.0023551655 0.0007435662 -0.0023600394 0.0014247268
0001c0 ae 85 9c bb 97 f5 05 3b b1 d1 dc b9 bc 52 13 3b
       -0.004776678 0.0020440572 -0.00042117902 0.0022479733
0001d0 4f 81 96 3b 76 55 75 bb c0 04 8d 3b 7e e8 a6 3b
       0.0045930515 -0.0037434972 0.0043035448 0.005093633
0001e0 90 54 16 ba d8 6c 82 3b 08 2a 4d 39 80 4a ff ba
       -0.00057346467 0.0039802603 0.00019565981 -0.0019477159
0001f0 87 35 3b 3b 43 00 10 3b b3 cc 63 bb 78 d1 01 3b
       0.002856584 0.0021972812 -0.0034759461 0.001980869

network_body.linear_encoder.seq_layers.0.weight f4 [128, 76]
000000 3b 68 33 be a1 5c 89 bd 29 7a 2b bd c7 17 b2 3c
       -0.1752023 -0.06707121 -0.041864548 0.021739854
000010 6e f3 5e 3d 3f cb 12 3d 2e 18 d2 bd 5c bb 44 3e
       0.05443137 0.03583836 -0.10258518 0.19212097
000020 bd 4d d9 3d 6b ee 08 be aa 60 01 be 9a 16 c4 bd
       0.106105305 -0.13372199 -0.1263453 -0.095746234
000030 27 d0 6b 3c 0c 0d 88 3d 94 71 55 be 72 49 90 bd
       0.014392889 0.066431135 -0.20844108 -0.070452586
000040 81 d3 bf 3b 6f 86 1d be 7d 28 23 bd 93 91 da bd
       0.0058540707 -0.15383314 -0.039833535 -0.10672297
000050 f5 36 85 be 5c de 8c bc f7 4e 48 3d 26 78 ea 3d
       -0.2601849 -0.017195873 0.04890343 0.11448698
000060 d2 50 8d be 8b c8 7b bc 10 12 b9 bd da c0 85 3c
       -0.27600724 -0.015367637 -0.09036648 0.01632731
000070 b9 58 9d bd 50 e9 b9 3d 06 d9 0f 3c a5 0b 32 3e
       -0.07682938 0.09077704 0.00877977 0.17387255
000080 f9 29 2d 3d 07 77 91 bd 5d aa 77 bd 15 af f5 3b
       0.042276356 -0.07102781 -0.060465205 0.007497678
000090 7b 47 d5 bd 94 b4 38 be 8d 92 85 bd e3 a3 07 be
       -0.104140244 -0.18037635 -0.06522093 -0.13246112
0000a0 73 ee 6a bd 36 23 17 3e d7 b1 96 bd 1b e0 7a bc
       -0.05735631 0.14759526 -0.07358139 -0.01531222
0000b0 dd 54 08 bb 9a 45 1d 3b 6b b8 2e bd 1d 43 10 3e
       -0.0020802536 0.0023997785 -0.042656343 0.14088102
0000c0 95 16 22 bc f8 9d 25 bd 55 19 42 3d 97 30 54 3d
       -0.009893079 -0.040433854 0.04738744 0.05180415
0000d0 8a 36 7e 3d 99 6e 6c 3d 9a 12 fc bc 3e 49 7d 3d
       0.06206373 0.05772266 -0.030770589 0.061837427
0000e0 43 49 a2 be 46 2f 37 3e c1 a5 10 bd 32 0a dd bb
       -0.3169652 0.17889127 -0.035314325 -0.0067456
0000f0 81 a2 8f 3c 9b 02 0d be c9 b1 95 3d a5 2e 3f be
       0.017533543 -0.13770525 0.073093005 -0.18670137
000100 dd b2 25 3d aa a9 05 3e 7b 23 0f 3d f2 2b 02 be
       0.04045378 0.13053003 0.034945946 -0.12712076
000110 2f 4f 0d 3e ff f9 1a 3e be 2b 3e be 53 f0 64 bc
       0.13799737 0.15134428 -0.18571374 -0.013973313
000120 a8 3d 7d 3d 35 52 3d be 3d c8 32 bd 5e 06 c0 bd
       0.061826378 -0.1848839 -0.043647993 -0.093762144
000130 26 9f 4c 3d 92 7d 86 3e d0 54 9a 3b ae 36 75 3d
       0.049956463 0.26267678 0.0047098175 0.0598666
000140 e4 9d ba 3d c2 d2 03 be 6b 65 54 bd d1 21 33 3e
       0.091121465 -0.12873366 -0.051854532 0.17493369
000150 6a d6 35 bd 80 aa c1 3d 95 59 f8 bd 9e 9b af bd
       -0.044393934 0.094563484 -0.121264614 -0.085746035
000160 d2 f2 8f 3d 37 19 0c 3e 98 7e 1a 3e cc bd f9 bb
       0.07028736 0.13681494 0.15087354 -0.0076215025
000170 53 0a 28 be 2e f9 6b be f8 e8 79 be 1d 1f de 3d
       -0.16410188 -0.23044273 -0.24405277 0.10845778
000180 48 5e 38 bb f8 99 50 bc 09 1b cc bd 5d 6e 0e be
       -0.0028132368 -0.0127320215 -0.09966094 -0.13909288
000190 0f 37 9f 3d 00 03 04 3e e3 8e c0 3c f9 74 a2 bc
       0.077741735 0.1289177 0.023505634 -0.019831168
0001a0 1f ae 50 bc 02 d1 83 bd a5 2e a9 bd 8f 1e 4a 3e
       -0.012736826 -0.064363495 -0.0826085 0.1973822
0001b0 4c 94 0b bd 9f 1b b1 3d 7b 93 bc bd 39 17 23 3e
       -0.034076974 0.086478464 -0.09207817 0.15926827
0001c0 6b da bc bc 9e 83 19 be f7 0d c1 bd 16 6a 7b bc
       -0.023053369 -0.14991614 -0.09426492 -0.015345117
0001d0 8a 14 8f bd e8 c0 8e bc 10 8b 00 3d 65 4d 60 be
       -0.069863394 -0.01742597 0.03138262 -0.21904524
0001e0 a2 53 57 3d 87 76 fd 3c 17 a6 02 bc bd 2e 23 3e
       0.052569993 0.030940307 -0.007974169 0.15935798
0001f0 3d fc 3a 3d 38 3c 80 bd 36 ac 01 3e 61 eb 07 3d
       0.04565071 -0.06261486 0.1266335 0.03318346
000200 d0 fb b5 3d 06 65 89 3d d3 a5 36 bd 38 b0 10 3e
       0.0888592 0.06708722 -0.044591736 0.14129722
000210 a9 5c 38 3e d9 01 76 bd 57 ac 2a 3e 17 9e 87 3d
       0.18004097 -0.060060356 0.16667305 0.0662195
000220 26 c5 6b bd 30 cc ef 3d 72 45 86 3d 52 ae 99 ba
       -0.057561062 0.117088675 0.065562144 -0.0011724925
000230 e1 50 e6 3d df 14 06 3d 12 98 12 3c 9b 82 5c 3c
       0.11245895 0.032734748 0.008947389 0.013458873
000240 71 13 92 bd 78 35 c0 3c 2b 19 53 bd bd 7f 21 3e
       -0.071326144 0.023462996 -0.051537674 0.15771385
000250 3c f6 34 be b6 19 af bd 73 89 27 bd d4 ca 39 3e
       -0.17672056 -0.08549826 -0.040902566 0.18143779
000260 3f dc 51 3e 8c 24 a6 bb 8f a5 18 bd 13 41 9a 3d
       0.20494173 -0.0050702747 -0.037267264 0.07531943
000270 7b 83 8c 3c 33 4d a8 bd d2 4c ab 3d 02 bd fd 3d
       0.017152539 -0.082178496 0.08364262 0.12389566
000280 9f bd 85 3e 0e 2b a5 3d 8b 9d 7b 3e 93 5e 07 bd
       0.26121232 0.08064853 0.24571817 -0.033049177
000290 4d 0c c8 bb 78 6f 97 bd 45 e8 56 3e 01 34 25 be
       -0.006104982 -0.07394308 0.20987041 -0.16133119
0002a0 0d 53 88 bd 6c 48 11 3d fa 23 d5 bc 58 a2 08 be
       -0.06656466 0.035469458 -0.026018132 -0.13343179
0002b0 8c 5e c7 3c df 2f f6 bd b1 77 b0 3d ed 47 57 3e
       0.024337076 -0.120208494 0.08616579 0.21023531
0002c0 41 98 7c be af 76 8a bb da f6 a8 3a 58 e2 2b 3d
       -0.24667455 -0.004225574 0.001289095 0.041963905
0002d0 d7 8d ca 3d ce c3 2b 3d ff 22 b2 3d 5b 89 5f 3c
       0.09890335 0.04193478 0.08698081 0.013643588
0002e0 e0 10 b2 3b 3c 02 b2 3a 85 f2 b3 bc 6c 69 6f 3e
       0.0054341406 0.0013580988 -0.021966228 0.23380059
0002f0 6d bd c9 bd 5d e2 53 3d 2a aa ab 3d ca 75 7b 3e
       -0.09850583 0.05172955 0.083820656 0.24556652
000300 b3 f5 f3 3d 3e 31 c6 bc e0 0e 0d 39 f3 63 9b 3c
       0.11912098 -0.024193402 0.00013452349 0.018968558
000310 87 6f 9c 3c 18 1f 08 3e 10 14 3d be 5d 1c f7 bd
       0.01909615 0.13293111 -0.18464684 -0.12065957
000320 ec e3 17 3e 43 34 4e be a3 1a 26 be 3d ca 19 3e
       0.14833039 -0.20137124 -0.16221099 0.15018554
000330 a5 01 7d 3d 70 1d 7c 3c 60 f8 12 3e ce b3 ce 3c
       0.061769146 0.015387878 0.1435256 0.025232222
000340 0e 42 d7 bc 01 4e ec 3d f7 83 13 3c 3c c7 16 bb
       -0.026276615 0.115383156 0.009003631 -0.0023006937
000350 ac c4 9b 3d 6d fa bf 3d d9 d6 41 bd 91 8c a4 bb
       0.076058716 0.09373937 -0.047324035 -0.0050216396
000360 2f fc 4f bd 83 a7 ec 3d 8f 2f 90 3c 03 e0 5c be
       -0.05077761 0.11555388 0.017600803 -0.21569829
000370 95 f6 47 3d 81 bb 14 3d 63 25 9b bb bc 10 f0 3b
       0.048819143 0.03631163 -0.0047346815 0.0073262136
000380 02 63 48 3d 8d 45 6c 3d 99 59 4e bb 80 8c 90 3c
       0.048922546 0.057683516 -0.003148651 0.01764512
000390 4e 6a 1f 3e 28 be 37 be a2 d6 83 bd cb be 93 bc
       0.15567896 -0.17943633 -0.06437422 -0.018035313
0003a0 1e 3b 2d be e7 98 04 3d f0 3a e3 bc d4 b6 64 bc
       -0.16917083 0.03237238 -0.027738065 -0.013959605
0003b0 c5 59 21 bd 08 21 fc bc 8c 36 cc 3d d0 33 1a bd
       -0.03939225 -0.03077747 0.099713415 -0.03764707
0003c0 48 01 80 3d a4 b0 a7 bd e8 38 77 bd 0a 69 4f bd
       0.062502444 -0.081879884 -0.060357004 -0.050637282
0003d0 61 9d 05 3e 54 8b 78 bd 99 81 1a be a5 e7 09 3c
       0.13048317 -0.06067975 -0.150885 0.008417045
0003e0 d8 14 34 be 88 14 38 bd e1 57 24 be 76 e2 0a 3e
       -0.17586076 -0.044941455 -0.16049148 0.1356295
0003f0 82 f5 6d bd 99 05 97 3c 0b 75 30 bb 0e 61 09 be
       -0.058095463 0.018435286 -0.0026925232 -0.1341593

network_body.linear_encoder.seq_layers.2.bias f4 [128]
000000 e3 5d 67 bb d8 35 8b 3b 8e 6f 5c 3b b1 45 77 3b
       -0.0035303764 0.004248362 0.0033635828 0.0037730748
000010 31 9f dd ba 7f df 90 3b b6 5b 66 3b 3d cc 4b bb
       -0.0016908405 0.004421174 0.0035149879 -0.0031097077
000020 10 c6 e9 b9 f7 a6 02 3b 7d db 89 3b ed 15 1e 3b
       -0.0004458879 0.0019935945 0.0042070732 0.0024121956
000030 4a 58 ab 3b 1b 0e 23 3b b1 3e 19 bb f0 b0 dd ba
       0.0052290307 0.0024880234 -0.0023383314 -0.0016913693
000040 4c 75 17 3b b2 52 7a b9 97 a5 4c bb 00 11 50 3a
       0.0023110686 -0.00023872664 -0.003122663 0.00079371035
000050 a0 c5 91 3b eb 25 90 bb bd 7c c4 3a ec ae 16 bb
       0.0044486076 -0.0043990514 0.0014990788 -0.0022992445
000060 a2 02 40 3b 02 2c 6b ba 78 b2 93 bb fd 03 5b bb
       0.0029298444 -0.0008971096 -0.004507359 -0.0033419125
000070 ba 17 56 bb 74 db 8c bb 3d 0d e7 ba c3 74 37 39
       -0.003266795 -0.004298622 -0.0017627847 0.00017495737
000080 b6 c8 8a bb 82 ab 66 3b cd 81 e0 38 14 58 9a 3a
       -0.0042353524 0.0035197441 0.000107053296 0.0011775517
000090 f9 6c 78 bb 00 27 55 3b b3 60 da 3a eb b2 cf b9
       -0.003790675 0.0032524467 0.0016660899 -0.0003961542
0000a0 50 cf ac 3b 52 f4 68 bb 01 c9 84 3b a9 4c 64 38
       0.005273737 -0.0035546017 0.004052282 5.443083e-05
0000b0 2f 69 3f 3a 0e 61 88 bb e2 1a 92 bb 87 5d b0 39
       0.00073017454 -0.0041619604 -0.004458771 0.0003363902
0000c0 dd e1 9a 3b 67 ab 47 b9 d9 91 cd 3a f6 86 03 3b
       0.004726632 -0.00019041971 0.0015683725 0.0020069457
0000d0 c3 78 73 bb e4 f2 99 bb f4 79 77 bb 8e 0c 44 bb
       -0.0037150837 -0.0046981443 -0.0037761899 -0.002991471
0000e0 c6 46 18 3b a5 04 29 bb da 7a 03 bb 27 e5 1f 3b
       0.0023235544 -0.0025790122 -0.002006224 0.002439806
0000f0 42 cb 4d 3b 3b 55 56 bb ae 84 7b 3b 29 81 8e 3b
       0.0031401669 -0.003270461 0.0038378644 0.004348893
000100 2b 58 a8 3b 6a 91 8c bb 4a 8b 48 3b 58 0c 5d 3a
       0.0051374636 -0.0042897956 0.00306006 0.00084323203
000110 31 30 38 bb e7 c1 88 bb 36 07 ad 3a 1d 0c c7 3a
       -0.0028104896 -0.0041735056 0.0013201002 0.0015186105
000120 1e 26 8a bb e7 2f 2c ba f0 b3 00 bb b3 f9 90 3b
       -0.0042159697 -0.00065684173 -0.00196385 0.0044242977
000130 5a cd ce 3a 0f a7 b5 ba cc c1 84 3b 3d fc 81 bb
       0.0015777752 -0.0013858991 0.0040514227 -0.0039668367
000140 50 06 28 bb 64 6f a7 bb ce 9d 97 bb 52 15 97 3b
       -0.0025638528 -0.0051097143 -0.004626966 0.004610696
000150 c4 30 00 3b 96 f2 e3 ba 8a 69 14 bb ce de 8c bb
       0.0019560317 -0.0017391022 -0.0022645914 -0.0042990213
000160 09 d0 3f bb 51 8f 83 bb 97 3c 00 3b 39 a3 19 3b
       -0.0029268286 -0.0040148874 0.0019567364 0.0023443236
000170 7d a1 84 bb 33 b0 3f 3b 1d c2 9a ba 55 e1 a1 3b
       -0.004047571 0.002924931 -0.0011807118 0.0049401917
000180 00 11 69 bb 07 16 36 3b 63 26 60 bb e5 8d 8a bb
       -0.0035563111 0.0027784125 -0.0034202568 -0.004228341
000190 d3 f6 89 3b 71 d9 73 bb 4a 40 9d bb 51 c6 a6 3b
       0.004210332 -0.0037208463 -0.0047989236 0.005089559
0001a0 66 5f 53 bb a7 3c 66 bb ca 40 81 bb 63 41 0a bb
       -0.0032252907 -0.0035131366 -0.003944491 -0.0021096102
0001b0 34 c0 36 3b da d7 35 bb a7 39 56 bb ef b4 55 bb
       0.0027885558 -0.0027747066 -0.0032688172 -0.0032609066
0001c0 a0 ee 67 bb 7e 06 77 bb 65 fd 64 3b e1 81 8f bb
       -0.0035390034 -0.0037693079 0.0034941074 -0.0043794964
0001d0 09 01 37 bb 35 1f 51 ba cb 0e 40 bb 39 5c 4f ba
       -0.00279242 -0.00079773675 -0.0029305692 -0.00079101656
0001e0 f9 e0 55 3b 88 97 17 bb 40 65 27 bb a3 05 2e 3b
       0.0032635315 -0.002313109 -0.0025542527 0.0026553653
0001f0 1e 1f 4c bb 8e 5e 40 bb e0 9f 66 3b 4f 84 9b bb
       -0.0031146477 -0.0029353234 0.0035190508 -0.004745997

network_body.linear_encoder.seq_layers.2.weight f4 [128, 128]
000000 8a cf 93 bd a7 ab 85 3d 33 b2 40 be 6f 41 d1 3d
       -0.07217319 0.06526881 -0.18817978 0.102175586
000010 67 1e 6c 3d e9 7b c6 3d b1 72 cf bd 99 82 76 bc
       0.05764618 0.09691603 -0.101292975 -0.015045785
000020 48 71 07 be b7 bc ad 3d 88 3f 31 bd 64 a5 21 be
       -0.13226807 0.0848326 -0.04327348 -0.15785748
000030 b0 87 7f bd c9 1a 9b 3d 3e 23 29 3d d1 54 19 3e
       -0.06238526 0.07573468 0.041293375 0.14973761
000040 86 79 ea bd 88 8a 39 bc ad 9f 51 3d 37 14 79 bd
       -0.1144896 -0.011324532 0.05117767 -0.060810294
000050 f1 ae 68 3d 6c ab 0d be fd d8 b3 3c 79 40 ea 3c
       0.056807462 -0.13834924 0.021954054 0.028595196
000060 b3 89 54 3d 99 db 91 3b 20 da bc bc 46 4b 2a 3d
       0.051889133 0.004451227 -0.023053229 0.041575693
000070 10 7e a3 3d 6d 69 19 3e 57 f2 f3 3d d2 8a 1d 3d
       0.07983029 0.14981623 0.11911457 0.038462467
000080 a1 87 e0 bd b5 3a b9 bd 5d e1 0d bc 00 a8 c0 bd
       -0.10963369 -0.090444006 -0.008659688 -0.094070435
000090 6a 0a ff 3d 5d 7b a9 3d a1 e4 c5 bd d1 04 14 3c
       0.12453158 0.08275483 -0.09662748 0.009034351
0000a0 19 f9 01 bd db 96 a8 bd b9 8c b9 bd 46 e7 c9 3d
       -0.0317317 -0.082318984 -0.09060044 0.09858565
0000b0 a4 12 b8 bd 88 87 2e be f5 3f 04 bd b6 c6 e8 bd
       -0.089879304 -0.17043889 -0.032287557 -0.11366026
0000c0 b8 3d 92 3c 60 9f a4 3d c3 17 3a bd 2b d5 34 3e
       0.017851695 0.08038211 -0.045432817 0.17659442
0000d0 58 13 31 3e 93 01 e2 bd e7 5e 79 ba 71 00 24 be
       0.17292535 -0.110354565 -0.0009512738 -0.16015793
0000e0 90 5d f7 3d 6a b2 f3 3d bb 9e 03 3d 6e 8a af bd
       0.120783925 0.11899264 0.0321338 -0.08571325
0000f0 74 72 ec 3c fa ad 36 bc 0f ee bc 3d e3 29 5b be
       0.02886317 -0.011149878 0.092250936 -0.21402697
000100 6d 83 15 3d 01 e9 32 be c3 44 2a bc 29 97 b2 bc
       0.03650229 -0.17471696 -0.010392371 -0.021800594
000110 8a 5c 79 bc bd eb 4d be bf 02 17 be 54 a0 80 3d
       -0.015219817 -0.20109458 -0.14747141 0.0628058
000120 d1 83 47 bd 5d 10 09 bd 42 1f 5f bd ae f1 37 3e
       -0.048709694 -0.03346287 -0.05447317 0.17963287
000130 58 6a 70 bc 39 10 89 3d 5c c2 5f be b1 a2 ae 3c
       -0.014673792 0.06692547 -0.21851486 0.021317812
000140 19 22 9e 3b 39 4c 00 3e 29 6e 01 be f3 1b e5 bd
       0.004825842 0.12529077 -0.12639679 -0.111869715
000150 05 62 13 be e3 3b 57 3d 31 ce c7 3c f4 b4 d2 3d
       -0.1439286 0.052547347 0.024390312 0.1028842
000160 b5 dc ee 3d 04 05 2a bd 8c 62 f4 bb 99 2a 4f bd
       0.1166319 -0.04150869 -0.0074580368 -0.050577734
000170 1e d2 32 bd c9 0b 4f 3d ca a8 6a bd a8 0b bd 3c
       -0.043657415 0.05054835 -0.057289876 0.023076847
000180 8b 54 15 be 78 6d 05 be 45 61 b3 bd 7b 0d f6 b8
       -0.14583032 -0.1303004 -0.08758787 -0.00011732705
000190 ad ab 81 bd 5f 1e 18 be 2a 91 aa bc 24 87 d5 bd
       -0.06331573 -0.14855336 -0.020821173 -0.10426167
0001a0 ca 72 c7 bc 32 5d 07 3b e9 7e fd 3d c2 95 ea 3c
       -0.024346728 0.0020654914 0.12377722 0.028635863
0001b0 f7 ec 3d bd 20 61 90 3d 18 36 c4 bb 13 34 b3 bc
       -0.046368565 0.07049775 -0.005987894 -0.021875417
0001c0 08 1b d0 bc c0 d1 6e 3c 1c a1 c0 3c 45 92 04 be
       -0.025403515 0.0145763755 0.023514323 -0.12946422
0001d0 7a 88 34 3e b0 29 8d 3d 46 42 d5 bd b9 3a 04 3e
       0.17630187 0.06892717 -0.10413031 0.12913026
0001e0 3e 22 88 bd b9 e9 97 bd 1c 06 b2 bd 5c f7 6e 3d
       -0.06647156 -0.07417626 -0.086925715 0.05834137
0001f0 a1 dd cb ba b3 25 6b bd 96 4e a6 bc 20 7b 2f bd
       -0.0015553721 -0.057409 -0.020301145 -0.04284203
000200 9e 43 c9 3d ad e3 31 3d 66 33 f1 bd 59 dd 6b bc
       0.0982735 0.04343002 -0.117773816 -0.014396035
000210 9e 18 4c bc e7 76 f4 3c d0 ca 01 be 4c d2 9d 3b
       -0.012457041 0.029841853 -0.12675023 0.004816329
000220 3f b7 09 be 78 b1 cf bd b2 01 ba 3d 27 98 f1 3c
       -0.13448809 -0.10141271 0.090823546 0.029491497
000230 31 02 fe bc 12 de b3 bc ec f8 8c 3d a9 37 41 3d
       -0.031006904 -0.021956477 0.068834156 0.047172222
000240 f4 cf 28 be d5 1a 93 bd 8b 19 14 be 04 3d cd bd
       -0.16485578 -0.07182852 -0.14462869 -0.100214034
000250 57 8b 1d 3d 83 0c d2 3d 68 11 01 3d 3e eb 69 3d
       0.038462963 0.10256293 0.03151074 0.05710911
000260 2c 5c 5b 3d 8e e7 cf 3d c0 50 9b 3c db 3f 22 3c
       0.0535547 0.101515874 0.018959403 0.00990292
000270 c5 cc a8 bd 33 31 6e 3d 5e 1a c7 bd d3 cb 89 3d
       -0.08242182 0.05815239 -0.09721826 0.067283295
000280 17 7d 36 bc ae 1d b2 bd d0 87 e5 bb e9 bf 2e bd
       -0.011138222 -0.08697067 -0.0070047155 -0.04266349
000290 23 90 16 3d 95 b7 06 3d ec 05 57 bc 31 d1 e0 3c
       0.036758553 0.03288992 -0.0131239705 0.0274435
0002a0 e5 f8 43 3e 45 76 b0 bd 1f ed 23 3e d8 c8 f3 3d
       0.19137914 -0.08616308 0.16008423 0.11903542
0002b0 ff 1f 78 bd 29 f7 8d 3d e3 4d dc bd 27 e4 b8 3b
       -0.06057739 0.06931908 -0.10757043 0.0056424323
0002c0 21 69 20 3d 1c 2e 28 3c e3 e1 53 38 60 7e 10 3e
       0.03916276 0.0102649 5.0516694e-05 0.14110708
0002d0 f5 5b 8d bd 09 8a 72 bd 32 5c d8 bd 27 0d e4 bd
       -0.06902305 -0.05921367 -0.1056446 -0.11135321
0002e0 43 d2 41 3d 84 77 6e bd 8f aa 94 bc bf c8 81 bd
       0.04731966 -0.058219448 -0.018147735 -0.063371174
0002f0 55 d5 0d ba bf 52 97 bb 59 cb 4c 3e 89 80 9d 3d
       -0.0005410512 -0.0046180184 0.19999446 0.07690532
000300 d1 22 35 3c 00 19 c1 3d e5 9e 62 3d d7 fe 54 be
       0.011055664 0.094285965 0.055327315 -0.20800339
000310 65 d7 3a bd e9 d8 22 bd 32 31 14 be 58 8d 2f 3e
       -0.045615572 -0.039757643 -0.14471892 0.17143762
000320 aa 01 35 bb 27 21 e2 3d 7c b5 12 3e 9d 26 fd bd
       -0.00276194 0.110414796 0.14327043 -0.123608805
000330 d3 bb 32 bd 3d 25 84 3d b3 c0 d2 bd 3b c9 48 be
       -0.043636154 0.06452415 -0.10290661 -0.19608013
000340 c2 31 d0 3d d9 09 67 bb 6a 6f bd bd da 60 eb 3d
       0.101657405 -0.0035253672 -0.09249766 0.11493082
000350 f8 6f 55 bd 6d b3 84 bd 34 db 63 3d 2b fa a6 bd
       -0.052108735 -0.06479535 0.05562897 -0.081531845
000360 64 c9 8b 3d 6e 24 ee 3c 31 89 07 3e f1 97 eb bd
       0.068255216 0.029070105 0.13235928 -0.1150359
000370 b5 05 8d 3c ad 23 4a 3d fd fd 35 bd 7f 86 53 bd
       0.017214635 0.04935043 -0.044431675 -0.051641937
000380 da 7f 76 3d c9 ab b6 3d 44 8f c2 3b 85 e9 70 3c
       0.060180523 0.08919484 0.0059374887 0.014704113
000390 18 66 7e 3d a8 8c b3 3b 93 98 88 3a 1f 4f ce bc
       0.062109083 0.005479414 0.0010421447 -0.025184212
0003a0 13 12 fa bc 70 0e ae bd 49 33 82 3d dc 82 f1 3a
       -0.030526197 -0.084988475 0.06357438 0.001842584
0003b0 0e 69 94 3d 38 04 a0 3c fc 38 19 bd 14 92 44 3c
       0.072466 0.019533262 -0.03740786 0.011997718
0003c0 08 53 06 3d 1c 68 18 be be b4 d6 3c 85 99 2a 3e
       0.03279403 -0.14883465 0.026209231 0.16660126
0003d0 5e 53 af 3d 2c f1 08 be e6 d8 07 bd f3 02 8a 3d
       0.08560823 -0.1337325 -0.033165835 0.06738844
0003e0 f3 7a 6a bc e1 b6 95 bd 36 54 ac bd 93 06 0a 3d
       -0.01431154 -0.07310272 -0.084144995 0.033697676
0003f0 40 c3 fe 3d 98 88 06 bc 74 13 d3 bd f2 17 03 3d
       0.12439585 -0.008211277 -0.10306445 0.032005258
