Learning/results/mx2/KartAgent/KartAgent-99989.onnx (onnx, 104129 bytes, 7 tensors)

41 f4 [1, 2]
000000 c3 f7 eb bc 39 39 c4 bd
       -0.028804665 -0.09581227

distribution.mu.bias f4 [2]
000000 f3 83 ac bb 33 22 2f 3d
       -0.005264753 0.042757224

distribution.mu.weight f4 [2, 128]
000000 9c a1 d5 bc b7 36 4c 3c 45 e5 46 3c e4 04 c0 bc
       -0.026078038 0.012464217 0.012139623 -0.023439832
000010 f8 8a 80 3c b8 4f cc bc 62 85 a4 bb ff db a7 3c
       0.015691265 -0.024940357 -0.0050207833 0.020490644
000020 08 fa 92 3c ed 02 be ba 0a 48 38 3d b5 2b 98 3b
       0.01794149 -0.0014496722 0.044990577 0.004643882
000030 c3 fa ea 3c f8 3a 81 bb 97 a2 ac bc 2b cf b7 bc
       0.028684026 -0.003943797 -0.021073623 -0.022437653
000040 1e bc a5 bc c4 84 00 ba 88 60 e5 3a e8 5b fe bc
       -0.020231303 -0.0004902596 0.0017500082 -0.031049684
000050 55 bf 49 3b 83 46 46 3c 8a 46 5b bc 9a 92 b0 bc
       0.0030784209 0.012101772 -0.013383517 -0.02155428
000060 3c f9 9c 3b 93 c6 a4 bb 95 bc 63 3c fe 33 5b 3c
       0.0047904532 -0.0050285547 0.013899942 0.013379095
000070 66 5f a6 bc d1 60 82 3c 5f 7f 64 bb 20 cb ba bc
       -0.020309161 0.015915306 -0.0034865958 -0.022801936
000080 47 1b 16 39 6a 50 a9 bb 0e e8 78 bc 29 1a 08 3d
       0.00014315276 -0.005167057 -0.015192045 0.033228073
000090 7a 65 70 3c 2e 63 bc bb 5b ef 43 3b 03 d6 b2 bc
       0.014672631 -0.005749128 0.0029897306 -0.021830564
0000a0 83 be e1 3b 3d b9 4f bc 40 da 87 bc 00 2f 55 bb
       0.006889166 -0.012678442 -0.016583562 -0.0032529235
0000b0 75 e0 f6 bc db 9d f2 bc d8 bc 18 bc d5 8b fa bb
       -0.030136326 -0.029616287 -0.009322368 -0.007646064
0000c0 d8 43 1c bc a9 43 f7 3b 7f 5e c0 3b 03 5a 8a ba
       -0.00953766 0.0075459075 0.00587064 -0.001055539
0000d0 31 67 09 bb 5c 33 50 3c db bd 0b bc df 1d 1c 3d
       -0.0020966048 0.0127075575 -0.008529152 0.038114425
0000e0 dc 8c ed bb 98 e2 7e ba 4c 1b 2e 3c 06 12 26 bc
       -0.0072494578 -0.0009723096 0.010626625 -0.010136133
0000f0 2f 57 7f 3b 4b 30 88 3b d8 2e af 3c 92 4f b2 b9
       0.0038961878 0.0041561476 0.021384642 -0.0003401009
000100 8b 91 ad 3c d9 7c 31 bc a0 29 9b 3c 4e 3f 50 3c
       0.021187564 -0.010832989 0.018940747 0.0127104055
000110 92 39 90 bb 04 a5 14 3c 2a da c2 ba bb 9f fc bc
       -0.004401394 0.009072546 -0.0014866043 -0.030837884
000120 b1 c6 25 3d 81 6d 48 3c 01 5d e7 bb 2a 13 17 bc
       0.04047269 0.012233139 -0.0070606475 -0.009220878
000130 27 5a a9 bb 51 83 f9 3b 00 83 c5 3c 02 ca 30 3c
       -0.0051682177 0.007614531 0.024110317 0.01079035
000140 41 ae 47 bb b4 51 d7 3c 82 0c c6 bc 09 0c 3d 3b
       -0.0030468854 0.026284076 -0.024175886 0.0028846285
000150 1a 70 12 bc 1a 00 75 3c 28 84 f1 ba fd 3b 04 bb
       -0.00893786 0.0149536375 -0.0018426226 -0.0020177357
000160 89 35 da 3a 1d a1 be 3b 14 e3 01 bb f7 1f 61 3b
       0.0016648035 0.005817546 -0.0019819187 0.0034351328
000170 69 bd 0e bc fc ea 82 3c 43 90 0e 3b d1 ca 64 bc
       -0.008712151 0.01598119 0.0021753467 -0.013964371
000180 f0 9b cc bc 2a 98 74 bb a9 27 20 bd a9 da 90 bc
       -0.0249767 -0.0037322142 -0.039100323 -0.01768239
000190 0a 18 25 3d 96 74 e9 3c d6 58 6f 3c 06 fe 1d 3c
       0.04030613 0.028497975 0.0146085825 0.009643083
0001a0 67 7f 9b ba 7a 08 b2 3c f3 09 aa 3c 49 21 e3 3c
       -0.001186353 0.021732558 0.020756697 0.027725833
0001b0 71 e1 17 3b 15 80 ec ba 1b 4e 5a bc 14 bc 77 bb
       0.0023175145 -0.0018043543 -0.013324286 -0.0037801312
0001c0 7b 76 59 3c 35 27 19 bd c9 fb 6a 3c f7 e5 af 3b
       0.013272877 -0.037390906 0.014342257 0.00536799
0001d0 2c ca 00 3d a1 6a ac bb de bf 28 bc 92 b1 e5 3a
       0.031442806 -0.0052617346 -0.010299651 0.0017524234
0001e0 2f 9b 09 bd f5 6e 4a 3c 64 68 5f 3b 3e db 0a bc
       -0.03359526 0.012355556 0.0034089321 -0.008475123
0001f0 c2 2b 6b 3b bd 72 a8 bc 0c 19 80 bd 43 c4 4e bc
       0.0035884236 -0.020562524 -0.06254777 -0.012620035
000200 77 14 85 bd ce 3e 2b bc d2 2c e5 bb 03 3b da 3c
       -0.06498044 -0.0104519855 -0.0069938684 0.026639467
000210 58 71 17 bd d2 e1 1d 3b e0 a2 0f 3a 26 3b af 3b
       -0.036973327 0.0024090898 0.00054792874 0.005347627
000220 c5 c0 18 bd 43 d9 18 bc 44 d0 21 3d 2e 2e 47 3d
       -0.037293214 -0.009329143 0.03950526 0.048628025
000230 26 80 54 3d 44 fc 2d 3c 74 cf a6 bb c1 21 3b bd
       0.051880024 0.010619227 -0.0050906483 -0.045686487
000240 1b d6 a0 bc aa c5 65 3d 86 bc 92 bb bb e7 9d bb
       -0.019633343 0.05609671 -0.00447804 -0.004818884
000250 5c 24 24 ba d3 57 20 bd 62 fe 5b 3d 04 e8 0d bd
       -0.00062615215 -0.039146256 0.053709395 -0.034645095
000260 85 65 b8 3c f0 48 db 3b 15 1c 8c 3c 19 7b 80 bd
       0.022509346 0.0066920444 0.017103234 -0.06273479
000270 32 45 45 bc 01 ab eb bb ad c4 cc 3b 7b d8 4a 3c
       -0.012040423 -0.007192016 0.0062490315 0.0123807145
000280 6a 45 64 bb 72 13 d6 bc cf 7a 30 bb 9e 85 89 3b
       -0.0034831413 -0.02613232 -0.0026928668 0.0041968366
000290 f2 96 63 bd 6b 8a 15 ba d5 9f 75 3d 1f 0c 2f bc
       -0.055563875 -0.0005704525 0.05996688 -0.010684042
0002a0 3d 79 ba bc ed b6 6d 3c 56 00 30 bd 07 ac 3d bb
       -0.022762889 0.014508945 -0.04296907 -0.0028941648
0002b0 36 2a d8 bc 7f 80 3a bb c9 8e 85 3d 4c f9 4f 3c
       -0.026387315 -0.0028457937 0.06521375 0.012693714
0002c0 fa 38 0c bd e4 84 a5 bc c3 d6 0d bd 79 4f 2b bd
       -0.034234025 -0.020204969 -0.03462864 -0.041823838
0002d0 57 f3 02 bc 08 05 36 3b d1 10 b5 bc 38 ab a1 3a
       -0.007992587 0.0027773995 -0.022102745 0.0012334352
0002e0 1e 68 55 bd 44 f1 74 bd 62 07 38 bd 8c dd 18 bd
       -0.052101247 -0.0598004 -0.044928916 -0.03732066
0002f0 8f fc e7 bc 1c 6f 05 bd cf 1f 1f bd ec d4 41 bc
       -0.028318672 -0.032576665 -0.038848694 -0.01183055
000300 79 8c 69 bd b2 1a 35 3d d2 65 9c 3c 7a ac 76 bd
       -0.05701873 0.04421491 0.01909152 -0.06022308
000310 e5 6f 0d bd 0c 98 3f 3c 9a 14 3f 3d 93 2e 52 bc
       -0.03453054 0.011693966 0.046650507 -0.012828487
000320 02 ad 32 bd 3a 23 4a bd be ff c7 bc 19 72 d9 3c
       -0.043622024 -0.04935 -0.02441394 0.026543664
000330 7f 75 2b 3c ae fa 56 bc 8e ae de bc e5 80 5d bd
       0.010465025 -0.01312129 -0.027182844 -0.054078
000340 ec 7c 14 ba 39 e1 d0 3b 32 69 ee 3c da e0 31 bd
       -0.0005664367 0.006374505 0.029102895 -0.043427326
000350 74 7c 56 3c 6a a7 66 bb 75 96 8a 3b fe 7c 00 bb
       0.013091195 -0.0035195001 0.0042293617 -0.001960575
000360 03 37 0d bc cd 06 12 3d 3b fc 88 bb a0 cc 2b bd
       -0.008619073 0.035651017 -0.004180459 -0.041943192
000370 0e 52 6d bc 16 29 20 bb 14 c7 94 bc d8 a0 07 bd
       -0.014484895 -0.0024438552 -0.018161334 -0.033112377
000380 94 e2 c0 bc d6 c8 a5 3c 66 f1 57 3d 3e a1 b5 bc
       -0.02354554 0.020237368 0.05272045 -0.022171613
000390 ad b3 27 3c 68 b1 0f 3c 57 9a 3a bd 04 6e 95 bc
       0.010235709 0.008770324 -0.045557346 -0.018240936
0003a0 b5 fc d2 bc f6 21 5a bd 49 2f 3a bc 8b 93 95 3b
       -0.025755266 -0.053255044 -0.011363813 0.0045647076
0003b0 5e b9 28 3a eb f2 04 bd 59 8e c5 bc 5d bb a0 3b
       0.0006436313 -0.032458227 -0.024115728 0.004905148
0003c0 a9 00 85 3c c0 ef 9a bc 59 a4 c6 bc 2b 6c 3a 3c
       0.016235666 -0.01891315 -0.024248289 0.011378328
0003d0 35 2c e2 bb 30 ff 09 3d f4 c1 f7 3c 3c 7d bb 3c
       -0.0069022425 0.03369063 0.030243851 0.022886865
0003e0 71 8e 20 bc 91 2a 63 3d 08 6e 12 bd 10 1e ca 3c
       -0.009799586 0.055460516 -0.035749465 0.024672538
0003f0 52 94 70 bd 5e b3 4f 3d 00 31 0d 3c 7c ea 17 bd
       -0.0587352 0.050708167 0.00861764 -0.037088856

network_body.linear_encoder.seq_layers.0.bias f4 [128]
000000 17 40 72 3c c6 85 0e bd 9c 04 31 3c ee 28 18 bc
       0.014785788 -0.034795545 0.010804322 -0.009287102
000010 45 07 f2 3c fc fb a0 bb 27 5d 31 bc 8b 2c fc 3b
       0.029544482 -0.0049128514 -0.010825432 0.0076957396
000020 da 38 dd bc f6 04 93 3b 97 73 dd bc d5 03 f0 bb
       -0.027004648 0.0044866754 -0.027032657 -0.0073246756
000030 91 eb 03 bd 95 0a 05 bc 10 f5 5a bc c6 a4 82 3a
       -0.032207076 -0.008120199 -0.0133640915 0.0009967319
000040 e7 3c 76 bc fa 94 24 3c ca 02 c4 bc 76 1f 7e 3c
       -0.015029169 0.010045284 -0.023927111 0.015510431
000050 bb 7e bc 3c 13 07 92 bb cd 44 a8 bc a3 e4 cd 3c
       0.023009649 -0.0044564097 -0.02054062 0.025133437
000060 6e 32 08 3c ee 7a c2 bc 94 55 ba bc 90 6a ec bc
       0.008312805 -0.023740258 -0.022745885 -0.028859407
000070 b7 b9 63 bd b5 71 f9 3b 69 19 de bb cd 3a 5d ba
       -0.055597033 0.007612432 -0.0067779315 -0.0008439243
000080 47 6f 61 3a 74 67 79 bc 4d ce 58 3b cd a3 c5 bb
       0.00085996505 -0.015222419 0.003308195 -0.0060314895
000090 ef 4f e8 bc fe be 96 ba 36 54 38 3c 76 76 d8 bc
       -0.028358428 -0.0011501012 0.011250546 -0.026423674
0000a0 17 23 af 3c 2b d1 79 3a 69 4e fc bc 9a 3b bc 3b
       0.021379037 0.00095297646 -0.030799108 0.0057444097
0000b0 98 31 49 bc 1b ca ba bb 3d 22 a8 3c 90 17 16 3c
       -0.0122798905 -0.0057003624 0.020524139 0.009160891
0000c0 61 ef 85 3c 30 65 9f bc 40 d3 2c bc ed 3f b1 3b
       0.016349496 -0.01945743 -0.010548413 0.005409232
0000d0 1e 00 c8 3b 3d d4 ef bb db ed 4a 3a f3 8b aa 3a
       0.0061035296 -0.007319002 0.00077411317 0.0013011679
0000e0 1e 54 c4 3c 12 d2 7d 3c 41 a1 8a 3b fe 48 78 bc
       0.023965891 0.015491979 0.0042306487 -0.015154121
0000f0 20 f5 91 bc 19 ae e2 bc 1b 30 b4 3c d2 39 1d 3c
       -0.01781708 -0.027670907 0.021995595 0.009596305
000100 7a f9 17 3c c0 49 24 bd 63 a3 c9 3c 85 b6 d3 bb
       0.009275788 -0.040109396 0.024614042 -0.006460967
000110 a0 16 2f bc 48 ab 85 3b 39 17 0e bd e1 e6 c5 3c
       -0.010686547 0.004079256 -0.034690116 0.024157943
000120 b4 7e c8 bb 03 cc 05 bd 37 7f 5f 3b 87 a6 0f 3c
       -0.00611862 -0.032665264 0.0034102926 0.008767731
000130 4f c4 0e 3c 1a 90 11 bb 90 1b 26 bc cd d6 c5 bb
       0.008713796 -0.0022211135 -0.010138407 -0.006037569
000140 c1 84 e0 bb 34 e2 17 bc 12 91 81 3b 2a e0 9b bc
       -0.006851763 -0.00927024 0.0039540613 -0.019027788
000150 30 d4 f2 bb 1c 47 80 bc e9 40 6a bc 9a 56 09 bc
       -0.0074105486 -0.015658908 -0.014297702 -0.008382464
000160 9d 75 93 bc 9e a2 82 bc 2c ca c6 ba 36 68 70 3a
       -0.018000418 -0.015946683 -0.0015166453 0.0009170802
000170 73 9b 9d bc e0 a6 97 3a 40 56 77 bc d0 3d 1d bc
       -0.019239163 0.0011570118 -0.015096247 -0.009597257
000180 ac 89 36 3c d9 f4 33 bc cc f1 ec bb fb 42 c5 bb
       0.011141222 -0.010983669 -0.007230973 -0.0060199476
000190 6d 81 cb bb 27 f5 45 bb d4 53 fe bb ba e2 ca bb
       -0.006210497 -0.0030205937 -0.007761458 -0.0061915787
0001a0 80 ec 04 3d 70 e5 a9 3c 03 67 27 3c b1 23 7b bb
       0.032452106 0.020739287 0.010217431 -0.0038320834
0001b0 22 20 96 3c b0 a8 d1 bc 8c d3 43 bb ed e8 80 bc
       0.018325869 -0.025593132 -0.002988073 -0.015736068
0001c0 d4 6e a8 bc 6a 83 4d 3c 53 f0 f7 bb fb 30 48 bb
       -0.02056066 0.012543539 -0.0075664907 -0.0030546773
0001d0 be 7c 0d 3c c3 c9 0b bc 4f d4 6f bb ba 2e 04 3c
       0.008635698 -0.00853199 -0.0036595052 0.008067781
0001e0 b6 19 c4 bb 8d 78 98 bd 5e 2d ae bb 7b 36 ab bc
       -0.0059845103 -0.07444868 -0.005315467 -0.020900002
0001f0 fa f0 94 3b af 2f 82 3c 0a 76 36 3b 6c 2a 0b bb
       0.004545328 0.015891878 0.0027841353 -0.0021235002

network_body.linear_encoder.seq_layers.0.weight f4 [128, 68]
000000 e2 3a 33 be a5 43 7f 3d ee 8c b3 bd e5 92 27 be
       -0.17502931 0.06232037 -0.087671146 -0.1636463
000010 5e be fe 3c 5d cb 3a be 0d 43 44 3d f7 0c 4e 3e
       0.031096634 -0.1824164 0.047915507 0.20122133
000020 31 b3 07 3e 99 d8 fc 3d 40 08 45 bd 41 1b 16 bd
       0.1325195 0.12346 -0.04810357 -0.036647085
000030 1d cc 42 bc b1 fa 80 3e 61 2c 05 bd f0 ba f2 bd
       -0.011889485 0.25191262 -0.032513026 -0.11852062
000040 40 92 c5 bd 13 65 16 be a3 c2 82 3e 00 0a 85 bd
       -0.096470356 -0.14686994 0.2553912 -0.06496048
000050 2f c8 cb bd 24 7a c9 3c 2b dc 0f 3c 62 d3 30 bd
       -0.09950291 0.024594374 0.0087805195 -0.04317034
000060 c1 64 11 3e 22 69 75 3d e8 e1 49 3e e4 d1 42 bd
       0.14198591 0.059914716 0.19715083 -0.04756345
000070 60 a7 23 3d 51 c9 e8 ba 41 a0 3b 3e eb 0a 39 bd
       0.039954543 -0.0017760192 0.18322851 -0.045176428
000080 97 1a 4f bd 1e e1 21 3d c9 36 97 bd cf 6d cf 3d
       -0.050562467 0.03952133 -0.07383496 0.10128366
000090 5f 22 26 3d ac bf 80 3b 62 b5 03 3d b4 53 37 be
       0.040560123 0.003929099 0.032155402 -0.17903024
0000a0 2f 89 48 bd ac b6 35 3e 09 3e 0d 3e 10 6c 17 3c
       -0.048958953 0.17745465 0.13793196 0.009242073
0000b0 ef 23 ad bd a6 b6 b5 3d 32 9f b8 3a b1 be ad 3d
       -0.084541194 0.08872728 0.001408553 0.08483637
0000c0 92 87 64 3d 95 ef a1 bd 29 8a ca 3c 8f 88 2a 3e
       0.055793352 -0.07907025 0.024724083 0.16653655
0000d0 dc 06 46 be c5 a7 1f 3e 9c 10 08 bd df b8 77 3d
       -0.19338554 0.15591343 -0.033218965 0.06047904
0000e0 6a 33 07 3e 78 22 20 be 61 5d bb 3d 8e 99 f1 3d
       0.13203207 -0.15638149 0.0914867 0.11796866
0000f0 ce fc 47 3e 37 ce d9 bd 91 fc 43 be ae ff 3a 3d
       0.19530031 -0.106350355 -0.19139315 0.04565399
000100 54 9c 5d 3d 69 e7 29 be 21 6f 82 3d e5 77 e5 bd
       0.054104164 -0.16592182 0.063688524 -0.11204509
000110 c7 04 47 3e 1f d9 08 be 06 53 93 bc 77 1f fa bd
       0.19435416 -0.13364075 -0.017983925 -0.12213033
000120 2c 57 e2 3d 55 ce c8 bd f0 c8 c8 3d 14 9e 58 be
       0.11051783 -0.0980498 0.09803951 -0.21154052
000130 cc 9c 29 bb c7 a8 e6 3c 2f 1e 45 bd a4 5c 26 3d
       -0.0025880812 0.028156651 -0.04812449 0.040615693
000140 56 5f b4 3d f7 a3 22 be a0 28 88 3d a9 2c 45 3e
       0.088072464 -0.1588286 0.066483736 0.19255318
000150 df 67 52 bc 2d c0 ba 3d bb a2 60 bd f5 18 79 be
       -0.012842148 0.09118686 -0.054842692 -0.24325927
000160 0a 46 9c bd ff 39 15 be 58 0d 04 3e 3c 32 b6 bd
       -0.076305464 -0.14572905 0.12895715 -0.088963
000170 6d ec d1 bd d7 4a 38 3d ff 0f 1b bc 2a 86 9e bd
       -0.10250173 0.044993248 -0.009464263 -0.077404335
000180 b7 90 84 bd a8 cb 43 bd 58 eb b1 3d fb 89 33 bd
       -0.06472915 -0.047801644 0.086874664 -0.04383276
000190 0b 7a 8e be a1 83 48 bd e6 9f 95 be 3f 20 5d 3e
       -0.27827486 -0.048953656 -0.29223555 0.21594332
0001a0 bf 14 72 bd ba d9 af 3e 88 57 95 3c 9c cd 35 3e
       -0.059101816 0.343458 0.018230215 0.17754215
0001b0 bf fd 7a 3d c7 2f 31 be 41 9c 13 3c 48 7f b2 3d
       0.061277147 -0.17303382 0.009009422 0.08715683
0001c0 fb f4 01 3e d2 e3 ca bd dc 4d 7d 3c f8 be 6c 3d
       0.12691109 -0.099067345 0.015460458 0.05779931
0001d0 5e 7e e4 3c 75 06 0f bd 24 7c 72 bd e7 66 0b be
       0.027892288 -0.034918267 -0.05920042 -0.13613473
0001e0 e2 d1 47 3d b0 9f d1 3d 76 f4 bf bd 9a 23 1f 3d
       0.048784144 0.10235536 -0.09372799 0.03885231
0001f0 e1 68 31 3e 4b 22 4a 3d 90 d7 eb 3c ad 60 c2 3d
       0.17325164 0.04934911 0.028789312 0.09491096
000200 23 8f 2b bd 2e df d0 3d ca 8f 3f 3e 02 43 5d be
       -0.041884553 0.10198818 0.18707195 -0.21607593
000210 c7 0c 6c bd d1 2f a3 bd 7d 3d 22 be 63 06 49 3d
       -0.057629373 -0.07968105 -0.15843768 0.049078356
000220 72 ec 43 bd e0 49 11 3d f0 71 6b bc 8d d0 a4 bd
       -0.047832914 0.035470843 -0.014370427 -0.080475904
000230 de 81 e6 bd da f4 ee bd d9 76 e3 3d 34 94 6e 3d
       -0.11255239 -0.116677955 0.11106653 0.058246806
000240 d3 5d 1c be 8d e3 d8 3d c1 95 5a bd af d1 96 bd
       -0.15270166 0.10590277 -0.053365473 -0.07364213
000250 d9 20 ca bc be 9b c5 bd 04 ac 1a bd 67 ca 48 3e
       -0.024673866 -0.09648846 -0.037761703 0.1960846
000260 45 84 e7 bd 1b c1 08 3e 21 2b c4 3b 72 d8 c6 bd
       -0.11304525 0.13354914 0.0059865867 -0.097092524
000270 af b1 42 3c ed 5d 9f bd cb a1 f4 bd 28 35 f7 bc
       0.011883183 -0.07781587 -0.11944922 -0.030176714
000280 25 d6 c8 bd 12 c0 10 3d 02 9b f1 3c ab 58 0f bd
       -0.0980647 0.035339423 0.029492859 -0.03499667
000290 e2 c1 5d bd 7b eb eb bd d3 94 e5 3d ce b1 68 3e
       -0.05413998 -0.11519524 0.112100266 0.22724077
0002a0 a9 ef 6b bd 02 e5 02 be 4b c7 84 be 61 a4 2f 3e
       -0.057601605 -0.12782672 -0.25933298 0.1715255
0002b0 5d ef ac bc 53 8e c5 bd 41 df 79 3e 9e fe f2 b9
       -0.021110231 -0.09646287 0.24401571 -0.00046347542
0002c0 fb 4e 85 3d fc 32 8f 3d c5 6d 0e bd 8a 7b 6e be
       0.06509205 0.069921464 -0.034772653 -0.23289314
0002d0 19 93 41 be 7d 2c b3 3d ac fe 33 3e 0d 00 34 3d
       -0.1890377 0.0874872 0.17577618 0.04394536
0002e0 de ee bd 3d de 65 43 3d 69 62 82 bd d2 86 d7 3d
       0.09274076 0.04770457 -0.063664265 0.10523762
0002f0 11 17 a0 3d 73 bb ea bd b9 72 9a bd 86 4c 1d 3e
       0.078168996 -0.11461534 -0.07541413 0.15361223
000300 92 d9 16 bd a4 34 10 be 1f 33 c1 bc 14 fc 22 3d
       -0.036828585 -0.14082581 -0.023583947 0.03979118
000310 26 45 b6 bc e5 d4 3f be 27 76 82 bc 37 f8 05 be
       -0.02224977 -0.18733557 -0.01592548 -0.13082968
000320 93 a8 19 be 1b 35 15 3e 91 24 57 3d 21 e6 1d 3d
       -0.15005712 0.1457104 0.052525107 0.038549546
000330 2c df 4e 3e 8a 4d f2 bc d9 bb b6 3d dc 09 56 3d
       0.20202321 -0.02957799 0.08922548 0.052255496
000340 6b 62 4b 3d 10 da be 3d cb a7 3e 3d 78 6a 8e bd
       0.049654406 0.09318936 0.04654674 -0.06953901
000350 97 fd fb 3d 40 00 24 3d a3 0f 02 3d f1 24 8c be
       0.12304228 0.0400393 0.031753194 -0.27371934
000360 44 bb 57 bc c1 dc 7a 3c 61 13 cc bd 23 ad 5b bd
       -0.013167206 0.015311421 -0.09964634 -0.053631913
000370 19 b8 e6 3c 0f 9a 43 3e 78 6a 44 3d e2 57 3a be
       0.028163956 0.19101737 0.0479531 -0.18197587
000380 8d 89 83 bd 71 ac 83 bd 67 a1 a2 3d cb c9 14 3d
       -0.0642272 -0.06429375 0.07940941 0.036325257
000390 3f 2d d3 ba 5b 17 29 3e 86 1e c2 3c e1 14 a6 3e
       -0.0016111507 0.16512816 0.023696195 0.32437804
0003a0 3c 05 8c bd a1 02 89 3d 31 fe 21 be 98 7b 28 bb
       -0.06836936 0.066899545 -0.15819623 -0.0025708433
0003b0 64 fb 5c be 92 6a fe 3c 98 86 11 bd ec 83 09 be
       -0.21580273 0.031056676 -0.03552875 -0.1342923
0003c0 c8 2c 1d 3d 6a f8 64 bd 64 24 9b bd 70 0e 50 3c
       0.038372785 -0.05590097 -0.075753 0.012698755
0003d0 d7 4d 5d bc 6f 24 09 be c3 5b 36 be 55 b7 26 3d
       -0.013507328 -0.13392805 -0.17808442 0.040702183
0003e0 30 34 e4 3d 2d d9 1a be e5 5e f3 3c 6c bd 2c be
       0.111427665 -0.15121908 0.029708335 -0.16869134
0003f0 0c 20 c1 bc 70 86 87 bd 46 6d a8 ba a7 22 77 3d
       -0.023574851 -0.06617439 -0.0012849949 0.06033578

network_body.linear_encoder.seq_layers.2.bias f4 [128]
000000 95 7f c3 bc 74 ed ed 3b 8d 2b 33 bb ad ed ac 3c
       -0.023864547 0.0072609726 -0.002733919 0.021109426
000010 d5 21 df bc 20 ba 8e ba 01 ba 0a bc 69 6b db bb
       -0.027237812 -0.001088921 -0.008467198 -0.006696154
000020 9c fd 01 bd fa 3a d7 3b 9a 14 14 3b 62 57 73 3c
       -0.031736 0.00656831 0.0022595287 0.014852377
000030 b0 69 c7 3c 01 36 cc bb 04 ca 72 3b 60 0c 84 bc
       0.024342388 -0.0062320237 0.003704668 -0.016119182
000040 75 f5 82 bc 3a ae e3 3c ef 97 82 3b 20 05 8d bb
       -0.015986184 0.027793039 0.003985397 -0.0043035895
000050 3e 2b 3f 3b d6 93 ea bc aa 49 e2 3c 84 b0 9a bc
       0.0029170061 -0.028634947 0.027623016 -0.018882997
000060 63 53 ff ba ae d8 c2 3b 1f f7 25 3c 29 a5 fd bc
       -0.0019479807 0.0059462404 0.010129719 -0.030962544
000070 92 b7 9c bb 41 41 ba bb 3a 3e eb bc 95 fd 03 3c
       -0.0047826255 -0.0056840484 -0.028716195 0.008056064
000080 ef ba a1 3c d3 7f 04 bd e6 27 0b bc 5b d5 75 bb
       0.019742457 -0.032348465 -0.008493399 -0.0037511203
000090 56 ae 49 bd 3f d5 82 bc 9e d1 ce 3c 75 11 17 bc
       -0.049238525 -0.015970824 0.025246438 -0.009220471
0000a0 5a 29 98 bc e0 f0 2b 3c 36 3d b9 bc 3c ce ef bb
       -0.018574405 0.010494441 -0.022612195 -0.007318286
0000b0 d4 c0 2c bc 63 91 9d 3a bc 74 d2 3c 84 88 99 bb
       -0.010544021 0.0012021478 0.025690429 -0.0046854634
0000c0 ae f9 cc bc b4 3f 85 bc 5f 90 15 bc 03 e7 b6 bc
       -0.0250214 -0.016265728 -0.009128659 -0.022326952
0000d0 09 6e 10 bc ad db e0 3b ee 2b aa 3a 8f 40 4e bc
       -0.008815297 0.006862125 0.0012983063 -0.012588634
0000e0 d8 0e 04 bd 0b 66 c5 bc 01 fa a9 bb d4 5a ea bc
       -0.03224072 -0.02409651 -0.0051872735 -0.028607763
0000f0 3e a5 cc bc 59 3d a8 bc f8 89 cb bc 7a 20 18 bc
       -0.024981137 -0.020537065 -0.024846062 -0.009285087
000100 a1 4d ff bc c9 d2 6f 3c 26 3f 29 39 82 79 0b bd
       -0.031164946 0.014637657 0.0001614062 -0.034051426
000110 0f a7 98 bc 10 1b 0b 3c ca 79 62 3c 3e 85 38 3c
       -0.018634347 0.008490339 0.013822982 0.011262236
000120 c3 64 dd bc ba 35 f7 bc 4c 02 e6 bc 37 c0 fc 39
       -0.027025586 -0.030176986 -0.028077267 0.00048208397
000130 27 0d 88 bb 72 d6 1c bc 34 47 2e bc 80 86 12 bd
       -0.0041519585 -0.009572612 -0.010637093 -0.0357728
000140 87 67 c7 3a c8 18 65 bb 87 21 a5 3c 9b 26 ff bc
       0.0015213349 -0.0034957398 0.020157589 -0.031146338
000150 13 e8 35 3c 6c d2 4c bc 9c 10 bc bb e9 f5 4d bc
       0.011102694 -0.01250134 -0.0057392847 -0.012570837
000160 b5 e1 fa 3b 92 82 45 3c 64 dc 65 3b 36 60 0e bd
       0.007656301 0.012055056 0.003507399 -0.034759723
000170 89 2a b8 bb 10 18 e4 3b bf af d5 3a 7a 61 4b bc
       -0.005620305 0.0069608763 0.0016302987 -0.012413377
000180 98 76 95 bc d2 38 19 bb 9f b1 96 3c f5 42 c7 bb
       -0.018245026 -0.0023379815 0.018395243 -0.00608098
000190 ce e4 c7 3b 9a 52 4d 3c a1 56 d8 bc 79 bf 98 bc
       0.0061002737 0.012531901 -0.026408495 -0.018645989
0001a0 48 d5 ae 3a 26 01 23 bd f0 5e 63 bc 41 5e 91 bc
       0.0013338709 -0.039796017 -0.013877615 -0.01774514
0001b0 ef df 2f 3b b9 3c 8a 3c 3c 20 7f bc 2e 93 fc 3b
       0.0026836356 0.016874658 -0.01557165 0.007707975
0001c0 2b 00 12 bc f7 5a 47 bc 91 51 a6 bc ee f9 6d bb
       -0.008911173 -0.012167684 -0.020302566 -0.00363123
0001d0 81 e8 7b bc 5a 14 53 3c 7e 50 59 3b a3 01 45 3c
       -0.0153752575 0.01288327 0.003315955 0.012024316
0001e0 e1 ac 85 3b a2 f8 44 3c 5f 9a 2e bc 78 fb 16 3c
       0.0040794467 0.012022169 -0.010656922 0.009215228
0001f0 3f b3 d7 bc b4 ca a9 3c 5c 81 91 3c bb b7 eb bb
       -0.026330588 0.02072654 0.017761879 -0.0071935332

network_body.linear_encoder.seq_layers.2.weight f4 [128, 128]
000000 3e 53 67 3c c1 62 b2 3d 74 6c fb bd 6f 13 f7 bc
       0.014118968 0.08710242 -0.12276545 -0.030160634
000010 24 d9 68 be 3e 8b 13 3d b3 cb 14 3c 4c b6 0f 3c
       -0.22739083 0.036021464 0.009081769 0.00877149
000020 3f 2d 9f 3d f8 cf 56 be dd ec 19 3d 3e 5e 0c 3e
       0.07772302 -0.20977771 0.037579406 0.13707826
000030 ee 03 62 bd 70 8c 2d 3e 43 9a cd bd 3a 13 cd bd
       -0.05517953 0.16948104 -0.10039189 -0.10013433
000040 cf 36 a0 3d 79 b5 af 3d a9 4a 78 3a 3e ed 33 be
       0.07822954 0.08579535 0.00094715744 -0.1757097
000050 95 d6 b0 3c d7 e4 75 bd 14 92 29 be c9 59 3a bd
       0.021586696 -0.06003269 -0.1655963 -0.045495782
000060 e7 84 12 be 40 4f 36 be 6d ed a0 bd 3c fb 3b 3d
       -0.1430851 -0.17803669 -0.078577854 0.045893893
000070 47 ce 3b 3d 44 8e b4 3d d4 f3 71 3d c2 34 76 3d
       0.04585102 0.088161975 0.059070423 0.060108908
000080 bc 4c 0d bd 8d 15 2a bd 36 e6 55 be 1b 34 67 be
       -0.034497008 -0.04152446 -0.208886 -0.2257847
000090 ed 7a 25 bc ce 3a e5 bd 06 47 fa 3c ef d4 7a bc
       -0.010100109 -0.11192857 0.030551445 -0.015309556
0000a0 44 f8 da 3c 41 cf b1 bd 4b 6d 14 be 31 f9 99 3d
       0.02672971 -0.08682109 -0.14494817 0.075182326
0000b0 45 08 85 be 60 1a c3 bd 5e d5 89 3d cf 50 f4 bc
       -0.25982872 -0.09526515 0.0673015 -0.029823689
0000c0 17 af c2 bd 5b df 69 bd 71 a1 13 3e 27 02 0a be
       -0.09506052 -0.057097774 0.14417054 -0.13477384
0000d0 e4 0f 1e be 9f ba c7 bd fe 51 ee 3d 67 11 23 3d
       -0.1543575 -0.09752392 0.116367325 0.039811518
0000e0 a9 6d aa be 1c 3f 74 bb d3 19 2c bd e8 92 0e bd
       -0.3328679 -0.0037269061 -0.042016815 -0.03480807
0000f0 0b e3 6d bd 11 ff b7 3b f8 9e 7a 3d 44 18 6f 3d
       -0.058077853 0.005615123 0.06118676 0.05837275
000100 40 97 b6 bd b9 fd 60 bd 05 8e 4b bd a8 53 61 3d
       -0.089155674 -0.05492947 -0.049695987 0.05501142
000110 16 11 1f be 4a 0d cd bd 85 91 c8 3c eb 28 56 3d
       -0.15533862 -0.100123 0.024483452 0.052285116
000120 66 2e 09 b9 70 84 1b 3d bc 7b d9 3d 79 a0 a9 bc
       -0.00013082623 0.0379681 0.106193036 -0.020706402
000130 3b d1 15 3e 8a 16 eb 3d 36 f5 02 bc 65 44 b2 3d
       0.14630596 0.11478908 -0.007993033 0.087044515
000140 79 c4 fa bd 13 1f 82 bd 96 65 da 3d bb ee 6c 3d
       -0.122445054 -0.06353583 0.10663907 0.05784486
000150 1d d6 10 be f7 9a 32 be 33 43 7f bc be c0 34 bd
       -0.14144178 -0.17441927 -0.015579986 -0.044129126
000160 22 a1 1d be 5a 79 5e 3e 9e 18 04 3e 27 af 17 bd
       -0.15393499 0.2172598 0.12900016 -0.037032273
000170 94 d6 96 bd 29 ac 95 3b ae 88 05 be 31 e0 c0 3d
       -0.07365146 0.004567642 -0.1304042 0.09417761
000180 be df ce 3c 88 9e 9b 3d 1f b4 a6 bd 16 dd 9d 3d
       0.025253173 0.07598597 -0.08139824 0.077081844
000190 90 08 73 3e a0 d7 48 bd bd 08 33 bd 72 2f 89 3d
       0.23733735 -0.04903376 -0.043709505 0.066985026
0001a0 a0 26 85 3d af 02 96 bc d9 e3 a2 3d 2b e4 53 be
       0.06501508 -0.018311827 0.07953615 -0.20692508
0001b0 3e 0c 86 3d 37 23 3f 3d 60 82 52 be e3 f1 24 3e
       0.06545304 0.046664443 -0.20557547 0.16107897
0001c0 38 23 69 3d 49 0d d9 bc 7a a0 c1 bc 04 bf c7 bb
       0.056918353 -0.026495593 -0.023636092 -0.006095769
0001d0 14 b0 21 3e 4b 57 84 bd 8c 59 ac 3c 70 81 36 bd
       0.15789825 -0.06461962 0.021038793 -0.044557035
0001e0 c1 0c cd 3d 3c 0c 1c 3e 19 61 3e 3e 9e 43 d8 bc
       0.10012198 0.15239042 0.18591727 -0.02639943
0001f0 93 3b d4 3d 95 84 ec bd 50 21 0b 3e f7 4f 57 3d
       0.103629254 -0.115487255 0.13586926 0.052566495
000200 73 b6 10 bc 6b ba 13 3e e2 a3 0b 3d c9 bf 32 3d
       -0.008832562 0.14426582 0.034091838 0.04363993
000210 be 12 a8 3d 54 9e b9 bc 0f e8 a3 bd da 4c c2 bb
       0.082067 -0.022658505 -0.08003246 -0.0059295716
000220 38 15 8b bd 76 5c 9d 3c cd a0 c5 bd a2 7f 6e bd
       -0.067911565 0.019209128 -0.09649811 -0.05822719
000230 16 28 84 3d bc 30 fa bc af 70 9c 3c 7c 01 d4 bd
       0.06452958 -0.030540816 0.0190967 -0.103518456
000240 c7 f6 10 3d 4c a9 13 3d b0 7e 28 bd f7 25 90 bd
       0.035391595 0.036050126 -0.041136444 -0.07038491
000250 20 2a 75 bd 73 47 1d 3e b8 4d 71 3c 02 e3 ce bd
       -0.059854627 0.15359287 0.014728002 -0.10101892
000260 a7 06 3c bd e9 93 93 3d 06 15 ed bd 41 be 43 3c
       -0.04590478 0.07205946 -0.115762755 0.011947216
000270 aa d5 59 bd 15 ce bd 3b 50 a3 f8 3d a5 18 2c 3d
       -0.05318228 0.005792389 0.121405244 0.04201569
000280 71 e0 df 3d 7f c3 c5 bc 5b 26 32 3e 20 4c 0c be
       0.10931481 -0.024141071 0.17397444 -0.13700914
000290 c3 07 26 be 59 02 77 bd d4 d9 10 3c 98 95 90 3d
       -0.16213898 -0.060304973 0.008840997 0.07059783
0002a0 cd a1 25 3d 9b 5a 54 3d 60 d5 ec 3d 05 4c cb 3d
       0.04043751 0.05184422 0.115641356 0.09926609
0002b0 11 19 54 bd 29 ea 63 bd 53 a1 e7 bd ca eb 8d bd
       -0.051781718 -0.055643234 -0.11310067 -0.06929739
0002c0 e1 1c c1 3d c2 49 ee bd 7e 02 33 bc 3d c2 f9 bb
       0.09429336 -0.11635162 -0.010925887 -0.007622032
0002d0 5d cb e2 bd 59 b8 17 3d 86 61 bb 3c b6 5b aa bd
       -0.11073945 0.037041042 0.022873651 -0.08318274
0002e0 17 d0 ef bd 70 7a 98 3b 52 5a 98 3c 15 c0 90 bd
       -0.11709612 0.0046532676 0.018597756 -0.07067887
0002f0 9b c4 0e bd 71 1b 9b bd b5 75 57 3d c7 70 a8 3c
       -0.034855466 -0.075735934 0.05260249 0.020561589
000300 f9 94 5c 3d 8d 4c af bc 60 d4 53 bd 8f 80 8c 3c
       0.05385301 -0.021398807 -0.05171621 0.017151145
000310 f5 97 af bd 8c 0e bc bb 30 ec 72 bc fe 27 81 3e
       -0.085739054 -0.005739039 -0.014826819 0.25225824
000320 4d f2 fe bd 17 28 2c 3e 58 4c c7 3d 36 a2 ab 3c
       -0.12448559 0.16812168 0.09731358 0.020951372
000330 2e 4d be bc dd b3 2b 3d 50 d9 a8 3d 6e 90 01 3c
       -0.023230162 0.041919578 0.08244574 0.00790797
000340 64 d6 83 bd b5 41 3a bd f8 d0 bc bd 3d 7c bd 3d
       -0.06437376 -0.04547282 -0.09219545 0.09252212
000350 70 97 34 3d 45 08 34 be ea 06 22 3e 54 53 ff bd
       0.044089735 -0.1758128 0.1582295 -0.124670655
000360 ed 12 f9 3c d4 ff da 3c 6c 21 43 3d d2 95 2d 3d
       0.030404532 0.026733316 0.047639295 0.042379208
000370 24 13 a3 3e 83 1b f4 3d 14 b1 73 3c d6 96 19 be
       0.3185054 0.1191931 0.014873762 -0.14998946
000380 16 ab e5 3c d4 4b e4 3d 0d 59 8a bd 07 91 b5 bb
       0.028035682 0.111472756 -0.06755266 -0.0055409702
000390 b2 3a f2 bc ab 1e 4c 3c 38 76 b7 3c 4b b7 f6 3d
       -0.029569004 0.012458484 0.022395238 0.12046679
0003a0 3f 25 97 3d fb 0d c9 bc ce 8d 3e bd 1a 12 18 be
       0.07380151 -0.0245428 -0.046521954 -0.14850655
0003b0 c4 27 05 3b 47 6f 92 3c bb 8e 58 bd af 3d 9b bd
       0.0020317892 0.017875327 -0.052870493 -0.075801246
0003c0 45 10 e1 3d e1 b1 9a 3d 9d d7 33 bd 6f 81 88 3d
       0.10989431 0.07553459 -0.043906797 0.066653125
0003d0 b2 df a5 bd f2 76 52 bc 72 7c 30 bd 5a 02 6e 3c
       -0.08099307 -0.012845742 -0.04308743 0.014526928
0003e0 c3 94 9d 3c d1 5e bd 3c 78 df 22 b9 0f 80 14 3e
       0.019235974 0.023116501 -0.00015532773 0.14501975
0003f0 1d af d2 bd 43 86 f2 3d 9e dc 9e bd 36 f9 9e bd
       -0.102873065 0.11842015 -0.07756923 -0.07762377
