Assets/Brains/mx9/KartAgent.onnx (onnx, 104129 bytes, 7 tensors)

39 f4 [1, 2]
0.0031020145 -0.04704865
00000000: 2b4b 4b3b 16b6 40bd

distribution.mu.bias f4 [2]
-0.0008300912 0.02165926
00000000: 7a9a 59ba c36e b13c

distribution.mu.weight f4 [2, 128]
-0.0059887446 0.037241466 0.009676528 0.0016582205 -0.015606847 -0.026733747 0.035559256 -0.0030457547
0.0012307853 -0.0135482475 0.013728371 -0.0056271786 0.0048248447 0.002822325 -0.0023199022 -0.05694817
0.015110123 0.013171363 -0.0146925235 0.02115086 0.008672048 0.002946114 0.0016828093 0.020308606
0.008569559 0.0044647376 -0.00505378 -0.030312775 -0.015258169 0.016537288 0.008888735 -0.0054396978
0.0053272755 0.031187821 0.010309757 -0.0006709547 -0.027897159 -0.012542726 0.014439939 -0.008814643
-0.039608642 0.04038925 0.0091220625 -0.0027347773 -0.02443581 0.004149451 0.004225981 -0.011803047
0.045764234 0.011457589 0.008404912 -0.014123186 -0.016753403 -0.024712868 0.022853483 -0.016861774
0.0031054416 0.002297439 -0.016996767 -0.02263944 -0.020866914 -0.029697727 0.00771608 0.02344647
-0.0015528862 0.0014974832 0.059429448 0.0030787636 -0.002022842 0.03487234 0.015359639 -0.04649527
-0.010131937 -0.016036943 -0.025714297 -0.003600188 -0.00044001656 -0.010693367 0.003609434 0.005686411
-0.023946796 -0.0013403187 -0.018211117 -0.011438378 0.002748704 -0.004027698 0.0071482314 -0.016302977
0.035758767 -0.012379151 0.023794098 0.029394718 -0.01569035 -0.0063903136 0.0008689774 -0.0039819223
-0.0017939395 -0.0036345576 -0.0102650765 -0.0009529857 0.00077260676 0.018998282 0.01345802 0.006912248
0.024171887 0.018375687 0.0013345474 -0.012899129 0.009114074 -0.0035109317 0.0033972014 0.032677203
-0.009850405 -0.007181421 -0.033519745 0.019126426 -0.018129004 -0.03229745 -0.04069957 -0.0029944156
-0.010428227 -0.028772464 0.02201835 0.007603666 -0.019653518 -0.030812938 -0.0041209855 -0.021653691
-0.032958847 -0.008615294 0.02583118 0.032954287 -0.0031627535 -0.018007565 -0.014013264 -0.027290149
0.017108152 0.002841527 0.025937144 -0.048719693 0.03029779 0.028959896 -0.018577224 0.038693875
0.034209915 0.040953856 -0.015662214 0.031123709 -0.036719434 -0.025035229 0.0052140183 0.04050573
-0.030272437 0.044933934 -0.032833174 0.018972242 0.033738993 -0.033141457 -0.037889883 -0.024984868
-0.04885972 0.011057918 -0.046459 -0.038853582 0.03567944 0.0077936216 0.015268253 -0.050695203
-0.034704868 -0.035143435 0.023497516 0.049491283 0.04994707 -0.05441599 0.02365696 0.043220658
0.030722076 -0.007837193 -0.035675507 -0.022078305 0.016609192 -0.022939531 0.005939571 0.061625563
0.02338644 -0.017264618 -0.024494888 -0.060643796 0.01928576 -0.013319668 0.0419662 0.031317424
0.034600057 0.031535897 0.023885688 -0.02611987 0.020058643 0.05775619 -0.022529358 0.04551829
0.04550022 -0.054138318 0.011465694 0.025479909 0.019788314 0.004600544 -0.007776681 0.024962308
-0.023390662 -0.034256842 0.016631285 -0.06821399 -0.020434972 0.0024584047 -0.048265576 0.04421654
0.04276308 0.043243114 0.055626012 -0.0010275744 -0.04185648 -0.04250203 -0.04765633 0.009448378
0.020339169 0.02921842 0.026355717 -0.017341375 -0.052372884 0.0084631415 0.027281197 0.04871895
0.04236488 0.01309466 -0.032766525 0.004850601 0.03062825 -0.033201616 -0.018839838 0.03371693
-0.016685879 0.024827376 0.015755458 -0.049126543 0.029519226 0.036041956 0.028244369 0.02448037
-0.016191594 0.02984496 -0.016186 -0.035695087 0.026998404 0.014354367 0.045504656 0.033304702
00000000: 3b3d c4bb 828a 183d 4d8a 1e3c a658 d93a
00000010: dcb3 7fbc bb00 dbbc 95a6 113d 499b 47bb
00000020: 4d52 a13a 78f9 5dbc f6ec 603c 3264 b8bb
00000030: bb19 9e3b c2f6 383b 8009 18bb 7c42 69bd
00000040: 7390 773c b3cc 573c e9b8 70bc 9144 ad3c
00000050: 3515 0e3c 9713 413b b691 dc3a 3c5e a63c
00000060: 5667 0c3c ef4c 923b 2e9a a5bb 7f52 f8bc
00000070: 66fd 79bc 3579 873c 0fa2 113c 7e3f b2bb
00000080: 6d90 ae3b 9a7d ff3c 41ea 283c 02e3 2fba
00000090: 9588 e4bc 0180 4dbc 7e95 6c3c 4b6b 10bc
000000a0: ac3c 22bd 336f 253d b474 153c f339 33bb
000000b0: 9c2d c8bc 1ef8 873b 197a 8a3b 9161 41bc
000000c0: 4773 3b3d 9db8 3b3c c2b4 093c ef64 67bc
000000d0: 6f3e 89bc a472 cabc 3a37 bb3c b421 8abc
000000e0: aa84 4b3b a190 163b ce3c 8bbc 5976 b9bc
000000f0: 17f1 aabc a648 f3bc 2cd7 fc3b d012 c03c
00000100: 378a cbba 3347 c43a 4b6c 733d 15c5 493b
00000110: a891 04bb 4cd6 0e3d ffa6 7b3c d371 3ebd
00000120: 6d00 26bc e85f 83bc caa6 d2bc 22f1 6bbb
00000130: 06b2 e6b9 3b33 2fbc 418c 6c3b 1355 ba3b
00000140: 122c c4bc a2ad afba 7b2f 95bc 0968 3bbc
00000150: 9a23 343b c8fa 83bb b63b ea3b d28d 85bc
00000160: c977 123d ecd1 4abc d7eb c23c 31cd f03c
00000170: 0d89 80bc d665 d1bb 16cc 633a c97a 82bb
00000180: 9f22 ebba c231 6ebb da2e 28bc cad1 79ba
00000190: c388 4a3a 49a2 9b3c 077f 5c3c 2480 e23b
000001a0: 1f04 c63c 9c88 963c fbeb ae3a de56 53bc
000001b0: 3253 153c a917 66bb 95a3 5e3b 88d8 053d
000001c0: 9863 21bc 2052 ebbb 004c 09bd 06af 9c3c
000001d0: 4783 94bc 554a 04bd 98b4 26bd f53d 44bb
000001e0: 27db 2abc 3bb4 ebbc d45f b43c 2c28 f93b
000001f0: 6a00 a1bc 6a6b fcbc 5509 87bb 1563 b1bc
00000200: dbff 06bd 2927 0dbc e99b d33c 13fb 063d
00000210: 3346 4fbb 9a84 93bc e497 65bc 978f dfbc
00000220: 6526 8c3c ea38 3a3b 227a d43c 4d8e 47bd
00000230: 1233 f83c 4e3d ed3c 432f 98bc 787d 1e3d
00000240: b21f 0c3d 3bbf 273d 0b4e 80bc 26f7 fe3c
00000250: 1e67 16bd ae16 cdbc 5bda aa3b 56e9 253d
00000260: e7fd f7bc a50c 383d 147c 06bd ad6b 9b3c
00000270: e631 0a3d 56bf 07bd 6c32 1bbd 11ad ccbc
00000280: 2121 48bd 452c 353c cb4b 3ebd ef24 1fbd
00000290: 9b24 123d a361 ff3b b227 7a3c c6a5 4fbd
000002a0: b126 0ebd 90f2 0fbd dd7d c03c 5fb7 4a3d
000002b0: 4d95 4c3d 4de3 5ebd 3ecc c13c 2508 313d
000002c0: ddac fb3c 9267 00bc 7b20 12bd 90dd b4bc
000002d0: 0010 883c afeb bbbc bca0 c23b 166b 7c3d
000002e0: eb94 bf3c 876e 8dbc 81a9 c8bc a165 78bd
000002f0: 2cfd 9d3c bd3a 5abc c0e4 2b3d b346 003d
00000300: cab8 0d3d c92b 013d ebab c33c 56f9 d5bc
00000310: 0652 a43c c191 6c3d 7d8f b8bc 6371 3a3d
00000320: 705e 3a3d 24c0 5dbd 9bda 3b3c 3ebb d03c
00000330: 1a1b a23c 29c0 963b 87d3 febb c17d cc3c
00000340: c69d bfbc e750 0cbd 553e 883c c7b3 8bbd
00000350: 3e67 a7bc 301d 213b 20b2 45bd 671c 353d
00000360: 5728 2f3d b11f 313d 1ad8 633d adaf 86ba
00000370: b371 2bbd 9c16 2ebd 4933 43bd 5fcd 1a3c
00000380: 549e a63c 785b ef3c f2e7 d73c 800f 8ebc
00000390: f384 56bd fda8 0a3c d17c df3c 868d 473d
000003a0: cc86 2d3d fc8a 563c 3136 06bd caf1 9e3b
000003b0: 19e8 fa3c 6bfe 07bd 0156 9abc c31a 0a3d
000003c0: d3b0 88bc c862 cb3c 9711 813c ea38 49bd
000003d0: 4ed2 f13c bba0 133d bc60 e73c 0f8b c83c
000003e0: 3ca4 84bc 6b7d f43c 8198 84bc 0335 12bd
000003f0: c22b dd3c 942e 6b3c 1763 3a3d 836a 083d

network_body.linear_encoder.seq_layers.0.bias f4 [128]
0.018670378 0.024756048 -0.011079221 0.021343932 0.020407122 0.018518912 0.007822111 -0.0071759536
0.020943383 -0.018027283 -0.01714264 -0.0084819915 0.0166403 -0.020534858 0.02116521 0.019981278
0.012632993 -0.0030440066 -0.0051027425 0.013752232 -0.01696494 0.0068687676 -0.017447913 -0.008850638
-0.007969787 -0.0051501836 -0.023053113 0.0018244816 -0.010213818 -0.00856306 0.021315657 0.0002685777
-0.0041763764 -0.019312542 -0.021051597 -0.008308657 -0.00035285662 -0.0070390543 0.017072706 0.01668208
0.009382262 -0.018765192 -0.012420043 0.020759972 0.01886779 0.00011692044 0.018958932 -0.018756213
0.020910148 -0.019391203 0.019762298 0.0023033405 0.0051399656 -0.017332165 -0.02377265 0.023304665
-0.016093643 -0.009674058 0.00032025063 -0.0152341565 0.018036427 0.014262519 0.016134555 -0.021514151
0.019371737 0.006820739 0.014801447 0.020914106 0.011983446 0.02045978 0.0043652835 -0.00088899815
-0.01977892 -0.022858333 0.0059301746 -0.020304056 -0.020711083 -0.013879075 -0.017980121 -0.013899031
0.018205794 -0.021623038 -0.01609202 0.0057967333 -0.01319231 -0.018573381 -0.0058971816 -0.026520891
-0.020984665 0.020362126 -0.022723787 -0.00042029365 -0.017564 -0.016219802 0.01900394 0.022161698
-0.020404337 -0.014870396 0.010664987 0.0173597 0.011085262 -0.015489793 0.013386983 -0.018196873
-0.020316476 -0.024474874 0.01933108 0.0003833687 0.01961637 0.007251247 -0.020360671 -0.004658624
0.016959481 -0.012791826 -0.021325497 0.0069794427 -0.011455642 -0.019951904 -0.011359708 0.022192152
0.0017485422 0.0185625 -0.016707422 -0.020688202 0.00871611 0.004030505 -0.017795382 0.015686274
00000000: 9ff2 983c 32cd ca3c 9f85 35bc 78d9 ae3c
00000010: d62c a73c f9b4 973c 5028 003c 4324 ebbb
00000020: 7591 ab3c f4ad 93bc b96e 8cbc 0df8 0abc
00000030: 3d51 883c b838 a8bc aa62 ad3c c7af a33c
00000040: 9dfa 4e3c f57d 47bb e834 a7bb 0b51 613c
00000050: 0ffa 8abc 6613 e13b edee 8ebc 4402 11bc
00000060: b693 02bc dfc2 a8bb e2d9 bcbc 7223 ef3a
00000070: dc57 27bc 144c 0cbc 2c9e ae3c e4cf 8c39
00000080: fcd9 88bb 5635 9ebc 6674 acbc 0921 08bc
00000090: 9dff b8b9 dea7 e6bb 0fdc 8b3c dca8 883c
000000a0: 0fb8 193c 76b9 99bc 707d 4bbc d110 aa3c
000000b0: a090 9a3c 2f33 f538 c34f 9b3c a1a6 99bc
000000c0: c24b ab3c 4dda 9ebc 8be4 a13c a4f3 163b
000000d0: 286d a83b 2ffc 8dbc dcbe c2bc 6de9 be3c
000000e0: d1d6 83bc f17f 1ebc 50e7 a739 af98 79bc
000000f0: 21c1 933c 57ad 693c 9d2c 843c 723e b0bc
00000100: 7ab1 9e3c 8180 df3b c581 723c 0f54 ab3c
00000110: 3756 443c 459b a73c a70a 8f3b a80b 69ba
00000120: 6707 a2bc 6641 bbbc e951 c23b b154 a6bc
00000130: 4aaa a9bc 0f65 63bc 0c4b 93bc c3b8 63bc
00000140: 5124 953c cc22 b1bc 69d3 83bc 86f2 bd3b
00000150: 8f24 58bc 3427 98bc 253d c1bb 5742 d9bc
00000160: 08e8 abbc 79ce a63c 3c27 babc dc5a dcb9
00000170: 61e2 8fbc 64df 84bc 27ae 9b3c 738c b53c
00000180: ff26 a7bc f6a2 73bc 33bc 2e3c ee35 8e3c
00000190: f59e 353c e7c8 7dbc 1455 5b3c 9c11 95bc
000001a0: bd6e a6bc 887f c8bc 375c 9e3c e0fe c839
000001b0: 82b2 a03c de9b ed3b 6ccb a6bc 5fa7 98bb
000001c0: 9cee 8a3c cf94 51bc cfb2 aebc cfb3 e43b
000001d0: 72b0 3bbc 2d72 a3bc 121e 3abc 51cc b53c
000001e0: 572f e53a 6210 983c 01de 88bc 4e7a a9bc
000001f0: 04ce 0e3c 5412 843b 9fc7 91bc 8080 803c

network_body.linear_encoder.seq_layers.0.weight f4 [128, 68]
-0.06969255 0.11308693 0.038532633 0.03314909 0.21290313 0.069613785 0.018110698 -0.04578174
0.012228159 -0.161254 0.15801036 -0.14719145 0.058865596 -0.0064162556 0.122482784 -0.20067395
0.19130138 -0.11050033 -0.031307004 -0.16295925 -0.12357629 -0.16390096 -0.088624634 -0.06269121
0.09609754 0.015350721 -0.10519425 0.23710409 0.14481603 0.013352646 -0.020228049 -0.0052873227
-0.086352855 0.040768288 0.10180818 0.053211004 0.14649776 0.18171021 0.16681173 0.0054131728
0.1701798 0.04893687 0.10128346 0.10567 0.2101509 -0.00783542 -0.0007899026 0.28998438
0.27120665 0.04595491 -0.1707783 -0.16869253 0.14639406 0.017704034 0.03401019 0.07761623
-0.14282782 0.01707959 -0.11652804 0.06221146 -0.00095622253 0.08334742 -0.14582402 -0.17207547
0.048221223 -0.03432032 -0.052469175 0.036197156 -0.06444398 0.028150756 0.27460027 -0.01674539
0.031921376 0.1561729 -0.05553001 -0.031271502 -0.047245312 0.038516916 -0.13164313 0.19209856
0.07194448 -0.110519275 -0.0648511 0.07212909 0.19442485 0.16451868 -0.013839387 0.024425233
-0.027777627 -0.1586531 -0.18003383 -0.072751686 0.05044955 -0.15202568 -0.008282793 0.21553352
0.081747785 -0.20121452 -0.06684713 -0.049706746 0.04330005 -0.05312881 -0.16941907 0.13241974
-0.044363394 -0.12441035 -0.06372908 0.0640833 0.07817301 0.060219504 -0.0015046655 0.16065003
0.074040666 -0.08443206 0.110583425 -0.0464225 0.089868635 -0.013524411 0.09099385 -0.0007755508
0.04388524 -0.08287583 -0.04047452 -0.06369532 -0.04818898 0.104233384 -0.20738436 0.07598363
-0.14619423 0.011410722 -0.31150874 0.16946258 -0.19690858 0.20216651 0.14443411 -0.13293874
0.014401592 -0.03472283 -0.11680198 -0.017097142 -0.07779703 -0.050466835 -0.2040133 0.134176
0.0060288166 -0.09698753 0.057192206 0.2261864 -0.06226864 0.16420071 0.0847957 0.0490279
-0.21660075 -0.04333568 0.08906449 -0.024175616 0.11267209 0.042488676 0.046301577 -0.019950466
-0.009318987 -0.0025196027 0.12238561 0.17848921 0.031892 0.02663057 -0.10830613 -0.13614878
-0.05392878 -0.070973925 0.1131236 0.02909849 -0.024649853 -0.15545511 -0.020348374 0.002783557
0.11779877 0.032420196 -0.12278031 0.09005287 -0.057952363 0.06832577 0.1455532 -0.08314376
-0.011729172 -0.02533367 -0.091557175 -0.02685288 -0.06789208 0.29980633 -0.03282106 0.060764413
0.015367173 0.02888927 -0.10669673 0.13306706 -0.037420034 0.14172149 -0.15525638 0.10840122
-0.38045296 -0.008794044 -0.0321597 -0.0567627 0.057491995 0.11703742 -0.005041591 0.12788582
0.07557748 -0.025116159 -0.058930203 -0.1628941 -0.17223257 -0.013940426 -0.036390785 0.15530516
-0.0571934 0.22772774 -0.08279916 0.018287433 0.07349274 -0.031102132 0.004737317 -0.0634224
0.008647115 0.19287592 -0.07201683 0.10874741 0.029883845 -0.010419894 0.021690838 0.15881155
0.055411384 -0.009957516 -0.10427513 0.13812421 0.10195724 0.1378858 -0.08947166 -0.12505995
0.16332811 0.13663496 0.22568448 0.14773196 0.015586962 -0.06896548 0.13109732 -0.11389078
0.050288294 0.11148466 0.052150827 0.24379003 -0.008058426 -0.15084054 0.06971144 0.05906997
00000000: f8ba 8ebd 1f9a e73d 65d4 1d3d 57c7 073d
00000010: 4703 5a3e ac91 8e3d e35c 943c a285 3bbd
00000020: 9e58 483c c51f 25be 78cd 213e 5bb9 16be
00000030: 0d1d 713d 743f d2bb 41d8 fa3d 797d 4dbe
00000040: 82e4 433e ff4d e2bd c63b 00bd cade 26be
00000050: 9115 fdbd a7d5 27be d580 b5bd 4064 80bd
00000060: c9ce c43d 9781 7b3c 1570 d7bd 6acb 723e
00000070: a74a 143e 0ec5 5a3c 4bb5 a5bc 4741 adbb
00000080: c4d9 b0bd a6fc 263d cf80 d03d c8f3 593d
00000090: 8203 163e 3e12 3a3e b2d0 2a3e fc60 b13b
000000a0: 9d43 2e3e 0772 483d b46d cf3d 8369 d83d
000000b0: cc31 573e 2260 00bc 7711 4fba d578 943e
000000c0: 99db 8a3e 373b 3c3d 82e0 2ebe bcbd 2cbe
000000d0: 53e8 153e 0d08 913c 454e 0b3d 42f5 9e3d
000000e0: 7541 12be 7fea 8b3c 41a6 eebd 72d1 7e3d
000000f0: 02ab 7aba 0db2 aa3d e452 15be 8d34 30be
00000100: 9e83 453d 7793 0cbd ebe9 56bd 7843 143d
00000110: 35fb 83bd 6a9c e63c 6898 8c3e a12d 89bc
00000120: fdbf 023d caeb 1f3e 7073 63bd 8c16 00bd
00000130: 4d84 41bd eac3 1d3d 75cd 06be 7cb5 443e
00000140: a157 933d ee57 e2bd a7d0 84bd 6bb8 933d
00000150: 4f17 473e 9677 283e 99be 62bc 6d17 c83c
00000160: e88d e3bc f575 22be ca5a 38be d6fe 94bd
00000170: 30a4 4e3d 9fac 1bbe 8db4 07bc d2b4 5c3e
00000180: 626b a73d 2e0b 4ebe 26e7 88bd 4d99 4bbd
00000190: 655b 313d 989d 59bd 317c 2dbe 0a99 073e
000001a0: 64b6 35bd dbca febd 6484 82bd 1b3e 833d
000001b0: 2c19 a03d baa8 763d 3238 c5ba 7181 243e
000001c0: a2a2 973d b7ea acbd 9079 e23d 8525 3ebd
000001d0: 0c0d b83d 7e95 5dbc fc5a ba3d 554e 4bba
000001e0: 02c1 333d ceba a9bd 9cc8 25bd b172 82bd
000001f0: cf61 45bd 5078 d53d 915c 54be 4e9d 9b3d
00000200: f1b3 15be 09f4 3a3c 137e 9fbe 9987 2d3e
00000210: 67a2 49be bd04 4f3e 89e6 133e 1821 08be
00000220: a8f4 6b3c 8739 0ebd e035 efbd 4e0f 8cbc
00000230: 0d54 9fbd 50b6 4ebd dde8 50be 6f65 093e
00000240: 618d c53b 66a1 c6bd 6042 6a3d 689d 673e
00000250: 670d 7fbd 3b24 283e 5ea9 ad3d 7bd1 483d
00000260: 96cc 5dbe c180 31bd 7167 b63d f10b c6bc
00000270: a0c0 e63d 9b08 2e3d b9a6 3d3d 296f a3bc
00000280: aaae 18bc eb1f 25bb 4fa5 fa3d e0c5 363e
00000290: 30a1 023d 5a28 da3c 9bcf ddbd 966a 0bbe
000002a0: 6de4 5cbd c75a 91bd 59ad e73d f55f ee3c
000002b0: 7dee c9bc a02f 1fbe a2b1 a6bc 566c 363b
000002c0: 7b40 f13d 0acb 043d 3e74 fbbd a46d b83d
000002d0: 755f 6dbd 62ee 8b3d e60b 153e 4747 aabd
000002e0: b72b 40bc 8f88 cfbc 5482 bbbd 92fa dbbc
000002f0: 010b 8bbd 3780 993e 606f 06bd 1be4 783d
00000300: 98c6 7b3c 31a9 ec3c d183 dabd bb42 083e
00000310: c045 19bd 701f 113e 87fb 1ebe 7501 de3d
00000320: bbca c2be e514 10bc e4b9 03bd 0180 68bd
00000330: ba7c 6b3d 51b1 ef3d ee33 a5bb 80f4 023e
00000340: 5ec8 9a3d 67c0 cdbc cc60 71bd b6cd 26be
00000350: bc5d 30be 6266 64bc 810e 15bd 5108 1f3e
00000360: a043 6abd 7631 693e 9b92 a9bd 87cf 953c
00000370: 5d83 963d e6c9 febc 7f3b 9b3b 9ae3 81bd
00000380: a1ac 0d3c 4481 453e 8f7d 93bd f6b6 de3d
00000390: f7ce f43c 34b8 2abc fcb0 b13c 7f9f 223e
000003a0: 0cf7 623d d924 23bc 338e d5bd 6f70 0d3e
000003b0: f5ce d03d ef31 0d3e eb3c b7bd b70f 00be
000003c0: 7c3f 273e 09ea 0b3e d519 673e 0c47 173e
000003d0: 7560 7f3c c63d 8dbd 603e 063e 923f e9bd
000003e0: 19fb 4d3d 1252 e43d 1b9c 553d 18a4 793e
000003f0: 7d07 04bc f175 1abe dfc4 8e3d 5af3 713d

network_body.linear_encoder.seq_layers.2.bias f4 [128]
-0.017979447 0.0024981974 0.013274833 0.021575741 -0.014501931 -0.0048356587 8.780595e-05 -0.019355422
0.004176567 0.012916197 0.012147199 -0.01914207 0.018738963 0.018939812 -0.014953863 0.01014726
0.016924363 0.019017197 -0.0037769733 0.013156492 -0.019511702 -0.020438358 -0.004151835 0.017689772
-0.020432794 0.021541797 -0.020485938 0.0038243018 0.02156862 -0.019391522 -0.019424617 -0.017188307
-0.020340921 0.0016108889 -0.018895682 -0.019128738 0.016808921 0.008841391 0.0019275006 -0.017379884
-0.00802693 -0.010880894 0.010764174 0.022166621 0.019789545 -0.01790627 0.01853531 0.021233758
0.007783904 -0.012001871 -0.01926092 -0.009097216 0.019940415 -0.008001167 0.014968247 0.022406992
0.01675108 -0.018007627 -0.009644298 -0.0188848 0.006411496 0.003603893 0.020728344 0.012160109
0.021029186 0.020624302 0.0041501056 -0.017601531 0.015469298 0.018442122 -0.0061782226 0.014077338
0.021776378 -0.018288441 -6.8276146e-05 0.01666957 0.015698629 -0.009734512 -0.013367481 0.017109152
-0.010025461 -0.016739411 0.0020603973 -0.014314547 -0.016685441 -0.01353673 -0.01859925 0.020319764
0.012828601 0.02085556 0.018961387 -0.000907984 -0.016819231 -0.019022522 -0.019628905 0.011507067
0.011693952 0.020381907 0.015795955 -0.019021608 -0.019673474 0.011447611 0.012345427 0.021958614
0.019481625 0.00022623509 -0.020082477 -0.0031101843 0.017741384 -0.018951379 -0.013106342 0.008643726
-0.005077314 0.022004345 0.010327988 -0.018280683 0.02018191 0.014177879 0.008854897 0.018419275
-0.004451614 0.007354093 -0.010960893 -0.019523423 0.013060635 0.0071981135 0.022112481 0.01433935
00000000: a249 93bc ccb8 233b af7e 593c 9cbf b03c
00000010: 8299 6dbc 7274 9ebb 7624 b838 438f 9ebc
00000020: 95db 883b 759e 533c 0c05 473c d5cf 9cbc
00000030: 7482 993c aa27 9b3c 0c01 75bc b140 263c
00000040: f6a4 8a3c f4c9 9b3c 1987 77bb 548e 573c
00000050: 01d7 9fbc 586e a7bc 1e0c 88bb 24ea 903c
00000060: ad62 a7bc 6c78 b03c 20d2 a7bc 23a1 7a3b
00000070: adb0 b03c f8da 9ebc 6020 9fbc 7ece 8cbc
00000080: 01a2 a6bc 7624 d33a 1ecb 9abc dfb3 9cbc
00000090: ddb2 893c 7bdb 103c 30a4 fc3a 4260 8ebc
000000a0: 6283 03bc c745 32bc 385c 303c c696 b53c
000000b0: af1d a23c 2cb0 92bc 5dd7 973c 6bf2 ad3c
000000c0: 1f10 ff3b 7fa3 44bc 14c9 9dbc 7d0c 15bc
000000d0: 155a a33c 5417 03bc 613d 753c de8e b73c
000000e0: 9039 893c bb84 93bc 1e03 1ebc 4cb4 9abc
000000f0: 8717 d23b 4b2f 6c3b 7dce a93c 323b 473c
00000100: 6645 ac3c 4cf4 a83c 9cfd 873b 1631 90bc
00000110: f072 7d3c ef13 973c b072 cabb a3a4 663c
00000120: 6064 b23c a4d1 95bc 7a2f 8fb8 9f8e 883c
00000130: 699a 803c 817d 1fbc 4703 5bbc 7e28 8c3c
00000140: d541 24bc 1721 89bc bb07 073b 9087 6abc
00000150: e8af 88bc 29c9 5dbc 745d 98bc a275 a63c
00000160: 0d2f 523c 48d9 aa3c e954 9b3c c605 6eba
00000170: 7cc8 89bc 1fd5 9bbc cccc a0bc 2388 3c3c
00000180: fd97 3f3c f5f7 a63c 8566 813c 34d3 9bbc
00000190: 442a a1bc c38e 3b3c 7944 4a3c 8de2 b33c
000001a0: ee97 9f3c 8539 6d39 0284 a4bc 3cd4 4bbb
000001b0: 6156 913c ec3f 9bbc fcbb 56bc 6a9e 0d3c
000001c0: 995f a6bb 7542 b43c b936 293c 5fc1 95bc
000001d0: 8854 a53c 564a 683c 2114 113c 05e4 963c
000001e0: d8de 91bb 9afa f03b 5195 33bc 96ef 9fbc
000001f0: 46fc 553c 27de eb3b 3c25 b53c 98ef 6a3c

network_body.linear_encoder.seq_layers.2.weight f4 [128, 128]
0.19825281 0.052463807 0.13732013 -0.01325374 -0.08461249 0.07495266 -0.024528656 -0.004074174
-0.06409966 0.102519736 0.05809165 0.07286582 -0.047992032 0.14385116 -0.035034563 -0.2704719
-0.0818955 -0.04689376 0.09164758 -0.06801657 0.11449817 0.104884356 0.0009560908 0.09635635
0.14261408 0.10573001 0.11812522 -0.009168274 -0.031203205 -0.17363234 0.048471753 -0.093064964
-0.08148495 -0.042458866 0.029258307 0.16037677 -0.034803174 -0.079851255 0.0014772993 0.15208249
-0.0016029528 -0.08328429 0.025911309 0.034593415 -0.22430539 0.13979705 -0.11862788 -0.045123905
0.033861518 -0.079234794 0.07808272 0.016149271 -0.016740313 0.13784027 -0.08274416 -0.014696846
0.0054980377 -0.030226648 0.022813482 0.073890574 0.019291881 0.10544071 -0.20027468 -0.03568812
0.08726841 0.036559407 0.037490718 0.025578497 -0.044762183 0.09553735 -0.07184767 -0.11405253
-0.1286507 -0.09634926 -0.06427661 0.05339343 0.10611812 0.097376525 0.018670876 0.022570988
-0.0758641 0.07820703 -0.072087064 0.100559585 -0.15428428 0.11163883 0.0050382502 0.079594806
-0.031336106 -0.04535382 -0.16275431 0.031786546 0.17975093 0.08114522 0.02069958 0.08637937
0.07122291 0.061681394 -0.04753961 -0.17663157 0.0798173 -0.04314268 -0.16023839 -0.052097518
0.10868967 0.10077863 -0.027235784 -0.13436782 -0.14559433 0.13506179 0.15613662 0.009387796
-0.084772296 0.03789549 0.04490956 -0.1996053 0.11253008 -0.03796933 -0.099968664 0.00030302076
-0.06424013 -0.10854599 0.023578726 0.033998594 -0.024939012 -0.04175069 0.118386894 0.00047756077
0.0019720101 0.11362006 -0.06719518 -0.087197796 0.052258387 -0.019132163 -0.09793786 0.14120273
-0.004859055 0.015915297 -0.026458664 0.10464947 0.06397111 -0.12411031 -0.015047486 0.097729884
0.07623235 0.15835512 0.0946963 0.015972696 0.18124111 0.071828365 0.03193985 -0.14799121
-0.1957612 -0.100191 0.01909935 -0.07836435 0.029498668 0.09695121 0.013577338 0.075381644
0.012689244 0.14490062 0.01615648 -0.040625725 -0.07095716 -0.05775552 -0.13286668 0.070289336
0.12547347 0.16123848 -0.0030015267 -0.19986881 0.059557844 0.059211317 0.0340613 -0.19875954
-0.0065392097 0.1087685 -0.1077184 -0.036044884 0.1210407 -0.059583854 0.00677285 0.04487434
-0.046435367 0.093713194 0.05761627 -0.013643334 0.0726153 -0.10544101 0.04095435 -0.028037583
0.08704237 0.09181453 -0.0035160761 0.01166571 0.039625887 -0.012303726 -0.05603972 0.056543674
0.112450615 0.06152114 -0.071845464 0.0030508842 -0.10340989 0.19631599 0.026152996 -0.0319536
-0.13457827 -0.0597514 -0.060547683 0.24970461 0.11159093 -0.000466941 -0.055965804 0.12287182
0.035686772 -0.011390775 -0.118983544 -0.06567876 0.14951542 0.14981398 -0.008468447 0.08052714
-0.040048696 -0.020513363 -0.075813636 -0.055129644 0.13413213 -0.0039361673 -0.26182246 0.2364621
-0.040668573 0.08752623 -0.03258169 0.18874449 -0.019114347 0.02009556 0.16675137 0.08828418
0.0052114 -0.1737084 -0.059156694 0.10853959 0.08503562 0.08401353 0.07449719 -0.041151468
-0.03981657 0.014720499 0.05755666 0.0043718116 -0.035441045 -0.03683754 0.08658943 -0.047591522
00000000: c902 4b3e 4ae4 563d a69d 0c3e 3726 59bc
00000010: 5049 adbd c880 993d 52f0 c8bc a680 85bb
00000020: af46 83bd def5 d13d 83f1 6d3d ad3a 953d
00000030: 4b93 44bd b84d 133e 6780 0fbd 4b7b 8abe
00000040: d4b8 a7bd ac13 40bd bab1 bb3d 454c 8bbd
00000050: 047e ea3d 9ccd d63d 2ba2 7a3a 7a56 c53d
00000060: 6d09 123e fa88 d83d a3eb f13d 8736 16bc
00000070: dd9d ffbc adcc 31be 518a 463d d898 bebd
00000080: 95e1 a6bd 59e9 2dbd 1eaf ef3c cf39 243e
00000090: c68d 0ebd 0e89 a3bd f0a1 c13a 83bb 1b3e
000000a0: 2c1a d2ba f490 aabd f443 d43c d3b1 0d3d
000000b0: 50b0 65be f526 0f3e 2df3 f2bd d8d3 38bd
000000c0: 60b2 0a3d da45 a2bd d5e9 9f3d 7a4b 843c
000000d0: fb22 89bc 0026 0d3e c575 a9bd 0acb 70bc
000000e0: e228 b43b e09d f7bc 57e3 ba3c f153 973d
000000f0: 020a 9e3c 4df1 d73d ce14 4dbe b52d 12bd
00000100: c8b9 b23d 51bf 153d de8f 193d ff89 d13c
00000110: 8d58 37bd 16a9 c33d df24 93bd 5f94 e9bd
00000120: 02bd 03be c352 c5bd 75a3 83bd 12b3 5a3d
00000130: 7554 d93d 586d c73d aaf3 983c cbe6 b83c
00000140: a35e 9bbd 022b a03d 62a2 93bd 2ff2 cd3d
00000150: b3fc 1dbe e6a2 e43d e817 a53b 9a02 a33d
00000160: 4a5a 00bd edc4 39bd 11a9 26be 9c32 023d
00000170: a110 383e 772f a63d 2a92 a93c abe7 b03d
00000180: 51dd 913d a1a5 7c3d e5b8 42bd e8de 34be
00000190: 4177 a33d 61b6 30bd 8815 24be 3564 55bd
000001a0: b198 de3d 0765 ce3d 941d dfbc b897 09be
000001b0: ae16 15be a34d 0a3e 47e2 1f3e 45cf 193c
000001c0: 199d adbd 4d38 1b3d 16f3 373d 5565 4cbe
000001d0: 2c76 e63d ba85 1bbd 5fbc ccbd c2de 9e39
000001e0: 5490 83bd 5c4d debd 2c28 c13c 1c42 0b3d
000001f0: e64c ccbc c602 2bbd d474 f23d 1f61 fa39
00000200: d73c 013b a2b1 e83d a09d 89bd c294 b2bd
00000210: e40c 563d 0ebb 9cbc a593 c8bd 7397 103e
00000220: b538 9fbb cc60 823c d7bf d8bc 7652 d63d
00000230: 4903 833d 8c2d febd bb89 76bc 9b26 c83d
00000240: b51f 9c3d d827 223e 22f0 c13d 2cd9 823c
00000250: 4597 393e c01a 933d 5cd3 023d 028b 17be
00000260: a075 48be f030 cdbd 3d76 9c3c 7d7d a0bd
00000270: 31a7 f13c 5b8e c63d 7c73 5e3c b161 9a3d
00000280: 8ce6 4f3c d460 143e 985a 843c 2967 26bd
00000290: fd51 91bd 0d91 6cbd 340e 08be dbf3 8f3d
000002a0: 1e7c 003e b31b 253e 43b5 44bb 69aa 4cbe
000002b0: edf2 733d 9187 723d dd83 0b3d 9f87 4bbe
000002c0: de46 d6bb 05c2 de3d 779b dcbd cda3 13bd
000002d0: 30e4 f73d 330e 74bd c9ee dd3b 28ce 373d
000002e0: 0333 3ebd b4ec bf3d 0aff 6b3d 4a88 5fbc
000002f0: 55b7 943d 75f1 d7bd c0bf 273d 13af e5bc
00000300: 4543 b23d 4209 bc3d f86d 66bb 8921 3f3c
00000310: c14e 223d 9195 49bc e889 65bd 579a 673d
00000320: 824c e63d 97fd 7b3d b723 93bd 58f1 473b
00000330: 90c8 d3bd 0f07 493e cf3e d63c c7e1 02bd
00000340: e3ce 09be e2bd 74bd d900 78bd 91b2 7f3e
00000350: c989 e43d c3cf f4b9 663c 65bd 39a4 fb3d
00000360: 4b2c 123d 60a0 3abc a5ad f3bd 9682 86bd
00000370: 921a 193e d668 193e 3ebf 0abc 6aeb a43d
00000380: 1a0a 24bd a40b a8bc 2e44 9bbd 9fcf 61bd
00000390: ef59 093e f7fa 80bb 980d 86be 1f23 723e
000003a0: 1794 26bd f440 b33d 6174 05bd 3c46 413e
000003b0: b195 9cbc 729f a43c dfc0 2a3e 56ce b43d
000003c0: 64c4 aa3b 9de0 31be 4a4e 72bd 014a de3d
000003d0: 2827 ae3d 490f ac3d fc91 983d 718e 28bd
000003e0: b316 23bd 3f2e 713c 88c0 6b3d 6a41 8f3b
000003f0: a12a 11bd f6e2 16bd cd55 b13d 54ef 42bd
