Learning/results/mx10/KartAgent/KartAgent-499944.onnx (onnx, 104129 bytes, 7 tensors)

39 f4 [1, 2]
0.010679666 -0.10008301
00000000: c4f9 2e3c 52f8 ccbd

distribution.mu.bias f4 [2]
-0.0030245236 0.039728995
00000000: 1637 46bb dfba 223d

distribution.mu.weight f4 [2, 128]
-0.0383364 -0.0057897563 0.021466821 -0.034844387 0.011119735 0.047997523 0.043452747 -0.015338564
-0.009475526 -0.012927368 0.0027314103 -0.05185946 0.034644336 0.014315224 0.025777305 -0.0021723562
-0.07093366 0.012644295 -0.012920696 0.023137467 -0.003931408 0.034109578 -0.01704575 -0.025699044
-0.029424032 0.024707431 -0.0279138 0.033368155 -0.008676567 0.0038431438 -0.026106115 0.00019148277
0.009350549 -0.0017162575 0.04826571 0.014307044 -0.037364736 0.032006525 0.0038886317 0.007056842
0.0103312805 0.054545406 0.023373062 0.020690402 0.003382692 0.017348656 0.016921002 -0.010579375
0.018503703 0.0027993445 -0.015083904 -0.04144108 0.041988336 -0.031229537 0.049811196 0.008733321
0.010452115 -0.01607114 -0.0016169264 0.04334043 0.005116034 -0.058463514 0.03700602 0.07379931
0.017154276 0.003809538 0.0054313825 -0.046429634 -0.05069513 -0.006638938 0.014043231 -0.013531074
-0.010756936 -0.040084675 -0.015136452 -0.024052028 0.004251782 -0.04343716 -0.023839515 0.0014030754
-0.0008443489 -0.021344075 -0.0088681765 0.0021573387 0.022711135 0.0036426967 0.03283736 -0.004763087
-0.077598885 0.023089053 0.009262093 -0.05223925 0.006245011 0.010200189 0.0014809057 0.011464061
-0.01630449 0.007252651 -0.002112907 -0.04860196 0.03847554 -0.011366318 0.0054909755 0.061609533
0.011053487 -0.049540553 0.01490321 -0.00845185 0.015247183 0.004311425 0.027143894 0.055203665
0.0083832815 0.0889122 -0.012653678 -0.02782299 0.013217582 0.017631488 0.06897379 0.030100843
0.0032658412 -0.038605615 0.04074504 0.019485507 0.0738826 -0.0080500515 -0.01735736 0.003477669
0.01794287 -0.047177516 -0.06779323 0.03692466 -0.064251944 -0.0226978 0.046759542 0.06291744
-0.053602383 -0.030570254 -0.030088682 0.018490627 0.06532498 0.057942048 -0.03568055 -0.038850296
-0.029302314 -0.052548382 0.055575524 0.026268408 -0.040851418 0.024778888 0.035966627 0.05666316
-0.040912606 -0.019448092 -0.038590737 0.061020136 0.03903652 -0.0453597 -0.034249436 -0.04961131
0.04174498 0.030516502 -0.039495967 -0.0426483 -0.031880792 -0.0317824 -0.06288809 -0.048938572
0.040351726 0.0027992565 0.027398266 -0.05353555 -0.049815845 0.028149461 0.028091118 -0.041068457
-0.05231176 0.063613065 0.050305992 0.010202529 -0.045266442 0.052813627 -0.00050243805 0.0221087
-0.037987538 0.029102474 0.015405417 0.015359535 0.03377387 0.0066580325 0.022430858 -0.016777905
0.041871004 -0.055099998 0.04053781 0.003364761 -0.017488947 0.029375106 -0.062215693 0.05012159
-0.044330493 -0.01579638 -0.0223052 0.046727177 0.06616802 0.02133274 -0.025566796 -0.053870335
0.04946877 -0.03282023 -0.05629151 -0.059564345 -0.037956726 -0.042164613 -0.043667424 -0.043787044
-0.0020523774 -0.059848405 0.046974942 -0.034628402 -0.034728434 0.04987334 0.06213681 -0.041654658
0.031289194 0.06321316 -0.060443893 0.023423083 0.03720373 0.04236576 -0.048448473 0.039707106
-0.062032323 -0.019122142 0.046494685 -0.04315564 -0.054965086 -0.03666278 -0.05438176 0.0072338725
0.06959551 0.011908101 0.03713706 0.03277703 -0.026476862 0.031091362 0.005436086 0.04272945
-0.07160994 0.025550056 0.043494515 0.028792592 0.037731797 -0.053107828 0.049472045 -0.040494733
00000000: a106 1dbd ffb7 bdbb 30db af3c fdb8 0ebd
00000010: 8d2f 363c 0d99 443d 82fb 313d 9a4e 7bbc
00000020: 3d3f 1bbc 50cd 53bc 7601 333b 966a 54bd
00000030: 38e7 0d3d 678a 6a3c ed2a d33c 175e 0ebb
00000040: ab45 91bd 042a 4f3c 54b1 53bc c98a bd3c
00000050: 0ad3 80bb 7cb6 0b3d 87a3 8bbc cd86 d2bc
00000060: ab0a f1bc 3d67 ca3c 7bab e4bc 0cad 083d
00000070: 2928 0ebc 41dd 7b3b 7edc d5bc c4c8 4839
00000080: 0c33 193c 0cf4 e0ba 44b2 453d 1868 6a3c
00000090: c40b 19bd 4619 033d 6ad8 7e3b 153d e73b
000000a0: 8844 293c 016b 5f3d dd78 bf3c eb7e a93c
000000b0: 28b0 5d3b c51e 8e3c ea9d 8a3c 1d55 2dbc
000000c0: 1495 973c 3575 373b 7b22 77bc 1fbe 29bd
000000d0: f6fb 2b3d 16d5 ffbc d306 4c3d 3416 0f3c
000000e0: 593f 2b3c a0a7 83bc 0cef d3ba bc85 313d
000000f0: 67a4 a73b 7077 6fbd a093 173d 1824 973d
00000100: 2087 8c3c 71a9 793b bdf9 b13b 002d 3ebd
00000110: b2a5 4fbd 738b d9bb 9415 663c 70b1 5dbc
00000120: dc3d 30bc d42f 24bd e2fe 77bc c208 c5bc
00000130: 8852 8b3b 2aeb 31bd 164b c3bc 66e7 b73a
00000140: 4c57 5dba c5d9 aebc d44b 11bc 2362 0d3b
00000150: b40c ba3c 4fba 6e3b 7880 063d ab13 9cbb
00000160: 2aec 9ebd 4125 bd3c 09c0 173c d3f8 55bd
00000170: f3a2 cc3b b21e 273c f31a c23a c2d3 3b3c
00000180: fe90 85bc a5a7 ed3b b278 0abb d912 47bd
00000190: 8798 1d3d cb39 3abc a4ed b33b 475a 7c3d
000001a0: af19 353c 09eb 4abd 982c 743c a179 0abc
000001b0: 52cf 793c db46 8d3b df5c de3c 3d1d 623d
000001c0: 085a 093c 9917 b63d 5f51 4fbc 0aed e3bc
000001d0: 8f8e 583c e96f 903c 2142 8d3d 0b96 f63c
000001e0: b907 563b ec20 1ebd 45e4 263d 12a0 9f3c
000001f0: c34f 973d 5de4 03bc 0631 8ebc 9be9 633b
00000200: edfc 923c 363d 41bd 2dd7 8abd 503e 173d
00000210: 8696 83bd bdf0 b9bc ef86 3f3d dcda 803d
00000220: 2c8e 5bbd 786e fabc 8a7c f6bc a879 973c
00000230: 1ac9 853d a454 6d3d c525 12bd 7d21 1fbd
00000240: 680b f0bc f93c 57bd 29a3 633d d830 d73c
00000250: d153 27bd 18fd ca3c be51 133d a117 683d
00000260: fa93 27bd 9b51 9fbc 5211 1ebd 40f0 793d
00000270: c2e4 1f3d 18cb 39bd 2349 0cbd 3b35 4bbd
00000280: c9fc 2a3d befd f93c 86c6 21bd fcaf 2ebd
00000290: 6f95 02bd 432e 02bd 79cb 80bd d073 48bd
000002a0: da47 253d bb73 373b 5472 e03c 1848 5bbd
000002b0: b30b 4cbd b399 e63c 581f e63c 6637 28bd
000002c0: db44 56bd 9147 823d a80d 4e3d 8228 273c
000002d0: 4e69 39bd 1a53 583d 0cb6 03ba 4e1d b53c
000002e0: d298 1bbd 5068 ee3c 0167 7c3c 8fa6 7b3c
000002f0: 7856 0a3d a02b da3b ebc0 b73c d171 89bc
00000300: ee80 2b3d 89b0 61bd fa0a 263d 5283 5c3b
00000310: fb44 8fbc 10a4 f03c e2d5 7ebd 4c4c 4d3d
00000320: e493 35bd 6967 81bc 65b9 b6bc ff64 3f3d
00000330: 1983 873d 00c2 ae3c 7571 d1bc 24a7 5cbd
00000340: c49f 4a3d 816e 06bd ed91 66bd bef9 73bd
00000350: 8378 1bbd cdb4 2cbd 9ddc 32bd 0b5a 33bd
00000360: 2e81 06bb 9a23 75bd cc68 403d 83d6 0dbd
00000370: 673f 0ebd fd47 4c3d 2b83 7e3d 139e 2abd
00000380: 1929 003d e775 813d 0494 77bd c4e1 bf3c
00000390: f062 183d b887 2d3d e871 46bd eba3 223d
000003a0: 9b15 7ebd 0aa6 9cbc 3671 3e3d f8c3 30bd
000003b0: 1223 61bd b62b 16bd 69bf 5ebd 1f0a ed3b
000003c0: 1788 8e3d 321a 433c 081d 183d 3541 063d
000003d0: 01e6 d8bc 50b3 fe3c 3221 b23b 1305 2f3d
000003e0: 3ba8 92bd 5a4e d13c 4e27 323d 71de eb3c
000003f0: a88c 1a3d 9887 59bd 33a3 4a3d cedd 25bd

network_body.linear_encoder.seq_layers.0.bias f4 [128]
0.046885416 -0.051403593 -0.04496835 0.043578964 0.04716071 -0.033365477 0.02797128 0.0013865277
-0.03734928 -0.064706124 -0.025993258 0.040952634 0.057503715 0.05640436 -0.0662651 -0.0225963
0.04366282 -0.0515519 -0.0489291 0.02121087 -0.03382765 0.045139883 0.03434147 0.03485581
-0.028939797 0.0374898 0.043502975 -0.05568497 0.04715723 -0.05500113 0.051608227 -0.021888036
0.039715383 0.021946752 -0.06894667 0.056092132 0.04699442 -0.06157479 0.029630423 -0.036882088
0.033134695 0.054872446 0.025238046 0.004124312 0.033525962 0.044607792 -0.055130318 -0.07477831
0.032793522 0.04109965 0.044437185 0.055813808 0.019881766 0.05141214 0.048072595 -0.05333983
-0.07308612 -0.025427694 -0.028892372 -0.067867704 0.03893777 0.04437831 -0.008866612 0.0028397979
-0.065983355 -0.065625 -0.024024429 0.041790936 0.03914757 -0.013180149 0.044850156 -0.018925829
0.046025384 -0.05603411 0.049761586 0.043828476 -0.06346504 -0.049463876 -0.07333409 0.044931423
-0.042520583 -0.049050502 -0.04327929 -0.047752537 -0.03972514 0.05521967 -0.030103859 0.036831155
0.023078214 0.019979576 -0.041550197 0.05692251 -0.057152223 -0.039657768 0.039977524 -0.07081643
-0.035069615 -0.06629012 0.0398079 -0.041445915 0.030657731 -0.07626697 -0.052685678 -0.04156348
0.022910345 -0.055004187 -0.046861224 -0.03346208 0.046564244 0.024784004 0.043889865 -0.048913244
0.042641565 0.028564053 -0.057997126 0.021262996 0.041585956 0.054040402 0.008722258 -0.02288994
-0.06958196 0.025762606 -0.02947662 0.011452216 -0.019160954 -0.0533511 0.045146603 -0.046567213
00000000: ec0a 403d 938c 52bd bc30 38bd db7f 323d
00000010: 972b 413d 3daa 08bd 0724 e53c 26bc b53a
00000020: 8ffb 18bd a584 84bd d0ef d4bc f3bd 273d
00000030: 0489 6b3d 4208 673d ffb5 87bd e01b b9bc
00000040: c9d7 323d 1628 53bd e169 48bd 6bc2 ad3c
00000050: dd8e 0abd 99e4 383d a4a9 0c3d f7c4 0e3d
00000060: 2713 edbc e88e 193d 2d30 323d ec15 64bd
00000070: f127 413d dd48 61bd 2663 533d 8a4e b3bc
00000080: 99ac 223d adc9 b33c e933 8dbd ddc0 653d
00000090: 397d 403d d935 7cbd 80bb f23c ac11 17bd
000000a0: 3fb8 073d eec1 603d 05c0 ce3c 3d25 873b
000000b0: 8552 093d a9b6 363d 54d0 61bd 5f25 99bd
000000c0: 8052 063d 1b58 283d c403 363d 059d 643d
000000d0: 16df a23c 8995 523d c5e7 443d de7a 5abd
000000e0: 2dae 95bd bd4d d0bc b2af ecbc 39fe 8abd
000000f0: 367d 1f3d 08c6 353d 4445 11bc e71b 3a3b
00000100: 4822 87bd 6666 86bd e1ce c4bc f92c 2b3d
00000110: 3459 203d 8df1 57bc ccb4 373d 570a 9bbc
00000120: 1d85 3c3d 0684 65bd ced2 4b3d 7d85 333d
00000130: f5f9 81bd a29a 4abd 2f30 96bd 030a 383d
00000140: 102a 2ebd 2ee9 48bd a045 31bd 2a98 43bd
00000150: d4b6 22bd 052e 623d 5e9c f6bc 44dc 163d
00000160: 860e bd3c 35ac a33c 8a30 2abd 9427 693d
00000170: 7318 6abd 2f70 22bd 79bf 233d 3408 91bd
00000180: 28a5 0fbd 1dc3 87bd 9c0d 233d 31c3 29bd
00000190: ec25 fb3c db31 9cbd f0cc 57bd 783e 2abd
000001a0: 7aae bb3c 124c 61bd 8ef1 3fbd 890f 09bd
000001b0: 26ba 3e3d d307 cb3c dcc5 333d 4159 48bd
000001c0: eca8 2e3d 29ff e93c 658e 6dbd bc2f ae3c
000001d0: 0956 2a3d 7859 5d3d cde7 0e3c af83 bbbc
000001e0: fd80 8ebd 1a0c d33c f478 f1bc 13a2 3b3c
000001f0: 6ff7 9cbc af86 5abd a5eb 383d 43bd 3ebd

network_body.linear_encoder.seq_layers.0.weight f4 [128, 68]
-0.20334086 0.04933099 -0.01591455 0.10420853 0.044374395 0.057988234 0.1438149 0.054740913
0.022035558 0.012751441 -0.09015519 0.03678411 0.029997613 0.037347227 0.06845305 0.016957022
0.08102224 -0.048150253 0.12242714 0.049703732 -0.17345327 -0.07374499 -0.2035956 0.1012856
0.081284255 0.12731212 -0.09043243 -0.017125944 -0.014218731 -0.24306348 -0.08497497 -0.14068748
0.037673723 -0.12838359 -0.32907605 -0.13811891 0.12982853 -0.07693331 -0.10001825 0.08202831
0.0076734177 -0.07455449 -0.00015373995 -0.043006625 0.037873 0.019963142 0.06782628 0.009675622
0.1515802 -0.3571335 -0.09382413 -0.14011195 -0.18524788 -0.19890776 -0.19121069 0.0024567633
-0.042670585 -0.16347916 -0.04067263 -0.056773756 0.0027904022 0.016315341 0.47010112 -0.10471131
-0.0816336 0.038052253 0.029219845 -0.17689882 -0.016064478 -0.030614553 -0.03063976 0.0931066
0.040690348 0.084776595 0.09536979 0.12055085 0.2090725 0.1949689 0.040580146 -0.029999038
0.14670824 0.042006057 0.12763436 -0.09243544 0.025606329 0.025081826 -0.19436862 -0.092022724
-0.27704206 -0.050341167 -0.054784223 -0.0441402 -0.16435051 -0.087171935 0.09150594 -0.04846105
0.058480334 -0.005942152 -0.20003757 -0.016648768 -0.1430034 0.11101152 -0.16155197 0.13917041
-0.3542877 -0.036116872 0.025285278 -0.15286478 0.06851798 0.006167362 0.085830525 0.037943788
-0.08361613 -0.10985885 0.03632712 0.13285407 -0.1371026 -0.059191268 -0.053994715 0.020978115
-0.017896289 -0.045538723 -0.14714019 0.053049777 0.043313023 -0.09112782 -0.05443707 -0.16112953
0.050266597 0.20460305 0.18651515 -0.25918975 0.07472793 0.15348278 0.2071611 -0.0046580527
0.024995914 0.08297662 0.04642219 -0.2600619 0.096929066 0.10042388 -0.08801794 -0.022498881
0.2790736 0.021148624 -0.18044008 -0.13663514 -0.16511063 -0.04172679 -0.0075365007 -0.38093
0.05819566 -0.037776254 -0.22420368 0.14577813 0.027038878 -0.021313589 0.2937723 -0.124162935
-0.34126538 -0.039563198 -0.016571727 -0.11084118 -0.003991837 -0.0044398378 -0.095038176 -0.0864362
-0.25476554 0.035146836 0.053843115 0.1173612 0.21821903 -0.09900805 0.05684607 -0.08119277
0.016253317 -0.33424357 0.045724686 -0.017880684 0.066079274 -0.1414456 -0.07821941 -0.22595309
-0.13042232 -0.05682614 -0.3348679 -0.052206818 0.012669523 -0.026351009 0.09784011 0.09673556
0.059595723 0.08138182 -0.086357646 0.22698887 0.05862489 -0.1500057 0.16704856 0.03762196
0.14380077 0.034137573 -0.052125882 -0.11470779 -0.032293245 -0.060774136 0.18440662 0.18683995
-0.32338247 -0.15207714 -0.06383186 0.23050648 -0.219547 0.15034924 -0.035181846 -0.011403442
0.18448208 -0.158801 -0.2475046 0.010313217 0.16782895 0.20340143 -0.099497885 -0.076839834
0.111236416 -0.09443082 0.030507674 0.052329265 0.13839096 -0.10792776 0.051862247 0.0018428443
0.09722671 0.02147247 0.117297545 0.0021820946 -0.019664362 0.06920827 -0.0933276 0.11163374
0.009260439 -0.09340514 -0.06874331 0.0073551782 0.13235722 0.15148695 -0.02780337 0.10816333
0.07389566 -0.05540054 -0.03613085 0.04784758 -0.15316702 -0.0721981 0.1334248 -0.24152318
00000000: 9638 50be 4b0f 4a3d 3b5f 82bc 486b d53d
00000010: edc1 353d 1285 6d3d 3744 133e 0238 603d
00000020: ea83 b43c 6ceb 503c 49a3 b8bd efaa 163d
00000030: 8ebd f53c 68f9 183d 1d31 8c3d 74e9 8a3c
00000040: fdee a53d 3339 45bd 15bb fa3d 2496 4b3d
00000050: bc9d 31be 9d07 97bd 5d7b 50be d36e cf3d
00000060: 5c78 a63d 1c5e 023e a334 b9bd b54b 8cbc
00000070: aef5 68bc a2e5 78be 5b07 aebd 6110 10be
00000080: c34f 1a3d fd76 03be a87c a8be 0b6f 0dbe
00000090: c5f1 043e 368f 9dbd 5ed6 ccbd 75fe a73d
000000a0: 4b71 fb3b 06b0 98bd 4135 21b9 b727 30bd
000000b0: b820 1b3d be89 a33c 81e8 8a3d 8086 1e3c
000000c0: d737 1b3e 34da b6be de26 c0bd 8279 0fbe
000000d0: 9fb1 3dbe 7aae 4bbe bccc 43be a601 213b
000000e0: 5ac7 2ebd 1567 27be 5898 26bd 998b 68bd
000000f0: 2edf 363b c0a7 853c 18b1 f03e e272 d6bd
00000100: 842f a7bd aedc 1b3d 755e ef3c f724 35be
00000110: a799 83bc 5fcb fabc 3c00 fbbc acae be3d
00000120: ecaa 263d 5a9f ad3d 3d51 c33d 5de3 f63d
00000130: 1a17 563e eda5 473e 5e37 263d 8bc0 f5bc
00000140: af3a 163e 8b0e 2c3d 95b2 023e cb4e bdbd
00000150: 5dc4 d13c 6778 cd3c 9108 47be 6976 bcbd
00000160: 75d8 8dbe 8a32 4ebd 6c65 60bd 5bcc 34bd
00000170: 804b 28be 3387 b2bd 7767 bb3d 187f 46bd
00000180: 1389 6f3d 62b6 c2bb a6d6 4cbe ff62 88bc
00000190: 7c6f 12be 025a e33d e16d 25be b082 0e3e
000001a0: 3365 b5be 49ef 13bd 1223 cf3c 9688 1cbe
000001b0: 2853 8c3d 9517 ca3b eac7 af3d f26a 1b3d
000001c0: ef3e abbd adfd e0bd bfcb 143d e60a 083e
000001d0: a064 0cbe 8b72 72bd 9029 5dbd 4cda ab3c
000001e0: 3d9b 92bc d086 3abd ebab 16be b94a 593d
000001f0: ff68 313d 39a1 babd 68f9 5ebd 24ff 24be
00000200: 59e4 4d3d 7683 513e d4fd 3e3e 85b4 84be
00000210: f50a 993d 972a 1d3e 0a22 543e 94a2 98bb
00000220: 3bc4 cc3c a5ef a93d 3225 3e3d d526 85be
00000230: bf82 c63d 09ab cd3d c042 b4bd 934f b8bc
00000240: bce2 8e3e e13f ad3c 49c5 38be 15ea 0bbe
00000250: c312 29be b6e9 2abd c0f4 f6bb 4209 c3be
00000260: 935e 6e3d 46bb 1abd a695 65be dd46 153e
00000270: a380 dd3c d699 aebc 5369 963e 2349 febd
00000280: 56ba aebe 050d 22bd 6ec1 87bc b300 e3bd
00000290: f5cd 82bb 0f7c 91bb 60a3 c2bd 7605 b1bd
000002a0: a170 82be 21f6 0f3d 998a 5c3d 125b f03d
000002b0: cf74 5f3e bcc4 cabd 6dd7 683d 6548 a6bd
000002c0: ad25 853c f921 abbe cf49 3b3d 837a 92bc
000002d0: 9254 873d 1ed7 10be 7f31 a0bd 3f60 67be
000002e0: 6e8d 05be 87c2 68bd ce73 abbe d1d6 55bd
000002f0: d593 4f3c 12de d7bc 6560 c83d 4b1d c63d
00000300: a51a 743d 83ab a63d 47dc b0bd c56f 683e
00000310: a720 703d 189b 19be c70e 2b3e 7c19 1a3d
00000320: 8240 133e d7d3 0b3d f381 55bd ebeb eabd
00000330: ec45 04bd 4dee 78bd 17d5 3c3e f952 3f3e
00000340: 6392 a5be 1cba 1bbe 47ba 82bd e409 6c3e
00000350: eed0 60be 27f5 193e d71a 10bd 81d5 3abc
00000360: dfe8 3c3e bb9c 22be d971 7dbe c4f8 283c
00000370: 5adb 2b3e 7748 503e 8cc5 cbbd 345e 9dbd
00000380: ebcf e33d f264 c1bd 3beb f93c 3657 563d
00000390: 5cb6 0d3e 3b09 ddbd 826d 543d 988b f13a
000003a0: cc1e c73d 09e7 af3c b239 f03d 7901 0f3b
000003b0: 2817 a1bc 11bd 8d3d 8a22 bfbd 3ba0 e43d
000003c0: 19b9 173c 324b bfbd 4bc9 8cbd b503 f13b
000003d0: a788 073e 651f 1b3e e5c3 e3bc bc84 dd3d
000003e0: 9c56 973d adeb 62bd f1fd 13bd d3fb 433d
000003f0: d1d7 1cbe 99dc 93bd 83a0 083e da51 77be

network_body.linear_encoder.seq_layers.2.bias f4 [128]
0.01721656 -0.046835627 -0.04315255 0.037942972 -0.042154573 -0.008684991 0.050164074 0.040364645
-0.047179166 -0.043087568 -0.044971943 0.01535495 0.038963422 0.040236 -0.03769479 -0.042606495
-0.017068801 -0.04787882 0.041128177 0.024799963 -0.050977193 0.027451733 0.04337531 0.04346567
-0.028763987 -0.030511782 -0.027348451 0.042309046 0.041182954 -0.05334452 -0.024884243 -0.04728274
0.04616713 0.03760064 -0.032772955 -0.048520867 -0.017731931 -0.0246653 -0.040574234 -0.04285341
0.040846232 0.0038379575 0.037044182 -0.045162722 -0.03977985 0.039541855 0.031533692 -0.040539984
-0.043110646 0.04220276 0.04451111 0.006367249 -0.026133385 0.043890186 -0.015851855 0.012305099
-0.028578218 0.03891318 0.019104704 0.0018903505 0.041928317 0.02791468 0.034016754 -0.012784477
0.039841764 -0.045079794 0.036973413 0.02579712 -0.004075704 0.044226095 -0.039773025 0.04144004
-0.045785863 -0.012362423 -0.018786067 0.038147334 0.045028057 0.010352022 -0.025069019 -0.046973187
0.045016468 -0.031255975 -0.03765972 -0.046380803 -0.03177578 -0.05052027 -0.023062618 -0.04951802
0.0073978887 -0.04500365 0.04300599 -0.015482988 -0.039750155 0.040296342 0.04692184 -0.052579705
0.04556435 0.050055802 -0.042773973 0.010350902 0.04402623 0.04289496 -0.04915918 0.035706792
-0.04209907 -0.023633072 0.039952233 -0.04677626 -0.045393586 -0.048872657 -0.042900335 -0.00096180814
0.03646328 0.012555174 0.035027992 0.036007192 -0.024187008 0.039339013 -0.0033827254 0.03714008
-0.037537035 0.024378907 0.032604862 0.032406487 0.028515922 -0.03980621 0.041090354 -0.05364485
00000000: be09 8d3c b7d6 3fbd bac0 30bd 176a 1b3d
00000010: 46aa 2cbd 7e4b 0ebc d878 4d3d 6655 253d
00000020: f13e 41bd 977c 30bd 8034 38bd 5493 7b3c
00000030: 1c98 1f3d 81ce 243d da65 1abd 2684 2ebd
00000040: dfd3 8bbc 951c 44bd 0576 283d 4b29 cb3c
00000050: 76cd 50bd 75e2 e03c 4faa 313d 0f09 323d
00000060: 74a2 ebbc d8f3 f9bc dc09 e0bc 404c 2d3d
00000070: 75af 283d c97f 5abd 0ada cbbc 8cab 41bd
00000080: bf19 3d3d 2103 1a3d ef3c 06bd d1bd 46bd
00000090: 8e42 91bc e20e cabc 2b31 26bd 0f87 2fbd
000000a0: 614e 273d 3e86 7b3b a4bb 173d 8cfc 38bd
000000b0: 32f0 22bd a4f6 213d 7929 013d 410d 26bd
000000c0: ca94 30bd cddc 2c3d 4851 363d 5ba4 d03b
000000d0: ae15 d6bc 32c6 333d c0db 81bc 539b 493c
000000e0: de1c eabc 6d63 1f3d 7881 9c3c a3c5 f73a
000000f0: 07bd 2b3d 54ad e43c 2755 0b3d fc75 51bc
00000100: 1e31 233d 97a5 38bd 6f71 173d 7b54 d33c
00000110: 7c8d 85bb 6c26 353d 0ae9 22bd 08bd 293d
00000120: f589 3bbd c38b 4abc 3de5 99bc 6140 1c3d
00000130: 576f 383d 879b 293c 8b5d cdbc f566 40bd
00000140: 3063 383d 4406 00bd 1441 1abd ccf9 3dbd
00000150: 5227 02bd 58ee 4ebd d1ed bcbc 68d3 4abd
00000160: fd69 f23b bf55 38bd 0d27 303d 5cac 7dbc
00000170: 0fd1 22bd c70d 253d 1e31 403d d15d 57bd
00000180: afa1 3a3d 5007 4d3d c333 2fbd d496 293c
00000190: d954 343d a0b2 2f3d 235b 49bd 4941 123d
000001a0: 1370 2cbd 259a c1bc f4a4 233d 7798 3fbd
000001b0: a0ee 39bd b22e 48bd 43b8 2fbd da21 7cba
000001c0: 855a 153d 37b4 4d3c 8379 0f3d 477c 133d
000001d0: d523 c6bc f221 213d b7b0 5dbb 3220 183d
000001e0: 6fc0 19bd 46b6 c73c ad8c 053d aabc 043d
000001f0: 399a e93c d60b 23bd 5c4e 283d b4ba 5bbd

network_body.linear_encoder.seq_layers.2.weight f4 [128, 128]
-0.12428389 -0.11534231 0.077624455 0.11334757 -0.063301645 0.06861743 0.13405824 0.12694792
-0.014337422 -0.024134262 0.006890945 -0.09042282 -0.047457706 0.050680812 -0.050324086 -0.15092902
0.041367535 -0.08492636 -0.10390921 -0.053662516 0.025421232 -0.06592399 -0.0226641 -0.072278254
0.060448557 0.01586489 -0.067706965 -0.0026875387 -0.034086943 0.014864859 0.2086809 0.058208086
0.040320415 0.10323435 0.14414604 -0.00958643 0.08407098 0.07283463 0.0393139 0.005103784
-0.047618806 0.117686436 0.03325268 -0.22307785 0.00041583471 0.032288827 0.09476277 -0.2238735
0.03748462 -0.021998743 -0.06331737 -0.14125183 0.24000177 0.08576576 -0.014908157 -0.052435704
0.15433635 -0.024394423 0.06648509 0.06191745 0.05066556 0.026741756 -0.032585822 0.1400054
-0.16757427 0.10206299 -0.23550957 -0.045621313 0.072782606 0.0161539 0.13027328 -0.04769612
-0.055926863 0.027905028 0.13408104 0.010565969 0.011177014 0.0010321429 0.072440386 0.011126197
0.021453433 0.043808173 0.158606 -0.1209482 0.08622799 0.146383 -0.024538277 0.113763206
0.042983014 -0.018757561 -0.08856108 -0.00075593643 0.058143653 0.24799715 -0.06700698 -0.10897955
0.08950115 -0.006049181 0.054335997 0.11350952 0.024054501 -0.0144350715 0.0061106547 -0.20218979
-0.015071184 0.032834258 0.020580554 0.08064833 -0.036980864 0.045090873 -0.031842504 -0.02796996
0.0004228343 0.10961284 -0.075174175 0.027463075 -0.036466856 0.11995015 -0.13837078 0.0044568814
0.059913803 0.07087019 0.017692642 0.11709854 0.17248309 -0.038685825 0.09016477 0.13878138
-0.05726313 -0.031391412 0.013858674 0.1124117 0.037999358 -0.07474164 -0.036276158 -0.07656103
0.18501358 -0.03944557 -0.0057684695 -0.096751325 0.07414528 0.098820925 0.12770998 0.057974245
-0.02427973 0.09139082 0.12195998 -0.050813112 0.076326124 -0.028290028 -0.12073035 0.05728446
-0.036476094 -0.119362555 -0.113468036 0.037538763 -0.009882424 0.25493497 -0.12040222 0.033121675
0.035628404 -0.04360592 0.1174743 -0.11012182 0.079931356 0.06593852 -0.1310739 0.004948213
0.043232594 0.062942155 -0.14137281 -0.02679972 -0.0034827697 -0.17681123 0.060354646 0.11252589
0.07990255 0.03898703 0.005381543 -0.08511002 0.024758939 0.0006669361 -0.0317959 0.25070283
0.06506563 0.08110188 -0.08256194 0.05395805 -0.042009924 -0.088722676 0.042996306 -0.04201743
-0.05153201 0.12803839 -0.17150062 -0.10200484 0.025494436 -0.04618737 -0.06356793 0.021633718
-0.13875198 0.12023954 -0.08299581 -0.1312411 0.049928803 0.08487857 -0.22442612 -0.011265164
0.08956289 -0.0032355664 -0.10737945 -0.17119123 0.029617324 -0.031572092 0.07370334 -0.05219827
-0.18189314 -0.004300833 0.00618438 -0.042595807 0.06767548 0.13150778 -0.122314796 0.17834458
-0.07675665 0.0367814 -0.066787206 -0.07332507 0.06766236 0.12080312 -0.043454453 0.037245683
0.07728215 -0.02163564 0.048916597 0.002698451 0.034739234 -0.1684372 -0.0026210973 0.14119509
-0.044594 0.10477027 0.13626724 0.056771908 -0.042033166 -0.12463571 0.090496786 -0.14532652
0.08101119 -0.13853249 0.1312373 0.11550769 0.011250754 0.13683502 0.055264365 0.054277048
00000000: 8d88 febd 9738 ecbd 92f9 9e3d c522 e83d
00000010: 4ba4 81bd 4c87 8c3d 9046 093e a3fe 013e
00000020: 82e7 6abc 37b5 c5bc 70cd e13b 992f b9bd
00000030: 0363 42bd af96 4f3d a120 4ebd 238d 1abe
00000040: 0171 293d dfed adbd 5ace d4bd 3acd 5bbd
00000050: 3040 d03c 2803 87bd 10aa b9bc 9f06 94bd
00000060: e898 773d 16f7 813c f3a9 8abd 6b21 30bb
00000070: c09e 0bbd bd8b 733c 72b0 553e 9a6b 6e3d
00000080: 0527 253d 886c d33d 059b 133e 6710 1dbc
00000090: 682d ac3d 532a 953d 9d07 213d a53d a73b
000000a0: f00b 43bd 9605 f13d f633 083d 856e 64be
000000b0: 6404 da39 4a41 043d fc12 c23d 183f 65be
000000c0: 7989 193d b536 b4bc 8aac 81bd 52a4 10be
000000d0: 06c3 753e f5a5 af3d 5841 74bc d2c6 56bd
000000e0: 590a 1e3e d0d6 c7bc 5629 883d 279d 7d3d
000000f0: b186 4f3d 8711 db3c b678 05bd 935d 0f3e
00000100: 9798 2bbe 6706 d13d 6c29 71be 6add 3abd
00000110: 0c0f 953d 2f55 843c 5c66 053e 025d 43bd
00000120: 9113 65bd 1699 e43c 8a4c 093e e31c 2d3c
00000130: cb1f 373c f848 873a a05b 943d a74a 363c
00000140: 1cbf af3c 3370 333d 9c69 223e b1b3 f7bd
00000150: 4d98 b03d 6de5 153e 7f04 c9bc affc e83d
00000160: f50e 303d 75a9 99bc 835f b5bd 092a 46ba
00000170: 0a28 6e3d f7f2 7d3e f53a 89bd ac30 dfbd
00000180: 614c b73d 3538 c6bb 6c8f 5e3d ae77 e83d
00000190: f20d c53c 1481 6cbc e33b c83b d70a 4fbe
000001a0: 21ed 76bc 377d 063d 8d98 a83c f42a a53d
000001b0: 3f79 17bd 35b1 383d 496d 02bd 4221 e5bc
000001c0: dcaf dd39 b27c e03d ebf4 99bd 3efa e03c
000001d0: 455e 15bd 6da8 f53d 12b1 0dbe 080b 923b
000001e0: 2d68 753d 6424 913d 29f0 903c 5cd1 ef3d
000001f0: 689f 303e 0775 1ebd 4fa8 b83d b51c 0e3e
00000200: be8c 6abd 4894 00bd 7e0f 633c 1b38 e63d
00000210: 37a5 1b3d 2512 99bd 4f96 14bd 07cc 9cbd
00000220: 3374 3d3e ae91 21bd 6e05 bdbb 8f25 c6bd
00000230: 7bd9 973d a062 ca3d 68c6 023e 6776 6d3d
00000240: 49e6 c6bc 1c2b bb3d 27c6 f93d 6921 50bd
00000250: df50 9c3d 7dc0 e7bc 7941 f7bd 1ca3 6a3d
00000260: f567 15bd 5b74 f4bd ee61 e8bd 3fc2 193d
00000270: e4e9 21bc d686 823e 7095 f6bd 98aa 073d
00000280: 17ef 113d 1f9c 32bd 5e96 f03d 8c87 e1bd
00000290: 0db3 a33d c60a 873d 3d38 06be 9f24 a23b
000002a0: a914 313d d1e7 803d 09c4 10be 168b dbbc
000002b0: 2e3f 64bb 010e 35be 6f36 773d f973 e63d
000002c0: f3a3 a33d ddb0 1f3d a857 b03b 2a4e aebd
000002d0: 42d3 ca3c 53d5 2e3a 6b3c 02bd 1f5c 803e
000002e0: 2141 853d be18 a63d 3c16 a9bd 1e03 5d3d
000002f0: 9912 2cbd 3cb4 b5bd e51c 303d 781a 2cbd
00000300: 3b13 53bd 7f1c 033e dc9d 2fbe eae7 d0bd
00000310: b5d9 d03c f82e 3dbd e72f 82bd 3239 b13c
00000320: 0015 0ebe 2640 f63d b5f9 a9bd 1164 06be
00000330: 2582 4c3d d1d4 ad3d f6cf 65be 8691 38bc
00000340: c06c b73d cc0b 54bb c2e9 dbbd c14c 2fbe
00000350: 08a0 f23c bd51 01bd c7f1 963d dacd 55bd
00000360: 3242 3abe 01ee 8cbb 57a6 ca3b f178 2ebd
00000370: 7199 8a3d faa9 063e 2e80 fabd f69f 363e
00000380: 9732 9dbd 18a8 163d bbc7 88bd 742b 96bd
00000390: 9092 8a3d a067 f73d 4cfd 31bd ee8e 183d
000003a0: 1b46 9e3d 3a3d b1bc c55c 483d 7fd8 303b
000003b0: ba4a 0e3d cd7a 2cbe b7c6 2bbb 7295 103e
000003c0: 33a8 36bd cc91 d63d a489 0b3e a989 683d
000003d0: f82a 2cbd 0241 ffbd 6156 b93d 7ad0 14be
000003e0: 32e9 a53d 76db 0dbe 1263 063e 4c8f ec3d
000003f0: 1555 383c 7b1e 0c3e e35c 623d 9c51 5e3d
