Learning/results/mx6/KartAgent/KartAgent-1799979.onnx (onnx, 104129 bytes, 7 tensors)

41 f4 [1, 2]
0	0xbf1ce4e3	-0.61286753
1	0xbf202f97	-0.62572616

distribution.mu.bias f4 [2]
0	0xbb8ff305	-0.004392984
1	0x3e3705f2	0.17873362

distribution.mu.weight f4 [2, 128]
0	0xbad555d1	-0.0016276186
1	0x3b89cdc1	0.004205436
2	0xbcd954fd	-0.026529783
3	0xbb665715	-0.003514712
4	0xbbf953e6	-0.0076088784
5	0x3a30dc89	0.00067467295
6	0x3b8dd23d	0.004328041
7	0xbcdb6e2a	-0.026785929
8	0x3bba7345	0.0056900107
9	0x3c92e824	0.017932959
10	0x3b3524fa	0.0027640448
11	0x3d0a3b43	0.033747923
12	0x3b391cba	0.0028245882
13	0x3ab58fd9	0.0013852074
14	0xbb96f6d4	-0.004607061
15	0x3b898185	0.004196348
16	0xbb4dd80b	-0.003140929
17	0xbc201c34	-0.009772349
18	0xbba13ebb	-0.004920808
19	0x3cdc37ca	0.026882071
20	0x3b395623	0.0028280101
21	0xba8e5035	-0.0010857644
22	0x3cdacb05	0.026708135
23	0xb9f2fcbc	-0.0004634614
24	0x3c8b7e98	0.017028138
25	0x3cad20af	0.021133749
26	0xbd74fae3	-0.059809577
27	0xbd1cb391	-0.038257185
28	0xbcde199c	-0.02711182
29	0x3cb93210	0.02260688
30	0x3a9e00db	0.0012054698
31	0xbd88bbbe	-0.06676434
32	0xbd4f240f	-0.050571498
33	0x3b098baa	0.0020987787
34	0xb9c8a6f6	-0.00038271368
35	0xbc3f2136	-0.011665633
36	0x3c413a24	0.011793647
37	0xb9f7aa15	-0.00047238232
38	0x3ced944a	0.029001374
39	0x3a3e3f3c	0.00072573475
40	0x3a9a6c48	0.0011781538
41	0x3b56a7a9	0.0032753742
42	0xbc5aeccb	-0.01336212
43	0x3cd04519	0.025423573
44	0x38b98ac4	8.8473345e-05
45	0x3c12bcf8	0.0089561865
46	0xbb1714b7	-0.0023053118
47	0x3cefe5c6	0.02928437
48	0xbcea5a7c	-0.0286076
49	0x3cd3349c	0.025781922
50	0x3b96f1eb	0.0046064756
51	0x3bd1e578	0.0064055286
52	0x3d91af31	0.07113493
53	0x3c4721c8	0.01215405
54	0x3c27ad7b	0.010234232
55	0xbd167f27	-0.036742356
56	0xbd24040b	-0.04004292
57	0x3c3b6a66	0.011438942
58	0x3c2cb392	0.01054086
59	0x3b172680	0.002306372
60	0x3c326818	0.010889076
61	0x3d73fe5d	0.05956875
62	0x3bd2cb75	0.0064329454
63	0x3ad97064	0.0016589281
64	0xbc719153	-0.014744121
65	0x3ca9c68b	0.020724555
66	0xbc49c4cd	-0.012314987
67	0xb9729dbc	-0.00023137679
68	0x3b2355c0	0.0024922937
69	0x3c21a497	0.009865901
70	0xbda478ac	-0.08030829
71	0xbd825380	-0.063635826
72	0xbc2224be	-0.009896455
73	0x3bb89e84	0.005634131
74	0xbc69e046	-0.014274662
75	0xba6b2e42	-0.00089714315
76	0xbd598431	-0.053104583
77	0xbd80c254	-0.06287065
78	0xbd77bfc8	-0.06048563
79	0x3caafc84	0.020872362
80	0x3d152d0b	0.03641991
81	0x388bcd91	6.666326e-05
82	0xbd23bc3c	-0.039974436
83	0x3cf56c61	0.029958906
84	0xba8c620e	-0.0010710375
85	0xbad5d59f	-0.0016314274
86	0xbd64e3c6	-0.055881284
87	0x3ad8d8ea	0.0016544138
88	0xba90c4f2	-0.0011045022
89	0xbd3fb559	-0.046803806
90	0xbd70e207	-0.058809306
91	0xbc60933f	-0.013706981
92	0xbd9f065b	-0.07764884
93	0x3c07afa3	0.008281621
94	0x3a924ef4	0.0011162446
95	0x3c8b23aa	0.01698478
96	0xbcbc9cb3	-0.023023939
97	0xbce899be	-0.028393622
98	0x3b99ce1f	0.004693761
99	0x37c8496c	2.3876048e-05
100	0xbd49c526	-0.04926028
101	0x3b37491c	0.002796716
102	0x3d007b54	0.031367615
103	0xbbbb4b9f	-0.005715802
104	0x3d962996	0.07332151
105	0x3adde3ac	0.0016928813
106	0xb7e982d0	-2.7836679e-05
107	0x3c0713c1	0.008244456
108	0xb8e1fe15	-0.000107761625
109	0x3b01ae78	0.001978783
110	0xbc00eb9d	-0.007868675
111	0xbc8e1adf	-0.017346798
112	0xbd3bb0c6	-0.04582288
113	0xbd3e56f4	-0.046469644
114	0x39367f1e	0.00017404227
115	0x3a9002cf	0.0010987165
116	0x3b0cc5df	0.0021480245
117	0x3d0ef35c	0.034900054
118	0x3c42f6d0	0.011899665
119	0xbb9ada09	-0.004725699
120	0xbaf898b2	-0.0018966405
121	0xb8ff2a4b	-0.00012167225
122	0xbc5512e4	-0.013004992
123	0xbbbfccbf	-0.005853265
124	0xbb9ff4fe	-0.0048815003
125	0x3ca09959	0.019604372
126	0xbabc4e76	-0.0014366645
127	0xb96e6216	-0.00022733989
128	0xbe3a034a	-0.18165317
129	0xbadbda3d	-0.0016773414
130	0x3b4d9475	0.0031369005
131	0xbe1d49f0	-0.15360236
132	0xbb72c41b	-0.0037043157
133	0x396ef30a	0.00022787988
134	0x3be73d8f	0.007056899
135	0xbacfa2a8	-0.0015841322
136	0xb8ea70b8	-0.00011178985
137	0x3c145741	0.009054006
138	0xbb04c777	-0.0020260492
139	0xbe127496	-0.14302287
140	0xbe19c3c4	-0.15016085
141	0x3ab811d0	0.0014043394
142	0xbdb76424	-0.08954647
143	0xbe18cbd2	-0.14921501
144	0x3b87b357	0.004141252
145	0x3bd30d9d	0.006440832
146	0xbdf5c278	-0.119999826
147	0xbe24cb01	-0.16093065
148	0xbb8ef0a2	-0.0043621818
149	0x3b13e043	0.002256409
150	0xbe2174b0	-0.15767169
151	0xbab6e917	-0.0013954964
152	0x3b766ab5	0.0037600223
153	0xbe258d95	-0.1616729
154	0x3b684f61	0.0035447704
155	0xbaab0f26	-0.0013050779
156	0xbbe3fb83	-0.006957473
157	0x3c359d97	0.011084936
158	0xb8b46c7e	-8.603277e-05
159	0x3b6944ae	0.0035593915
160	0xbbb45a68	-0.0055039413
161	0x3b84a75a	0.00404827
162	0x3a9cc4d3	0.0011960514
163	0xbe2a0164	-0.16602093
164	0xbe13e5db	-0.14443152
165	0xb91116cb	-0.00013836769
166	0x3c43fd0e	0.011962188
167	0x3b102234	0.0021993043
168	0xbe1ed9c9	-0.15512766
169	0xbd87bf8b	-0.06628331
170	0xbc058e63	-0.008151623
171	0xbe26ff8b	-0.1630842
172	0x395c9c46	0.00021039051
173	0x388cb19c	6.7088025e-05
174	0xbb3b918f	-0.0028620695
175	0x3c185cfc	0.009299513
176	0xbac34c57	-0.001490007
177	0xb9ceea44	-0.00039465923
178	0x3bb3a225	0.0054819756
179	0x3be6b1d5	0.007040242
180	0x3c8402d4	0.01611463
181	0xbe29c743	-0.16579919
182	0xbe2e8b6f	-0.17045377
183	0xbe0e4c35	-0.13896258
184	0xbbf803d8	-0.0075688176
185	0xbe307f83	-0.17236142
186	0xbe1ee813	-0.15518217
187	0x39cb3865	0.00038761194
188	0x3bd7ed9b	0.006589604
189	0x3c9fcb37	0.01950608
190	0xbe0301b2	-0.12793615
191	0x3b53ad98	0.0032299515
192	0xbe3c33dd	-0.1837916
193	0x3b841f7a	0.0040320726
194	0xbbd85702	-0.006602169
195	0x394f581c	0.00019773882
196	0xbe001987	-0.12509738
197	0xbe0caad7	-0.13737045
198	0x3c00c0ff	0.007858514
199	0xbabe90e8	-0.0014539035
200	0xbe32d416	-0.17463717
201	0xbe04534d	-0.12922402
202	0xbe3f8c42	-0.18705848
203	0xbb2144f9	-0.0024607761
204	0xba20fa2d	-0.0006140795
205	0x3b8283ce	0.0039829975
206	0x3ab0d260	0.0013490431
207	0x3bb34497	0.005470823
208	0x3ca258c3	0.019817716
209	0xba26378c	-0.00063406746
210	0xbace4a0f	-0.0015738624
211	0xbe17a444	-0.14808756
212	0xbaead9ee	-0.0017917731
213	0xbdf610c7	-0.12014919
214	0x3a3d6392	0.0007224615
215	0x39f61e3b	0.000469433
216	0xba895427	-0.001047735
217	0x3c1a12bf	0.0094038835
218	0x3bc7d9a2	0.006098942
219	0xbb0ac710	-0.002117578
220	0x3c9d997c	0.019238226
221	0xbe028634	-0.12746507
222	0xba74e156	-0.0009341439
223	0x3b251b1d	0.0025193163
224	0xba8a82a8	-0.0010567503
225	0xbb88afcf	-0.0041713486
226	0xbdbc35f5	-0.09189979
227	0xba276243	-0.00063851866
228	0x3ae3c786	0.0017378188
229	0x3af66fdd	0.0018801648
230	0xbe2a6648	-0.1664058
231	0xbe346797	-0.17617641
232	0x3ca05915	0.019573728
233	0xb854c988	-5.073243e-05
234	0x3ae667c7	0.0017578535
235	0x3c117dab	0.008880059
236	0xb765013d	-1.3649752e-05
237	0x3afb87bf	0.0019190236
238	0xbe2d23b0	-0.16908145
239	0x3a469b8d	0.00075762795
240	0x3ab9ed3c	0.0014185081
241	0xba38a6bf	-0.000704389
242	0xbaa81ff0	-0.0012826901
243	0x3a490884	0.00076688104
244	0x3b22ec9d	0.002486027
245	0xbb49b7d6	-0.003077974
246	0xbe21e767	-0.15810929
247	0xbe0faa70	-0.1402986
248	0xbb0bd92d	-0.0021339164
249	0xb92c9d1a	-0.00016461723
250	0x3b9a0c2b	0.0047011576
251	0xbe264fcf	-0.16241382
252	0xbe322075	-0.17395194
253	0x3c0f91db	0.008762802
254	0xbb0f897e	-0.002190202
255	0xbad8535f	-0.0016504339

network_body.linear_encoder.seq_layers.0.bias f4 [128]
0	0xbd22649e	-0.039646737
1	0xbc9cef07	-0.019156946
2	0xbc2a6be4	-0.0104017
3	0xbcafc453	-0.02145592
4	0xbc4488f3	-0.011995542
5	0x3d633e54	0.055479363
6	0xbb6f510e	-0.0036516818
7	0xbdbbb3bb	-0.0916514
8	0xbab0ebc6	-0.0013498
9	0xbd91cac5	-0.07118753
10	0xbd4375f6	-0.04771992
11	0xbc9fc0ee	-0.019501176
12	0xbd66712c	-0.056260273
13	0xbdda45c7	-0.1065784
14	0x3ca91b76	0.020642977
15	0xbd39393d	-0.045220602
16	0x3ca32830	0.019916624
17	0xbcfe53a4	-0.031045742
18	0xbd15f9a7	-0.03661504
19	0x3c5a5d26	0.013327872
20	0xbcb04e88	-0.021521822
21	0xbe3f15e2	-0.18660691
22	0x3c959e40	0.018263936
23	0xbcec481c	-0.028842978
24	0xbd794c4a	-0.06086377
25	0xbc649699	-0.013951921
26	0xbceb44fb	-0.028719416
27	0xbd26e51f	-0.04074585
28	0xbd260f7e	-0.04054212
29	0xbd141645	-0.03615405
30	0xbc55bd59	-0.013045632
31	0xbd4a83f0	-0.04944223
32	0xbd623de4	-0.055234805
33	0xbd0754a0	-0.03303969
34	0x3b3c3ac2	0.0028721546
35	0xbd441004	-0.047866836
36	0xbcc38f3a	-0.023872007
37	0x3b6b13e9	0.0035870022
38	0xbd19cc92	-0.03754861
39	0xbe3c5c41	-0.18394567
40	0xbd2e643a	-0.042576052
41	0xbd54df39	-0.051970694
42	0xbac1aad7	-0.0014775646
43	0xbd9286e5	-0.07154635
44	0xbd06569c	-0.03279744
45	0xbd1d9382	-0.038470753
46	0xbd6435ef	-0.055715498
47	0xbc52846c	-0.012848955
48	0xbd6ce707	-0.057837512
49	0x3c71dcbb	0.014762099
50	0x3bd0d5e2	0.006373153
51	0xbd7b10a9	-0.061295185
52	0x3b97f020	0.0046367794
53	0xbc42a515	-0.011880179
54	0xbdb3cf19	-0.08779735
55	0xbe454cc5	-0.19267567
56	0xbd1e4c07	-0.038646724
57	0xbca356c1	-0.019938828
58	0x3d51058b	0.051030677
59	0xbca73c17	-0.020414395
60	0xbd72f9dc	-0.059320316
61	0x3cf5540b	0.029947301
62	0xbcac047e	-0.020998236
63	0xbbfdbed8	-0.0077436976
64	0xbcd92997	-0.02650909
65	0xbd88d32c	-0.06680903
66	0x3b1ef77d	0.0024256401
67	0xbd3ae60c	-0.045629546
68	0xbd69c40a	-0.057071723
69	0xbd105e60	-0.035246253
70	0xbcafeb7f	-0.021474598
71	0xbcee644c	-0.02910056
72	0xbd4675ad	-0.048452068
73	0xbc932259	-0.017960714
74	0xbd69922e	-0.057024173
75	0xbd8e9e18	-0.06963748
76	0x3d137493	0.035999846
77	0xbd9f8a6e	-0.07790075
78	0xbe1e26ce	-0.1544449
79	0x3d1bed1a	0.038067915
80	0xbc7998cb	-0.015234183
81	0xbd5f92ab	-0.054583233
82	0xbba1b6a6	-0.0049351035
83	0x3c8da594	0.017290868
84	0xbbea11f0	-0.0071432516
85	0xbd35cc16	-0.044384085
86	0x3d21b970	0.039483488
87	0xbc7c9df6	-0.01541852
88	0xbc625555	-0.01381429
89	0xbd4248d3	-0.04743273
90	0x3cbcb6b5	0.02303634
91	0xbcea67a3	-0.028613871
92	0xbcba9554	-0.022776283
93	0xbcd46686	-0.025927793
94	0xbbcc2be2	-0.006230817
95	0xbc2c6823	-0.010522875
96	0xbdf44b0a	-0.11928375
97	0xbb64bd06	-0.0034902706
98	0xbd845a72	-0.064625636
99	0xbc6bbcb4	-0.014388252
100	0xbccd2963	-0.025044149
101	0x3c281c67	0.010260678
102	0xbdce646a	-0.10077746
103	0x3c10fa07	0.008848674
104	0xbd120da8	-0.035657555
105	0xbc154fb6	-0.009113243
106	0xbd60f4bc	-0.054920897
107	0xbc5d35c4	-0.013501588
108	0x3c34ded5	0.011039455
109	0x3d38f732	0.04515762
110	0xbc46be48	-0.0121303275
111	0xbd34b301	-0.044116024
112	0xbd51868e	-0.051153712
113	0x3cc18d86	0.023627054
114	0xbd6191a0	-0.05507052
115	0xbcd6ef69	-0.026237207
116	0x3b614a71	0.0034376646
117	0xbd32e616	-0.04367646
118	0xbc543243	-0.012951436
119	0xbda6f0da	-0.081514075
120	0xbc8f6f77	-0.017509205
121	0x3ad4879b	0.001621473
122	0xbde0d45c	-0.10978004
123	0xbc69a6f1	-0.014260993
124	0x3c0b162e	0.008489175
125	0xbd470e54	-0.04859765
126	0xbcdb6442	-0.026781205
127	0xbc0d278d	-0.008615387

network_body.linear_encoder.seq_layers.0.weight f4 [128, 68]
0	0x3caa9a8c	0.020825647
1	0xbdc594a2	-0.0964749
2	0xbea2349b	-0.3168076
3	0xbf1a361e	-0.60238826
4	0xbe3124b4	-0.17299157
5	0x3defe026	0.11712675
6	0xbe9d94cb	-0.30777583
7	0x3c86713f	0.016411422
8	0xbe365d2e	-0.17808983
9	0x3dadce41	0.084866054
10	0xbeadfd55	-0.3398234
11	0xbf1f2901	-0.6217194
12	0xbda06165	-0.078310765
13	0xbd39c079	-0.04534957
14	0xbe48b17a	-0.19598952
15	0x3ea90a51	0.33015683
16	0x3e668f96	0.22515711
17	0xbca48835	-0.02008448
18	0xbea4be89	-0.32176617
19	0xbed6e636	-0.41972512
20	0xbd5844ca	-0.052799977
21	0xbc723cd6	-0.014785012
22	0x3df8a781	0.12141324
23	0x3ebbd2c7	0.36684248
24	0x3d121820	0.03566754
25	0xbd8c1f04	-0.06841853
26	0xbe21e6ba	-0.15810671
27	0xbe5e7885	-0.21725662
28	0xbe00064a	-0.12502399
29	0x3da5f648	0.08103615
30	0x3de3126a	0.110874966
31	0x3f0d8a67	0.5528931
32	0xbc8408d7	-0.016117496
33	0x3dcb1430	0.0991596
34	0xbd91f34c	-0.07126483
35	0x3dccbef1	0.09997357
36	0xbe25967a	-0.16170684
37	0x3d92617c	0.071475
38	0xbd675da3	-0.056485783
39	0x3e54e1b9	0.20789231
40	0xbd979b1f	-0.07402634
41	0x3ba67dba	0.0050809057
42	0xbd946d3e	-0.07247399
43	0xbe8d27b7	-0.27569363
44	0xbccacbd0	-0.024755388
45	0x3e8aea82	0.2713204
46	0x3dac9111	0.08426107
47	0xbe33db6d	-0.17564173
48	0x3dfca023	0.12335231
49	0xbde47cef	-0.11156642
50	0xbd8b0e26	-0.06789808
51	0xbebde5ff	-0.37089536
52	0x3ed1e485	0.4099466
53	0xbb3c5251	-0.0028735588
54	0x3e56af31	0.20965268
55	0xbdf720f8	-0.12066835
56	0xbbbd4e56	-0.0057771606
57	0x3dd3a3be	0.10333966
58	0xbe4765bf	-0.19472407
59	0xbee38fbe	-0.44445604
60	0x3dd97ec5	0.106198825
61	0x3d0fd226	0.035112523
62	0x3dae5b5b	0.085135184
63	0xbcb0f422	-0.021600787
64	0x3b5a3b5a	0.0033299536
65	0x3ca5d043	0.020240908
66	0xbdd606f0	-0.10450542
67	0x3d3df0b4	0.04637213
68	0x3cd0d1e2	0.025490705
69	0xbc5cfa52	-0.013487415
70	0x3cdf022b	0.027222713
71	0x3ea00a12	0.31257683
72	0xbdc83229	-0.09775192
73	0xbc4b052b	-0.012391369
74	0x3e0a21fd	0.13489528
75	0xbe8dff6a	-0.27733928
76	0xbe3d32b1	-0.18476368
77	0xbd3fc618	-0.046819776
78	0x3de4483d	0.11146591
79	0x3df2dc36	0.11858408
80	0xbdc96425	-0.09833554
81	0xbe1988d3	-0.149936
82	0x3e219b4b	0.15781896
83	0xbe3904fa	-0.18068305
84	0xbbed2c3d	-0.0072379396
85	0x3d8882b6	0.06665556
86	0xbe4c325a	-0.19941083
87	0xbdbfd3c0	-0.0936656
88	0x3e3aebf8	0.18254077
89	0xbd1126c6	-0.035437368
90	0x3da94600	0.082653046
91	0x3db87260	0.0900619
92	0x3dd82f0b	0.10555848
93	0xbe9695c7	-0.29411146
94	0xbe534bd4	-0.20634395
95	0x3dcf152f	0.10111462
96	0xbe38c096	-0.18042216
97	0x3d023b5b	0.031794887
98	0x3e0bd3d9	0.13655032
99	0xbd82798a	-0.06370838
100	0x3d9edcbc	0.077569455
101	0x3d7aea85	0.06125881
102	0xbec04ca7	-0.3755848
103	0xbeab0d4c	-0.33408582
104	0xbdf7dedd	-0.12103055
105	0xbd38327c	-0.04497002
106	0x3c11ad4d	0.008891416
107	0xbe47c4e1	-0.19508697
108	0x3cd4ae9a	0.025962163
109	0x3d90a61c	0.07062933
110	0xbc585d84	-0.01320589
111	0xbd665122	-0.056229718
112	0xbc7cc40a	-0.015427599
113	0x3e32018e	0.17383406
114	0x3e82e10b	0.2556232
115	0xbe023968	-0.12717211
116	0x3da83c07	0.08214574
117	0xbdba4ef4	-0.0909709
118	0xbe316429	-0.17323364
119	0xbdbf308c	-0.093354315
120	0x3dbc517c	0.091952294
121	0xbd45dc7f	-0.048305985
122	0xbeab0f77	-0.33410236
123	0xbdfc2a00	-0.12312698
124	0x3e50f515	0.20405991
125	0x3c8cd3c4	0.017190821
126	0xbd952929	-0.07283241
127	0xbe8ce04d	-0.27514878
128	0x3d1b3939	0.03789637
129	0xbe350a6b	-0.17679755
130	0xbe07e0bf	-0.13269328
131	0xbe3ad5d6	-0.18245634
132	0x3dfaee1c	0.12252447
133	0x3e279a2f	0.1636741
134	0x3e23fa13	0.16013364
135	0xbe80335b	-0.2503918
136	0xbcf2aec0	-0.029624343
137	0xbd9bff23	-0.07617023
138	0x3d9efda9	0.077632256
139	0xbe650d61	-0.22368385
140	0x3e9f8f82	0.31164175
141	0x3e373b8c	0.17893809
142	0x3ce921fc	0.028458588
143	0x3d09af05	0.033614177
144	0x3d4ad403	0.049518596
145	0x3d7c71c7	0.061631944
146	0xbcc4878b	-0.023990413
147	0x3d8fc1e7	0.07019406
148	0xbe814e24	-0.2525493
149	0xbe30cf4b	-0.17266576
150	0x3da8e478	0.08246702
151	0x3d54d91c	0.051964864
152	0x3c0dcd79	0.0086549455
153	0x3bc87a91	0.0061181267
154	0x3d795dea	0.06088058
155	0xbc9f3f56	-0.01943938
156	0x3da71926	0.081590936
157	0x3ce307fa	0.027713764
158	0xbe396c3b	-0.18107693
159	0x3e210d92	0.15727833
160	0xbd2c72d2	-0.04210169
161	0xbe38e541	-0.18056203
162	0x3e8a4651	0.27006772
163	0x3e0755b9	0.13216294
164	0xbe6d6ccf	-0.23186038
165	0xbc940218	-0.018067405
166	0xbd8d0c27	-0.068870835
167	0x3c97845d	0.018495733
168	0x3c8570df	0.016289173
169	0x3e703413	0.23457365
170	0x3e2b78c4	0.16745287
171	0x3ebead5d	0.3724164
172	0x3dff4244	0.12463811
173	0x3dd1acdc	0.102380484
174	0xbdf18f29	-0.11794884
175	0xbe03d625	-0.12874658
176	0x3d94a2f1	0.07257641
177	0x3e5a0132	0.21289518
178	0xbe76817c	-0.24072832
179	0xbd955df0	-0.07293308
180	0x3d161d7c	0.036649212
181	0xbe114bf0	-0.14189124
182	0xbdcde3a1	-0.100531824
183	0xbeba455b	-0.3638104
184	0x3d9f856b	0.07789119
185	0xbe834a2d	-0.2564253
186	0xbbf84571	-0.0075766374
187	0xbd16fb09	-0.0368605
188	0x3c9b307e	0.018944021
189	0x3e110b16	0.14164385
190	0x3e85627a	0.26051694
191	0x3eb0d0b2	0.34534222
192	0xbe978844	-0.2959615
193	0xbe143987	-0.1447507
194	0xbd559540	-0.05214429
195	0x3e305ae3	0.1722217
196	0x3e0cfd7a	0.13768569
197	0x3c907e58	0.01763837
198	0xbd09b501	-0.033619884
199	0xbd55b468	-0.052174002
200	0xbd22641a	-0.039646246
201	0xbe2b93c5	-0.16755588
202	0x3ea1731e	0.3153314
203	0x3b4a23af	0.0030844023
204	0x3d1fd69b	0.039023023
205	0x3b11689e	0.00221876
206	0xbdc9ffc8	-0.098632395
207	0x3ed8c9af	0.42341372
208	0xbd73f67a	-0.05956123
209	0x3d397093	0.045273375
210	0xbe37a4ee	-0.1793401
211	0xbdac84ee	-0.08423792
212	0xbea974fc	-0.33097064
213	0x3dae4f53	0.08511224
214	0x3da999d6	0.08281295
215	0xbde891f4	-0.11355963
216	0x3d6484c2	0.05579067
217	0x3e393026	0.18084773
218	0x3e3ef910	0.18649697
219	0x3e6bb64b	0.23018758
220	0x3eaa3610	0.3324437
221	0xbd5f9d09	-0.05459312
222	0x3c9d9b42	0.019239072
223	0x3e6011c4	0.21881777
224	0x3c18e957	0.009332976
225	0xbd0f3eea	-0.03497211
226	0x3da6ed1b	0.08150693
227	0xbe78f4ac	-0.24312085
228	0x3d7597b7	0.05995914
229	0xbcc7f854	-0.024410404
230	0xbe2c386c	-0.16818398
231	0xbe9992cc	-0.2999481
232	0x3cdaccea	0.026709039
233	0x3b606f73	0.0034246116
234	0xbda9ba7f	-0.082875244
235	0xbdb01bb7	-0.08599036
236	0x3d7d2e2b	0.061811607
237	0x3e0dd667	0.13851319
238	0xbd0734db	-0.03300939
239	0xbe025b06	-0.12730035
240	0xbe4a2d63	-0.19743876
241	0xbdf058ed	-0.11735711
242	0xbe918b31	-0.28426507
243	0xbdab67cd	-0.08369408
244	0x3c89bdfb	0.016814223
245	0x3db7e728	0.089796364
246	0x3e640151	0.22266127
247	0xbd110f01	-0.0354147
248	0x3e0c2a54	0.13688022
249	0x3d90dabf	0.070729725
250	0xbe8ae89e	-0.27130598
251	0xbe8ce328	-0.27517056
252	0xbdbe343d	-0.092873074
253	0x3e60c4a0	0.21950006
254	0x3d8f3642	0.06992771
255	0xbe63adf1	-0.22234322

network_body.linear_encoder.seq_layers.2.bias f4 [128]
0	0xbe80f453	-0.25186405
1	0x3c9728c3	0.018452054
2	0x3ab7a135	0.0014009835
3	0xbe7201d4	-0.2363351
4	0xbc18a558	-0.009316765
5	0xbc243332	-0.010021972
6	0xbb0da73a	-0.0021614567
7	0x3c9c246c	0.019060336
8	0x3c83d2eb	0.016091784
9	0x3d142f5b	0.036177974
10	0xbb9315a4	-0.0044886637
11	0xbe7f2c64	-0.24919277
12	0xbe855dce	-0.2604813
13	0xbbf7d0f1	-0.0075627496
14	0xbe85f399	-0.26162413
15	0xbe5a1116	-0.2129558
16	0xbbcbc31b	-0.0062183267
17	0xbc97cb27	-0.018529488
18	0xbe62ab29	-0.22135605
19	0xbe891e8e	-0.26781124
20	0xbba5d5d0	-0.005060889
21	0xbc46ac1f	-0.012125998
22	0xbe5f7b91	-0.2182448
23	0x3a51c2d9	0.0008001752
24	0x3c93a1d8	0.018021509
25	0xbe7bad03	-0.24577717
26	0xbbfb646f	-0.0076718847
27	0x3cf37d14	0.029722728
28	0x3cf3435d	0.029695207
29	0xbc4a9f60	-0.0123670995
30	0xbcaf8003	-0.021423345
31	0x3baf5555	0.0053507485
32	0xbce4b545	-0.027918467
33	0xbae9d421	-0.0017839709
34	0x3adeb4db	0.0016991155
35	0xbe822717	-0.25420448
36	0xbe6893db	-0.22712652
37	0xbc2ee798	-0.010675333
38	0xbc12629c	-0.008934643
39	0xbbadc02d	-0.00530245
40	0xbe8553b5	-0.26040426
41	0xbe56ab55	-0.20963795
42	0x3d01a9b4	0.031655982
43	0xbe891ef4	-0.26781428
44	0x3c800d69	0.015631394
45	0x3ced0c3b	0.028936496
46	0x3c46f02e	0.012142224
47	0xbccbf804	-0.024898537
48	0xbc30281d	-0.010751751
49	0xbcb3462f	-0.021884052
50	0x3a4d6f5b	0.00078367227
51	0xbc0535f9	-0.008130544
52	0xbcfd9724	-0.030955859
53	0xbe5d53ba	-0.2161397
54	0xbe7d5a90	-0.24741578
55	0xbe48cf6e	-0.19610378
56	0x3c231832	0.009954499
57	0xbe5c09aa	-0.21488062
58	0xbe571fe6	-0.21008262
59	0x3d3ac9f5	0.045602757
60	0x3cc9b7fa	0.02462386
61	0xbd2b05e1	-0.041753653
62	0xbe9b3ed4	-0.30321372
63	0x3c93f7a2	0.018062416
64	0xbe7f224e	-0.2491543
65	0xbcd73cde	-0.02627414
66	0x3cff0f5a	0.03113525
67	0xbca3a259	-0.019974874
68	0xbe826c9a	-0.2547348
69	0xbe7fb3d9	-0.2497095
70	0xba73aeb0	-0.0009295745
71	0xbbf9128f	-0.0076010893
72	0xbe7edc8b	-0.24888818
73	0xbe7135a5	-0.2355562
74	0xbe596818	-0.21231115
75	0xbc3becc2	-0.011470022
76	0x3c906a42	0.017628793
77	0xbbacf984	-0.005278768
78	0xbc288d00	-0.010287523
79	0xbca8ede5	-0.02062125
80	0xbcad9663	-0.021189874
81	0xbd050ec6	-0.032484792
82	0x3c7e804d	0.015533519
83	0xbe80c202	-0.25148016
84	0x3b14ce0b	0.002270582
85	0xbe8220f0	-0.25415754
86	0xbc7094a0	-0.014683872
87	0x3c8580b8	0.01629673
88	0xbc82a5fa	-0.015948284
89	0xbc3da0cf	-0.011573984
90	0xbd27b62b	-0.040945213
91	0xbcb4412f	-0.022003738
92	0xbc813a50	-0.015774876
93	0xbe894280	-0.26808548
94	0xbc73d3c0	-0.014882028
95	0xbcad2b78	-0.021138892
96	0xbd0d9f18	-0.03457555
97	0x3c94d21b	0.018166592
98	0xbe448e05	-0.19194801
99	0x3c21a592	0.009866135
100	0xbd0d4708	-0.03449157
101	0x3cb131c3	0.021630174
102	0xbe805f31	-0.25072625
103	0xbe8117b0	-0.25213385
104	0xbcbf6571	-0.0233638
105	0x3cc1c652	0.023654137
106	0x3cab4b6a	0.020909984
107	0xbb412310	-0.0029470362
108	0x3b6a9a4b	0.0035797532
109	0x3c302077	0.010749928
110	0xbe808ac1	-0.2510586
111	0xbc30cd9e	-0.01079121
112	0xbbe6d4ee	-0.007044426
113	0x3b4657a3	0.0030264638
114	0xbb9d0645	-0.004792007
115	0xbb6ca4f9	-0.0036109074
116	0xbc2fb42e	-0.0107241105
117	0xbc977e9e	-0.018492993
118	0xbe7c70d6	-0.24652418
119	0xbe7f1e03	-0.24913792
120	0xbc29a96e	-0.010355337
121	0xbc9e151d	-0.019297177
122	0x3bdc41be	0.0067217043
123	0xbe47ee72	-0.19524553
124	0xbe7ac536	-0.24489293
125	0x3ab7b0f1	0.0014014525
126	0xbc8eedd6	-0.017447393
127	0x3c6bb7a5	0.014387046

network_body.linear_encoder.seq_layers.2.weight f4 [128, 128]
0	0x3e18053d	0.14845748
1	0xbd34cb76	-0.044139348
2	0x3d8652fc	0.06558797
3	0xbe644892	-0.22293308
4	0xbd898d23	-0.06716373
5	0x3eb61f1f	0.3557062
6	0xbdf87669	-0.1213196
7	0x3e759e59	0.23986186
8	0x3e2ed977	0.17075144
9	0xbd7d8414	-0.061893538
10	0x3d7990c8	0.06092909
11	0xbce209f4	-0.027592637
12	0x3db3639c	0.08759233
13	0x3ea8a6d9	0.32939795
14	0x3e90f74d	0.28313676
15	0x3e0f1d55	0.13976033
16	0x3d52cd29	0.051465187
17	0xbd20ab8c	-0.0392261
18	0x3d1d6628	0.038427502
19	0xbbe4259c	-0.006962491
20	0x3dfa0019	0.1220705
21	0x3e15fffa	0.14648429
22	0x3b60aa4e	0.0034281197
23	0x3e699f39	0.22814645
24	0x3eb116de	0.3458776
25	0x3cef44ae	0.029207554
26	0xbe0faac9	-0.14029993
27	0x3e4fa041	0.20275976
28	0xbd2296c0	-0.039694548
29	0xbdcf0bf3	-0.10109701
30	0xbe1dd996	-0.15415034
31	0x3ded21c7	0.11578708
32	0xbdc2bcc1	-0.09508658
33	0xbdf49ce2	-0.119439855
34	0xbd8de435	-0.06928293
35	0xbe1169bb	-0.14200489
36	0x3de0ef1b	0.10983106
37	0xbdf98dc2	-0.12185241
38	0x3db87575	0.09006778
39	0x3e423f75	0.1896952
40	0xbdf816d3	-0.121137284
41	0x3d4822cb	0.048861306
42	0x3e02efc5	0.12786777
43	0x3e6ec9f2	0.23319224
44	0xbe3c0a8d	-0.183634
45	0x3daa29f4	0.08308783
46	0xbe6d4b15	-0.23173173
47	0x3d8b9794	0.068160206
48	0xbe24caf1	-0.16093041
49	0x3e255349	0.16145052
50	0x3c89f1a2	0.016838852
51	0x3e2abb74	0.1667307
52	0xbe20194c	-0.1563465
53	0xbd93658f	-0.07197105
54	0xbc4f901a	-0.012668634
55	0x3e85ad50	0.2610879
56	0x3d04bedc	0.03240858
57	0x3de8af2c	0.113615364
58	0x3e170c05	0.14750679
59	0xbcc434b2	-0.023950908
60	0xbe7776eb	-0.24166457
61	0xbd30ae95	-0.043135244
62	0x3c9bbeb7	0.019011838
63	0x3e0bb12f	0.13641809
64	0x3d4c4d86	0.04987862
65	0x3ce216df	0.027598796
66	0xbd9c70e5	-0.076387204
67	0x3c91033d	0.01770174
68	0x3e5ede9d	0.21764608
69	0x3dac8cc4	0.084252864
70	0xbd62645b	-0.055271488
71	0x3d47c0d5	0.048767883
72	0x3dfbbbe7	0.12291699
73	0x3dc4b31f	0.09604477
74	0x3d97031d	0.07373641
75	0xbd120113	-0.035645556
76	0x3e2a73f6	0.16645798
77	0x3e2e9ed2	0.17052773
78	0x3dd5938f	0.10428535
79	0xbe33f86b	-0.17575233
80	0x3e085007	0.13311778
81	0x3e2515a7	0.16121541
82	0x3d3b8002	0.045776375
83	0xbd52d51b	-0.051472764
84	0xbddd2a5b	-0.10799094
85	0xbdf14960	-0.11781573
86	0xbd847bbd	-0.06468914
87	0x3df10337	0.11768191
88	0xbde81065	-0.11331252
89	0x3d217a06	0.03942301
90	0x3da1c0b2	0.07898082
91	0x3cc144a0	0.023592293
92	0x3e33e443	0.17567544
93	0x3e2a858f	0.16652511
94	0xbe51b90c	-0.20480746
95	0xbc97970a	-0.018504638
96	0x3e0473e3	0.12934832
97	0x3df1aed6	0.118009254
98	0x3d803982	0.06260969
99	0xbd7db877	-0.061943498
100	0xbde39e6c	-0.11114201
101	0xbe134f08	-0.14385617
102	0x3c9fdfff	0.01951599
103	0xbe43f04a	-0.19134632
104	0xbd59e48b	-0.05319647
105	0x3dd3f198	0.10348815
106	0x3d4dc434	0.050235942
107	0xbe59325b	-0.21210615
108	0x3d8841b2	0.066531554
109	0x3d35cc49	0.044384275
110	0x3de34877	0.11097806
111	0x3c7a2fe0	0.015270203
112	0xbc24bbfb	-0.010054584
113	0xbd9cea3a	-0.07661863
114	0x3d10696e	0.035256796
115	0x3c9ef22e	0.01940259
116	0xbdd69a22	-0.10478617
117	0x3d9df2d0	0.077123284
118	0x3cefb363	0.029260343
119	0x3d9a0298	0.07520026
120	0xbdff3982	-0.124621406
121	0x3e3d8bc8	0.18510354
122	0x3dde1bb6	0.10845129
123	0x3e276d12	0.16350201
124	0x3ca14b77	0.019689305
125	0xbd77692b	-0.06040303
126	0x3dbd046d	0.0922936
127	0x3d6ba759	0.057532642
128	0xbcc33191	-0.023827346
129	0xbd5af108	-0.05345252
130	0xbd008fe2	-0.031387217
131	0x3d893756	0.067000076
132	0xbe3b095f	-0.18265294
133	0xbdba7a1e	-0.09105323
134	0xbbf09207	-0.0073416266
135	0x3cfd5be2	0.030927602
136	0x3cb0aa01	0.02156544
137	0xbe1d8183	-0.15381436
138	0x3cd5b330	0.02608642
139	0x3d061e5d	0.0327438
140	0x3d2de048	0.04245022
141	0xbda44c84	-0.08022407
142	0x3e66de14	0.22545654
143	0xbd6fbeac	-0.05853145
144	0x3dac230c	0.08405122
145	0x3ddf986a	0.109177426
146	0xbc8ecd68	-0.01743193
147	0x3d1eee85	0.03880169
148	0xbde9bdfc	-0.1141319
149	0x3d226e54	0.039656
150	0x3dc595c8	0.09647709
151	0x3d975c42	0.07390644
152	0xbd137de8	-0.036008745
153	0x3d588760	0.05286348
154	0x3d2a33a7	0.041553166
155	0x3d3f122d	0.046648193
156	0xbd39b8eb	-0.045342367
157	0xbb8e66e2	-0.0043457607
158	0xbe254295	-0.1613868
159	0xbe3194e7	-0.17341958
160	0xbcd237f4	-0.025661446
161	0x3d405340	0.046954393
162	0xbc72cb60	-0.014818996
163	0xbe0ffa59	-0.14060344
164	0x3dd0903e	0.10183762
165	0x3baceac6	0.0052770106
166	0xbd0e852a	-0.034794964
167	0xbc23760d	-0.009976876
168	0x3d2ad438	0.041706294
169	0x3ddc3a3e	0.10753296
170	0x3c2361d8	0.009972058
171	0x3c3eea76	0.0116525795
172	0x3e05ec6c	0.13078469
173	0xbd1b0916	-0.037850462
174	0x3d5c8157	0.053834286
175	0x3d9a9122	0.07547213
176	0x3df6c9c2	0.12050201
177	0x3d50782b	0.05089585
178	0x3d29804b	0.041382115
179	0x3d1f1a4c	0.038843438
180	0x3a84a899	0.0010121047
181	0x3d1edaa1	0.03878272
182	0xbdcd5ac1	-0.100270756
183	0x3cd0bfce	0.025482085
184	0xbc669eb0	-0.01407592
185	0x3db2d3a3	0.08731773
186	0xbc2150a9	-0.009845891
187	0xbe1ae0d3	-0.15124826
188	0xbb8ecc6f	-0.0043578665
189	0x3d14f3be	0.036365263
190	0x3cdfdd1c	0.027327113
191	0x3dc8b1d1	0.09799541
192	0xbd02bd01	-0.03191853
193	0x3df5d9b3	0.120044135
194	0x3d110ec6	0.03541448
195	0xbd5edb68	-0.05440846
196	0xbd8524ac	-0.06501135
197	0x3da9959d	0.082804896
198	0xbdae299a	-0.085040286
199	0x3d36ccf9	0.04462907
200	0x3d0f49a8	0.034982353
201	0xbe366f38	-0.17815864
202	0x3de25e6d	0.110531665
203	0x3d439c43	0.047756445
204	0xbe4c3062	-0.19940332
205	0x3d9df7c4	0.07713273
206	0xbcca2488	-0.024675623
207	0x3db519cc	0.08842811
208	0x3de75e6e	0.11297308
209	0x3d0e421f	0.034731027
210	0xbdc217a6	-0.09477167
211	0xbe4020c8	-0.18762505
212	0xbd3388c3	-0.043831598
213	0x3d45fb36	0.048335277
214	0xbe85adcc	-0.2610916
215	0xbcd9e230	-0.026597112
216	0x3ce971b0	0.028496593
217	0xbc4f5b06	-0.012655979
218	0xbe21b3c0	-0.15791225
219	0xbcce1672	-0.025157187
220	0x3d581d08	0.05276206
221	0xbdaab133	-0.08334579
222	0xbcafc11f	-0.021454392
223	0xbe1f278b	-0.15542428
224	0x3d09aab5	0.033610065
225	0x39ae306a	0.00033223937
226	0xbc1a1b42	-0.009405913
227	0xbdf8d940	-0.12150812
228	0xbc883870	-0.016628474
229	0xbbc2a989	-0.0059406203
230	0xbc8f1e3a	-0.017470468
231	0x3de8fc0a	0.11376198
232	0xbd9d72ed	-0.07687936
233	0xbc4d2c3c	-0.012522753
234	0xbd7f7480	-0.062366962
235	0xbde509f5	-0.1118354
236	0xbd338aff	-0.04383373
237	0x3d962d92	0.073329106
238	0x3dd7bc64	0.105339795
239	0xbc322796	-0.010873696
240	0x3d15f8ce	0.03661423
241	0xbe0f51b0	-0.13996005
242	0xbb846fc9	-0.004041646
243	0x3d60a8b1	0.054848377
244	0x3d1ecfbf	0.03877234
245	0xbe1fdec1	-0.15612318
246	0x3defc7f3	0.11708059
247	0xbcfb25c5	-0.030657658
248	0x3cadbfff	0.021209715
249	0xbdca7825	-0.09886197
250	0xbd37cee1	-0.04487503
251	0x3d47a82d	0.04874437
252	0x3c17a034	0.009254504
253	0xbdc75720	-0.09733415
254	0xbcf9f123	-0.03051049
255	0x3dcfd45b	0.101479255
