Learning/results/mx6/KartAgent/KartAgent-1849967.onnx (onnx, 104129 bytes, 7 tensors)

41 f4 [1, 2]
000000 cf c7 24 bf 51 9c 28 bf
       -0.64367384 -0.6586352

distribution.mu.bias f4 [2]
000000 a2 a0 90 bb c4 d5 37 3e
       -0.00441368 0.17952639

distribution.mu.weight f4 [2, 128]
000000 4c 74 db ba 34 21 8d 3b c9 57 b8 bc b2 17 af bb
       -0.0016743033 0.0043069366 -0.022502797 -0.005343401
000010 0e 02 7a bb 45 3a 21 bb 47 9d e2 3a 6d fd b8 bc
       -0.0038148197 -0.0024601382 0.0017289304 -0.02258178
000020 43 42 85 3b 71 6f 05 3c e2 fd b9 3a fb 1b 07 3d
       0.004066737 0.0081442455 0.0014190043 0.03298567
000030 c8 ea 20 3b e7 9b 70 3b 05 a9 8f bb ce 54 71 3b
       0.0024554003 0.0036714019 -0.0043841624 0.003682423
000040 2f 5e 4f bb 4f 0d 53 3b 1c 70 7b bb a0 ac b5 3c
       -0.003164183 0.0032203977 -0.0038366383 0.02217704
000050 de c3 53 3b e9 bf ec 3a db 26 b4 3c 52 10 84 bb
       0.003231279 0.0018062565 0.021991184 -0.004030266
000060 88 66 a9 3b ba 77 9e 3c e6 76 87 bd e2 96 26 bd
       0.0051696934 0.0193442 -0.06614475 -0.040671237
000070 1f b3 d6 bc 3e 48 30 3c 73 f7 58 3b db 52 9b bd
       -0.026208458 0.010759411 0.0033106476 -0.07584163
000080 3e f4 56 bd 8b 89 3d 3b f5 33 e4 ba ec 75 4a bc
       -0.05247902 0.0028921093 -0.0017410504 -0.012357216
000090 03 1e 31 3c a3 06 11 3a 79 e8 56 3c 0b ef 8a 3b
       0.010810378 0.00055323 0.013116949 0.004239922
0000a0 f5 f1 0f 39 62 82 1b 3b 1a b7 9f ba a4 6b d2 3c
       0.00013727679 0.0023728837 -0.0012185306 0.025686093
0000b0 71 26 3b b8 92 01 a9 3b 82 0e 9b 3a a9 37 3e 3c
       -4.4620076e-05 0.005157658 0.0011829885 0.01160995
0000c0 37 3b e0 bc 58 ef 89 3c 24 f5 93 b9 4b e8 7d 3b
       -0.027371986 0.01683776 -0.0002822067 0.0038743194
0000d0 01 37 96 3d 63 60 2c 3c ed de 0b 3c c0 54 13 bd
       0.0733471 0.010521027 0.008537036 -0.035969496
0000e0 a4 fd 0a bd d7 a7 1d 3c 7f 75 26 3c 6c b1 64 bb
       -0.033933297 0.009622536 0.010159849 -0.003489579
0000f0 d0 28 61 3a 38 3f 81 3d 8c 74 c7 3b 3d ce 7f 3a
       0.00085891504 0.06310886 0.0060868915 0.000975821
000100 8f e8 68 bc ec 81 9f 3c d7 a2 a4 bb 69 26 56 ba
       -0.014215603 0.019471131 -0.005024295 -0.00081691757
000110 74 d1 b9 b9 5d 02 11 3c f3 8a be bd ee 94 8b bd
       -0.00035442004 0.008850661 -0.09303846 -0.068155155
000120 28 4c 1f bc ca b4 8d 3b ff dc 6b bc 0e 9d 09 3a
       -0.009722747 0.0043245303 -0.014395951 0.0005249538
000130 de ae 75 bd f1 61 8f bd a2 af 80 bd 8b f9 54 3c
       -0.05998122 -0.07001103 -0.06283499 0.012998949
000140 61 3d 12 3d d0 1d ad 3a 07 fa 31 bd 1e 52 ef 3c
       0.035703067 0.0013207737 -0.043451335 0.029213961
000150 4d 20 ac 38 09 43 00 bb 63 b9 86 bd ba 33 1b bb
       8.2076156e-05 -0.0019571206 -0.065783285 -0.0023681954
000160 0d 0d 6e bb 90 c6 28 bd 4a ba 2c bd 3d 67 12 3a
       -0.0036323697 -0.04120499 -0.042169847 0.0005584842
000170 5f 20 93 bd d5 24 f1 3b e6 75 cd 3b 35 37 e0 3b
       -0.07183909 0.007359127 0.006270158 0.0068425187
000180 8f 2f 9c bc 3f c9 9c bc cd 0e 40 3b f3 ff 29 3b
       -0.019065646 -0.01913893 0.0029305697 0.002593991
000190 57 c1 5f bd 8c f2 c8 3a c1 1e f5 3c 54 04 b2 bb
       -0.054627743 0.0015331074 0.029921891 -0.005432645
0001a0 b7 d5 9f 3d ed 68 ce 39 eb dc c3 ba e3 cd 67 3b
       0.07804435 0.00039369558 -0.0014943158 0.003537052
0001b0 05 03 87 ba ab 92 47 3a 90 69 10 bc 17 96 98 bc
       -0.0010300583 0.0007613103 -0.008814231 -0.018626256
0001c0 e5 6b 59 bd 28 51 43 bd e8 07 d9 ba f2 59 aa bb
       -0.053081412 -0.04768482 -0.0016558142 -0.0051987106
0001d0 23 22 b6 ba 4a 3a 82 3c 93 08 04 3c 10 ed ac bb
       -0.0013895672 0.015896935 0.008058685 -0.0052772835
0001e0 e2 b2 87 bb 1d 9f b2 bb d0 a5 ec bb 18 6f b8 bb
       -0.0041411975 -0.0054510967 -0.007221915 -0.005628478
0001f0 fd 1a 97 bb a3 57 11 3c 02 a9 a3 bb 2b 3f 7d 3a
       -0.0046113716 0.008870992 -0.0049945125 0.0009660597
000200 d7 d1 39 be eb f2 06 bb fe 6e 11 bb 04 ae 1c be
       -0.18146454 -0.0020591568 -0.00221914 -0.15300757
000210 47 9b 23 3b 19 ea 5a ba 32 dd cb 39 77 7e 5c ba
       0.0024964379 -0.00083509233 0.0003888398 -0.0008411179
000220 52 a7 92 3a b8 9e d4 ba 69 c5 cd 39 21 2f 12 be
       0.0011188781 -0.0016221618 0.0003924773 -0.14275791
000230 3c 17 1a be 7b 3c 2d b7 75 9d b7 bd 30 cc 18 be
       -0.15047926 -1.0325685e-05 -0.089655794 -0.14921641
000240 4b 5f 47 3b 46 95 71 3c 5b 6f f5 bd 97 f0 23 be
       0.003042179 0.014745062 -0.1198413 -0.16009746
000250 8a 46 b3 3a cb 65 c1 3b a4 74 21 be dd eb 68 3a
       0.0013677638 0.0059020272 -0.15767151 0.0008885244
000260 41 1d 37 3b 6c 11 24 be ee e0 01 3b a6 4e 1f 3b
       0.002794102 -0.16022271 0.0019817906 0.0024308353
000270 11 fc da bb 7c f9 86 3b f6 0e df b9 89 f2 ed 3b
       -0.0066828807 0.0041190963 -0.0004254502 0.0072615785
000280 30 c6 2c bb 69 75 b0 bb e2 89 ce ba 9b 0e 2a be
       -0.0026363246 -0.00538509 -0.0015757645 -0.16607134
000290 33 89 11 be 13 cc 92 3a b4 d5 64 3c 8c f1 30 3c
       -0.14212494 0.0011199735 0.013966966 0.010799777
0002a0 d0 cc 1d be c2 cd 85 bd 5b 96 be ba 2f 23 27 be
       -0.15410161 -0.06533386 -0.0014540659 -0.16322015
0002b0 c7 50 b4 ba 15 eb 50 3b 4e af 6e 39 80 04 26 3b
       -0.0013756984 0.00318784 0.00022762755 0.0025332272
0002c0 f7 a7 31 bc 14 5b 92 3c 65 90 f1 ba e2 5c d6 3a
       -0.010843269 0.017865695 -0.0018429874 0.0016354586
0002d0 cd 71 55 bc 9d 2d 29 be fa 1f 2e be f1 9f 0d be
       -0.0130276205 -0.16521306 -0.17004386 -0.13830544
0002e0 95 fa 9c bb 55 4a 2f be ab 31 1e be c5 5b 1f bb
       -0.004790614 -0.17118199 -0.15448634 -0.0024316174
0002f0 0f 74 82 3b 92 88 10 bc 5d 26 03 be 87 fe 0a ba
       0.0039811204 -0.008821623 -0.12807603 -0.000530221
000300 47 4f 3c be 37 83 6f 3c fb 4d 3d ba 77 ad 75 ba
       -0.18389617 0.014618686 -0.0007221398 -0.00093718566
000310 04 d4 ff bd 6a 1e 0c be d9 78 26 3c 29 5c 58 3b
       -0.12491611 -0.13683477 0.010160648 0.0033013916
000320 e3 4c 32 be f6 16 05 be c9 15 40 be b7 36 30 ba
       -0.17412142 -0.1299704 -0.1875831 -0.00067220203
000330 75 b6 86 3b 9b 88 c2 3b 6b f4 62 ba 26 75 e9 3b
       0.004111106 0.005936695 -0.0008657637 0.007124561
000340 c4 fc 5e bc 94 1a d7 3a 31 11 58 ba 81 29 17 be
       -0.013610069 0.0016411119 -0.0008242308 -0.14761926
000350 e9 95 74 ba e0 87 f5 bd 7c 81 e9 3b 2f 27 fc ba
       -0.00093301997 -0.11988807 0.0071260314 -0.0019237752
000360 c8 8b 08 bb 42 93 a8 3c 33 0d 85 3c 1c 42 a7 ba
       -0.002083527 0.02057803 0.016241645 -0.0012760791
000370 01 f3 c1 3c 8d 5c 02 be 41 70 28 3a 46 b7 44 3c
       0.023675444 -0.12730618 0.00064254185 0.012006586
000380 c8 aa 55 3b dc 30 9d 3b 66 8c c0 bd 1f 9a 3b 3a
       0.0032603014 0.0047970843 -0.09401779 0.000715645
000390 3a 33 1f 3c 23 4d c9 3a c9 f6 29 be ed 5e 34 be
       0.009716803 0.0015358072 -0.16598047 -0.17614336
0003a0 5f d3 41 bc d1 91 85 3b b0 d3 f9 3a 69 2b 36 ba
       -0.01183018 0.0040762206 0.001906028 -0.00069492176
0003b0 7b f8 58 3b 4c 03 ac 3a db ab 2c be 0a 9d 13 3c
       0.003310709 0.0013123541 -0.16862433 0.009009609
0003c0 44 50 32 bb e6 62 38 ba c7 6d 60 3a 99 bd 75 b8
       -0.0027208487 -0.000703378 0.000856128 -5.858913e-05
0003d0 cb 81 61 3b 8c cd b9 3b ba 76 21 be 74 5d 0f be
       0.0034409638 0.005670255 -0.15767947 -0.14000493
0003e0 1f 2a 9c ba 2d bc 6f 3a f9 21 af bb 74 3e 25 be
       -0.0011914409 0.0009145167 -0.005344626 -0.16137105
0003f0 a0 e5 31 be 74 02 00 3b d6 6d 81 3a 1a 15 8d 36
       -0.17372751 0.0019532712 0.0009874653 4.204584e-06

network_body.linear_encoder.seq_layers.0.bias f4 [128]
000000 d7 76 23 bd 7b 9b a7 bc 80 0f b2 bc cd 88 a0 bc
       -0.039908256 -0.020459881 -0.021735907 -0.019596482
000010 e1 e3 39 bc 70 19 62 3d 87 33 c5 bb ca ed 99 bd
       -0.0113458345 0.05520004 -0.0060181054 -0.07516058
000020 86 34 bb bc e8 de 98 bd f2 85 54 bd 0a 0c 41 bc
       -0.022852194 -0.07464391 -0.051885553 -0.0117826555
000030 fa 1b 66 bd 3f 37 d3 bd 50 54 0d 3d 35 9d 36 bd
       -0.056179024 -0.10313272 0.034504235 -0.044583518
000040 f4 0f a1 3c 5d 81 e2 bc b7 38 1d bd 9f 6a af 3c
       0.019660927 -0.027649576 -0.038384166 0.021413146
000050 19 e2 a3 bc b2 5c 48 be 2c 8a 8f 3c ec 9e 07 bd
       -0.020005273 -0.1956661 0.01752194 -0.033110544
000060 e2 f9 83 bd c3 92 8d bc 51 a2 02 bd d1 05 4a bd
       -0.06444146 -0.017281896 -0.03189308 -0.049321953
000070 1c 0b 29 bd 0e 4f 2d bd c2 a3 8a bc 46 ab 41 bd
       -0.04127036 -0.04231172 -0.016923789 -0.04728248
000080 85 d4 5f bd c6 79 1c bd 8d 4e 8d 3b 76 82 52 bd
       -0.054646034 -0.03820207 0.0043123425 -0.05139395
000090 63 57 db bc b2 fe 46 3b 82 a8 12 bd 9f 5e 40 be
       -0.026775068 0.0030364213 -0.035805233 -0.18786095
0000a0 40 30 20 bd 5b d6 44 bd ce 63 2f bb 4e f6 98 bd
       -0.039108515 -0.048055988 -0.002676237 -0.07468854
0000b0 0e af e0 bc 3e ef 09 bd aa 69 56 bd 4b d0 90 bc
       -0.027427223 -0.033675425 -0.052346863 -0.017677447
0000c0 57 41 60 bd df f7 02 3c f5 ca 11 3c ac 6b 97 bd
       -0.054749813 0.007993667 0.008898486 -0.07393584
0000d0 d3 b6 81 3a 91 54 57 bc 02 4e b2 bd f7 b8 48 be
       0.0009896405 -0.013142721 -0.08706285 -0.19601808
0000e0 8f a9 33 bd a6 e2 bb bc 21 f6 48 3d 81 cf a9 bc
       -0.043862876 -0.022935223 0.04906285 -0.020728828
0000f0 b3 93 74 bd e4 4c e5 3c dd 22 73 bc 5b 34 21 bc
       -0.05971117 0.027990766 -0.014839855 -0.009839143
000100 90 f7 cf bc 90 33 7d bd 94 98 26 3b 78 5e 1f bd
       -0.025386602 -0.061816752 0.0025420533 -0.03890845
000110 ff 10 74 bd 8a 6b 1f bd 0d 17 9f bc 3c a0 01 bd
       -0.05958652 -0.038920917 -0.019420171 -0.031646952
000120 c1 cb 41 bd a8 85 ad bc 0f 8b 55 bd 98 5a 8c bd
       -0.047313455 -0.021181896 -0.05213457 -0.06853217
000130 5a f3 0a 3d 0d 57 93 bd 8d 24 24 be aa 91 1b 3d
       0.033923484 -0.07194338 -0.16029568 0.037980713
000140 e2 ef 88 bc 6e 32 4b bd ba 76 0c bc a4 4d 99 3c
       -0.016715948 -0.04960864 -0.0085732285 0.01871378
000150 b1 28 1f bb ad 48 38 bd d6 5c 27 3d f8 ee 7d bc
       -0.0024285729 -0.044991184 0.04086002 -0.015498869
000160 2d b1 13 bc 22 ac 37 bd 35 ee e4 3c d8 9b f1 bc
       -0.00901441 -0.044841893 0.027945617 -0.029493257
000170 6b f3 9d bc f9 2d e0 bc ec 26 1d bb 02 8c 80 bc
       -0.01928111 -0.027365671 -0.0023979498 -0.01569176
000180 19 00 f3 bd 32 a5 91 bc b4 24 85 bd 9b bd 6b bc
       -0.11865253 -0.017778967 -0.06501141 -0.014388467
000190 63 d4 01 bd aa 5a fb 3b 97 43 d0 bd d9 4d 28 3c
       -0.03169669 0.00767072 -0.10169142 0.010272467
0001a0 80 17 17 bd 3f 6d 14 bc e4 17 65 bd 98 93 aa bc
       -0.036887646 -0.009059249 -0.055930987 -0.020822331
0001b0 01 b6 2a 3c 6e 3f 3e 3d 86 2b 13 bc 3d be 32 bd
       0.01041937 0.04644721 -0.008982545 -0.043638457
0001c0 e7 7a 55 bd 4d c8 d7 3c 4e 71 75 bd 2d a4 d9 bc
       -0.052119162 0.026340628 -0.05992251 -0.026567543
0001d0 28 b8 0e ba d1 58 36 bd 63 0a 2c bc a3 3e 8f bd
       -0.00054443115 -0.044518296 -0.010500523 -0.06994369
0001e0 ee 51 8f bc 7a a5 66 3b 07 6b ec bd 50 b8 7b bc
       -0.017495122 0.0035193847 -0.11543851 -0.015363768
0001f0 a6 e2 38 3c 48 5e 3f bd b9 06 a7 bc 2a fb 57 bc
       0.011284506 -0.046720773 -0.020388948 -0.013182441

network_body.linear_encoder.seq_layers.0.weight f4 [128, 68]
000000 8c 04 a7 3c a2 94 c5 bd 9b 34 a2 be 93 72 1a bf
       0.02038791 -0.0964749 -0.3168076 -0.60331076
000010 aa 44 31 be 26 e0 ef 3d cb 94 9d be 79 8c ab 3c
       -0.1731135 0.11712675 -0.30777583 0.020941006
000020 ae 67 36 be 41 ce ad 3d 55 fd ad be 07 eb 1c bf
       -0.17812988 0.084866054 -0.3398234 -0.61296123
000030 d0 11 a1 bd 79 c0 39 bd 7a b1 48 be 8d f4 b3 3e
       -0.078647256 -0.04534957 -0.19598952 0.35147515
000040 0c 7c 66 3e 35 88 a4 bc 89 be a4 be ac be ce be
       0.22508258 -0.02008448 -0.32176617 -0.40379846
000050 42 45 59 bd d6 3c 72 bc 81 a7 f8 3d d3 4a c6 3e
       -0.053044565 -0.014785012 0.12141324 0.3872896
000060 43 4d 1b 3d 04 1f 8c bd 9e 81 2c be bd 09 35 be
       0.03791548 -0.06841853 -0.1684632 -0.17679496
000070 b7 d8 23 be 48 f6 a5 3d 49 07 07 3e c1 42 12 3f
       -0.16000639 0.08103615 0.13186373 0.5713311
000080 4c 43 86 bc 30 14 cb 3d 2e e5 8a bd 14 59 a1 3d
       -0.016389512 0.0991596 -0.06781994 0.078783184
000090 34 dd 25 be 7c 61 92 3d 40 99 64 bd cf 06 36 3e
       -0.16197664 0.071475 -0.055810213 0.17776035
0000a0 7a 26 98 bd ba 7d a6 3b 16 9c 93 bd fb e9 b1 be
       -0.07429214 0.0050809057 -0.072075054 -0.34748825
0000b0 2f 33 cd bc 82 ea 8a 3e 72 a1 ac 3d 75 b5 39 be
       -0.02504882 0.2713204 0.08429231 -0.18135627
0000c0 5d 73 fc 3d ef 7c e4 bd a9 70 98 bd ad 46 d2 be
       0.12326691 -0.11156642 -0.07443363 -0.41069546
0000d0 49 78 d1 3e 51 52 3c bb 5d 23 60 3e fe 3f c9 bd
       0.40912083 -0.0028735588 0.2188849 -0.09826659
0000e0 2e fd 66 bb be a3 d3 3d 00 58 5b be 5c 93 e9 be
       -0.0035246122 0.10333966 -0.21420288 -0.4562024
0000f0 82 ff dc 3d 26 d2 0f 3d 0b 49 ad 3d d9 79 14 bd
       0.10790922 0.035112523 0.084611975 -0.036249015
000100 b5 28 a5 3b 43 d0 a5 3c 40 19 d7 bd d4 f0 01 3d
       0.005040253 0.020240908 -0.10502863 0.031723812
000110 a3 49 c5 3c 52 fa 5c bc 2b 02 df 3c 08 d5 9a 3e
       0.024082964 -0.013487415 0.027222713 0.30240655
000120 59 d2 ca bd 2b 05 4b bc fd 21 0a 3e 31 d4 a3 be
       -0.09903402 -0.012391369 0.13489528 -0.31997827
000130 1a 9b 3e be 18 c6 3f bd 3d 48 e4 3d 85 0a 42 3e
       -0.18613854 -0.046819776 0.11146591 0.18949325
000140 75 7c cb bd d3 88 19 be 4b 9b 21 3e a3 36 39 be
       -0.09935848 -0.149936 0.15781896 -0.18087249
000150 b1 49 0b bc b6 82 88 3d 5a 32 4c be d2 e0 f3 bc
       -0.008501456 0.06665556 -0.19941083 -0.029770289
000160 dd 9b 39 3e c6 26 11 bd 00 46 a9 3d 8d d0 10 3e
       0.18125863 -0.035437368 0.082653046 0.14142056
000170 76 37 d5 3d c7 95 96 be 8a 4c 5a be 91 9d fd 3d
       0.10410969 -0.29411146 -0.2131826 0.12383569
000180 be 4c 38 be 5b 3b 02 3d 7d 5e f5 3d 10 fb a0 bd
       -0.17998025 0.031794887 0.11980913 -0.07860386
000190 0f 3d 9c 3d 85 ea 7a 3d 74 d8 bf be 82 8d b3 be
       0.076288335 0.06125881 -0.37469828 -0.350689
0001a0 14 5d fa bd 7c 32 38 bd fd 30 ac ba 0f f9 7a be
       -0.122247845 -0.04497002 -0.0013137158 -0.24509071
0001b0 31 b2 ca 3c 1c a6 90 3d ca 2c be bc 66 f3 88 bd
       0.024743171 0.07062933 -0.023214716 -0.066870496
0001c0 8b f5 87 bc 8e 01 32 3e 62 a8 80 3e 87 e3 16 be
       -0.016596576 0.17383406 0.25128466 -0.14735232
0001d0 b6 bf a5 3d f4 4e ba bd 02 38 3c be f8 5c c9 bd
       0.080932066 -0.0909709 -0.1838074 -0.098321855
0001e0 ef 58 bb 3d 7f dc 45 bd 2e ca a7 be 69 be a6 bd
       0.09147822 -0.048305985 -0.32771438 -0.081417866
0001f0 2a 0d 50 3e c4 d3 8c 3c af d2 b7 bd 8d 9b 99 be
       0.20317522 0.017190821 -0.089757316 -0.30001488
000200 7f 73 13 3d 6b 0a 35 be 2f f6 fa bd 62 89 4a be
       0.035998818 -0.17679755 -0.12253987 -0.1977897
000210 10 0b f7 3d 2f 9a 27 3e c9 5f 2e 3e 0c 0d 88 be
       0.12062657 0.1636741 0.17028727 -0.26572454
000220 7c f4 2c bd 23 ff 9b bd a9 fd 9e 3d 65 ef 60 be
       -0.042225346 -0.07617023 0.077632256 -0.21966322
000230 b9 42 99 3e 8c 3b 37 3e fc 21 e9 3c a2 77 6e 3c
       0.29933718 0.17893809 0.028458588 0.01455489
000240 eb bc 15 3d c7 71 7c 3d 8b 87 c4 bc 59 7b ab 3d
       0.03655712 0.061631944 -0.023990413 0.08373136
000250 68 6c 87 be 4b cf 30 be 78 e4 a8 3d 11 a2 87 3d
       -0.26449895 -0.17266576 0.08246702 0.066227086
000260 fa 2e e7 ba 91 7a c8 3b ea 5d 79 3d 7e 85 c4 bc
       -0.0017637901 0.0061181267 0.06088058 -0.023989435
000270 26 24 8f 3d fa 07 e3 3c 3b 6c 39 be 9f fa 40 3e
       0.06989317 0.027713764 -0.18107693 0.18845604
000280 9e 7b 38 bd 41 e5 38 be fd 68 83 3e b6 92 09 3e
       -0.045039766 -0.18056203 0.25666037 0.13434872
000290 c3 37 76 be 18 02 94 bc d4 ea 91 bd 8c d0 b2 3c
       -0.24044709 -0.018067405 -0.07124868 0.021827959
0002a0 db 6b 98 3b 13 34 70 3e 19 b0 2e 3e 1d f0 aa 3e
       0.0046515292 0.23457365 0.17059363 0.33386317
0002b0 30 89 e6 3d dc ac d1 3d b2 70 e0 bd e7 f8 17 be
       0.11256635 0.102380484 -0.10958995 -0.14841042
0002c0 a1 b7 77 3d 32 01 5a 3e f8 a0 6d be a2 ca db bd
       0.060477857 0.21289518 -0.23205936 -0.107320085
0002d0 0d 38 c6 3c f0 4b 11 be 2e d5 b2 bd 9a 10 be be
       0.024196649 -0.14189124 -0.08732067 -0.3712204
0002e0 e6 6a 86 3d 2d 4a 83 be 3b 5b 18 3b 82 85 8c bd
       0.06563358 -0.2564253 0.0023247737 -0.06861402
0002f0 4c c5 5f 3c 16 0b 11 3e 22 da 82 3e 93 7b b8 3e
       0.013657879 0.14164385 0.25557047 0.3603178
000300 e6 c6 97 be 87 39 14 be 5f 5f 90 bd f3 7f 09 3e
       -0.29643935 -0.1447507 -0.070494406 0.13427715
000310 89 b7 07 3e 58 7e 90 3c b4 6d 4d bd d7 ab 89 bd
       0.13253607 0.01763837 -0.05015345 -0.06722229
000320 d3 7b 37 bd c5 93 2b be 05 fc 98 3e db 03 44 bc
       -0.044795822 -0.16755588 0.29879776 -0.01196381
000330 cd d1 32 3d 9e 68 11 3b c8 ff c9 bd 1f d0 d5 3e
       0.043657113 0.00221876 -0.098632395 0.41760346
000340 41 ef 61 bd 93 70 39 3d ee a4 37 be f6 c1 c8 bd
       -0.05515981 0.045273375 -0.1793401 -0.0980262
000350 58 b4 a7 be 53 4f ae 3d d6 99 a9 3d 38 34 e2 bd
       -0.3275478 0.08511224 0.08281295 -0.11045116
000360 67 6f 7f 3d 26 30 39 3e 10 f9 3e 3e d5 1b 5c 3e
       0.0623621 0.18084773 0.18649697 0.21494992
000370 75 b4 ac 3e 09 9d 5f bd 42 9b 9d 3c 5f a9 65 3e
       0.33731428 -0.05459312 0.019239072 0.22427891
000380 af 54 35 3c ea 3e 0f bd 1b ed a6 3d 75 ba 74 be
       0.011067553 -0.03497211 0.08150693 -0.23899253
000390 b8 ea 7f 3d 54 f8 c7 bc b9 3a 24 be 15 9b a6 be
       0.062479705 -0.024410404 -0.16038026 -0.32540193
0003a0 55 6e 27 3d 73 6f 60 3b 33 70 c8 bd 2c ed b9 bd
       0.040876705 0.0034246116 -0.09787025 -0.0907844
0003b0 82 bc 81 3d 67 d6 0d 3e 13 8b d2 bc 2b c3 c5 bd
       0.06334783 0.13851319 -0.025701081 -0.09656366
0003c0 d8 99 48 be ed 58 f0 bd 8c 82 90 be cd 4b 9d bd
       -0.19589937 -0.11735711 -0.282246 -0.076804735
0003d0 9f e8 94 3c 28 e7 b7 3d de 1f 67 3e e0 2b a6 bb
       0.018177329 0.089796364 0.2257075 -0.0050711483
0003e0 a2 0b 0f 3e bf da 90 3d a4 66 87 be 1e 5a 88 be
       0.13969281 0.070729725 -0.26445496 -0.26631254
0003f0 1c 6c b8 bd a0 c4 60 3e 7d 46 89 3d bc 0b 53 be
       -0.09004995 0.21950006 0.06702898 -0.20609945

network_body.linear_encoder.seq_layers.2.bias f4 [128]
000000 c2 54 85 be 48 c4 84 3c 1e d6 78 3b 93 02 70 be
       -0.26041228 0.016206875 0.003796942 -0.23438482
000010 62 1e a1 bb 34 9a 82 bb 35 be 4c ba 3a be 9d 3c
       -0.004916952 -0.0039856676 -0.00078103255 0.019255746
000020 66 6c 6a 3c 63 05 19 3d 1a 4b a5 bb f0 45 80 be
       0.014308071 0.037358653 -0.005044353 -0.25053358
000030 2f 4b 86 be 0e 1d 2a bc b0 42 8c be 58 dd 5e be
       -0.26229236 -0.010382904 -0.2739463 -0.21764123
000040 0c 38 1c ba dd 67 8d bc b0 0c 69 be 2d 73 86 be
       -0.00059592794 -0.01726144 -0.22758746 -0.26259747
000050 88 d3 26 bb 6b 9e 75 bc 34 a1 5d be a9 de b4 3b
       -0.0025455672 -0.014991383 -0.21643525 0.005519707
000060 a6 68 67 3c dd 55 7a be 33 8e 0c bc 43 03 ed 3c
       0.014124071 -0.24446817 -0.008578825 0.02893222
000070 dd fe f0 3c 22 78 98 bc d0 ec c5 bc 8f bb 85 3b
       0.029418403 -0.018611971 -0.024160773 0.0040811966
000080 8a 4c db bc ea db dc bb 9a 74 0e bb 33 33 79 be
       -0.026769895 -0.006740083 -0.002173698 -0.24335937
000090 12 27 73 be 91 41 6c bc 0f 34 25 bc 1c 64 3c bb
       -0.23745373 -0.014419929 -0.0100832125 -0.0028746193
0000a0 4b 96 88 be b7 f8 56 be 5c b5 d0 3c 7f 46 8c be
       -0.26677164 -0.20993315 0.025477104 -0.27397534
0000b0 0f 3b cd 3c 8b 53 d0 3c 38 b1 21 3c f3 ce c9 bc
       0.025052575 0.025430461 0.009868912 -0.024634814
0000c0 97 07 86 bc 84 77 d0 bc 02 73 da ba 0a 62 57 bc
       -0.016361041 -0.025447614 -0.0016666355 -0.013145933
0000d0 99 5e fb bc af 04 58 be 57 2c 78 be 0c 5e 56 be
       -0.030684756 -0.21095537 -0.24235664 -0.20934314
0000e0 68 cc 27 3c 72 92 68 be e3 36 55 be 7f e8 3f 3d
       0.010241605 -0.22712114 -0.20821719 0.046852585
0000f0 3f f6 bf 3c dd 3e 27 bd 58 a9 a4 be b4 55 5c 3c
       0.023432849 -0.040831435 -0.3216045 0.013448168
000100 82 f0 87 be 3c b7 cc bc 7a 63 bf 3c bb 4d 9f bc
       -0.2655068 -0.024989717 0.023362864 -0.019446244
000110 5d a6 78 be 24 38 80 be ff ec 02 ba 8c bb 22 bc
       -0.24282213 -0.25042832 -0.00049944216 -0.00993241
000120 dc 46 83 be c0 90 6a be e7 55 58 be 37 c9 49 bc
       -0.2564 -0.2290678 -0.21126519 -0.01231604
000130 df 41 83 3c b8 86 a4 bb f4 c2 61 bc fe ce 7a bc
       0.01602262 -0.0050209425 -0.013779391 -0.01530814
000140 eb f3 b9 bc dc 54 04 bd d3 3e 82 3c 63 93 85 be
       -0.022699317 -0.03230749 0.015899098 -0.2608901
000150 f3 fa 00 3c f1 1a 82 be ba 81 60 bc 44 e8 ad 3c
       0.007872331 -0.2541118 -0.013702804 0.021228917
000160 55 6e 78 bc 9a 06 26 bc 5e 5a 20 bd 5d 83 c2 bc
       -0.015163024 -0.01013341 -0.03914868 -0.02374428
000170 22 81 4e bc 7c df 89 be e4 0d c8 bc 57 01 aa bc
       -0.01260403 -0.26928318 -0.024420686 -0.020752592
000180 56 94 0d bd 14 34 a8 3c 15 f6 3d be 76 64 b2 39
       -0.034565292 0.020532645 -0.18550904 0.00034025655
000190 a5 58 08 bd e4 99 c7 3c 01 05 80 be 60 3d 86 be
       -0.033287663 0.024365373 -0.25003818 -0.262187
0001a0 02 e1 bf bc 2d 66 c5 3c 92 80 8a 3c bf 8b 1a 3a
       -0.023422722 0.024096573 0.01690701 0.00058954576
0001b0 ed 58 f5 3b 72 16 c7 3b be 72 80 be 26 3e d8 bb
       0.0074874074 0.0060756737 -0.2508754 -0.0065992055
0001c0 d4 cb 30 bc 0d 7b ba 3a a5 13 6a bb 2f f8 71 3a
       -0.010790784 0.0014227346 -0.0035717275 0.00092304026
0001d0 1a df 11 bc c8 84 c1 bc 4d 10 77 be 3d d3 7d be
       -0.008903289 -0.023622885 -0.24127312 -0.24787612
0001e0 b8 91 c3 bb 65 f2 12 bc f0 d8 f3 3b 75 1f 51 be
       -0.0059682988 -0.008968924 0.0074416324 -0.20422156
0001f0 a2 01 83 be 9e 2d 16 bb e6 9b 4c bc 44 5d 8f 3c
       -0.25587183 -0.0022915374 -0.012488341 0.017500527

network_body.linear_encoder.seq_layers.2.weight f4 [128, 128]
000000 18 5a 1d 3e a8 6b 40 bc 4c 49 8d 3d f9 21 67 be
       0.153664 -0.011744417 0.06898746 -0.22571553
000010 51 7d 9b bd cf 5e b8 3e de 52 c2 bd 19 4a 7e 3e
       -0.075922616 0.36009833 -0.09488462 0.24832954
000020 26 30 39 3e be 84 5b bd 72 c7 0a 3d d0 96 71 bd
       0.18084773 -0.05359339 0.033881612 -0.058981717
000030 49 8e 95 3d 12 53 ac 3e 72 af 9d 3e 9d c8 18 3e
       0.07302529 0.33657128 0.30797917 0.14920278
000040 d1 3f 81 3d 20 37 bd bc e9 9b 30 3d 52 41 c9 bc
       0.06311 -0.023097575 0.043117438 -0.02456728
000050 4e 62 c3 3d 85 19 16 3e 8e 68 05 b9 9f 2b 6d 3e
       0.095402345 0.14658172 -0.00012722818 0.23161171
000060 cf ec b4 3e ae 51 21 3d 79 76 c3 bd 8a 3d 59 3e
       0.3533692 0.039384536 -0.09544081 0.21214882
000070 ba b2 36 bd 08 46 9b bd 53 4b 1b be 7d 0a f4 3d
       -0.04460404 -0.07581717 -0.15165453 0.11916063
000080 ee 2b a3 bd 2b ba ed bd c4 4d a9 bd c1 51 ff bd
       -0.07967363 -0.11607774 -0.08266786 -0.12466765
000090 9e 4f e3 3d 23 36 fb bd 79 36 db 3d 5e 1c 45 3e
       0.1109917 -0.12266185 0.10703749 0.19249102
0000a0 5f c0 0a be e8 5f 13 3d 8e d6 0e 3e c1 0e 75 3e
       -0.13549946 0.035980135 0.13949034 0.2393141
0000b0 df 2f 49 be 1b 72 0f 3d 9a 42 89 be 6e 79 8d 3d
       -0.19647168 0.03502093 -0.26808625 0.069079265
0000c0 be 66 1c be a0 b8 48 3e 82 0d eb 3c 61 7a 29 3e
       -0.15273568 0.19601679 0.028692964 0.1655059
0000d0 8f a8 10 be d8 c2 47 bd e2 f6 1b bd 0c 7d 89 3e
       -0.141268 -0.0487698 -0.038077243 0.26853216
0000e0 35 4a 37 3d 01 85 ea 3d 05 29 20 3e 83 b2 95 bc
       0.044748504 0.1145115 0.15640648 -0.018273598
0000f0 c8 69 7d be 42 fb 29 bd 84 11 29 3d 44 3f 03 3e
       -0.24747384 -0.041499384 0.04127647 0.12817103
000100 71 c9 11 3d 0d c9 64 3c bf 11 73 bd 86 28 5c 3c
       0.0355925 0.01396395 -0.059343096 0.013437396
000110 10 d0 59 3e d3 16 c2 3d 47 fb a1 bd 6c 99 31 3d
       0.21270776 0.094770096 -0.079092555 0.043359205
000120 78 08 00 3e df 36 d3 3d 1d bc 40 3d a1 3f 63 bd
       0.1250323 0.103132 0.0470544 -0.055480603
000130 e6 41 3d 3e be d8 30 3e b8 34 e3 3d 5e 22 3a be
       0.1848217 0.1727018 0.1109404 -0.18177173
000140 3e a8 17 3e 7a c7 19 3e ab 4f 61 3d f2 81 a3 bc
       0.14810273 0.150175 0.055007618 -0.019959424
000150 53 e9 ba bd dc b9 9a bd 81 d3 92 bd fc 53 10 3e
       -0.09126534 -0.07554981 -0.071692474 0.14094537
000160 e2 b0 0c be 15 4c c4 3c 97 20 83 3d 5a de 41 3d
       -0.1373935 0.02396206 0.064027004 0.04733119
000170 17 3a 3e 3e 34 52 3a 3e ce 63 7c be 21 1f d2 bc
       0.18576847 0.1819542 -0.24647447 -0.025649609
000180 3f 5e 08 3e 22 1e fc 3d 51 09 77 3d 78 b2 55 bd
       0.13317202 0.12310435 0.06031162 -0.052172154
000190 92 8e da bd 0e 29 d5 bd ef d0 df 3c 96 c6 41 be
       -0.106717244 -0.10408221 0.027321307 -0.18923411
0001a0 b3 a7 13 bd 52 49 f1 3d 72 ad 44 3d ca d6 2e be
       -0.036048602 0.11781563 0.048016973 -0.17074123
0001b0 4d 65 97 3d a3 2c cb 3c 48 89 6a 3d 2b c6 c6 3c
       0.073923685 0.024801558 0.057259828 0.024264416
0001c0 da cf 17 bc ac 17 bd bd 15 f2 5e 3d 11 b8 93 3c
       -0.009265864 -0.09233031 0.054430086 0.018032106
0001d0 9b 54 c3 bd be 9b 8e 3d 59 60 fb 3c 8e 45 ac 3d
       -0.095376216 0.06963299 0.03068559 0.08411704
0001e0 c7 55 0b be 62 a9 39 3e 8a c4 ed 3d 61 07 2e 3e
       -0.1360694 0.1813102 0.116097525 0.16995002
0001f0 40 59 3e 3d 35 bd 79 bd ec 9e 8b 3d ca a3 8d 3d
       0.046471834 -0.060971458 0.06817421 0.06916006
000200 c2 dd c9 bc 64 a2 5b bd 2b f3 48 bc c1 52 3b 3d
       -0.024641875 -0.053621665 -0.012265007 0.045733217
000210 ee 76 3f be c3 74 b0 bd a4 f9 e3 bb 3d c4 0a 3d
       -0.18697712 -0.086160205 -0.0069572497 0.033878554
000220 5d 32 c5 3c b0 08 1a be 78 69 53 3d 54 20 ce 3c
       0.024071867 -0.15042377 0.051614255 0.0251619
000230 91 ee 88 3d de 24 9f bd ed f9 68 3e 50 1f a4 bd
       0.06686128 -0.07770704 0.22751589 -0.08013785
000240 13 49 b6 3d 95 cd d3 3d fc 57 6a bc 46 76 0e 3d
       0.089006566 0.10341946 -0.014303204 0.034780763
000250 19 e7 d8 bd d7 dd 3c 3d 63 00 dd 3d 77 da 9f 3d
       -0.105909534 0.04611 0.107910894 0.07805341
000260 bb 71 0b bd 68 fa 4f 3d b2 d5 c7 3c 11 5a 73 3d
       -0.03404401 0.050775915 0.02439389 0.059412066
000270 a6 64 7d bd 79 1d a3 bc 7c 10 1f be c0 ec 2d be
       -0.061863564 -0.019911515 -0.15533632 -0.16984844
000280 19 1b cc bc 35 62 38 3d f3 b3 c1 bc 8e d7 21 be
       -0.024915265 0.045015533 -0.023645377 -0.15804884
000290 1c 3b c6 3d 08 c4 72 3b 5d b7 07 bd 66 38 83 bb
       0.09679243 0.0037043113 -0.033133853 -0.004004526
0002a0 c2 e7 3a 3d bf 47 e8 3d 8c 86 88 3b b8 a4 68 3c
       0.045631178 0.113418095 0.00416643 0.014199428
0002b0 60 27 e5 3d 75 4e 18 bd 62 d6 40 3d 77 26 c2 3d
       0.11189151 -0.037184197 0.04707945 0.09479993
0002c0 71 3e be 3d 5f 68 90 3d 28 a3 6d 3d 5a b7 29 3d
       0.092892535 0.07051157 0.058016926 0.041434623
0002d0 7d 4f 31 39 d3 aa 00 3d e2 5b c2 bd 15 10 f3 3c
       0.00016909647 0.03141291 -0.094901815 0.029670754
0002e0 cb 76 bb ba 10 0f ae 3d 9e 1d a5 bc ba 94 23 be
       -0.0014302371 0.08498967 -0.020155724 -0.15974703
0002f0 4b df c8 bb 8d e9 4e 3d 60 55 fb 3c 71 bf ee 3d
       -0.006130134 0.0505157 0.030680358 0.11657608
000300 40 79 f3 bc f3 9e c0 3d 3c 3d 6b 3d 1c cb 8c bd
       -0.029720902 0.09405317 0.057431445 -0.068746775
000310 82 4b 86 bd a7 79 ae 3d e6 4c c9 bd 2c 50 91 3d
       -0.06557371 0.08519297 -0.0982912 0.0709537
000320 d8 dd 3d 3c fc 19 2a be 46 84 d9 3d 90 a5 d8 3c
       0.011588536 -0.16611475 0.10620932 0.026446134
000330 ae 19 4e be 38 03 65 3d f2 f3 aa bc 9f 5f c1 3d
       -0.20126984 0.055911273 -0.020868275 0.094420664
000340 2a 3b d6 3d f5 26 00 3d b2 83 9e bd 0f dd 31 be
       0.104605034 0.031287152 -0.07739963 -0.17369483
000350 04 e3 86 bd 7e c3 26 3d cf 91 8a be d9 3a d2 bc
       -0.065862685 0.04071378 -0.27064368 -0.025662826
000360 1e 0b 90 3c 2b a9 2f bc 03 8b 3c be 2b a3 3f bc
       0.017583426 -0.010721485 -0.18412404 -0.011696617
000370 cf 41 2f 3d 5d 92 b2 bd ec 99 e7 bc 3a a1 15 be
       0.04278737 -0.08719323 -0.028271638 -0.14612284
000380 e7 56 22 3d 79 74 4c 3b b7 51 d6 bc 97 80 f3 bd
       0.039633658 0.0031197353 -0.026162012 -0.11889761
000390 a4 82 2e bc 0c 8c bb bb 80 58 62 bc 21 de de 3d
       -0.010651264 -0.005723482 -0.013815045 0.108822115
0003a0 45 b4 87 bd 86 82 39 bc bb b0 6c bd ef 66 12 be
       -0.066261806 -0.011322623 -0.05778573 -0.14297079
0003b0 36 38 34 bd 60 1f 96 3d 6c 33 b5 3d af 20 82 3a
       -0.04399892 0.07330203 0.088476986 0.0009927953
0003c0 ba fa d3 3c 60 f9 10 be 31 b8 93 bb d6 9e 4a 3d
       0.025876392 -0.14157629 -0.0045080413 0.049467884
0003d0 63 36 35 3d 16 3d 2b be 52 01 b1 3d c6 5e e5 bc
       0.04424132 -0.16722521 0.0864283 -0.027999293
0003e0 ca 81 dc 3c 99 d3 f5 bd c2 2d 31 bd 9f 18 d1 3c
       0.026917357 -0.1200325 -0.04325653 0.025524436
0003f0 5e 56 49 3c 0f 51 cb bd d0 95 32 bd f9 ae c5 3d
       0.012288658 -0.0992757 -0.043599904 0.09652514
