Learning/results/A1/KartAgent/KartAgent-30594.onnx (onnx, 104129 bytes, 7 tensors)

41 f4 [1, 2]
00000000: 9d79 193b 04ce b639
0.0023418434 0.0003486724

distribution.mu.bias f4 [2]
00000000: bf15 eabb 9699 65bc
-0.0071437056 -0.0140136685

distribution.mu.weight f4 [2, 128]
00000000: 2c59 363c 9fe2 81bc 0512 e339 b9ed 61bc
00000010: 006d f6bb accb 883b 0455 2c3c 80f6 223c
00000020: ac58 033d 9243 f93b c891 8d3c 1ce0 d13c
00000030: 0725 99bb d848 48bb 4297 08bc 2669 523a
00000040: 17e5 2f3d 7778 893a f4b3 6abc a3a9 653c
00000050: 446d 5bbb f1bb 243c f88c 7ebc 76ed 48ba
00000060: d180 9cbc b900 233c b717 583c 37c4 0b3b
00000070: 0d45 7aba 2c69 593c 141f 4eba 56d2 02bc
00000080: 4262 683b f6e4 89bc 0476 aa3b 2af0 273c
00000090: b992 48b9 6fc9 b13c 057e 0dbc 378e 9a3b
000000a0: 5c2a b2bc 84c7 a33c 8c7d b63b 8746 c7ba
000000b0: dc80 903c 602d 783b 8107 64ba affd 3bbb
000000c0: 3de1 5bbc b7e6 0f3c 113d d13b 57b2 663c
000000d0: 6e43 5f3c 9c8f 3e3c eb90 8c3c fe3b 863b
000000e0: a58b b2bc 4f61 99ba 40e1 b4bb cb93 a0bc
000000f0: cfca 903b af9c a7bb 4e02 f0bb 15aa 18bb
00000100: 97f8 49bc 025d 67bb d163 df3b 1f81 0c38
00000110: b244 b73b e476 2039 d13e 733c ba78 ff3b
00000120: 1ea6 7d3c 78c1 84bb f811 1b3c 165c 38bb
00000130: e13e dfbb 1047 3cbc 4c0a f33a 9d81 70bb
00000140: 47d8 b7bb f77d 0bbd 6b82 b43b f321 4cbc
00000150: b78b 943a 2970 8d3c 2579 603b 82eb 6fbc
00000160: 0402 31bc f714 c23c 31c1 70bc e85f 50bb
00000170: 6de5 1a3c 556e 45bc 9f4b eb3c f3c6 8d3c
00000180: 21be e0b8 cf4c ffbb afef febb 91e9 06bb
00000190: 8ff6 04bd ffc8 113c af8c b9bb 7f33 16bb
000001a0: cbae 45bc ac28 7a3b cbfb 67ba 3ee6 54bc
000001b0: d320 323d 802e 33bb 9f04 9a3b 74b8 173c
000001c0: 7c57 883c 91fd da3b e060 0d3c d4bb d83b
000001d0: 1294 45bc 8b4d 033d f03e d0bb 653b e5bc
000001e0: 213a b537 b0b6 d9bb ef00 cd3c 3060 fc3b
000001f0: e7d7 be3b abf5 b4bb e8c7 8d3c c427 0d3b
00000200: 8c16 883c 52bb f03c 2a78 bebb 9d28 c6bb
00000210: a472 0b3d c1f5 303b 7e2d 6abc 88d4 70bc
00000220: 6e0f bf39 227e 9e3a ccf3 253c 2e78 1a3c
00000230: 228c 63bb 19d9 eb3c 473d a1bb 3b27 853c
00000240: 256a 14bd ea23 e13a 3507 f6bc d6e8 90bc
00000250: 7181 413b 925c fcbb f47b 54bc 00f1 1d3b
00000260: 44f1 87bb 2466 60bb bbd9 1a3b 1732 b3bb
00000270: 187c 89bb d00d f93b eb48 10bc 9a56 893c
00000280: 11f6 1b3c 6015 933c efa6 8dba 6855 0e3c
00000290: 4398 cd3c c6d3 f8bc 6900 213d 2044 6438
000002a0: 4b80 3ebc 3047 b23c 3421 553c 9d9a b63a
000002b0: b0c5 633c d97f ce3c 0000 49ba bbad 763c
000002c0: 8ef4 adbc 348f eb3c 714b b1bc 1713 adbb
000002d0: 387f 283c 13ba 78bb 8b89 8abb c9e1 373b
000002e0: 63dc 623c a242 ba3a 25f7 cf3b a9d5 d8bb
000002f0: 3384 213c f3b4 103b 0fca 953b 8b2a 8dbb
00000300: 112a 09bd cda5 003b 7cbe 1bba 30b8 3a3c
00000310: d0f3 4d3b d093 32bc b699 6e3c d798 8ebc
00000320: 9a0b 813a 10d6 8abc 66c1 c1bc 4725 b03a
00000330: 7358 da3c cfb2 2ebd d68c 06ba 9c6a c9bb
00000340: 6cc5 233c 8076 8a3b a041 f93a 0c98 8f3c
00000350: 9d16 6dbc 1a79 0ebd 4739 f6bb 8d96 94bc
00000360: 72e8 e3bb b6b6 40bb 5889 a6bb 5f70 06bc
00000370: 2e1c 4f3b 03b2 cabc 112d 5c3a 2364 cc3c
00000380: de50 a2bb 7665 2cbc 1e04 63bc cdf0 febc
00000390: ed56 08bc 6760 3bbc d136 e4bc 4f32 75bc
000003a0: f772 59bb 8b46 40bb 4cd5 4e3c 64bb 21bc
000003b0: 5aef 8c3d 6490 e03c 8ecc 043c 9b47 4cbb
000003c0: 8b22 a2bc 8a78 ca3c fb64 4abc 79f3 91b9
000003d0: 45b2 30bb 11e7 b63a 5949 ed3b 77db c43a
000003e0: 1754 ddba 0d7a 89bb d6b9 23bb 6c2e e3ba
000003f0: c609 5cbb b130 debc cd00 903b b554 ca3b
0.011129659 -0.015855132 0.0004331024 -0.013789588 -0.007520318 0.00417467 0.010518316 0.0099464655
0.032066986 0.007606932 0.017281428 0.025619559 -0.0046736035 -0.0030560996 -0.008336844 0.00080265326
0.042943086 0.0010488172 -0.014325131 0.014017495 -0.0033481875 0.010054574 -0.015536539 -0.0007664779
-0.019104393 0.009948903 0.013189248 0.002132667 -0.00095470325 0.013269704 -0.00078629074 -0.007984718
0.0035458957 -0.01683281 0.005202057 0.010250131 -0.00019128145 0.021702496 -0.008636002 0.0047166604
-0.021748714 0.019992597 0.0055691656 -0.0015203514 0.01763957 0.0037868842 -0.0008698628 -0.0028685143
-0.0134204 0.008783034 0.0063854535 0.0140806055 0.013626916 0.011630919 0.017158946 0.004096507
-0.021795103 -0.0011701974 -0.005520016 -0.019601723 0.004418708 -0.0051151137 -0.0073244935 -0.0023294736
-0.012327335 -0.003530324 0.006817319 3.3498854e-05 0.005592906 0.00015303079 0.01484652 0.007796374
0.0154815 -0.0040513836 0.009464733 -0.002813106 -0.0068129157 -0.011491552 0.0018542497 -0.003669835
-0.005610499 -0.034055676 0.005508711 -0.012459266 0.0011333142 0.017265396 0.0034251895 -0.014643552
-0.010803703 0.023691637 -0.014694498 -0.0031795446 0.009454113 -0.012050231 0.028722582 0.01730678
-0.000107165666 -0.0077911387 -0.0077800374 -0.0020585994 -0.0324617 0.008898019 -0.0056625227 -0.0022918878
-0.0120656 0.0038171215 -0.0008849471 -0.012994347 0.043488335 -0.0027340949 0.004700258 0.009260286
0.016643278 0.0066830595 0.008629054 0.0066141877 -0.0120592285 0.032056373 -0.006355159 -0.027982423
2.160395e-05 -0.0066440925 0.02502486 0.007701896 0.0058240774 -0.00552245 0.017307237 0.0021538595
0.016612314 0.029386196 -0.0058126645 -0.006047322 0.034044877 0.002700195 -0.014293073 -0.014699109
0.00036441855 0.0012092034 0.0101289265 0.009428067 -0.0034720977 0.028790044 -0.004920635 0.016254058
-0.03623404 0.0017176841 -0.030032733 -0.01768915 0.0029526616 -0.007701465 -0.012969006 0.0024099946
-0.004148634 -0.0034240568 0.0023628313 -0.0054686177 -0.0041957013 0.0076005235 -0.0088064475 0.016764928
0.009519116 0.017954528 -0.0010807196 0.008687355 0.025097018 -0.030374419 0.03930703 5.4422882e-05
-0.011627267 0.02176246 0.0130084045 0.0013931576 0.013902113 0.025207447 -0.00076675415 0.015056069
-0.021234777 0.028754808 -0.021642419 -0.0052818167 0.010284238 -0.0037952706 -0.004227822 0.0028058162
0.01384649 0.0014210532 0.0063466006 -0.006617267 0.009858179 0.002208051 0.0045712064 -0.00430805
-0.033487383 0.0019630075 -0.0005941165 0.011396453 0.003142584 -0.010899499 0.014563015 -0.017406864
0.0009845376 -0.016947776 -0.02365179 0.0013438844 0.026653504 -0.042650994 -0.00051326805 -0.006146742
0.0099957995 0.004225552 0.001901675 0.017528556 -0.014470723 -0.03478346 -0.007514152 -0.018138194
-0.0069552 -0.002940578 -0.0050822906 -0.008205502 0.003160249 -0.024743086 0.00083990494 0.024950093
-0.004953488 -0.010522237 -0.013855962 -0.031120682 -0.008321506 -0.011436558 -0.02785817 -0.014965608
-0.0033180097 -0.0029338922 0.012624096 -0.009871338 0.0688159 0.0274126 0.00810541 -0.003117061
-0.019791862 0.02471568 -0.012353177 -0.00027837956 -0.0026961726 0.0013954361 0.0072414097 0.0015019019
-0.0016886023 -0.004195458 -0.0024982593 -0.001733256 -0.0033575161 -0.027122827 0.0043946267 0.0061746486

network_body.linear_encoder.seq_layers.0.bias f4 [128]
00000000: 2d85 4cbb 6ce0 133c 0e93 8f39 4ea7 a6bb
00000010: 6e5a b7bb e9aa 063c 81e5 ac3b 2254 1dbc
00000020: fb95 3c3c b7a2 9dbb 5065 683a a735 97bb
00000030: e910 0a3c a51b 943b bb17 94bb d2ce 11bc
00000040: 7133 54bc 96d0 a23b 540d 0bbd 5e6e 43bb
00000050: f56d 603b 8cf3 3d3c f8a0 26bc dfc3 993b
00000060: 121c 0fbb d020 fabb 7d69 1b3c 153f b2bb
00000070: 27c5 cd36 ef8b 89bb bd5d 2a3c c601 5cbc
00000080: fc50 1abb fd42 06bb f954 223b e44f 82bc
00000090: d91d aebc e13e 20bc 4a53 173c 9ed8 20bc
000000a0: 1a81 5abb 0e7f 6dba 71b0 eb3a 2685 6cbb
000000b0: 7ca6 dc3c a602 1a3a 4c21 573c e784 afbc
000000c0: 1bf0 7cbb 3fd5 afbc 0e7a 41bb 124a 2dbc
000000d0: 6b04 5b3a 5e3a 47bc d9b6 e53b 6d60 80b9
000000e0: ee97 c4bc 87c9 cb3b acc3 943b 1261 61bb
000000f0: b265 fab9 12d6 53bb 7328 dbba 03ec 32b9
00000100: 1214 a7bb d562 d53c 8415 923c 0887 d7ba
00000110: 379f f23a a27a b43b 1615 b4bb f10d b7bc
00000120: fd65 dcba 22e3 bd3b 69ac 8d3c c93f 37bb
00000130: 837f 44bc 6141 413b 05b1 2239 14bb 84ba
00000140: 7818 bebb 8748 05bc 6137 8abc 7634 c4bb
00000150: f05f c4bb 7322 f23b 973f 21bb 8b1c 5abc
00000160: 416e 4ebb 9d0b 38bc 491b 24bc e5f6 933b
00000170: da39 51bb 8bf1 22bc 707a b13c 1bf6 9bba
00000180: bcfc 1cbc 5c19 2abc 1138 083c d3b3 0a3c
00000190: 0d77 063b 7b77 0ebc b367 32bc edda d7bb
000001a0: b961 39bb b7e6 053c 3f9a 92bc e796 94bb
000001b0: 2c61 1fbc 6c46 75ba 9e28 86ba c88f c13c
000001c0: 0cf3 7e3b e488 5a3b 1125 453c b6d8 583c
000001d0: c9e6 eb3b 31d6 88ba fbf7 1f3b 2953 67bc
000001e0: 939e 9ebb 4113 5aba 58b5 50bc 5373 54bc
000001f0: 3f43 dc3b 6a66 6abc 214c f13b 5076 0cbb
-0.0031207309 0.009025674 0.0002738465 -0.0050858622 -0.005595497 0.008219459 0.0052763824 -0.009602578
0.0115103675 -0.004810657 0.00088651944 -0.00461455 0.008426883 0.004519897 -0.0045194305 -0.008899407
-0.012951718 0.004968713 -0.033948258 -0.0029820423 0.0034245227 0.011593711 -0.010170214 0.004692539
-0.00218368 -0.007633306 0.0094856 -0.005439649 6.1324276e-06 -0.0041975896 0.0103983255 -0.013428157
-0.0023546806 -0.0020486705 0.0024769886 -0.015907235 -0.021254467 -0.0097806165 0.009236166 -0.009817271
-0.003334111 -0.0009059765 0.0017981661 -0.0036090105 0.026934855 0.00058750284 0.013130497 -0.021425677
-0.0038595262 -0.021463988 -0.0029522213 -0.010576742 0.00083548453 -0.012159912 0.0070103225 -0.00024485905
-0.023998227 0.0062190923 0.0045399275 -0.0034390134 -0.00047759485 -0.003232364 -0.0016720429 -0.00017063324
-0.005098828 0.026048103 0.017832525 -0.0016443441 0.0018510584 0.005507783 -0.0054956777 -0.022345515
-0.0016815063 0.0057948986 0.017294126 -0.0027961603 -0.011993292 0.0029488432 0.00015515469 -0.0010126554
-0.0058012567 -0.008134968 -0.01687211 -0.005987699 -0.005992882 0.0073893606 -0.0024604553 -0.013312469
-0.0031498822 -0.011233238 -0.010016271 0.004515516 -0.0031925351 -0.009945284 0.021664828 -0.0011898907
-0.009581741 -0.010382023 0.0083141485 0.008465725 0.0020517737 -0.008695479 -0.010888982 -0.0065873773
-0.0028287007 0.0081726825 -0.017895816 -0.0045345905 -0.009727757 -0.0009356502 -0.0010235494 0.02362813
0.0038902191 0.0033345753 0.012032763 0.013235262 0.0071991426 -0.001043981 0.0024409282 -0.014118948
-0.004840681 -0.0008318909 -0.012738548 -0.012966949 0.0067218835 -0.014306644 0.0073638116 -0.0021432824

network_body.linear_encoder.seq_layers.0.weight f4 [128, 68]
00000000: 0a4a 3a3d 8d6c a53d d286 22bd 2750 a93e
00000010: ca6c 813c 08cd 503e 84b4 c3bd ff6d b03d
00000020: bfa1 1b3d edcf ed3d 6f2e ad3d d568 57bc
00000030: 0663 263d 85c5 473e db0e edbd d12c dbbd
00000040: 0377 ec3c 59df 4ebd 2136 0b3d 649b 97be
00000050: 3ecc babc f665 f3bb 83b2 01bc f128 b5bd
00000060: 59a0 d8bd cb53 e83d 00c6 a13d 9823 1ebe
00000070: 3c3d 4c3e 2ac8 593e c9d3 1fbe b562 14bc
00000080: cd9f 2e3d 4bf8 823d a102 ab3e cc73 923d
00000090: 12ee 4bbe 94fd a7be 7bc2 2abd a4a7 e63c
000000a0: fb13 9abc 3152 ffbc b19b e7bd bc7d a23d
000000b0: f7dc d3bd cf9c bc3c e153 643c 7ab4 fa3d
000000c0: 0f91 6b3e 22ab 24be dc06 3abe 243f 27bd
000000d0: 39e9 463d fb5f c0bd d496 1bbe 28bf c23d
000000e0: c46c a8bd 603a 48bb ef56 5f3b c066 643e
000000f0: abb6 613d 1cf5 853c fc99 663e fba3 2dbe
00000100: 9b14 d8bd e15e dbbd a60c 263d 2e90 67be
00000110: ddb3 38bd 657c 903b 49ce 19be 0571 a6be
00000120: 0db2 953a 61a0 313e fc40 843c e029 af3d
00000130: 06c3 c33d 9b9c 16be 2668 d3bc 42b0 bbbd
00000140: 4548 2fbe 7435 b43d 171a 423e a85a e6bd
00000150: f515 f9bb 426e 5cbe 276a 9e3d 9036 b13d
00000160: ac52 4e3e 8bd6 f23d 18fe 943e eacd 393d
00000170: 96fd dabd 2db4 7abd d81d 8bbd 244f 02be
00000180: c3ec 08bd 21da 5ebd 5ace a3bd 4c80 b2bd
00000190: e8c7 29be aa5c 293c 81b7 46bc f4fe fdbc
000001a0: 87ad 283d 28f1 cfbb c1ea 153c 2221 ee3d
000001b0: b30a cbbd 0d53 77bd 8bd6 243e 04ae 5b3e
000001c0: 867c efbc 3283 8e3d 8581 9b3d 972b 1ebd
000001d0: daf8 3cbd 5f60 5dbd 1e98 a93d 1a6a 803d
000001e0: b5ec d1bd 1847 16bd 29f9 c43d 66fe 77bc
000001f0: 935b 1fbd b14d 163d 954e 3bbe 1c10 423d
00000200: 170f a93d 1c1c 273e 4e1f cdbd 2e2d 853e
00000210: 4d72 8bbb 45be 29be 1882 2a3e 35f5 2d3e
00000220: 4d84 7abd 5142 653e 1bb2 85bb 4dac fbbc
00000230: eca3 03bd 5a43 0d3c 8174 1e3e 72b2 163d
00000240: 371b 27be d8a5 88be 898f 35bd e4c6 413e
00000250: f3b2 b63d d37f 843d b227 fe3c a957 de3d
00000260: cb12 08be 8608 bf3d 5cd0 893e 89d2 5cbd
00000270: 8be2 1fbd 9a2f 51bd b184 f0bd 3fb8 633a
00000280: 3e13 f73d b9a9 273e 0ae1 86be 9c7c 463d
00000290: e67a 333d 81a0 4f3e a101 b63d 3c2c afbe
000002a0: 6236 133b de60 7cbe 2b3b f13d a32a 173e
000002b0: ee5a 073e 485c b5bd 0495 183d 95d6 1d3e
000002c0: 2b9a 303e 4a05 8abe bae8 d53d aefe 193e
000002d0: 1ba3 02bd 602c 963c 059c 8dbb f7e3 9d3c
000002e0: 5a1f 7ebc db09 c13d 463b 233e 6396 2abe
000002f0: 098c 9ebe 9ba4 053c 9f19 453e 194b d83d
00000300: 8b31 12be 1331 503d 29b3 843d e6b2 0b3d
00000310: c7e2 2cbd 6460 d03d fbff 6e3d 46d4 2ebd
00000320: 9335 19be c027 f4bd 8d84 b2bd d97e a93c
00000330: adff 1f3e 2a07 49be e95c be3d 0494 33bd
00000340: 0172 3c3e e7c0 14be f277 6cbe f13a ccbd
00000350: e144 a03d b3e4 c83c 1e5f 8e3d 1a0c 1cbd
00000360: 3eac e9bd a12b 343e 2782 3c3d 6c93 f7bc
00000370: fa7b b8bd d6ed f73d ade7 3e3e e511 023d
00000380: fe98 243e 766c 793d 1b39 013e 9093 993d
00000390: 0a54 8c3d a040 3a3d aa94 28be c1a7 f83d
000003a0: 5f99 eb3b a101 97bc 41c8 4bbd 318f 873d
000003b0: f127 ce3c 0d6e edbd dcdc 2e3d c275 abbd
000003c0: 8aa5 14bd 3831 083e 3243 0e3e f745 45be
000003d0: 39f4 0cbe 854d e1bc f323 713b ccd7 6fbd
000003e0: df46 4f3c ff8d f33d 3ed1 94bd f6c6 643d
000003f0: d66e 4abe c038 0abd ae57 133e c6b6 623d
0.045480765 0.08077345 -0.039679356 0.33068964 0.015798945 0.20390713 -0.09555915 0.0861473
0.03799605 0.11611924 0.08456122 -0.0131475525 0.04062178 0.19508941 -0.11575099 -0.107019074
0.028865343 -0.05050597 0.03398717 -0.2961074 -0.022802468 -0.007427926 -0.007916096 -0.088456996
-0.10577459 0.11344107 0.07899094 -0.15443265 0.19945234 0.21267763 -0.15608133 -0.009056737
0.042632867 0.063950144 0.33400443 0.07150993 -0.19915035 -0.32810652 -0.041689377 0.02815611
-0.018808356 -0.031167122 -0.11308993 0.07934138 -0.1034488 0.02302399 0.013936014 0.122414544
0.23004554 -0.16080907 -0.18166679 -0.0408317 0.048562262 -0.09393307 -0.15194255 0.095091164
-0.082238704 -0.0030552372 0.0034078916 0.22304821 0.055105846 0.016352229 0.22519678 -0.16957085
-0.10550805 -0.10711456 0.040539406 -0.22613594 -0.045093406 0.0044093602 -0.15020098 -0.32508102
0.0011420861 0.17346336 0.016144268 0.08552909 0.09558682 -0.14708178 -0.025806498 -0.09164478
-0.17117412 0.08799258 0.18955265 -0.1124776 -0.0076014944 -0.21526435 0.07735091 0.08652985
0.20148724 0.11857327 0.29100108 0.04536239 -0.10692899 -0.061206985 -0.067928016 -0.12725502
-0.03342892 -0.054407243 -0.07998343 -0.08715877 -0.16580164 0.010337034 -0.012128712 -0.03100536
0.041181114 -0.0063458867 0.009150208 0.11627413 -0.0991415 -0.060381938 0.16097467 0.214531
-0.029234182 0.06958617 0.07593063 -0.03861579 -0.04613576 -0.054046985 0.08280967 0.06270237
-0.102502264 -0.036688894 0.09617836 -0.015136337 -0.03890569 0.036695186 -0.18291695 0.047378644
0.08254831 0.16319317 -0.100157365 0.26011032 -0.004255569 -0.16576488 0.1665119 0.1698807
-0.061161328 0.22388579 -0.0040800697 -0.030721808 -0.03213875 0.008622015 0.1547413 0.036791272
-0.16318975 -0.2668903 -0.04432634 0.18923527 0.089208506 0.06469693 0.031024788 0.108565636
-0.13288419 0.093277976 0.26916778 -0.05391172 -0.039034408 -0.051070787 -0.11744059 0.00086868176
0.12064217 0.16373338 -0.26343566 0.04845868 0.043818377 0.20276071 0.088870294 -0.34213436
0.0022462835 -0.24646327 0.117788635 0.14762358 0.1321828 -0.08855492 0.037251487 0.15413888
0.1724631 -0.2695716 0.1044478 0.15038559 -0.03189383 0.018331707 -0.0043215775 0.019273741
-0.0155104045 0.09425708 0.1594058 -0.1665893 -0.30966213 0.008156921 0.19248055 0.10561199
-0.14276712 0.05082805 0.064794846 0.034106158 -0.04220846 0.10174635 0.05834959 -0.04268291
-0.14961843 -0.11921644 -0.08716688 0.020690368 0.15624876 -0.19631639 0.09295065 -0.04384233
0.18402864 -0.14526711 -0.2309263 -0.0997218 0.078256376 0.024523115 0.06951736 -0.03809748
-0.11409806 0.17594768 0.04602256 -0.030221663 -0.09008022 0.121059105 0.18643065 0.031755347
0.16073987 0.060894452 0.1261944 0.074988484 0.06851967 0.045471787 -0.16462961 0.121413715
0.007189914 -0.018433394 -0.049751524 0.066191085 0.02516553 -0.11593256 0.042691097 -0.0837207
-0.036290683 0.13300025 0.1389282 -0.1926497 -0.13765039 -0.027502785 0.003679511 -0.05855541
0.012651174 0.11892318 -0.07266472 0.055853806 -0.19768843 -0.033745527 0.14388916 0.055350088

network_body.linear_encoder.seq_layers.2.bias f4 [128]
00000000: 0134 bdbb 6b27 67ba 227f 9dbc 3def 6abb
00000010: bbf0 16bc e022 aa39 b57c f1bb b841 0dbb
00000020: 2883 b0bb bd4b 03bc 9a2b b6bb 93ac ebbb
00000030: 2f2f 7039 1676 aabb 269d 0c3c 3598 4dbb
00000040: 910f 793b b6bb 28bc 4e68 c13b 5051 89ba
00000050: 21de 913c 26be 933a ea93 623c d130 0fbc
00000060: cc3e 2a3c ca79 f23a 55fc 793a 35fd 80ba
00000070: 2ee9 a1bb f03e dabb 8e74 ac3b 0cc7 9fbb
00000080: ea86 97bb a89a cfbb 5e1a 37bc e661 1ebc
00000090: 0727 56bc 58e3 ef3a 882e f0bb 2566 87bb
000000a0: 0a00 033b 1b09 13bc 29b0 9dbb e7d1 10bb
000000b0: 0c74 00bc 9993 26bc 12c4 5ebb d43c c7bb
000000c0: 3b70 ac3b 2e43 2fbc ae54 163b 59a3 7fbb
000000d0: 4596 a8bb 6f99 cf3b c38f 18bb 65cf 2ebc
000000e0: 2401 c6bb 2a48 d5bc 4a13 76bc 9bf1 83b9
000000f0: 87bf 50bc e1e4 14bc 1a60 96bc 8c19 0e3b
00000100: a405 dc3b 17b8 07bc 05a1 d6ba e077 d4ba
00000110: 35aa cfbb 30b8 1e3c a258 89bc 4ee7 39bb
00000120: f247 2abc 2fb4 0f3b 6e0b 91b9 db88 fab8
00000130: 3039 03bc e2ab ee3b aae0 0abc 8da6 83bb
00000140: 4b0b 6b3a c93d 193c c25f bebb 8390 993a
00000150: cfa3 353c 8d8c b73a cadf 74bb 802d 753b
00000160: 6a5e b23b a642 9abb 1922 52ba 82f6 c6bb
00000170: 9281 10bc 3246 9a3b 0182 aebb e2e0 51bc
00000180: 3f2c 12bc b08d cd3b 1c63 a63b 6c0d a43b
00000190: b3cc 053b 12c7 10bc 7ca6 e13b 6ada 193b
000001a0: fc0a f33a 3f2b 3d3c 3b10 6dbb 9c78 3e3b
000001b0: 2441 6fbc f323 4bbc 88ff ccb9 3454 3bb9
000001c0: 9b8f 91bb b149 12bc 6ddd ca3a f261 01bb
000001d0: f1d9 ca3b 53ce 0ebc efdf b13b 0745 833b
000001e0: 26ca 76bb 7887 5abb 9450 333b e254 9eba
000001f0: 5ca8 54bb bcaa b23b 7c9e 43bb 2051 1ebc
-0.0057740216 -0.00088178244 -0.01922566 -0.0035848164 -0.009212668 0.0003245091 -0.0073696026 -0.0021554064
-0.005386729 -0.008013663 -0.005559397 -0.0071922033 0.00022905761 -0.005202065 0.008582389 -0.003137124
0.0038003663 -0.01029866 0.0059023267 -0.0010476504 0.017806115 0.0011271879 0.013829211 -0.008739666
0.0103909485 0.0018499431 0.00095361966 -0.0009841087 -0.0049411273 -0.0066603348 0.005262918 -0.004876023
-0.0046242373 -0.006335575 -0.01117572 -0.0096668955 -0.013070828 0.0018302007 -0.0073297657 -0.0041320496
0.0019989037 -0.008974339 -0.0048122597 -0.0022097768 -0.007840168 -0.010167026 -0.0033991379 -0.0060802493
0.0052624024 -0.010697169 0.0022938657 -0.0039007275 -0.0051448666 0.0063354294 -0.0023279048 -0.010669564
-0.0060426164 -0.026035387 -0.015019247 -0.00025166277 -0.012740976 -0.009087772 -0.018356372 0.0021682708
0.0067145396 -0.0082836365 -0.0016374892 -0.0016210042 -0.006337429 0.009687468 -0.016765896 -0.0028366628
-0.01039313 0.0021927466 -0.0002766507 -0.0001194642 -0.00800924 0.0072836736 -0.008476416 -0.004017657
0.00089662214 0.00935311 -0.005809755 0.0011716041 0.011086418 0.0014003679 -0.0037364834 0.0037411153
0.005443384 -0.004707652 -0.0008015945 -0.0060718665 -0.0088199545 0.004708075 -0.0053255563 -0.012809964
-0.008921682 0.006272994 0.0050777327 0.005006483 0.00204162 -0.008836525 0.0068863016 0.0023476132
0.0018542702 0.011545955 -0.0036173004 0.0029063588 -0.014602933 -0.012398708 -0.00039100298 -0.00017865078
-0.004442168 -0.008928702 0.0015477367 -0.0019742218 0.0061905314 -0.008716184 0.0054283063 0.0040060314
-0.003765711 -0.0033344906 0.002736126 -0.001207974 -0.0032448983 0.005452482 -0.0029849103 -0.009662896

network_body.linear_encoder.seq_layers.2.weight f4 [128, 128]
00000000: 91e7 95bd 70b1 983d b1c4 5dbd b21d 5b3d
00000010: 9024 31be f5b4 0d3d 5375 f53b 90aa 4bbd
00000020: d923 5abd c73c bb3d 8d38 50bd 108a d5bc
00000030: 5a0f bebd 18e9 f8bd e10f 1e3e 8114 263d
00000040: e98f 1c3e 6454 883d 35ad c1bd 71f2 d4bd
00000050: 76e3 203c 407a c63d a3a9 983d 9b89 cb3c
00000060: f962 94bd 2c14 bdbd bdb8 213e 0b76 b6bd
00000070: 45cd a7bd ef36 123e 3fd9 febd f807 00be
00000080: bee5 c03d f4fd 17bd 6bec dd3d 6473 dc3d
00000090: 274c 12be be30 d3bb 5839 d03c 753a f9bc
000000a0: 58b4 68bd e0d2 06be f401 c6bd 27f7 5b3d
000000b0: 46e4 69be 3002 673c 18dd 7d3d 8ed0 b8bd
000000c0: 3ec7 223e afd0 ccbc 6799 7dbc 4112 e03d
000000d0: 8c5a 1cbe 0891 273d aa46 09be 4e9e ecbd
000000e0: f64a 2bbe e644 04bd 578c d53d fb03 24be
000000f0: de40 a13d 4300 58bd 446a 2bbd 921e ecbd
00000100: 2cb8 c5bd d512 4bbc d6a6 adbd de24 4bbd
00000110: 541f 1c3e 5972 8e3d 2329 acbd 6981 60bc
00000120: 558d d23d f72f 1b3e 9398 6ebd bc7c 463d
00000130: 16f6 0c3d 32f6 af3d a441 90bd 31de 5bbc
00000140: d449 013c 5cfa 94bc 7a24 3ebc 3d7b 8c3b
00000150: 8efd 3e3b 6376 c9bd 3ea3 083d 38a8 b5bc
00000160: bc63 c73b 11db cfbd fac9 a23d 4e3f b9bb
00000170: 177c 3abd 2e65 5e3d 9d5d 1ebd aef8 803d
00000180: afb5 96bb f51c c93a 6c18 9cbb b151 443b
00000190: 09d8 b6bd 6407 cabd 1dd1 36bd 8b1d d23c
000001a0: 9f0b a5bc ade5 dd3c bb31 f43c cbf8 043e
000001b0: 9496 023e 73a0 933d ea93 cc3d 594d 6f3d
000001c0: b267 623e fb85 fabd 3012 81bd 523a 0a3d
000001d0: 58ee 223d ab7d 7d3c 0a47 9fbd 3e5f 513c
000001e0: c6b7 4b3d 5e15 1f3e dc2b 133e 983c ec3d
000001f0: 65d5 013c 6fd8 e13d d0ba 9e3d c72b cf3d
00000200: 6412 693d ddca 353e e1d8 a23b 85f7 1bbd
00000210: b8c8 9f3d ce1d 23be 05b6 b9bd f081 e63d
00000220: 3af6 60bd a440 9a3d 56d1 32be 2fed 343d
00000230: 8ed0 0fbc b087 e0bd c8c5 97bd b4aa 673b
00000240: c9c7 56bd 89f5 2b3d 2568 e8bb 4bfa 2bbd
00000250: 021a 443d 2d63 efbc 2d48 25be 5710 afbb
00000260: 3f94 8c3d ad19 bebc fca8 07bd 0be0 0d3d
00000270: 27c6 2c3d d5ef 8fbd c070 5bbd 11ed d6bd
00000280: abcc b73d 7ed4 5fbd 29f5 c0bc aaaf a2be
00000290: 9f02 bbbd 6970 d63d 9ff5 3b3a a0d1 0c3d
000002a0: b85c 493d 4609 b83d a3dc ca3c c618 66bd
000002b0: cb64 633b 6dc6 ba3d 58ca 643d de13 42bd
000002c0: 6ef5 98bc 015c f6bd 549c 3d3e 2eac 36bb
000002d0: 2caf bc3c 7b57 af3c fb83 f9bc a967 e2bd
000002e0: 6cd8 9dbd 692e a63c a5ce 2abe 98bb 6bbd
000002f0: fc8f 843d aacb 3abd 9074 b03d 7c7f 86bd
00000300: 55b9 793d 1e15 1f3b d402 4d3d e3ad d23d
00000310: 22c8 b1bc 627f 02bd bf3e edbb 95c1 20be
00000320: 6376 1cbe 4367 ffbb fa1f 97bd c140 eb3d
00000330: 6c2c c63c 888a f2bd f291 97bd a3c9 a5bb
00000340: 8804 78bd 2228 853e 9839 26be d966 db3d
00000350: 3e41 983d 2bfb e63d 99b9 fe3b e6f1 753d
00000360: c3c3 0dbe abea c53d b830 cf3d 6353 a13d
00000370: 09e9 973c 4931 473d 6e6b 133d 1a2d c7bd
00000380: dff7 58bd 6dc0 233d 9e54 8abd db74 9d3c
00000390: 13b8 3e3d 3535 193d 2d96 58be a48e 1dbe
000003a0: e702 83bc 4dd1 ac3d 1289 fcbd ecc7 e23b
000003b0: e90d 11bc d0b2 e3bd 14a3 bc3d 2278 7a3c
000003c0: 53bb ecbd adea 51bc 0585 ce3c e0d2 d6ba
000003d0: 9b18 e4bc bd2b 0538 3f41 debd 6609 abbd
000003e0: c934 1dbc add9 a5bc a43f 523c 0359 05bc
000003f0: 2fbf 9c3d 8053 f9bd 7694 08bd 850c 763d
-0.073195584 0.074557185 -0.054142658 0.053495117 -0.17299104 0.034596402 0.007490793 -0.049723208
-0.053256843 0.09142452 -0.05083518 -0.02606681 -0.09280272 -0.12153834 0.15435745 0.040546898
0.15289272 0.06656721 -0.09456865 -0.103978045 0.009819856 0.09691286 0.07454231 0.024845889
-0.0724544 -0.09232363 0.15793128 -0.08909234 -0.08193449 0.14278768 -0.1244378 -0.1250304
0.0941882 -0.037107423 0.10836109 0.107641965 -0.14286862 -0.0064450195 0.025417969 -0.030423382
-0.056812614 -0.1316638 -0.09668341 0.0537025 -0.22840986 0.014099643 0.06197843 -0.09024154
0.15896317 -0.025001852 -0.0154784685 0.10940982 -0.15268916 0.040909797 -0.13405862 -0.11553632
-0.16727814 -0.03229227 0.10427158 -0.16017143 0.078737006 -0.052734625 -0.04184939 -0.11529268
-0.096542686 -0.012394627 -0.08479087 -0.049595706 0.15246326 0.06955404 -0.08406284 -0.013702729
0.10280863 0.15155016 -0.058250975 0.0484588 0.034414373 0.0859188 -0.0704377 -0.013419674
0.007891137 -0.018185787 -0.011605376 0.004287152 0.002914283 -0.098370336 0.033358805 -0.02217494
0.0060848873 -0.101492055 0.0794868 -0.0056532985 -0.045528498 0.05429571 -0.038663495 0.06297432
-0.004599295 0.0015343713 -0.0047636535 0.0029955918 -0.08927924 -0.09864691 -0.04463302 0.025648853
-0.020147143 0.027087057 0.02980887 0.12985532 0.12752753 0.07208338 0.0998915 0.058423374
0.22109869 -0.12232586 -0.06302297 0.033747025 0.039778084 0.015471856 -0.077772215 0.012779055
0.049735807 0.15535495 0.143722 0.11534995 0.007924412 0.110276096 0.077504754 0.10115772
0.056902304 0.17753167 0.0049697016 -0.03807785 0.07801956 -0.15929338 -0.090679206 0.11255252
-0.05492232 0.075318605 -0.17462668 0.04417151 -0.008777751 -0.1096338 -0.07410771 0.003534955
-0.052436624 0.041982207 -0.007092493 -0.041986745 0.047876365 -0.029222095 -0.16140814 -0.005342524
0.06864213 -0.023205603 -0.03312014 0.034637492 0.04218116 -0.07028166 -0.053574324 -0.104944356
0.08974584 -0.054646008 -0.023554401 -0.31774646 -0.09131359 0.10470659 0.0007170084 0.0343796
0.04916069 0.08986144 0.02476341 -0.05617597 0.0034697528 0.09119878 0.055857033 -0.047382228
-0.018671717 -0.12029267 0.18516666 -0.0027873623 0.023032747 0.021404019 -0.030458441 -0.11054928
-0.07707295 0.020285802 -0.16680391 -0.05755195 0.06472775 -0.045604385 0.086159825 -0.065672845
0.060967762 0.0024274061 0.050051525 0.102870725 -0.021701876 -0.031859763 -0.007240146 -0.15698846
-0.15279536 -0.007794292 -0.07379146 0.1148696 0.024191104 -0.11842829 -0.07400884 -0.0050594374
-0.060551196 0.2600718 -0.16232908 0.10712976 0.07434319 0.11278375 0.00777359 0.060045145
-0.13844208 0.096639 0.10116714 0.07877233 0.018543737 0.048630986 0.035991125 -0.09725399
-0.052970763 0.039978433 -0.06754421 0.01922076 0.046562266 0.037404258 -0.21151038 -0.15386444
-0.015992595 0.084383585 -0.123308316 0.006920805 -0.008853414 -0.1111809 0.09210792 0.015287431
-0.11559167 -0.012812299 0.025209913 -0.001638975 -0.027843764 3.1750405e-05 -0.108522885 -0.08351402
-0.0095951045 -0.020245397 0.012832556 -0.008138898 0.07653653 -0.121741295 -0.03334471 0.060070533
