Learning/results/mx7/KartAgent/KartAgent-199971.onnx (onnx, 104129 bytes, 7 tensors)

41 f4 [1, 2]
000000 4d 8d ef bc 73 44 32 be
       -0.029242182 -0.17408924

distribution.mu.bias f4 [2]
000000 7a 57 52 3d 16 3e 6b 3d
       0.051352955 0.057432257

distribution.mu.weight f4 [2, 128]
000000 31 dc 39 ba dd c0 59 ba 09 eb c1 3b b1 bb 90 bd
       -0.0007090001 -0.0008306632 0.005917911 -0.07067049
000010 64 94 77 bb 23 30 1b 3d e2 f4 6e bd 05 ba 4d 3a
       -0.0037777657 0.037887704 -0.058339007 0.00078478485
000020 1e fa e1 3b 78 73 b5 ba 18 b3 3d 3b b6 e0 7d bd
       0.0068962714 -0.0013843616 0.002894586 -0.06198188
000030 b0 d5 36 bd 4d 77 46 3a 1d 7e 5b 3b 18 85 12 ba
       -0.044637382 0.0007570878 0.0033491917 -0.00055892905
000040 81 61 01 3b 22 b5 cb ba fc 6f 92 bd e1 9c 89 3b
       0.0019741955 -0.0015541653 -0.071502656 0.0041996096
000050 86 ec 4f bd 84 9f 08 3b 12 55 39 bd 43 66 85 3a
       -0.050762676 0.0020847032 -0.045247145 0.0010177571
000060 98 49 2a bd e2 bd 51 bb f1 6c fc ba ce 9d 23 3d
       -0.04157409 -0.0032004048 -0.0019258541 0.039945416
000070 06 3d 3c bd 2d b7 bd bb d8 b8 4a 3b 7b 46 22 bd
       -0.045956634 -0.0057896585 0.003093293 -0.039617997
000080 e9 77 44 3b 7c c9 61 3a 66 b8 cf ba fe 12 31 bd
       0.0029978699 0.00086130924 -0.0015847802 -0.043231003
000090 e5 67 78 bd 95 8b 51 ba 89 cb 48 bb 18 47 4a 39
       -0.060645957 -0.00079935166 -0.0030638895 0.00019290706
0000a0 15 0d 2a bb bd cb e0 39 3a 46 1a bb 1c d0 fc 38
       -0.002594774 0.00042876406 -0.0023540393 0.0001205506
0000b0 ed 9a 32 bd 4c b2 c0 3c a7 c9 e0 ba 57 4a c4 bc
       -0.04360478 0.023522519 -0.0017149941 -0.02396123
0000c0 42 d9 fd bc 20 5a 10 3b 36 2f a1 bb 89 77 69 bd
       -0.030987386 0.0022026375 -0.004918958 -0.056998763
0000d0 80 41 09 3d 8a fd 8f 3d 3d a8 82 bb dc bc 29 bb
       0.03350973 0.070307806 -0.0039873407 -0.0025899922
0000e0 33 f7 7a 3b 18 a1 9c bb e1 2c e7 3a 6d c0 38 3a
       0.0038294315 -0.004779946 0.0017637276 0.00070477166
0000f0 70 92 71 bd 0b 7a 3c bc 28 69 2f bd 72 57 17 3d
       -0.058977544 -0.011503707 -0.042824894 0.03694863
000100 5c 70 93 bb 50 ca 1c bd d1 00 2e 3d f7 cd 92 ba
       -0.0044994783 -0.038278878 0.042481247 -0.0011200298
000110 b1 48 79 bd 43 42 52 3a 89 f2 7c bd 40 ed 02 3c
       -0.06086034 0.0008020738 -0.061754737 0.007991135
000120 43 82 ae ba 04 aa a8 bc 55 5e 89 bd ff 4f 06 bd
       -0.0013313968 -0.020588882 -0.067074455 -0.032791134
000130 e2 33 5a bb 3b 8d 1a 3a 14 ad 72 3b f4 40 8c bd
       -0.0033295085 0.0005895679 0.0037029432 -0.06848326
000140 4c bd 65 3b 13 d4 91 3a b9 1f 1b 3a 53 4b 87 bb
       0.0035055457 0.0011125825 0.0005917508 -0.0041288524
000150 42 1f 50 bd 92 73 9b bb 39 27 43 3c ce bc 8a bd
       -0.05081106 -0.0047440017 0.011911207 -0.06774293
000160 7c f3 4a bd 31 90 1e 3b 60 89 2d bd 65 d0 ef 3a
       -0.04954861 0.0024194831 -0.04236734 0.0018296359
000170 95 62 8c 3b ff 27 9f bb c3 64 16 3b 9e 86 9b bb
       0.004284213 -0.004857063 0.0022948242 -0.004746272
000180 ad ef 04 3d 21 18 02 3d 78 2f 13 bb 8e 3d 4f 3b
       0.032455135 0.031761292 -0.0022458714 0.0031622383
000190 1f 14 7f bb ba 9f 8f 3b a5 db 4a 3a 9a 31 94 bc
       -0.0038921905 0.0043830546 0.0007738418 -0.018090058
0001a0 52 d4 be 3b e1 8c 47 bb 40 60 86 3a 2c da 44 bd
       0.0058236504 -0.003044896 0.0010252073 -0.048059627
0001b0 6e 05 1d 3b 1f 97 40 bd 14 16 2c bd d8 01 11 3d
       0.0023959535 -0.04701912 -0.042013243 0.03540215
0001c0 cc 0f d4 ba 71 12 e1 bb 4b ef 78 bd 0d 69 45 bb
       -0.0016179024 -0.0068686535 -0.060775083 -0.003012243
0001d0 92 4c d0 ba 37 82 c2 3a 64 0c f9 ba 97 50 50 3b
       -0.001589196 0.0014839832 -0.0019000885 0.0031786317
0001e0 a1 04 9e 3c 3f 1e 8e bd af bb 2d 3b 71 35 a4 ba
       0.019289317 -0.06939363 0.0026509573 -0.0012528134
0001f0 4b e1 3b 3d eb a9 03 bb 38 9c 2e 3b 9e eb 7f bd
       0.045869153 -0.0020090293 0.0026643407 -0.06248056
000200 61 d4 f5 ba 6b bf d1 b9 01 c0 0d 3b 4d 6e 4b bd
       -0.001875531 -0.00040006204 0.0021629336 -0.049665738
000210 33 de 7f 3a 39 2d 9b 3c d6 45 8b bd 83 4f 92 39
       0.00097605883 0.018942462 -0.068004295 0.0002790653
000220 ed aa 32 bc fd fa df ba 98 79 e2 38 d3 c9 79 bd
       -0.01090501 -0.001708835 0.000107991684 -0.06098349
000230 52 b0 7f bd d1 27 ba 3b 68 80 ad ba c6 31 45 3b
       -0.06242401 0.005681016 -0.0013237121 0.0030089482
000240 b2 c1 86 39 c9 27 63 ba 79 29 2b bd 66 30 82 3b
       0.00025702786 -0.0008665291 -0.0417876 0.0039730547
000250 cb 58 49 bd c9 c2 cf 3a 2e 16 75 bd fa 69 bb 3a
       -0.049156945 0.0015850897 -0.059835605 0.0014298551
000260 df 3c 6e bd bb 6d 08 bb 03 77 c7 ba e2 00 f2 3c
       -0.05816352 -0.0020817358 -0.0015217963 0.029541437
000270 20 86 8d bd 11 78 7c 39 9a 55 ba b8 2b 90 32 bd
       -0.06910348 0.00024077321 -8.885116e-05 -0.04359452
000280 2f a2 89 ba d7 e9 97 bb 87 df 2c bb 6c 6a 43 bd
       -0.0010500605 -0.00463603 -0.002637835 -0.047708914
000290 20 20 25 bd 9e 1c 3f 3a 7b ba c6 3b b8 d0 bd bb
       -0.04031384 0.0007290336 0.0060647107 -0.0057927035
0002a0 1b 2d da ba c5 1d 67 3b 6b 08 8b 3a 20 e3 64 39
       -0.0016645523 0.0035265547 0.0010607367 0.00021828385
0002b0 29 27 3c bd 01 c0 64 3c 55 91 6c ba b0 4a 45 bd
       -0.045935784 0.013961793 -0.00090243417 -0.04816693
0002c0 ea 2c b1 bd 38 89 a5 3a 5a a8 13 3b 6a 7b 86 bd
       -0.08651145 0.0012629395 0.0022530765 -0.06566508
0002d0 37 68 e1 3c fa 7a 95 3d cb 9d 42 3b 76 2d 37 bb
       0.027515514 0.072988465 0.0029696103 -0.002795068
0002e0 71 ce e5 ba fc 74 23 3b 8f 94 01 bb d6 3d 96 ba
       -0.0017532838 0.0024941554 -0.0019772386 -0.001146252
0002f0 ff 8d 97 bd 48 3c 7b 3b 0e 51 23 bd ec f8 c1 3c
       -0.074001305 0.003833549 -0.03987222 0.023678266
000300 33 c9 7d ba 08 df bd bc 19 62 6a 3d 28 8f 32 ba
       -0.0009681165 -0.023177639 0.05722246 -0.0006811493
000310 8f a7 a7 bd 6c 3a e3 39 9f e8 1f bd d9 69 17 3b
       -0.08186256 0.00043340342 -0.039040204 0.0023103862
000320 13 97 06 bb 4e 05 fa 3b 74 8b 41 bd 08 25 53 bd
       -0.0020536825 0.007630027 -0.047252133 -0.051548988
000330 6a da f5 3a a3 0b 62 39 62 b0 e2 3a 27 e7 87 bd
       0.0018757109 0.00021557375 0.0017294998 -0.06635886
000340 59 46 ce 3a 68 61 50 bb 65 a2 e8 39 a7 e9 5c 3a
       0.0015737518 -0.003179634 0.00044371482 0.0008427151
000350 f1 f0 21 bd 19 1a 4b bb a4 ec 2e 3c 16 88 83 bd
       -0.03953642 -0.0030990897 0.010676537 -0.06422441
000360 62 0e 09 bd 92 6e 37 bb fc c0 97 bd 4f 9f dd 39
       -0.033460982 -0.002798949 -0.07409856 0.000422711
000370 7e b5 7d bb 20 7a 8c 3a b5 16 c0 bb fc 2d 32 bb
       -0.0038712914 0.0010717548 -0.005862082 -0.0027188053
000380 9f 47 0a 3d 88 b5 d8 3c 8f b6 46 ba 26 7c cc 3a
       0.03375971 0.026453748 -0.0007580304 0.0015600964
000390 6e b7 c2 3b 54 42 58 3b d1 5f 8f bb 0c 94 aa bd
       0.0059422767 0.003299852 -0.004375436 -0.08329019
0003a0 96 ef 84 3a e6 1b 95 ba c4 98 a3 ba 90 da 90 bd
       0.0010142203 -0.0011376112 -0.0012481441 -0.070729375
0003b0 78 cd fa b9 71 57 56 bd 02 ce 9d bd 42 4f e6 3c
       -0.00047836802 -0.052329484 -0.077053085 0.028113965
0003c0 fe 52 cf b9 be fe 7a ba 18 34 97 bd d3 6e 08 bb
       -0.0003954395 -0.00095747027 -0.07382983 -0.002081801
0003d0 40 80 96 b9 39 ec 3e ba ac 30 01 3b c1 01 be bb
       -0.00028705783 -0.0007283125 0.0019712849 -0.005798549
0003e0 ca 9a 78 3c de c2 04 bd 34 cc 84 bb ff e7 2a 3b
       0.015173623 -0.032412402 -0.004052663 0.0026078222
0003f0 95 f3 bb 3c c8 63 b8 3b 42 f3 6b bb ca c3 87 bd
       0.022943297 0.005627129 -0.0036003147 -0.06629141

network_body.linear_encoder.seq_layers.0.bias f4 [128]
000000 c9 f0 ad bb a7 ad 4a 3c a3 42 c9 3b eb 35 b6 3b
       -0.005308245 0.0123705035 0.006141977 0.0055606267
000010 d4 0f 9f 3c 76 73 5b 3c e0 63 a6 3a 5a 3e ca bc
       0.019416727 0.013394227 0.001269456 -0.024687935
000020 2f 71 a8 bc 44 75 b7 3c fd 35 fc ba e7 81 09 3b
       -0.020561783 0.022394784 -0.0019242164 0.002098197
000030 b2 a3 a4 3c 3a aa ed 39 92 28 3d bb 91 62 3e bc
       0.020097587 0.0004533099 -0.0028863293 -0.01162018
000040 19 e8 f2 bc 5d e6 2a bd fd 82 9d 3b 80 1c 11 3d
       -0.029651688 -0.041723598 0.004806875 0.03542757
000050 a0 a1 da bc 84 d8 d7 bc 51 95 fd bb e7 05 e4 3c
       -0.026688397 -0.02634836 -0.007738747 0.027834846
000060 41 46 ff bc 73 5b 72 bc 6d 01 7f bb d9 ce 25 3c
       -0.03116143 -0.014792311 -0.0038910762 0.010120117
000070 1e 5d 49 bd d8 77 09 bc 8e ce 50 3c c4 b9 c3 bb
       -0.04916107 -0.008390389 0.012744559 -0.0059730727
000080 a0 0d 31 3c 84 45 0e bc 77 ff 88 3c d3 d6 00 bd
       0.010806471 -0.008683566 0.016723378 -0.031454872
000090 01 80 3c bd 8d 76 31 bc 26 0b 28 3c 06 4b 20 3b
       -0.04602051 -0.010831487 0.010256564 0.002445878
0000a0 48 4e 32 3b ae 0e 8b bc 37 26 22 bd 50 44 4b bc
       0.0027207304 -0.016974773 -0.039587226 -0.012406424
0000b0 c1 9c 90 3c 1d 61 d0 3c b2 50 50 bc f0 10 b3 bc
       0.017652871 0.025436932 -0.012714552 -0.021858662
0000c0 21 10 79 bc 50 63 8a bd 92 62 6c 3c f5 92 d6 bc
       -0.015201599 -0.067572236 0.014427798 -0.026193121
0000d0 4d 40 0e bc bd 09 ff bb d4 c7 5e bc e6 8c 5c bc
       -0.008682323 -0.0077831433 -0.013597447 -0.013461327
0000e0 81 03 6c bc 11 bb 1b bd c0 fd da bc 4b 73 2b 39
       -0.014405132 -0.038020197 -0.026732326 0.00016350781
0000f0 d0 ba 0e bd 7f 66 cc 3c 09 c0 7c bc 0e 92 1d bd
       -0.034846127 0.024951218 -0.015426644 -0.038469367
000100 0c 0d 41 bd 5f 74 c1 3b 77 4b 37 bd d0 f5 b6 bc
       -0.047131583 0.005903765 -0.044749703 -0.02233401
000110 60 a7 af 3b ba 44 83 ba f2 62 07 3b 2c 96 2a bc
       0.005360529 -0.0010014989 0.0020658341 -0.01041178
000120 b2 ce 14 bc 4b c3 f5 3c 92 c8 5e bc b6 eb 01 bc
       -0.009082483 0.03000035 -0.013597624 -0.007929733
000130 b5 ef b1 bd 5e cd cf bb ae 36 9a bb d7 48 13 bd
       -0.086882986 -0.0063416203 -0.0047062254 -0.035958137
000140 7f 17 ad 3c 2d ea f2 bc 4d a3 e5 bc b9 eb a4 bc
       0.021129368 -0.02965268 -0.02803197 -0.020131933
000150 b7 0e c5 bc 01 cc 18 bc 6a dc 32 bd d2 65 46 3b
       -0.024054868 -0.009325982 -0.043667234 0.0030273092
000160 e1 7b 52 bc 8f 75 f6 b8 f7 9a 14 bd 4f 1f 51 bc
       -0.012846918 -0.00011752091 -0.0362806 -0.012763812
000170 41 2a c9 bb a8 60 8d 3c c4 ec 0e 3d 0f 04 9f 3c
       -0.0061390703 0.017258003 0.034893766 0.019411115
000180 88 ea d5 bc 67 91 3e 3c 5b 4b 04 3d 07 b4 2b 3b
       -0.02611281 0.011631346 0.032298427 0.0026199834
000190 78 b9 a5 bc 15 f9 86 3a 2a 7e bf 3b 8d 6e 8c bc
       -0.02023004 0.0010297621 0.0058438974 -0.017142558
0001a0 2a 75 62 bc ee 7e fe bc e1 6e 02 ba 21 e6 33 bd
       -0.013821879 -0.031066384 -0.00049756287 -0.04392064
0001b0 2e d3 8b bc f1 63 fb bc 2a a7 90 3b 41 41 45 bc
       -0.017068472 -0.030687304 0.0044144588 -0.0120394835
0001c0 36 8e 9d bb 56 50 9b bc 29 bf fc bc bc 25 73 3b
       -0.0048082126 -0.018959206 -0.030852871 0.003710135
0001d0 59 05 3f 3b 37 75 8b 3c d2 5a ad 3c 14 fb c6 bb
       0.0029147475 0.017023666 0.02116147 -0.0060724113
0001e0 90 df 4c 3c 2e 08 3f 3c 13 6a d9 3c 20 20 41 39
       0.012504473 0.011659665 0.026539838 0.00018417882
0001f0 f0 1c af bb 49 d9 f1 3c b1 97 57 bc 13 5d 08 3c
       -0.005344026 0.029522555 -0.013158725 0.008322972

network_body.linear_encoder.seq_layers.0.weight f4 [128, 68]
000000 bb 02 9d 3d ed fa 87 3e c9 f3 44 3e 67 5a d1 bd
       0.076665364 0.2655863 0.19233622 -0.10222321
000010 0b 6e 1d bd 8e 21 cc bd 32 17 19 3e 3f 1e 9d 3e
       -0.038435023 -0.099673375 0.14950255 0.30687138
000020 ed 50 27 bd af bb 2e bd 95 a3 99 bd a5 35 89 3d
       -0.04084866 -0.042659458 -0.07501904 0.06699685
000030 60 12 45 be f2 f5 ae bc 44 a5 02 3b 74 08 27 3e
       -0.19245291 -0.02135751 0.0019934932 0.16311818
000040 ad ed 28 bc 66 31 fa 3a e3 fa f3 3d 2f d2 ca 3c
       -0.010310573 0.0019088208 0.11913087 0.024758426
000050 bc 06 fa 3c 31 59 cb 3d ea 21 02 3e 72 9a 05 bc
       0.03052079 0.09929121 0.1270825 -0.008154498
000060 b2 27 db 3d 2b db f4 3d 82 0e f0 bd ce 65 8c be
       0.10700931 0.119558655 -0.11721517 -0.2742142
000070 81 de 80 3d d4 cc 0b 3c 4a 46 4b 3e 40 f6 84 be
       0.06292439 0.008532722 0.19851032 -0.25969124
000080 81 ba 88 bd 7e 4f 5d 3d d2 0e e6 bc 19 9b d8 bd
       -0.06676198 0.054030888 -0.028083239 -0.105764575
000090 c1 7a ed 3c bc a9 14 3e d7 cc 3e 3b c4 92 14 be
       0.028989198 0.14517874 0.0029113793 -0.14509112
0000a0 44 0b f4 3d 85 50 0d be 2a 6e 75 3c 07 f7 86 bc
       0.11916211 -0.13800247 0.014979878 -0.016475214
0000b0 5b 5a 15 3e 65 b4 57 3e 98 35 61 3d 6e 8a 39 3e
       0.14585249 0.21064909 0.05498275 0.18119213
0000c0 a6 b1 6b bd 65 87 15 3e 27 a6 92 3d 48 21 4d 3c
       -0.057542466 0.1460243 0.07160597 0.012520142
0000d0 b8 14 b0 bc 32 c2 24 3e 69 25 f9 3d bf ca ba bd
       -0.021494254 0.16089705 0.121653385 -0.09120702
0000e0 30 d6 a7 3c 6d 67 c7 bd 24 04 29 be 4d 7d ac 3d
       0.020487875 -0.09736524 -0.16505486 0.08422337
0000f0 2f 88 53 bd a7 3a f1 bd 29 f6 8b 3d 68 0a 3b be
       -0.051643547 -0.11778765 0.06834061 -0.18265688
000100 39 8c b7 3d 1a 0d 07 bc 90 46 f6 bc 82 14 38 be
       0.08962292 -0.00824287 -0.030062944 -0.17976573
000110 41 20 a0 bd 75 de ce 3d f4 38 84 bc 9b d5 d7 3d
       -0.07818652 0.10101024 -0.016140439 0.10538789
000120 46 89 5c ba fe 2a d6 bc 98 e9 d0 3d b9 ec b1 3e
       -0.00084127893 -0.026143547 0.102008045 0.34750918
000130 6c c0 a4 bc 61 00 45 3e df 7a 05 3d 0e b8 e4 3d
       -0.020111285 0.19238426 0.032587882 0.11167918
000140 a3 39 fe 3c ef 71 c4 3d fe bd 1f bd 32 f8 8b 3e
       0.031033343 0.095920436 -0.03899955 0.27337795
000150 78 c4 47 3e 04 ba b0 bc d1 2d 2e 3d aa 85 db bd
       0.1950854 -0.021573074 0.042524163 -0.10718854
000160 e1 ac 58 3c d9 79 14 3e e4 80 d0 bd f0 14 27 be
       0.013224811 0.14499606 -0.10180834 -0.16316581
000170 d5 84 8d 3d dc 01 4c be cc a9 27 3e 68 9d 78 be
       0.06910101 -0.19922584 0.16373366 -0.24278796
000180 5d 13 04 3e 71 50 0f bd 19 9c 7c 3d c5 ba 52 bd
       0.12898012 -0.034988824 0.061672304 -0.05144765
000190 f2 16 b8 3d 23 b0 14 be 0a 1b 45 be 90 d3 40 be
       0.089887515 -0.14520316 -0.19248596 -0.18830705
0001a0 25 3d d2 bd cf c8 f1 bd e3 eb 02 3e ef 03 3f be
       -0.10265569 -0.11805879 0.12785296 -0.18653844
0001b0 78 fe c2 3d 64 90 3e 3e cf 9c 05 be 77 1f 37 be
       0.09521192 0.18609768 -0.13048099 -0.17883097
0001c0 18 02 73 3e 70 2c 14 3e 1a 17 6b be e6 39 f7 3c
       0.23731267 0.14470077 -0.22958031 0.030178975
0001d0 2f b5 29 3e e0 2c 1c 3b 9b 01 b2 bc 4b 39 3c 3e
       0.16573022 0.0023830459 -0.021729281 0.1838123
0001e0 d0 00 b7 bc 4d 2e 04 3d f7 76 62 3e 59 73 2c be
       -0.022339255 0.03227072 0.22115694 -0.16840877
0001f0 ba 30 b2 bd a8 31 13 3e 46 d0 33 3e 7c 12 b2 3d
       -0.087007 0.14374411 0.17559919 0.08694932
000200 88 d2 82 3d 62 da 50 3e 99 7c 8b 3d 20 1b 0e bc
       0.06387812 0.20395806 0.068108745 -0.008673459
000210 fd d0 8d bc fd a2 32 3b 40 01 a3 3d 42 58 c8 3d
       -0.017311567 0.0027257793 0.07959223 0.09782459
000220 1d bc 8a 3d 6b 9f 73 bd cd b8 80 be e5 47 6d 3d
       0.06774161 -0.059478205 -0.25140992 0.057929892
000230 43 3c bc bd 55 bd f1 bd 26 46 82 3e 67 cb b9 bc
       -0.091911815 -0.1180369 0.25444144 -0.022679998
000240 d4 8a 1c bb 3e 2b 40 3d 5a 7a 94 3c 77 c6 93 3d
       -0.002388646 0.04691624 0.018124748 0.072155885
000250 52 3d 85 bc 00 51 41 be e1 83 88 be 1a 6b 7a 3e
       -0.016264591 -0.18878555 -0.26663116 0.24454919
000260 41 d9 71 bc 9a 37 0a 3e fd 2c 2d 3e dc 66 41 bd
       -0.01476127 0.13497773 0.16911693 -0.047217235
000270 53 ac 73 be 54 b5 9e bd 98 4f 29 3e 38 f0 3c be
       -0.23796205 -0.07749429 0.16534269 -0.18451011
000280 a2 32 89 3e c9 f3 06 3e f9 0a ae 3c 38 f0 96 bd
       0.26796442 0.13178934 0.021245467 -0.07370037
000290 13 24 40 3e 09 59 df bd dc 4d 60 3d 56 7a 76 bd
       0.18763761 -0.10905654 0.054761752 -0.060175262
0002a0 86 1f a9 bb d2 e0 e8 bd 77 6a 46 bc c2 83 d6 bd
       -0.0051612286 -0.11371006 -0.012110344 -0.104743496
0002b0 bc 42 af bc 83 e0 2c 3e 08 3c 77 3d 95 04 15 3e
       -0.021394126 0.1688252 0.060359985 0.14552529
0002c0 dd 71 96 bc b5 b4 d3 3d 5e 34 81 3d 9a 17 b8 3d
       -0.018364841 0.103372015 0.063088164 0.08988877
0002d0 d1 48 d3 3d 4b 8a fb bd c4 77 74 be a4 36 80 bd
       0.10316623 -0.12282237 -0.23873812 -0.06260422
0002e0 73 92 81 bd f1 7f 6f bd a7 2b 2f 3e 08 8c 66 3e
       -0.06326761 -0.058471624 0.17106496 0.22514355
0002f0 7c c4 7b bd 97 09 4e be 11 81 0b 3e a0 db cd bd
       -0.06146668 -0.20120846 0.13623454 -0.10051656
000300 e8 d6 31 be 14 62 82 39 25 65 21 3e cf cf a0 3d
       -0.17367136 0.00024868606 0.1576124 0.07852136
000310 5b 26 b7 3d 35 8b 7b 3b d7 eb ad 3d 78 40 47 3e
       0.089428626 0.0038382534 0.084922485 0.19458187
000320 03 67 27 bc d8 21 ac 3c 4b d2 70 bd f5 01 40 be
       -0.010217431 0.021012232 -0.0587943 -0.18750747
000330 d7 49 71 bc c3 0a 9c bd 0e 53 71 bd 98 f0 9e bd
       -0.014727077 -0.0761924 -0.058917098 -0.07760733
000340 19 5f 71 bd a2 1b d4 3d 90 4d 44 bd 3e 0f 85 3e
       -0.058928583 0.10356833 -0.047925532 0.2598819
000350 84 4a a1 3d c7 85 d0 3d 25 2c 9b bd 0d d4 65 bd
       0.07875541 0.10181766 -0.07576779 -0.05611043
000360 fb be 24 3e 48 90 f5 bd 59 d2 b4 bc 51 6f e8 3d
       0.16088478 -0.1199041 -0.022072958 0.11349357
000370 73 56 97 3d 65 43 b7 3d 4c c2 2e be 43 ca ec bd
       0.07389536 0.08948401 -0.17066306 -0.11562016
000380 08 11 d1 3c b5 aa 0f be 02 b0 3e bd 33 dd 53 be
       0.025520816 -0.14029963 -0.046554573 -0.2068985
000390 ff 2e 83 bc 41 3a 46 3d 09 03 c0 bd 90 2c 03 3d
       -0.01601362 0.0483954 -0.09375579 0.03202492
0003a0 f6 d6 3f bd 80 11 b8 bd 57 b2 45 3e 1d f4 39 be
       -0.046835862 -0.08987713 0.19306313 -0.18159528
0003b0 c8 10 a7 3d 41 8a ed bd b6 a4 60 bd 18 1a 5e be
       0.08157498 -0.115986355 -0.05484458 -0.21689641
0003c0 ed 45 21 bd d9 43 13 3e 2c 4d 11 3e 4c 55 ac bc
       -0.039373327 0.1438135 0.14189595 -0.021036766
0003d0 d0 63 a7 3e 76 22 df 3d 03 ba 44 be fa 7d 7a 3e
       0.32693338 0.10895245 -0.19211583 0.24462119
0003e0 25 47 54 3e 08 a1 ae 3d c6 c3 f4 bc b6 1e e3 3d
       0.20730264 0.08526808 -0.029878508 0.11089842
0003f0 53 c6 5e be ca 95 2c 3e 56 6e 34 be c7 8e 55 bc
       -0.21755342 0.16854015 -0.17620215 -0.013034529

network_body.linear_encoder.seq_layers.2.bias f4 [128]
000000 eb 68 50 3b eb a5 67 3c bf 59 6b bc f2 6f 89 bd
       0.0031800817 0.014138679 -0.014364659 -0.06710805
000010 7e f3 3d 3c fe 59 aa 3c 97 9f 86 bd 12 ad 14 bc
       0.011593698 0.020794865 -0.06573408 -0.009074466
000020 cf 60 18 3c be 4f 79 3c 4d d5 c0 3c 35 f0 8e bd
       0.009300425 0.015216766 0.02353921 -0.069794096
000030 47 c4 7d bd 82 f3 b2 bc 93 8c 8e 3b 91 e0 f6 3b
       -0.061954763 -0.02184463 0.004350254 0.0075340946
000040 40 c9 82 3c 88 b9 9e bb 40 ec 5c bd 74 2c 92 bb
       0.015965104 -0.0048438944 -0.053936243 -0.0044608656
000050 b6 d8 90 bd a3 8d 87 3b fe 9c 94 bd 29 ba fc 3a
       -0.07072584 0.0041367575 -0.072565064 0.0019281554
000060 c0 6f 98 bd 4e cc 47 3c 82 89 e7 bc e8 14 ea 3c
       -0.074431896 0.012194706 -0.028263811 0.028574422
000070 49 0d 91 bd 2f 27 a0 bb a2 6a cd 3b 35 a9 91 bd
       -0.07082612 -0.0048874835 0.006268815 -0.07112352
000080 94 d3 93 bb a4 11 16 bc 99 e4 f5 bb f4 8b af bd
       -0.004511306 -0.009159479 -0.0075040576 -0.08571616
000090 f4 f4 80 bd ac 38 ca 38 cc 30 85 ba 8c 7e 76 bc
       -0.06296721 9.6426666e-05 -0.0010161637 -0.01504482
0000a0 4a f8 3a 3c f7 b6 13 bc d1 14 14 3c 15 bb 59 bc
       0.011411736 -0.00901579 0.009038166 -0.013289233
0000b0 77 52 74 bd 3b 1b 9c 3c 24 84 a5 bc 07 f7 2f bd
       -0.059648957 0.019055953 -0.020204611 -0.042960193
0000c0 d8 50 7b bd 32 7e 01 3c c6 79 88 3b 9f ce 9f bd
       -0.061356395 0.007903622 0.004164907 -0.07803082
0000d0 1c b1 c2 3c 13 40 6b 3d d4 79 fe bb 95 5c 28 bb
       0.023766093 0.057434153 -0.007765988 -0.0025689949
0000e0 ea 8d 59 bc 0b 02 30 bb b1 d1 c6 bb b0 99 8f 3c
       -0.013278464 -0.0026856686 -0.0060674776 0.017529339
0000f0 66 1d 60 bd a4 12 2c 3c b7 57 a5 bd d5 50 b2 3c
       -0.054715537 0.010502491 -0.08073371 0.02176706
000100 fb 17 80 bc 4e 12 4f bd e3 f4 1b 3d 35 d2 14 bc
       -0.015636435 -0.050554566 0.03807534 -0.00908332
000110 12 c1 70 bd 8c 4f 86 3c a7 39 b5 bd 47 12 9d 3b
       -0.058777876 0.016395353 -0.08848887 0.0047934386
000120 2c b2 30 bc b9 38 5b 3c bf ae 23 bd c3 4e 94 bd
       -0.010784667 0.013380223 -0.039961573 -0.07241585
000130 d6 55 85 3b 7c 5f 22 bc 90 89 cf bb 89 a1 79 bd
       0.0040690703 -0.009910461 -0.0063335374 -0.060945068
000140 d6 ce f9 bb 6f bb 42 3c 01 ac 90 bb 4e e2 d2 bc
       -0.0076235337 0.011885508 -0.0044150357 -0.025742676
000150 d3 4b 83 bd 46 30 34 bc 79 eb 8b bb 26 fc 70 bd
       -0.06410947 -0.010997837 -0.004270014 -0.058834217
000160 16 b5 ab bd 8c 1e be 3b 0b 98 8d bd 76 37 04 bd
       -0.08384149 0.0058019813 -0.069137655 -0.032279454
000170 c6 87 ea ba f3 6e 05 bb cb ea 26 3c 1c 36 44 bb
       -0.0017893247 -0.002036032 0.010187815 -0.0029939478
000180 af ed d1 3c c1 cc bc 3c b6 c6 82 bc 12 12 01 bc
       0.025626032 0.023046853 -0.015963893 -0.007877843
000190 0d 33 93 bb d6 33 0f bc 08 da 28 3c 01 3b 2d bd
       -0.0044921697 -0.008740386 0.010305889 -0.0422926
0001a0 78 41 ed 3a 90 3d b3 3c 18 28 4a bb 0a 99 8c bd
       0.0018101176 0.021879941 -0.0030846652 -0.068651274
0001b0 64 de ab 3a 50 8d aa bd c7 7c 96 bd 5c 28 a6 3c
       0.0013112542 -0.083277345 -0.07348018 0.020282917
0001c0 ee 82 93 ba 6c 01 8d 3c 08 f8 77 bd cc d1 8b 3a
       -0.001125423 0.017212592 -0.060539275 0.0010667383
0001d0 cc 69 0c 3c ed 42 4d bc 94 8c 07 bc ef 15 00 3b
       0.008570146 -0.012528163 -0.0082732625 0.0019544323
0001e0 0d e4 5b 3c 47 c3 49 bd 51 4a e7 3b a6 75 f7 3c
       0.013421071 -0.049258497 0.0070584198 0.030207466
0001f0 be 89 de 3c 72 94 39 bb 1f ed 2b 3c 99 73 93 bd
       0.02716529 -0.002831724 0.010493546 -0.07199783

network_body.linear_encoder.seq_layers.2.weight f4 [128, 128]
000000 60 27 62 bd 20 58 a4 bc ff d9 e8 bd 2b a7 2c 3c
       -0.055213332 -0.020061553 -0.113697045 0.010537903
000010 09 54 41 3d e9 f4 e5 bd a0 21 8c bd 7a 91 e7 3c
       0.047199283 -0.112283535 -0.06842351 0.02826761
000020 3f 38 d6 3d e4 16 0a 3d c0 5d a7 bd e4 6a 55 bd
       0.10459947 0.033713236 -0.08172178 -0.052103892
000030 aa e9 69 3e 17 1d b2 3a a5 b3 9d 3c 6a 13 5e 3d
       0.22843042 0.0013588992 0.0192507 0.054217733
000040 4f 89 dd 3c e3 b2 79 bd cb ff d6 bd 6f b6 0c be
       0.027043013 -0.060961615 -0.104980074 -0.13741468
000050 f3 6f 27 be e3 65 b1 3d 3a 87 4c bd f3 2e 00 3d
       -0.16351299 0.086620115 -0.04993365 0.031294774
000060 f1 6e 21 bd 3b 67 05 bb d1 6b 09 3e db 96 7b bd
       -0.039412443 -0.002035572 0.13420035 -0.061423164
000070 00 d9 ab 3d 79 61 e9 bb 5d 9e d0 bd 69 78 7a 3c
       0.08390999 -0.0071222153 -0.101864554 0.015287497
000080 77 77 85 bc 85 c7 05 bc ca 1f 1d bd 9f dc 28 3d
       -0.016292317 -0.008165245 -0.038360395 0.041226026
000090 52 8d 91 bd 3f f1 16 be 8d 77 1f 3e ec 08 f0 bc
       -0.07107033 -0.14740466 0.15572949 -0.02930113
0000a0 2f c7 8f bd 01 56 7b 3c 52 df d2 bd 81 2f a4 bd
       -0.07020413 0.015340329 -0.10296501 -0.08016873
0000b0 83 4f 09 3d 68 17 88 3c 02 2b 3b 3d c6 a1 42 3c
       0.033523094 0.016612723 0.045695312 0.01187939
0000c0 32 1b 28 3e e2 49 36 3e fd f9 6c bd 80 c8 44 bd
       0.16416624 0.17801622 -0.057855595 -0.048042774
0000d0 e0 51 da 3c f9 bd 84 bd 78 4c cd 3c 59 83 5b 3d
       0.02665037 -0.06481547 0.025060877 0.05359206
0000e0 8a db 1b be af d2 19 3d 72 fe 20 be 25 22 36 3d
       -0.15220466 0.03755444 -0.15722063 0.044466157
0000f0 93 62 ce 3d 34 55 ab bd e3 c8 82 bd bf 01 e2 3d
       0.10077395 -0.083658606 -0.06385972 0.11035489
000100 a5 7a 17 be 9d 80 1d be d6 cb 0f be ef 0e a9 3d
       -0.14792879 -0.15381093 -0.14042601 0.082548015
000110 c3 96 90 bd 7f 4c 3a bd 6e c5 ed 3c a1 64 f3 3d
       -0.070600055 -0.04548311 0.029024806 0.11884428
000120 f6 1e e6 3d a6 8f 8d bb 0e 3c 6b bd 43 b3 4d 3b
       0.11236374 -0.0043201027 -0.05743032 0.0031387366
000130 41 f3 2f bd f8 72 f7 3c 34 79 54 3e a9 51 ad bc
       -0.042956594 0.030206189 0.2074936 -0.021157103
000140 1f 3a a2 3c 7b a4 f4 bc d5 40 19 3e 31 19 41 3c
       0.019803105 -0.029863587 0.14966138 0.011785791
000150 f5 da 11 bc a1 46 95 3b 94 05 30 3e 82 62 d2 bc
       -0.008902301 0.0045555388 0.17189628 -0.025681738
000160 c5 61 09 be 63 6d ff 3d 72 56 1d be b6 a4 4b bd
       -0.13416202 0.12472036 -0.15365008 -0.049717627
000170 18 84 e8 bd 65 fa 65 bc 62 f1 8c bd 66 52 1d 3d
       -0.1135332 -0.0140367495 -0.068819776 0.03840866
000180 90 06 f1 3d 20 73 9f 3d 7f 2d 8e bd 1a 11 60 bd
       0.1176883 0.0778563 -0.069422714 -0.05470381
000190 15 62 f6 3d 9d 12 b6 bd f0 4f a8 3d dd e6 84 3d
       0.120304264 -0.08890269 0.08218372 0.06489346
0001a0 4f 7a 04 3e 46 7d 5d bd 0a 78 d5 bd e0 69 e6 bd
       0.12937282 -0.05407455 -0.10423286 -0.11250663
0001b0 28 96 2f 3d ac 1d 98 3d db 92 9e 3d a5 59 2d bd
       0.04286781 0.074275345 0.07742854 -0.04232182
0001c0 16 bc d3 3c 32 0c 2f 3e 70 b0 6e bd 1f f6 d0 bb
       0.025846522 0.17094496 -0.058273733 -0.006376996
0001d0 59 f4 f1 bc ba 8c f2 3b a1 c3 9b bc cf ee fc 3c
       -0.02953546 0.00740203 -0.019014182 0.030875592
0001e0 a4 44 1b 3e c2 b2 13 be bf 3a 02 3c 12 87 81 3d
       0.15162903 -0.1442366 0.0079485765 0.06324591
0001f0 11 78 14 be 80 cb ff bc cf 1a 1f be 65 37 8b bc
       -0.14498927 -0.031224966 -0.1553757 -0.016994188
000200 ec 07 0d be 22 01 be bd 3b cc 59 be 65 88 25 bc
       -0.13772553 -0.0927756 -0.21269314 -0.01010332
000210 52 12 02 be 8b ef e3 3c 76 56 8c bc 2b fc 29 3e
       -0.12702301 0.027824184 -0.017131072 0.166001
000220 6e d3 97 3c 7f cf 20 3d 03 f1 d8 bd 06 f3 2e 3d
       0.018533435 0.039260384 -0.10592844 0.042712234
000230 5f 68 ab 3a 23 8c ff 3c 30 73 a4 bc 3d e1 b0 bc
       0.001307737 0.031194752 -0.020074457 -0.021591777
000240 40 96 9a 3d ef 0d 17 bd f9 a7 2b 3e eb 2a aa 3d
       0.07548189 -0.036878522 0.16763295 0.08308967
000250 1b e6 18 3e 3f 1b f0 bc ae 85 d2 bc 24 a5 a4 bc
       0.14931528 -0.029309867 -0.025698509 -0.020098276
000260 82 a8 6e 3c 4c 25 e0 3d 95 8e a5 3d 6b c7 2c bc
       0.014566543 0.10944614 0.08083836 -0.010545592
000270 29 18 7b 3d 87 fc d0 bc 2b 38 91 3d d4 e1 14 bd
       0.061302338 -0.02551104 0.07090791 -0.03634818
000280 93 31 b4 3c 22 54 8c bd fe dc 0e be 59 17 bc bd
       0.021996295 -0.068519846 -0.1395149 -0.09184141
000290 43 d4 a7 bc 77 30 6a bc 15 c6 06 be 85 1b 27 be
       -0.020486956 -0.0142937815 -0.131615 -0.16319092
0002a0 71 3c f9 3c 8a 48 1b 3e 6f 8f 13 be 9d df ea 3d
       0.030424329 0.1516439 -0.14410184 0.11468432
0002b0 4a 98 eb 3d be e2 83 3d f0 59 67 bb 5d 84 9a bd
       0.11503656 0.06439732 -0.003530141 -0.075447775
0002c0 b5 3a c7 3d a5 93 c9 3a 1a 2a 51 be c9 bd d9 bd
       0.09727994 0.0015379085 -0.20426217 -0.10631902
0002d0 df fd 37 bd 6e 71 15 be 89 b0 0a 3b 99 9d 59 3c
       -0.044919845 -0.14594051 0.0021162352 0.013282203
0002e0 b6 b1 48 bd 8e e8 54 3d 3f e4 69 bd df a4 c0 bd
       -0.048997603 0.051979594 -0.057102438 -0.09406447
0002f0 50 47 a2 bc a2 b4 8d bd 3c ab e2 bd 04 c9 1c be
       -0.019809395 -0.069192186 -0.110678166 -0.15311056
000300 9a 68 10 bd 97 74 96 3d bc 5d 31 3e 54 c8 b1 3d
       -0.035256006 0.073464565 0.17320913 0.08680788
000310 ec f3 b6 3d e7 cf 5d bc bc 85 78 bd 25 a4 c8 bd
       0.08933243 -0.013538337 -0.060674414 -0.09796933
000320 18 c7 4d bd bd fc c6 bb 1b e4 42 bd de c8 4f 3d
       -0.0502387 -0.006072609 -0.04758082 0.05072867
000330 a6 c6 0d 3e 1d d8 ed 3c c3 31 f3 bc 19 5f 8b bd
       0.1384531 0.029033715 -0.029686814 -0.06805248
000340 41 3a 94 3d bc eb e9 3d 42 14 9f 3c 39 6c a7 3d
       0.072376736 0.11421916 0.01941884 0.08174939
000350 1d 00 cb bb 25 08 68 3d 92 7b 03 3e 51 36 fb 3c
       -0.006195082 0.056648392 0.12840107 0.030665549
000360 79 23 04 bd 8f 37 15 ba 9c 2d 0a bd ff 06 ce 3d
       -0.03226039 -0.0005692178 -0.033734903 0.10059928
000370 ae 47 c3 bd d1 67 fa bd ec 82 73 3d 01 95 9b bc
       -0.09535156 -0.12226833 0.05945103 -0.018991949
000380 66 66 17 3e 97 64 ab bb 95 20 0e 3d fb cc 2f 3e
       0.14785156 -0.005230497 0.03469904 0.17168038
000390 8b 6e 01 3e 5f 4a 87 3e 96 cb ed ba 7e 2f 1e bc
       0.12639825 0.26423928 -0.0018142338 -0.009654878
0003a0 f5 5f ae bc 74 c9 d1 3c c4 18 a1 bc 41 99 a8 bd
       -0.02128599 0.025608756 -0.01966513 -0.08232356
0003b0 97 45 6a bc 38 ba 9b bc 50 b7 08 3e 59 2e 1f 3e
       -0.014298818 -0.019009694 0.13351178 0.15545024
0003c0 19 b4 a7 3d ce b6 39 bc 66 3a 57 3d e0 4f f7 3b
       0.08188648 -0.011335088 0.052545927 0.0075473636
0003d0 64 55 53 3b 03 2d 80 3c cf f3 00 3e 67 2a b4 3c
       0.0032246942 0.015646463 0.12593006 0.021992875
0003e0 f4 9d d1 bc 0b e2 84 3d fa 4e 2a 3d 06 5b da 3d
       -0.025588013 0.06488427 0.041579224 0.106618926
0003f0 cb 30 d9 3d 5f 42 f4 bd 99 2b a8 3d bd 0f 69 bd
       0.1060501 -0.11926722 0.082114406 -0.056899775
