Learning/results/test4/KartAgent.onnx (onnx, 108225 bytes, 7 tensors)

39 f4 [1, 2]
0.0 0.0
00000000: 0000 0000 0000 0000

distribution.mu.bias f4 [2]
0.0 0.0
00000000: 0000 0000 0000 0000

distribution.mu.weight f4 [2, 128]
0.0057323347 -0.0037623027 -0.013933095 -0.00070421415 -0.024438804 0.011042693 0.007156999 0.0021819014
0.0046350188 -0.014009661 -0.00087562896 -0.010017529 0.0065885666 -0.011645978 0.00016978405 0.0027191842
-0.026419092 -0.023661288 -0.016703432 0.019551458 0.020641273 0.015022188 0.019465616 -0.023601117
-0.011399289 -0.016651722 0.01239983 0.022275392 0.03439648 -0.007782501 0.01853899 0.019988516
-0.021233188 0.019127578 0.004534159 0.014985695 -0.0153718535 -0.0050407024 0.0055203065 0.045012128
-0.022855993 -0.013988224 0.02073843 0.010605475 -0.0020782195 0.0037570212 0.01310911 0.00056299445
-0.010894104 0.0067001814 0.04036337 0.01718825 -0.028983489 0.020563064 -0.021825502 -0.0044348044
0.024349539 0.03246258 -0.0016814711 0.016606066 -0.023421748 -0.005188933 0.033183075 0.008420351
0.03448654 -0.0262671 -0.022024838 0.017447399 0.0021439248 -0.025142957 -0.016727036 -0.0038762917
-0.01761234 0.024728311 -0.0009038997 0.010435544 0.0036450245 0.00607385 0.01604322 0.03569357
-0.0107869115 -0.01466357 0.01315347 0.0069678957 0.0059037795 -0.037902933 0.014076382 0.024696482
-0.0025313608 0.009701832 -0.016399365 0.024379294 -0.00036431375 0.029628614 -0.0043273764 0.012529984
0.0122529045 0.048291933 0.02217235 0.003036456 -0.02176401 0.010823933 -0.0026130641 -0.009416753
-0.0038569805 -0.00059820444 0.0009473573 0.039364424 -0.024612276 -0.021642474 -0.03040716 -0.0095065925
0.017817868 0.00068668387 -0.016597934 0.021815436 -0.016407484 -0.006935523 0.013472892 -0.0315012
-0.015650287 -0.0039956663 -0.013013749 -0.02361649 0.00997297 0.0015356673 -0.017557805 0.0071374574
0.035233933 0.029103195 -0.00406702 -0.0003236806 -0.0078828875 -0.021088993 0.015299819 -0.016542062
-0.006023433 0.005854499 0.012691909 0.02948727 0.022005426 -0.014976427 0.015524613 -0.029221354
0.015634453 0.0023771783 -0.017744368 0.025574673 0.013593497 0.008460294 0.01554129 -0.00069574954
-0.024512475 0.023230633 0.003906679 0.0019463245 0.012636547 0.012618482 0.002687888 -0.012386253
-0.0044808453 0.013771124 0.0033919283 -0.003128257 -0.018109558 -0.023089185 0.020336824 0.005118121
0.021452777 -0.013142294 0.010068538 -0.0044345255 -0.0039726696 0.028460432 0.013250189 -0.003228658
0.020506062 -0.023360357 0.00089538534 -0.0031048371 0.0037755512 -0.0021769558 0.0005413184 0.004754839
-0.0073853354 -0.01408305 -0.018544948 -0.018749034 -0.009908734 0.030213704 0.01881556 0.008684038
0.009387332 0.0024923717 -0.053084888 -0.0072687156 0.0030136253 0.010416641 0.020135343 -0.011957902
-0.0009654768 0.011695984 0.018185373 -0.007923727 -0.015420026 -0.008666763 -0.02197424 -0.025655437
-0.0041031125 0.0002368252 -0.04392648 -0.0048783063 -0.0405218 -0.030969976 -0.009670226 -0.008757749
0.0044361944 -0.012287598 0.0024992046 -0.014017229 0.032882437 -0.032619342 0.004845475 0.00435401
-0.026557017 -0.003423366 0.0154296225 0.0048473803 0.02208876 -0.012515979 0.01598534 0.0093071535
-0.0046550967 0.021236503 -0.026211042 -0.02245964 0.013837573 0.00040209346 0.004220359 0.023850845
0.0061742337 0.024406444 -0.0005993796 0.011372055 0.010256345 0.015409067 0.003909501 -0.0016963411
0.031189522 0.021890825 -0.022524316 0.015008933 -0.008037968 0.024715807 -0.011018739 0.023479015
00000000: 4fd6 bb3b f790 76bb a347 64bc 039b 38ba
00000010: e333 c8bc 69ec 343c 4285 ea3b 3bfe 0e3b
00000020: 5be1 973b c788 65bc 778a 65ba 9020 24bc
00000030: e7e4 d73b c6ce 3ebc 0f08 3239 5734 323b
00000040: da6c d8bc 51d5 c1bc a3d5 88bc 612a a03c
00000050: e317 a93c a01f 763c 5b76 9f3c 2157 c1bc
00000060: 15c4 3abc 3169 88bc a828 4b3c e27a b63c
00000070: 53e3 0c3d 5a04 ffbb 14df 973c f5be a33c
00000080: 39f1 adbc 70b1 9c3c 4893 943b 8f86 753c
00000090: 3ada 7bbc 7a2c a5bb b0e3 b43b a35e 383d
000000a0: 7e3c bbbc dd2e 65bc a4e3 a93c 96c2 2d3c
000000b0: bd32 08bb 5b38 763b 98c7 563c eb95 133a
000000c0: 2f7d 32bc 328d db3b 1054 253d 5fce 8c3c
000000d0: c86e edbc df73 a83c 65cb b2bc d651 91bb
000000e0: af78 c73c 7bf7 043d cf64 dcba 7209 883c
000000f0: f7de bfbc ed07 aabb faea 073d 83f5 093c
00000100: c241 0d3d 1a2e d7bc 6f6d b4bc d9ed 8e3c
00000110: 1781 0c3b 9af8 cdbc 2307 89bc 6209 7ebb
00000120: c147 90bc 0793 ca3c aff3 6cba d8f9 2a3c
00000130: 5de1 6e3b 2607 c73b 126d 833c 6c33 123d
00000140: 96bb 30bc 783f 70bc a781 573c f252 e43b
00000150: 7e74 c13b 1b40 1bbd a0a0 663c 4750 ca3c
00000160: 30e5 25bb 6ff4 1e3c f657 86bc 16b7 c73c
00000170: 5d01 bfb9 b5b7 f23c aacc 8dbb 904a 4d3c
00000180: 68c0 483c c3cd 453d caa2 b53c 47ff 463b
00000190: 704a b2bc de56 313c f13f 2bbb ba48 1abc
000001a0: 65c5 7cbb d2d0 1cba 1258 783a 973c 213d
000001b0: af9f c9bc 8f4b b1bc 7018 f9bc 8ac1 1bbc
000001c0: c7f6 913c 9302 343a 64f8 87bc 49b6 b23c
000001d0: fd68 86bc 6243 e3bb 68bd 5c3c 6707 01bd
000001e0: 0835 80bc 14ee 82bb 9f37 55bc 5f77 c1bc
000001f0: ab65 233c 7248 c93a 63d5 8fbc 55e1 e93b
00000200: 7551 103d d369 ee3c a344 85bb adb3 a9b9
00000210: 3a27 01bc d3c2 acbc 18ac 7a3c 3883 87bc
00000220: 3860 c5bb 19d7 bf3b baf1 4f3c 4a8f f13c
00000230: b944 b43c b05f 75bc f25a 7e3c 9f61 efbc
00000240: d313 803c 6fca 1b3b a35c 91bc fa81 d13c
00000250: 42b7 5e3c 0c9d 0a3c e5a0 7e3c f662 36ba
00000260: 63ce c8bc 2b4e be3c 9903 803b d01b ff3a
00000270: 8509 4f3c c0bd 4e3c 4727 303b b6ef 4abc
00000280: 0ed4 92bb 48a0 613c 1d4b 5e3b 7203 4dbb
00000290: 7f5a 94bc 8825 bdbc 6999 a63c e9b5 a73b
000002a0: bcbd af3c c752 57bc 82f6 243c 7f4f 91bb
000002b0: 2b2d 82bb da25 e93c 5217 593c e597 53bb
000002c0: 54fc a73c 385e bfbc 4bb8 6a3a 867a 4bbb
000002d0: 3d6f 773b 42ab 0ebb 43e7 0d3a 7bce 9b3b
000002e0: af00 f2bb 98bc 66bc 93eb 97bc 9397 99bc
000002f0: 3e58 22bc bb82 f73c 1723 9a3c 7f47 0e3c
00000300: 53cd 193c 0f57 233b 8a6f 59bd 682e eebb
00000310: 3e80 453b 8faa 2a3c e0f2 a43c 14eb 43bc
00000320: 0d18 7dba 83a0 3f3c 7ef9 943c 85d2 01bc
00000330: 47a4 7cbc 0aff 0dbc 5203 b4bc 5a2b d2bc
00000340: 6773 86bb 4854 7839 41ec 33bd 33da 9fbb
00000350: 30fa 25bd bfb4 fdbc de6f 1ebc a97c 0fbc
00000360: 7f5d 913b ec51 49bc b2c9 233b 85a8 65bc
00000370: bcaf 063d dc9b 05bd cac6 9e3b 15ac 8e3b
00000380: 1a8e d9bc 8d5a 60bb 87cc 7c3c c6d6 9e3b
00000390: 7df3 b43c d20f 4dbc b0f3 823c 087d 183c
000003a0: c889 98bb 2df8 ad3c 8ab8 d6bc 47fd b7bc
000003b0: fdb6 623c 12d0 d239 f04a 8a3b d962 c33c
000003c0: 3a51 ca3b 06f0 c73c af1f 1dba db51 3a3c
000003d0: 3b0a 283c 5076 7c3c 451b 803b c357 deba
000003e0: 2b81 ff3c 6354 b33c ea84 b8bc 07e8 753c
000003f0: aeb1 03bc ce78 ca3c f187 34bc 1057 c03c

network_body.linear_encoder.seq_layers.0.bias f4 [128]
0.0 0.0 0.0 0.0 0.0 0.0 0.0 0.0
0.0 0.0 0.0 0.0 0.0 0.0 0.0 0.0
0.0 0.0 0.0 0.0 0.0 0.0 0.0 0.0
0.0 0.0 0.0 0.0 0.0 0.0 0.0 0.0
0.0 0.0 0.0 0.0 0.0 0.0 0.0 0.0
0.0 0.0 0.0 0.0 0.0 0.0 0.0 0.0
0.0 0.0 0.0 0.0 0.0 0.0 0.0 0.0
0.0 0.0 0.0 0.0 0.0 0.0 0.0 0.0
0.0 0.0 0.0 0.0 0.0 0.0 0.0 0.0
0.0 0.0 0.0 0.0 0.0 0.0 0.0 0.0
0.0 0.0 0.0 0.0 0.0 0.0 0.0 0.0
0.0 0.0 0.0 0.0 0.0 0.0 0.0 0.0
0.0 0.0 0.0 0.0 0.0 0.0 0.0 0.0
0.0 0.0 0.0 0.0 0.0 0.0 0.0 0.0
0.0 0.0 0.0 0.0 0.0 0.0 0.0 0.0
0.0 0.0 0.0 0.0 0.0 0.0 0.0 0.0
00000000: 0000 0000 0000 0000 0000 0000 0000 0000
00000010: 0000 0000 0000 0000 0000 0000 0000 0000
00000020: 0000 0000 0000 0000 0000 0000 0000 0000
00000030: 0000 0000 0000 0000 0000 0000 0000 0000
00000040: 0000 0000 0000 0000 0000 0000 0000 0000
00000050: 0000 0000 0000 0000 0000 0000 0000 0000
00000060: 0000 0000 0000 0000 0000 0000 0000 0000
00000070: 0000 0000 0000 0000 0000 0000 0000 0000
00000080: 0000 0000 0000 0000 0000 0000 0000 0000
00000090: 0000 0000 0000 0000 0000 0000 0000 0000
000000a0: 0000 0000 0000 0000 0000 0000 0000 0000
000000b0: 0000 0000 0000 0000 0000 0000 0000 0000
000000c0: 0000 0000 0000 0000 0000 0000 0000 0000
000000d0: 0000 0000 0000 0000 0000 0000 0000 0000
000000e0: 0000 0000 0000 0000 0000 0000 0000 0000
000000f0: 0000 0000 0000 0000 0000 0000 0000 0000
00000100: 0000 0000 0000 0000 0000 0000 0000 0000
00000110: 0000 0000 0000 0000 0000 0000 0000 0000
00000120: 0000 0000 0000 0000 0000 0000 0000 0000
00000130: 0000 0000 0000 0000 0000 0000 0000 0000
00000140: 0000 0000 0000 0000 0000 0000 0000 0000
00000150: 0000 0000 0000 0000 0000 0000 0000 0000
00000160: 0000 0000 0000 0000 0000 0000 0000 0000
00000170: 0000 0000 0000 0000 0000 0000 0000 0000
00000180: 0000 0000 0000 0000 0000 0000 0000 0000
00000190: 0000 0000 0000 0000 0000 0000 0000 0000
000001a0: 0000 0000 0000 0000 0000 0000 0000 0000
000001b0: 0000 0000 0000 0000 0000 0000 0000 0000
000001c0: 0000 0000 0000 0000 0000 0000 0000 0000
000001d0: 0000 0000 0000 0000 0000 0000 0000 0000
000001e0: 0000 0000 0000 0000 0000 0000 0000 0000
000001f0: 0000 0000 0000 0000 0000 0000 0000 0000

network_body.linear_encoder.seq_layers.0.weight f4 [128, 76]
0.09871888 0.055828184 0.100643605 0.018735074 0.14410089 -0.08705521 -0.0036501042 0.095175914
0.15521269 0.019822493 0.09885426 -0.111254916 -0.007563877 -0.05280954 0.0037724467 -0.037648104
0.24261145 0.1556186 -0.1193505 -0.15396026 0.18307272 -0.14743473 0.07091369 -0.018780127
0.049183343 -0.048958767 0.03351981 0.18236831 -0.092822395 0.14219964 -0.06217286 0.20221722
0.0143320905 0.03286393 0.10695153 0.11071693 0.06801576 0.13571033 -0.06759738 -0.12163823
-0.0609961 0.019404246 0.07440839 -0.18129435 0.06461056 0.07800362 -0.004144389 0.038735885
-0.10976571 0.058841664 0.014348754 -0.20503801 0.036819484 0.07401472 0.02078553 -0.012731627
-0.097653404 0.014734359 -0.19195536 -0.010014607 -0.16093375 0.26843223 -0.08500236 -0.077054806
0.038113844 -0.070180885 0.13297512 -0.038024206 0.02763005 -0.0553237 -0.30196294 -0.13201867
-0.05144602 -0.093750894 0.08220427 0.11302355 -0.019022396 -0.07857239 0.14058805 0.19953047
-0.044469647 -0.21945053 -0.012744088 0.041802563 -0.025445975 -0.1829666 0.10837167 -0.13706058
0.030424517 -0.10417117 -0.01497207 -0.13177836 -0.1843294 0.063593596 0.07489635 0.14153154
0.14918087 0.12055962 0.15752621 -0.11449401 -0.05947947 0.04695186 -0.0022221117 -0.019996049
-0.07536957 0.021002945 0.041457906 0.22016127 0.026419315 -0.13338837 -0.24717759 -0.07847968
-0.117239594 0.07314638 0.054850042 0.21888092 0.053228077 -0.1121245 -0.046676297 -0.09489537
0.01450055 0.16680008 -0.018711865 -0.049724437 -0.1852077 -0.07564489 -0.2000833 -0.122273974
0.13863872 -0.11280036 0.11158811 0.06392311 0.19650581 -0.15982485 -0.06264309 -0.004416579
0.026316956 0.17945679 -0.06594948 0.104995884 0.0790483 0.13683298 -0.20191932 -0.11582024
0.118812025 -0.011572705 0.11435701 0.055917826 -0.19255199 0.046494126 -0.253169 -0.18058191
0.06345865 0.06044701 0.31410143 0.021894708 0.015161782 -0.11049151 -0.082684055 -0.025189562
0.12646116 0.10027532 0.15287893 -0.058476944 0.13126849 -0.39543486 -0.0567919 -0.14938693
-0.13708179 -0.048179287 -0.053281333 0.023949634 0.18267594 -0.007918692 0.054723985 -0.17708094
-0.098380126 0.07657899 0.11467281 0.04780099 -0.14055157 0.12626398 -0.103453785 0.16006476
0.09918031 -0.053983 0.062347617 -0.14505135 0.0022027132 -0.014064408 -0.035271112 -0.1043966
-0.07654927 -0.021600375 0.05203574 0.022403095 -0.10915164 -0.030446852 -0.06108114 -0.12796341
-0.00936656 -0.27087504 0.15837814 -0.011523228 -0.090071455 0.003011815 0.08306897 -0.08821997
0.028132917 -0.012933703 0.01900748 0.002834319 0.07660159 -0.0023949374 -0.050647542 0.04178982
0.20440349 -0.018346792 -0.0045509255 0.17681988 -0.02062567 -0.0088304905 0.18740803 -0.13676034
-0.114512265 0.045422465 0.09470857 0.012800593 0.070022576 -0.037558995 0.17631422 -0.2726888
0.22287053 -0.11372073 0.06401203 -0.04315762 -0.09476621 -0.29135454 0.08829288 0.20485753
-0.00072797225 0.13377717 -0.021818865 0.065986134 0.0937402 0.06437344 -0.07754921 -0.025882414
-0.13317642 0.096310616 -0.027325965 0.1080818 0.17449515 0.12856315 0.26559758 -0.06753176
00000000: 202d ca3d 18ac 643d 3c1e ce3d 4c7a 993c
00000010: 2f8f 133e 004a b2bd 9636 6fbb 97eb c23d
00000020: 13f0 1e3e c862 a23c 1a74 ca3d 9ed9 e3bd
00000030: 66da f7bb d14e 58bd 273b 773b e634 1abd
00000040: 236f 783e 7b5a 1f3e 096e f4bd c2a7 1dbe
00000050: 6a77 3b3e 21f9 16be 323b 913d c8d8 99bc
00000060: 7974 493d fd88 48bd 114c 093d c2be 3a3e
00000070: ab19 bebd c89c 113e f8a8 7ebd 0812 4f3e
00000080: 25d1 6a3c 549c 063d 6709 db3d 8fbf e23d
00000090: d94b 8b3d a6f7 0a3e 7f70 8abd 771d f9bd
000000a0: 0cd7 79bd a7f5 9e3c 6d63 983d 3aa5 39be
000000b0: 8b52 843d 5dc0 9f3d a8cd 87bb 85a9 1e3d
000000c0: d8cc e0bd f503 713d 0917 6b3c 7cf5 51be
000000d0: 07d0 163d 0895 973d 6a46 aa3c 5098 50bc
000000e0: 82fe c7bd 6268 713c f28f 44be 4e14 24bc
000000f0: d1cb 24be f36f 893e b815 aebd e9ce 9dbd
00000100: 431d 1c3d ffba 8fbd a12a 083e 45bf 1bbd
00000110: 6a58 e23c 1b9b 62bd e39a 9abe e72f 07be
00000120: 10b9 52bd 7800 c0bd b65a a83d e478 e73d
00000130: dbd4 9bbc 90ea a0bd 50f6 0f3e b751 4c3e
00000140: ce25 36bd a4b7 60be 94cc 50bc 2a39 2b3d
00000150: 1474 d0bc 995b 3bbe f7f1 dd3d 9c59 0cbe
00000160: d63c f93c b257 d5bd 6a4d 75bc e8f0 06be
00000170: d9c0 3cbe 5c3d 823d 4263 993d a5ed 103e
00000180: dfc2 183e f6e7 f63d 8d4e 213e d67b eabd
00000190: bfa0 73bd 9850 403d d9a0 11bb c1ce a3bc
000001a0: 5c5b 9abd 5e0e ac3c c4cf 293d f571 613e
000001b0: 526d d83c f696 08be 1f1c 7dbe f4b9 a0bd
000001c0: 501b f0bd c5cd 953d 70aa 603d 5222 603e
000001d0: af05 5a3d 88a1 e5bd a52f 3fbd 8158 c2bd
000001e0: b793 6d3c a4cd 2a3e a049 99bc daab 4bbd
000001f0: 16a7 3dbe b5eb 9abd a3e2 4cbe c76a fabd
00000200: 4ff7 0d3e e003 e7bd 4f88 e43d 1fea 823d
00000210: d238 493e 20a9 23be 054b 80bd f3b8 90bb
00000220: a896 d73c 85c3 373e 8510 87bd 1508 d73d
00000230: 13e4 a13d f21d 0c3e f0c3 4ebe 2933 edbd
00000240: b853 f33d 719b 3dbc 0234 ea3d 170a 653d
00000250: 592c 45be a070 3e3d 5e9f 81be 77ea 38be
00000260: 9cf6 813d 4997 773d e7d1 a03e 885c b33c
00000270: 1f69 783c 5f49 e2bd 4256 a9bd 575a cebc
00000280: 097f 013e 265d cd3d 4b8c 1c3e 8585 6fbd
00000290: 3f6b 063e 7076 cabe a09e 68bd e3f8 18be
000002a0: 2b5f 0cbe a557 45bd 873d 5abd 0632 c43c
000002b0: 670f 3b3e 67bd 01bc 4226 603d b554 35be
000002c0: 857b c9bd 72d5 9c3d 94d9 ea3d f9ca 433d
000002d0: c0ec 0fbe 584b 013e 94df d3bd 04e8 233e
000002e0: 0c1f cb3d 471d 5dbd 3760 7f3d 5788 14be
000002f0: 655b 103b 676e 66bc 7178 10bd e2cd d5bd
00000300: ddc5 9cbd 45f3 b0bc 6e23 553d b286 b73c
00000310: e58a dfbd ad6b f9bc 3830 7abd d708 03be
00000320: 3376 19bc 22b0 8abe e12d 223e eccb 3cbc
00000330: 6277 b8bd df61 453b 1020 aa3d acac b4bd
00000340: 0177 e63c e2e7 53bc 93b5 9b3c fbbf 393b
00000350: 4be1 9c3d 62f4 1cbb cc73 4fbd cd2b 2b3d
00000360: 264f 513e 034c 96bc ee1f 95bb 4510 353e
00000370: 2af7 a8bc c3ad 10bc e4e7 3f3e e70a 0cbe
00000380: 6885 eabd e80c 3a3d 91f6 c13d 94b9 513c
00000390: ff67 8f3d 76d7 19bd b78b 343e de9d 8bbe
000003a0: 2c38 643e 6ae6 e8bd bd18 833d 0bc6 30bd
000003b0: c914 c2bd 6c2c 95be e6d2 b43d 2cc6 513e
000003c0: 64d5 3eba e2fc 083e 7abd b2bc bd23 873d
000003d0: ddfa bf3d 39d6 833d 1fd2 9ebd 5b07 d4bc
000003e0: 665f 08be 803e c53d b4da dfbc fe59 dd3d
000003f0: dbae 323e 0fa6 033e 68fc 873e 174e 8abd

network_body.linear_encoder.seq_layers.2.bias f4 [128]
0.0 0.0 0.0 0.0 0.0 0.0 0.0 0.0
0.0 0.0 0.0 0.0 0.0 0.0 0.0 0.0
0.0 0.0 0.0 0.0 0.0 0.0 0.0 0.0
0.0 0.0 0.0 0.0 0.0 0.0 0.0 0.0
0.0 0.0 0.0 0.0 0.0 0.0 0.0 0.0
0.0 0.0 0.0 0.0 0.0 0.0 0.0 0.0
0.0 0.0 0.0 0.0 0.0 0.0 0.0 0.0
0.0 0.0 0.0 0.0 0.0 0.0 0.0 0.0
0.0 0.0 0.0 0.0 0.0 0.0 0.0 0.0
0.0 0.0 0.0 0.0 0.0 0.0 0.0 0.0
0.0 0.0 0.0 0.0 0.0 0.0 0.0 0.0
0.0 0.0 0.0 0.0 0.0 0.0 0.0 0.0
0.0 0.0 0.0 0.0 0.0 0.0 0.0 0.0
0.0 0.0 0.0 0.0 0.0 0.0 0.0 0.0
0.0 0.0 0.0 0.0 0.0 0.0 0.0 0.0
0.0 0.0 0.0 0.0 0.0 0.0 0.0 0.0
00000000: 0000 0000 0000 0000 0000 0000 0000 0000
00000010: 0000 0000 0000 0000 0000 0000 0000 0000
00000020: 0000 0000 0000 0000 0000 0000 0000 0000
00000030: 0000 0000 0000 0000 0000 0000 0000 0000
00000040: 0000 0000 0000 0000 0000 0000 0000 0000
00000050: 0000 0000 0000 0000 0000 0000 0000 0000
00000060: 0000 0000 0000 0000 0000 0000 0000 0000
00000070: 0000 0000 0000 0000 0000 0000 0000 0000
00000080: 0000 0000 0000 0000 0000 0000 0000 0000
00000090: 0000 0000 0000 0000 0000 0000 0000 0000
000000a0: 0000 0000 0000 0000 0000 0000 0000 0000
000000b0: 0000 0000 0000 0000 0000 0000 0000 0000
000000c0: 0000 0000 0000 0000 0000 0000 0000 0000
000000d0: 0000 0000 0000 0000 0000 0000 0000 0000
000000e0: 0000 0000 0000 0000 0000 0000 0000 0000
000000f0: 0000 0000 0000 0000 0000 0000 0000 0000
00000100: 0000 0000 0000 0000 0000 0000 0000 0000
00000110: 0000 0000 0000 0000 0000 0000 0000 0000
00000120: 0000 0000 0000 0000 0000 0000 0000 0000
00000130: 0000 0000 0000 0000 0000 0000 0000 0000
00000140: 0000 0000 0000 0000 0000 0000 0000 0000
00000150: 0000 0000 0000 0000 0000 0000 0000 0000
00000160: 0000 0000 0000 0000 0000 0000 0000 0000
00000170: 0000 0000 0000 0000 0000 0000 0000 0000
00000180: 0000 0000 0000 0000 0000 0000 0000 0000
00000190: 0000 0000 0000 0000 0000 0000 0000 0000
000001a0: 0000 0000 0000 0000 0000 0000 0000 0000
000001b0: 0000 0000 0000 0000 0000 0000 0000 0000
000001c0: 0000 0000 0000 0000 0000 0000 0000 0000
000001d0: 0000 0000 0000 0000 0000 0000 0000 0000
000001e0: 0000 0000 0000 0000 0000 0000 0000 0000
000001f0: 0000 0000 0000 0000 0000 0000 0000 0000

network_body.linear_encoder.seq_layers.2.weight f4 [128, 128]
0.05381371 -0.050772607 0.040914144 -0.030587396 -0.082432926 0.118692964 -0.04446 -0.13716786
-0.003963897 0.02690679 0.02547066 -0.15385494 0.082298286 0.25856066 0.051954098 0.02271489
-0.0008356741 -0.07269569 0.13203515 0.07994319 -0.015334602 -0.14426441 -0.016887728 -0.0729372
0.018629726 0.03182893 0.08113926 -0.031119144 -0.036928527 -0.039704014 0.134867 -0.04617571
0.043362018 0.14844736 -0.12185912 0.017103618 0.069213144 -0.01205036 -0.052431148 -0.057297256
0.07352659 -0.0028874085 -0.0377452 0.020464765 -0.0033957406 0.047952835 0.045706086 -0.005132386
-0.013430965 0.06949085 0.19275907 -0.077498 0.061500765 -0.038284596 -0.011898118 -0.05547246
0.08049236 -0.061996046 -0.044485934 -0.085516945 -0.06544796 0.083550714 0.012913399 -0.07021631
-0.03606787 0.010109117 0.030777657 -0.0669299 0.048674013 0.052200843 -0.063530795 0.02798102
-0.13057859 -0.08531487 -0.05093442 -0.04253235 -0.08478007 0.023826513 0.08569213 -0.13595408
0.0060846405 0.035805527 -0.020567741 0.16638486 -0.035743758 -0.10882532 0.0168015 0.109079026
0.19442035 0.0064537623 0.096694626 0.07952802 -0.036974605 -0.033113703 -0.20393676 -0.011726634
-0.035716005 0.02886276 0.114170946 0.14740817 0.043705158 -0.09952136 -0.105461925 0.061904874
0.09790903 0.08344701 0.058767084 -0.062746964 -0.03615916 -0.01973592 -0.031568617 -0.032651953
0.04973597 -0.026686106 -0.031622157 0.038823556 0.12868845 -0.01228685 -0.106523864 -0.082791395
0.045067705 -0.069464415 0.07852707 0.14530921 -0.10155471 -0.004840418 -0.030757964 -0.023816884
-0.16820706 0.0673786 -0.09318186 -0.105729036 0.13800012 0.05824866 0.13763031 0.10017666
0.11863281 0.032907836 -0.060641617 0.081430726 -0.03634694 0.005148278 -0.12300117 0.06307772
0.006097845 -0.0028643117 -0.120834894 0.049156666 0.087737374 0.046280388 0.099491954 0.043752495
-0.106039844 0.0034357514 0.029518127 -0.13964692 -0.06007833 0.03453726 0.018626641 0.020367956
0.098498724 -0.12246305 0.05229622 -0.1101478 0.02485236 -0.012036852 0.23955257 0.027257808
-0.010308771 0.08044739 -0.05339326 -0.020218827 0.039690655 -0.014432515 -0.044056848 0.11282567
0.09579998 -0.03932696 0.0055798343 0.08903627 0.013807905 0.046989962 -0.039518572 0.0099728
0.0054735653 0.05009483 0.04424474 -0.047159694 0.04530545 -0.14743806 0.045634907 -0.030653732
-0.032302845 -0.022108125 0.07302097 0.18205829 0.07351007 -0.026283141 -0.082063936 -0.020104628
-0.06438792 0.13419485 0.08873238 0.0075260215 0.014398537 -0.02121428 -0.03434212 0.027605804
0.061463263 -0.08185415 0.24040851 0.19993316 0.14756706 -0.03475406 -0.15849231 0.19582418
-0.1360634 0.010370565 -0.017085789 0.0040382887 -0.13510412 -0.17812139 0.040329058 -0.12770537
0.17277159 0.0730614 -0.059632022 0.020614317 0.07691051 0.082964115 -0.03817515 -0.0041015986
0.12856272 -0.032344643 0.045423098 0.017717754 0.092730515 -0.057450753 -0.060722698 -0.06877818
-0.09773157 0.13702253 -0.08539682 -0.07968652 0.017884217 0.07574352 -0.11623529 0.014849512
-0.09558874 -0.053903393 0.029380873 0.047884725 -0.1233629 0.06927473 -0.0042146184 -0.04690123
00000000: c46b 5c3d f0f6 4fbd 9795 273d 6b92 fabc
00000010: 98d2 a8bd 4c15 f33d b01b 36bd bb75 0cbe
00000020: 94e3 81bb a16b dc3c d8a7 d03c 268c 1dbe
00000030: 018c a83d 1062 843e d2cd 543d 9414 ba3c
00000040: 2411 5bba 7ae1 94bd 3934 073e 41b9 a33d
00000050: fc3d 7bbc 0dba 13be 2258 8abc 1960 95bd
00000060: 5e9d 983c 0d5f 023d 572c a63d 93ed febc
00000070: 5e42 17bd ada0 22bd 931a 0a3e be22 3dbd
00000080: 5f9c 313d 9602 183e 4691 f9bd e31c 8c3c
00000090: 9fbf 8d3d e06e 45bc 0bc2 56bd 87b0 6abd
000000a0: 1c95 963d ad3a 3dbb b69a 1abd b9a5 a73c
000000b0: 138b 5ebb 316a 443d 4e36 3b3d 932d a8bb
000000c0: 8d0d 5cbc 3851 8e3d a262 453e 45b7 9ebd
000000d0: 3ae8 7b3d 4fd0 1cbd 53f0 42bc 1737 63bd
000000e0: 2ed9 a43d 91ef 7dbd e236 36bd 8223 afbd
000000f0: 9409 86bd a31c ab3d b992 533c 92cd 8fbd
00000100: e7bb 13bd b6a0 253c 6d21 fc3c 8b12 89bd
00000110: 675e 473d 8dd0 553d 6f1c 82bd 7438 e53c
00000120: 65b6 05be 90b9 aebd 9ca0 50bd 6736 2ebd
00000130: 2ca1 adbd d22f c33c 5b7f af3d 8c37 0bbe
00000140: aa61 c73b d1a8 123d ae7d a8bc cb60 2a3e
00000150: 0c68 12bd cfdf debd 4da3 893c d364 df3d
00000160: 2116 473e 157a d33b d507 c63d 96df a23d
00000170: af72 17bd 3ca2 07bd ccd4 50be 1121 40bc
00000180: f24a 12bd 9871 ec3c 75d2 e93d 2bf2 163e
00000190: 2e04 333d dbd1 cbbd 6cfc d7bd f78f 7d3d
000001a0: 8884 c83d 44e6 aa3d c1b5 703d 7b81 80bd
000001b0: a11b 14bd 39ad a1bc 184e 01bd 0ebe 05bd
000001c0: f2b7 4b3d d29c dabc 3c86 01bd 7305 1f3d
000001d0: e8c6 033e c94e 49bc 2f29 dabd 898e a9bd
000001e0: ea98 383d 5c43 8ebd cdd2 a03d f0cb 143e
000001f0: eafb cfbd 5f9c 9ebb 20f8 fbbc a01b c3bc
00000200: 793e 2cbe cbfd 893d 22d6 bebd 7788 d8bd
00000210: e74f 0d3e 2696 6e3d f6ee 0c3e 6c29 cd3d
00000220: c2f5 f23d 5eca 063d 5863 78bd 27c5 a63d
00000230: 87e0 14bd e3b2 a83b 0ae8 fbbd e42e 813d
00000240: 6ed0 c73b 2db7 3bbb 4978 f7bd 8058 493d
00000250: a7af b33d 8190 3d3d 70c2 cb3d d135 333d
00000260: 6b2b d9bd 582a 613b 00d0 f13c 9aff 0ebe
00000270: b214 76bd f176 0d3d e696 983c b3da a63c
00000280: b3b9 c93d e8cd fabd 9034 563d 2b95 e1bd
00000290: 2d97 cb3c 3736 45bc 454d 753e c44b df3c
000002a0: 1fe6 28bc 9ac1 a43d e4b2 5abd f4a1 a5bc
000002b0: ab92 223d 5b76 6cbc f474 34bd 2511 e73d
000002c0: c832 c43d 4e15 21bd 0bd7 b63b a658 b63d
000002d0: 8d3a 623c 8c78 403d 3ade 21bd f464 233c
000002e0: 985b b33b 3d30 4d3d f939 353d 862a 41bd
000002f0: 3592 393d 01fa 16be abeb 3a3d 891d fbbc
00000300: fd4f 04bd 191c b5bc 058c 953d 7d6d 3a3e
00000310: 738c 963d be4f d7bc 2311 a8bd 76b2 a4bc
00000320: d0dd 83bd 606a 093e 52b9 b53d d89c f63b
00000330: d7e7 6b3c 92c9 adbc 53aa 0cbd 9125 e23c
00000340: e7c0 7b3d 26a3 a7bd a62d 763e 47bb 4c3e
00000350: d21b 173e 465a 0ebd cf4b 22be 2286 483e
00000360: 3454 0bbe 4de9 293c 7ff7 8bbc 9f53 843b
00000370: bc58 0abe 7465 36be 1530 253d 32c5 02be
00000380: 09eb 303e 37a1 953d b540 74bd 5bdf a83c
00000390: 4283 9d3d 17e9 a93d 8c5d 1cbd b466 86bb
000003a0: f2a5 033e d17b 04bd 920d 3a3d d324 913c
000003b0: 7fe9 bd3d 7b51 6bbd 5db8 78bd 93db 8cbd
000003c0: 7d27 c8bd a24f 0c3e 87e4 aebd b032 a3bd
000003d0: ec81 923c 6b1f 9b3d c50c eebd 5e4b 733c
000003e0: 08c4 c3bd cec9 5cbd 28b0 f03c c622 443d
000003f0: b0a5 fcbd e9df 8d3d c81a 8abb 811b 40bd
