Learning/results/mx5/KartAgent/KartAgent-49970.onnx (onnx, 104129 bytes, 7 tensors)

41 f4 [1, 2]
00000000: 3c7c 48bd 2d8b 50bc
-0.048946604 -0.012728495

distribution.mu.bias f4 [2]
00000000: 9405 fc3b 5f7a 083d
0.0076910947 0.033319827

distribution.mu.weight f4 [2, 128]
00000000: 93ae d13a f6d5 c03a 3b0a 5f3c 4e3e 013c
00000010: fdc9 853b fd94 e0b9 51ea ac3a 824a 293b
00000020: 11fa c8b9 6733 4abc 9486 11bc bb2a 19bb
00000030: 2c2d fa3b 0cf5 b1bb 7f70 4fba 61fc 6038
00000040: 3c98 473c d222 953b 2e93 27bc 1dcf 32bc
00000050: baaf bebb 4eed 883b e7ea b0bc ceac 24b4
00000060: 7fc6 473b fd59 0eba 8abd 713a 1a48 593d
00000070: 756c 3fbc 69d6 503b 0afb 223b 9370 c0b9
00000080: a32b c13b 271d c63a 2522 cdba 2eb6 5b3a
00000090: 8679 0a3a 9132 0fbc c7e1 03ba 593a 1d3c
000000a0: 9002 99ba c3a0 2f3b f988 6fbc ef0b ec3b
000000b0: f980 2e3b 7fac 43bc a441 d3bc e6a4 f1bc
000000c0: f22c 8b3b 0062 0aba bc3b 0439 a7e7 9fba
000000d0: 77bd 743c 42ee d53a 873d a2ba ea0e 26bc
000000e0: cc5b bcbb 02bd 0b3d 85a7 883a 6a6d 5a3b
000000f0: 368f 5bbb 22c8 95bb 81dd 0f3c d714 a1ba
00000100: 661f e03a 2610 a1bb 9a74 5b3c 8735 09bc
00000110: 506d 68ba 2e33 6dbb 36ec a83c 12ad 24bc
00000120: 8d80 b2bb 0d49 c63b fcc3 56bb 0eb0 fc3a
00000130: 2071 01bc 61f0 01bb 4784 9eb9 383e 813b
00000140: 5e13 e639 e24f 963b c19f 18b8 2f9d 163b
00000150: e960 60bb d47e b8ba fddb 3f3c a3fb 633b
00000160: 16f8 b1bb 9106 1436 6d9c 2a3a 6041 e33b
00000170: 15e7 6d3a c408 e7bb 610a 2d3c 4fb2 033a
00000180: 9e39 41b9 eb7d 893a 64dd 6e3a 460b 9c3a
00000190: ff96 54bc ac41 fd3a 5204 053c 0ee2 2cbb
000001a0: 1c47 beba f64a 25bb a266 31bb d298 4d3a
000001b0: c323 12bb 9f3a 3ebc ea36 1fbc 7705 0d3b
000001c0: 7c08 c3b9 c4ab 93b9 5bba debb 0203 daba
000001d0: 3216 07b9 88c5 ed3a 55d3 5ebc f5e3 4b3b
000001e0: 9fba 7b3a 3cac 723c c0b9 6eb9 0e69 48bc
000001f0: 93ff ff3a 17cd 21bb 4120 88bb 82b1 09bb
00000200: 9737 75bb f7a3 5f3b 7dfd 4abd 5ef5 edbc
00000210: 85db aabc afe8 c7b9 dc96 0339 6995 053d
00000220: c270 abba 1a1d ffbb 7b13 eabb 6e52 ff3b
00000230: 89f1 9f3c eb23 9a3b 1139 b93a 8672 9739
00000240: f206 4c3c 4bd0 13bd 5573 37bd 1f24 d33c
00000250: 3be6 54bd 34ab ec3c 6168 13bd eaae 2cb9
00000260: 7520 ab3a 1a4c efbc ff0b e1ba c892 0c3d
00000270: 0e11 61bd acbb 66bb 54ee 75bb 05cd 883b
00000280: 5de7 d5ba 2dd1 b43b 7af1 f2bc e352 a8ba
00000290: 804a 84ba b057 cebc 3bfa d43b caf7 ca3c
000002a0: 3625 2ebb 2c5c e33b 6c4f 33bd 265c c13c
000002b0: 3068 bfbb 49c0 77bc aaf1 a6bc 0977 43bd
000002c0: 049c 133d e62a e8bb fc09 b1bc 1d4a 2e3b
000002d0: 2c49 87bd 284f dcba 03aa 033b 7d14 63bd
000002e0: 9dab cb3c ac45 a2bc 1fba f0b9 b6e9 fc3c
000002f0: 1bc3 b73b 7fa8 b73b 5814 1a3d ec7c 94bc
00000300: 222b 92ba 2588 50bd 33ed 2d3c ccee 05bc
00000310: 532e 263b 3290 ddbb a8ba 143d 42f9 e2bc
00000320: c9a7 dabc fb00 883b 9901 c5b7 6e65 86ba
00000330: 77f7 c1bc 8fee c9bc eefd da38 b503 c33b
00000340: e222 36bb f20e 053d 3234 0538 1689 5c3b
00000350: 4240 553c af56 f5ba 5916 42bd 4bc5 2c3c
00000360: e52f f63b 8885 9eb9 3029 df3b fdf4 063d
00000370: a344 e83c 56a9 4ebd 4efe 84bc dcd7 3b3b
00000380: bcfd 04b9 0dc7 1eb8 f0bd 263b 9ba5 953a
00000390: da0a 3bbd cb26 e73c 4cbd c83c 9e45 b03a
000003a0: fa0c ed3c 1129 013b 93dd a2bc 713b 82ba
000003b0: e6e5 c8ba 5ccf e2bc afc1 d0bc 0a37 08ba
000003c0: bc9f a53a 9f8a 893a f4b8 80bc f6c2 0fbb
000003d0: 0067 4fbd 24b0 4eba 4fa3 19bd a79b 2dbc
000003e0: c8c4 e6ba f7e9 e13c aaf5 c93b 1dc4 983c
000003f0: 0988 9039 ee0f c63a e27e a6bc 1653 c6bb
0.0015997462 0.0014712203 0.013613279 0.00788839 0.004082917 -0.00042835614 0.001319239 0.0025831764
-0.00038333287 -0.012341357 -0.008882184 -0.0023371417 0.0076347794 -0.005430823 -0.00079131866 5.3640808e-05
0.012182292 0.00455127 -0.0102279615 -0.0109136375 -0.005819288 0.0041786795 -0.021596385 -1.5336556e-07
0.0030483303 -0.00054302794 0.0009221664 0.053047277 -0.011683573 0.003186608 0.002486887 -0.00036704968
0.0058950945 0.0015114889 -0.0015650435 0.0008381334 0.00052823906 -0.008740083 -0.0005030897 0.009596431
-0.0011673737 0.0026798702 -0.014620059 0.007203571 0.0026627167 -0.011942982 -0.025788136 -0.029497575
0.0042473013 -0.00052788854 0.00012610754 -0.0012199775 0.01493775 0.0016321617 -0.0012377956 -0.010135392
-0.0057482477 0.0341158 0.0010425901 0.0033329376 -0.0033502108 -0.004570977 0.008780838 -0.0012289536
0.0017099201 -0.004915255 0.013394499 -0.008374578 -0.00088663865 -0.0036193836 0.020620447 -0.010051029
-0.0054474534 0.006051189 -0.0032770624 0.0019278543 -0.007900506 -0.0019827115 -0.00030234663 0.0039441846
0.00043883448 0.0045871595 -3.6388406e-05 0.0022981872 -0.003423745 -0.0014075884 0.011710164 0.0034787438
-0.0054311855 2.205754e-06 0.00065082946 0.0069352835 0.00090752664 -0.0070506055 0.010561557 0.00050238235
-0.00018427378 0.0010489797 0.0009111969 0.0011905215 -0.012975453 0.001932194 0.008118706 -0.0026379856
-0.0014517042 -0.0025221682 -0.002706923 0.00078429014 -0.0022299148 -0.011610656 -0.009717682 0.002151815
-0.0003719962 -0.00028166 -0.0067971176 -0.0016632976 -0.00012882872 0.0018140534 -0.01360019 0.0031111215
0.0009602699 0.014811572 -0.00022766646 -0.012232078 0.0019531123 -0.0024688893 -0.0041542356 -0.0021010344
-0.0037417167 0.003412483 -0.04955815 -0.029047664 -0.020856628 -0.000381296 0.00012549333 0.03261319
-0.0013079869 -0.0077854516 -0.0071434355 0.007791809 0.019524353 0.004703989 0.0014131387 0.0002888629
0.012452828 -0.036087316 -0.044787724 0.02577406 -0.051977377 0.02889023 -0.035988215 -0.00016468359
0.0013055938 -0.029211093 -0.0017169713 0.03431967 -0.054947905 -0.0035207076 -0.0037526088 0.004174831
-0.0016319562 0.0055180998 -0.02965616 -0.0012842085 -0.0010093004 -0.025188297 0.0064995564 0.024776358
-0.0026572472 0.006938478 -0.043776914 0.02360351 -0.0058412775 -0.015121528 -0.020378906 -0.047720943
0.03603746 -0.007085192 -0.021611206 0.0026594468 -0.06605753 -0.0016808258 0.0020090349 -0.05543946
0.024862105 -0.019808613 -0.00045915038 0.03087316 0.005607975 0.005604803 0.037617058 -0.018125974
-0.0011151771 -0.050911088 0.010615635 -0.008174609 0.0025357201 -0.006761574 0.03631082 -0.027706746
-0.026691334 0.0041505075 -2.3484974e-05 -0.0010253617 -0.02367757 -0.024649886 0.00010442348 0.0059513696
-0.0027791788 0.032484956 3.175828e-05 0.0033651046 0.013015809 -0.001871785 -0.047384594 0.010545085
0.0075130337 -0.00030235597 0.00681033 0.032948483 0.028353041 -0.05045446 -0.016234543 0.0028662598
-0.00012683024 -3.7855516e-05 0.0025442801 0.0011417152 -0.045664646 0.02821674 0.024504326 0.0013448482
0.028936852 0.0019708315 -0.019881045 -0.0009935928 -0.0015327304 -0.027686767 -0.02548298 -0.000519619
0.0012636106 0.0010493583 -0.015713193 -0.0021936274 -0.050635338 -0.00078845234 -0.03750926 -0.010596192
-0.0017606253 0.027577383 0.0061633186 0.018648202 0.00027567174 0.0015110949 -0.020324174 -0.006052385

network_body.linear_encoder.seq_layers.0.bias f4 [128]
00000000: c4fd 90bc ff7b 003a e309 2cbc 79d0 05bc
00000010: d108 89bc fead 83bc f6d9 30bb 0c3e a6bc
00000020: 21b1 01bd b7e5 3fbc 0026 81bc 713d 713c
00000030: 760d 57b9 f97d 353a 8f41 f1bb 1e54 82bc
00000040: 4dc0 27bb 8df4 d83c 6eeb 4e3c 8b46 d1ba
00000050: da74 f7bb 2628 e6bc 19ca 323c 8454 4f3c
00000060: a1a0 c5bb 0c24 c4bb fab2 c7bc 053c 25bc
00000070: 04cb 95bc 8647 043d eb48 403b 67d3 ebbb
00000080: 8aee f7bb a180 103a 2e8d ec3b c736 30bd
00000090: 5a7f d23c 0b3f ab3b 2e43 c4bc d4bd 3e3b
000000a0: 0b07 4bbc 5df4 243c d03d 1a3c 99d0 8ab9
000000b0: 7962 5e39 2f71 423b 55c9 5abc a423 c8bb
000000c0: e6f8 90bc ce07 a6bc 0b78 66bc f509 fd3c
000000d0: 1fea 0e3d 5308 71bc 86fc 8a3c 874b 103d
000000e0: e222 46bc 86aa cbbb bac3 93bc af76 8dbc
000000f0: 2dbd d73b f68b 7e3b 8311 acbc a29f e4ba
00000100: b479 b93a 9bc2 e4bc 51b5 b03c f828 3e3c
00000110: 6855 7b3c 6330 9c3c 95a1 29bc ef03 2abc
00000120: dccc aebc 83df 313b e44e 94bb 2eee 91bc
00000130: b76c 333d a487 363c ba75 7fbb f5a5 49bc
00000140: 0c3d 35ba 1764 a83b f4ce 7bba 3e1e 0b3b
00000150: 38e7 0a3d e936 56bc c235 853c 5c73 513b
00000160: c1cb e03a 36a1 e9ba 2043 113c e9b6 85bb
00000170: 6515 ca3b 14ad 923c af86 62bb 876f 40bc
00000180: 2355 53bc 6884 393c f175 11bc f2c3 a33b
00000190: 9aaa 89bc 08ae 4c3c 78ea 0f3b 2b79 16bb
000001a0: 4ada 883c 5525 84bc 0566 14bc 3489 573c
000001b0: 476c a63c 6345 6f3b b91d 2b3c 94d4 81bc
000001c0: bb1e 463c d9ba 1bbc cbde cebb 1d2d 00bd
000001d0: 4d1c cc3c 5327 993c 78b7 c63c 422f 4c3a
000001e0: 03b5 9ebb 6052 afba 9626 4dbb f758 c0bb
000001f0: 4374 9cbc 19ac 97bc 9d3d 23bc 1c16 0ebc
-0.01769913 0.00049012894 -0.010500404 -0.00816738 -0.016727837 -0.016074177 -0.0026985384 -0.020293258
-0.031663064 -0.011712483 -0.01576519 0.014724121 -0.00020509012 0.00069233734 -0.0073625515 -0.01590925
-0.0025596798 0.026483798 0.012629373 -0.0015966458 -0.0075517716 -0.028095316 0.010912442 0.012654427
-0.0060311113 -0.0059857424 -0.024377335 -0.010085111 -0.018285282 0.032294773 0.0029340337 -0.007196832
-0.007566278 0.0005512331 0.0072189784 -0.04302099 0.025695492 0.005226021 -0.023957815 0.0029104846
-0.012391816 0.010068026 0.009414151 -0.00026476828 0.00021208254 0.0029669513 -0.013353665 -0.0061077643
-0.017696809 -0.020267393 -0.014066706 0.030888537 0.034891244 -0.014711457 0.016966116 0.03522828
-0.012093278 -0.0062153963 -0.018037666 -0.017268507 0.006583831 0.0038840747 -0.021004444 -0.0017442594
0.001415065 -0.027924826 0.021570833 0.011606447 0.015340187 0.019066041 -0.010353466 -0.010376914
-0.021337919 0.002714128 -0.004526006 -0.017813768 0.04380485 0.011140738 -0.0038980083 -0.012307634
-0.0006913699 0.0051388848 -0.00096057286 0.0021227743 0.033911914 -0.013074615 0.016260985 0.0031959629
0.0017150567 -0.0017824534 0.0088661015 -0.0040806425 0.006167101 0.017904796 -0.003456514 -0.01174534
-0.012898716 0.011323072 -0.008878217 0.0049977237 -0.016804982 0.012492664 0.0021959823 -0.0022960405
0.01670565 -0.016131083 -0.0090575265 0.01315527 0.020315303 0.0036509864 0.010444098 -0.015848435
0.012092288 -0.009504997 -0.00631318 -0.031293023 0.024915839 0.018695509 0.024257407 0.00077890244
-0.0048433556 -0.001337599 -0.0031303517 -0.0058699804 -0.019098407 -0.01851468 -0.00996342 -0.0086722635

network_body.linear_encoder.seq_layers.0.weight f4 [128, 68]
00000000: 39ea 62be 049a 97be f7c2 743d 7e06 433e
00000010: 16bf 08bd 4058 b13d 904e ab3d 5601 923d
00000020: fc40 023d 8fa3 7ebe c540 483e faf8 903b
00000030: 3fe2 45bd 899b da3b 1fc8 1dbe 50fb 4fbd
00000040: 9e14 a53d aaf3 4a3d dd2f debd 08c6 3ebe
00000050: 0f59 b93d b716 bfbc b14b 233e 1379 49bd
00000060: a709 283e 63c8 433c 721d 33be b6bd efbc
00000070: b78c 94bd 9dbd 583e 635c 223c 26c7 26be
00000080: 2879 623e a311 973c af72 b6bc bf16 e2bd
00000090: ea31 2c3e fb93 36bd 2c62 a93e 88ad e63b
000000a0: 16d5 0bbc 644e 0f3e d25f 0cbe efcd 7ebb
000000b0: 29d7 abbc 894e d43a d6fe 4ebe 5da6 423e
000000c0: 9036 f4bd 1390 03bd 0ef7 b3bb 2c8f e93d
000000d0: 3f04 ae3d a346 1dbe 0493 e6bd 4664 fdbc
000000e0: ac1c e4bd 7427 3c3e aaa3 55bd 0e99 38bd
000000f0: c12a d5bd 2e08 d33c 6cf6 3abe a713 d63c
00000100: 6cf8 42bc 2d8d 043e 9f83 92bd dd81 6cbd
00000110: 45c9 ef3d 3a58 853e 38a2 e53d 1c3a e5ba
00000120: 9eb9 d33d 2af6 a9bb 7968 dcbd 2833 e63d
00000130: 8c13 2b3c a178 c5bd 67f6 693d 61cb 9a3d
00000140: 6c47 d43d 674e 293e 86d7 e4bd cb30 3f3e
00000150: 1c50 a93d bb6c 45bb b555 34be ffe9 24bd
00000160: 1eb0 6e3d efb5 bebd b666 d9bd 6ee0 91bd
00000170: 44ef 41bd c14f cd3d 8712 4a3e 2561 8fbd
00000180: 47c0 2cbe cd9e 3abd 437d 8a3c 4b0d b5be
00000190: 824b 2f3e 13bf b03d 59ef 84be 211b 59be
000001a0: 02b7 02bd 0b36 993c 1805 2ebd 297e 1b3d
000001b0: 5c66 7c3d f99b 273e 9c84 72be ee78 053e
000001c0: f57e 9e3d 0704 e53c 0e25 d93d 6ecd 053c
000001d0: 31af 51bd 9387 feba e6ab 883d 3cb1 e03d
000001e0: b112 1abe 6b27 4c3d a714 b73d 059f 04bd
000001f0: d31d 2dbe f5eb 99bd 711c 10bc dddf 753d
00000200: 77da 873d b598 e7bd 1ec9 2dbc ad4f 1fbe
00000210: cacf 88bb 65b9 103d afb8 b13d eb80 0fbe
00000220: 5473 6abe 6b65 86bd 6cda 913d bfaf 22be
00000230: 8362 8dbd 994b eb3d c549 45be db2d 0e3d
00000240: b712 033e e5d3 063e 20af aebc 47d1 6cbd
00000250: 32da bc3d 9757 df3d debd 07bd cd9d 3abe
00000260: dbd9 783d 963e 81bd 0267 a23e 6b45 863c
00000270: b5e3 1fbd f2c4 08bd 30f7 babc e4b5 c53d
00000280: c4c5 143e 9bca 5b3c 2b6a f33d 4c41 173e
00000290: 5a3f 4dbe 71cb 023d ee21 e43d 2c63 473e
000002a0: 6d8b 6dbe 0dcc 253e fb01 5cbe f1e4 e73d
000002b0: 831f c3bb a3b3 65bd 1386 153c 331d 8f3d
000002c0: f995 eabc bd3c 5a3e 48e5 783d ff28 8c3d
000002d0: 4c38 9ebc 9b81 7b3b 43f7 4d3b 8987 1e3e
000002e0: 058f 2c3c de32 e8bd f38b 3ebe 6357 edbc
000002f0: a32c 2cbe 2f3e 643d af4b 8ebd 438d b2bd
00000300: d6b5 93bd fb96 df3d dc32 623a abd0 063c
00000310: f43f 573e 33da 193e 70f9 36bd ebc9 f43c
00000320: c189 a33d c6b6 143e 75d9 72bd b490 0dbe
00000330: bfdd cf3d b770 57bd 810b d73d 87ba 2d3d
00000340: ba9d 3b3e 7d6a b23d e9b5 80bd d573 2cbe
00000350: 70b9 01bd 38bd 0cbe e217 e3bc f5df 813e
00000360: 5625 1d3e e09f c43c 2569 37be 0d0e 22be
00000370: 6cd8 8bb9 2b76 13be 9924 dabc 6053 853d
00000380: 69fe 1ebe 490b 8c3e d11e ca3e be4f 713d
00000390: 800c 5b3d 905b e53c bf37 143e 0175 9dbc
000003a0: 7d5f 7abe 20f2 273d c028 86bd 0e74 8b3e
000003b0: ccd4 843d 27de a6bd 7b07 0fbd 92d5 4c3e
000003c0: 3f6b 56bd 3210 e3bd 9d23 db3c 7460 b33d
000003d0: a6c1 9d3c 6aae 983e 99a9 45bd b9e6 c9bd
000003e0: f2e4 58be 1bb5 33be e9ac fe3d 230d 33be
000003f0: acd0 37be ee3e 47be df28 5fbd 4975 893d
-0.22159661 -0.29609692 0.059756245 0.19045445 -0.03338536 0.086594105 0.08364594 0.07129161
0.031800255 -0.2486708 0.19555958 0.0044242116 -0.04831147 0.0066713733 -0.15408371 -0.05077678
0.08060573 0.049548782 -0.10848973 -0.1863023 0.0905019 -0.023326261 0.15946843 -0.04918773
0.16409932 0.011949631 -0.17491701 -0.029265266 -0.07253402 0.21166082 0.009909722 -0.16286907
0.2211653 0.018441027 -0.022271482 -0.11039495 0.16815916 -0.04457472 0.33082712 0.0070397295
-0.00853469 0.13994747 -0.13708428 -0.003888007 -0.02097662 0.0016197722 -0.202144 0.19008775
-0.119244695 -0.03211982 -0.0054920977 0.11404261 0.08496904 -0.15358977 -0.1125851 -0.030931603
-0.11138281 0.18374425 -0.052158035 -0.04506784 -0.10408545 0.025760736 -0.18258065 0.026132418
-0.011900049 0.1294448 -0.07154011 -0.057741035 0.11708311 0.26043874 0.112125814 -0.0017488631
0.10338138 -0.0051868157 -0.10762114 0.11240226 0.010441672 -0.09642149 0.057119753 0.07558323
0.10365185 0.16533814 -0.1117392 0.18670957 0.08267233 -0.0030124623 -0.1761082 -0.04026222
0.058273427 -0.09312045 -0.10615294 -0.07122885 -0.047347322 0.100249775 0.1973363 -0.07000951
-0.16870223 -0.0455616 0.016905433 -0.35361704 0.17118648 0.086301945 -0.25963858 -0.21201755
-0.03191281 0.018702528 -0.042485327 0.037962113 0.061621055 0.16368093 -0.23683399 0.13034412
0.07739059 0.027956022 0.10602771 0.008166654 -0.051192466 -0.0019419066 0.06673412 0.10971305
-0.15046193 0.04984228 0.08939486 -0.032378215 -0.16905908 -0.07515708 -0.008795843 0.060027946
0.06633466 -0.113084234 -0.010607032 -0.15557738 -0.004175161 0.035333056 0.08677804 -0.14014022
-0.22895557 -0.06562313 0.07121739 -0.15887354 -0.06903555 0.114890285 -0.19266422 0.0347117
0.12800108 0.13166769 -0.02132374 -0.05781677 0.09221305 0.10905378 -0.033140056 -0.18224259
0.06075464 -0.063107654 0.31719214 0.016390523 -0.039035518 -0.033390947 -0.022822946 0.096538335
0.14528567 0.013415004 0.11885484 0.14771003 -0.20043698 0.031932298 0.11139284 0.19471425
-0.23197718 0.1619112 -0.2148513 0.11322964 -0.005954684 -0.056079518 0.009126204 0.06987991
-0.028635966 0.21312232 0.060765535 0.06843757 -0.019313954 0.0038376811 0.0031427897 0.1548139
0.010532145 -0.11337827 -0.18608074 -0.028972333 -0.16813903 0.055723365 -0.06948029 -0.0871835
-0.07212417 0.10917469 0.00086287945 0.008228461 0.2102049 0.15024643 -0.044671476 0.029881438
0.07985259 0.14522848 -0.059289414 -0.13824731 0.101497166 -0.052597728 0.10500241 0.042414214
0.18321887 0.08711717 -0.062846966 -0.16841061 -0.031670988 -0.13744056 -0.02772135 0.25366178
0.15346274 0.024002016 -0.17911203 -0.15825672 -0.00026673393 -0.14400546 -0.02662878 0.06510043
-0.15526737 0.2735236 0.39476636 0.05891394 0.053478718 0.027997762 0.1447439 -0.01922083
-0.24450488 0.041002393 -0.06550741 0.2723698 0.064859 -0.08147841 -0.034919243 0.20003346
-0.05234837 -0.110870734 0.02675038 0.08758631 0.019257378 0.29820567 -0.048257444 -0.0985846
-0.21181086 -0.17549555 0.12435324 -0.1748548 -0.17950696 -0.194576 -0.054482337 0.067118235

network_body.linear_encoder.seq_layers.2.bias f4 [128]
00000000: d17d 39bc fc5b 08bc c172 adbc 2104 3fbc
00000010: 4673 26bc 4b31 76bb d2ad 10bb 4170 523c
00000020: 6753 79bc 9e92 b1bb ebd8 4bbc 890a 6bbb
00000030: fc04 123c 346b 04bb 7311 543c 775e be3b
00000040: b88d 843c 24d2 92bc fe84 cdbc acf9 233c
00000050: 993c febc abe0 5d3c 747c e1bc 02ff e83b
00000060: 977a dcbb f302 b6bc 8edc 7e3b 145f ec3b
00000070: 778f fbbc 7fdd 61bc 2c33 7abc 4564 ea3b
00000080: 8f0a a7bb 7795 853b 0f3e f5bc ddca 7d3c
00000090: 2bb0 acbc dba3 e3bc 63be ce3c 0a31 223c
000000a0: dbf7 98ba 11f3 813b 178a 06bd 8856 323c
000000b0: 30f9 42bb cee4 52bb a814 32bc 0d76 d9bc
000000c0: c13c 7a3c 9da2 fbbb 7097 c1bc f5f5 94bc
000000d0: 4895 d6bc 635a 4fbb 437c ed3b e422 22bd
000000e0: 76d1 753c 7b69 8bbb 0c08 6c3b 6a5e 9a3c
000000f0: 01c4 963c 885e 4d3c 5f4f bf3c 303d d3bc
00000100: 5bb4 42bc 7717 0cbd ae71 3abb 2258 c73b
00000110: ad10 f9b9 fe1e 28bc 4c9b 733c fb6d c2bc
00000120: 2125 9dbc 4309 c23c 13b5 063c b7a9 4b3b
00000130: c2c3 a0bc 99a0 9ebc 415c 8d3b 8983 aa39
00000140: fefa b83b dff1 7f3c d78f 2dbb f9bb 093c
00000150: 6db6 223c 07d5 573b a55c b2bc 5fd6 6eb9
00000160: 28e8 ce3c c23e 0a37 89c2 0a3c 9d14 a13c
00000170: 46e9 623c c3c8 05bd a78b a4ba a6b3 093b
00000180: 10fd 553c 9ba9 30bb 2395 263b 5f79 543b
00000190: 372e b8bc 2629 3a3c d8d6 843c 6074 c83a
000001a0: 2a51 093c 5a66 19bc 7f49 23bc e681 f43b
000001b0: 3139 033c 1fc3 b1bc ce1c 8bbc 7944 eabb
000001c0: 627d 2abc 7392 a6ba 17d0 b7bc 2046 f3bb
000001d0: fab4 ecbc 7252 2f3c c9dc dfbc 5d3f 2abb
000001e0: c978 393b 4aa5 4c3c fbf1 f6ba 988b 3f3c
000001f0: 53ad 10bb 67e3 0dbc 4b58 9abc 1187 b9bc
-0.011321501 -0.008322712 -0.021172883 -0.011658699 -0.010159319 -0.0037566002 -0.0022076261 0.012844146
-0.015217639 -0.0054190895 -0.012441854 -0.0035864434 0.008912321 -0.00202055 0.012943613 0.005809601
0.016180858 -0.017922468 -0.02508783 0.010008257 -0.031034755 0.013542335 -0.027525164 0.0071104774
-0.006728481 -0.022218203 0.0038888785 0.0072134826 -0.030708058 -0.013785719 -0.015270989 0.0071530663
-0.005097694 0.0040766555 -0.029936818 0.015490261 -0.021080097 -0.027788093 0.025237268 0.009899387
-0.0011670546 0.0039657434 -0.032846536 0.0108848885 -0.0029750578 -0.0032179835 -0.010869183 -0.026545549
0.015273274 -0.007679297 -0.023631781 -0.018183688 -0.02619423 -0.0031639568 0.007247479 -0.039584056
0.015003553 -0.0042545176 0.0036015538 0.018843848 0.018404009 0.012534745 0.023353277 -0.025786012
-0.01188382 -0.034202065 -0.0028449106 0.0060835043 -0.00047505405 -0.010261295 0.014868569 -0.023734083
-0.019182744 0.023686057 0.008221882 0.00310765 -0.019624595 -0.019363688 0.004313976 0.00032522928
0.005645155 0.015621631 -0.002648344 0.008406633 0.009931189 0.003293337 -0.021772692 -0.00022777308
0.025257185 8.240053e-06 0.008469232 0.01966315 0.013849562 -0.032662164 -0.0012553827 0.002101162
0.013060823 -0.0026956561 0.0025418482 0.0032420976 -0.022482974 0.01136235 0.016215727 0.0015293472
0.008381167 -0.009362781 -0.009966253 0.007461774 0.008009241 -0.021699486 -0.016981509 -0.007149276
-0.01040587 -0.001270844 -0.022438092 -0.007424131 -0.02889489 0.010700809 -0.027326958 -0.002597771
0.0028300753 0.01249058 -0.0018840426 0.011690997 -0.0022075966 -0.008660174 -0.01884093 -0.022647412

network_body.linear_encoder.seq_layers.2.weight f4 [128, 128]
00000000: 75f8 06bd 0219 2fbd e369 f4bc 0d46 783c
00000010: 9745 0f3e 0fc6 d83a 4c46 90bd d0d2 13bb
00000020: 7c5a 3abd 981a 033e 54c4 f0bc 98f0 923d
00000030: 0e52 953d 43f2 d8bd 9d17 333d e195 1dbe
00000040: 6c9d 583e c03f 7c3d 5cce c0bc 749f 15bb
00000050: 88df bc3d 3ff8 71be fdf8 bbbd 2fd3 593d
00000060: cb99 60be 4e55 40bb 2c81 923d 8862 cb3c
00000070: 72d2 1e3e 2937 41bb 6d2a ad3d f172 c6bd
00000080: 73a0 db3d 5f70 573c fb10 9ebd 54cc 34bd
00000090: 6260 34bd 8780 90bb 5776 b43d 766c 873d
000000a0: 4208 e13c ea1d 2a3d 068f 343d 8ede c1bb
000000b0: 2e46 1abe 5a2f 2a3e f97d 10be f071 d0bd
000000c0: b79d abbd 52a5 d03c 4bc5 dabc 17f4 cabc
000000d0: 2623 0a3e 2af3 a1bc 8c72 8a3d 41fb 313e
000000e0: 9ccc f33d 3592 1fbe 9dcc f3bd 326c a33c
000000f0: 1a5a 213e ca1b 013d efec d43c 17b4 883e
00000100: 31ba 9ebd 81ed 553d e129 803d 72ac 833c
00000110: 134b 7abe 2a31 3a3b e00e 613d eb20 97bd
00000120: 57d8 153b f919 2c3d 39a1 8bbd 1959 bcbb
00000130: a0f0 e9bd 8f7e 17bd d4e5 d23b eb2e 973c
00000140: deb9 8d3c 28a9 c6bc 7b0a da3c eb2d ea3c
00000150: 88c0 3abe 60e6 bc3d 491d 083e bd80 ec3c
00000160: 9aeb 033d 4a52 6fbd fb58 85bd 8a42 723c
00000170: 6d69 a8bc f105 e4bd 4c2f b6ba ede6 fd3c
00000180: 883e 8fbd 054f 233e c2a8 f73d 2eb9 993c
00000190: 85d7 163d 88ca ba3c 1c5e 48be 9521 8f3d
000001a0: a6df 49bc b5c4 953d 0252 18be 394b 4ebe
000001b0: 9cdf 453d 28da 313c 1432 823e d6ea 91bc
000001c0: 0565 5c3d 7180 62bd 1c3c a63c ce6c 423d
000001d0: e1df 073e 316f a73c 1600 30bd 9310 7bbc
000001e0: 43e4 8bbd 3c10 11bd 2760 1f3e 7eed 15be
000001f0: 815c f13d bfe5 1bbe f57b bdbc 59e6 82bd
00000200: 2f70 d9bd 946e 49bd efd5 ae3d a8aa 90bd
00000210: 6471 903c 1c41 f23d cf2c 4abe 7ed8 f6bc
00000220: 4f46 903d e5e9 4b3e 30db cd3d 9897 b5bd
00000230: fe1d 1bbd 1895 c0bd 77bb 3cbd 46b0 81bd
00000240: d068 863b bc96 613d 7e1a ac3c 61e4 cd3a
00000250: c504 b83c dff3 a63d 9cb7 b9bd f63c ea3c
00000260: 4796 203e f5a8 66bd e593 d53d 328a c7bd
00000270: 0236 d63c 7439 b6bc fb94 913d 6422 3dbd
00000280: de29 f13c 6ef6 85bd 6ee6 a43c 8cdc d2bd
00000290: ceb2 ddbd 856d 9b3d f935 943d c9c4 5e3d
000002a0: 7965 2fbc e97e 32bd def9 3dbc 9b37 903e
000002b0: ece2 063d 1156 0bbe 361e 10be 884f b13d
000002c0: a7e2 aebd 1853 9d3d 0481 26bd 0f4f fc3d
000002d0: 20ed 40bd 26b7 a83d d42b 0a3d 0f11 0c3e
000002e0: bcdb 883e 7572 4dbc e6e4 59bd b467 d63a
000002f0: 1335 b8bd 0448 e33d c112 16bc 4651 663d
00000300: 9c83 46bd 7313 1dbe 6c6a 6a3d 7722 b9bd
00000310: f006 4a3d 5ea8 6c3d ea45 7abe b152 3fbc
00000320: 5af8 acbc 2080 673d 4991 0f3e 8538 cebd
00000330: 0973 d73c 8dd8 593d 5340 89bd 687a 2d3d
00000340: 0710 12be 5a1e 3abd 6dd2 893d 0f5b 1fbe
00000350: e4ce 6fbc 3c41 e0bd 60d1 f53d 61df bbbd
00000360: 6650 1c3c 37d7 2a3e 8a3d cebd fdd5 7ebd
00000370: d12b e5bd 5cf1 463d ce2d 51bd db0c 243b
00000380: 743c 4bbc a392 083e 2a76 e9bd 46d2 9ebd
00000390: 6d72 cfbc 233f e6bd cbd3 50bd 33b3 103d
000003a0: b0d9 c8bd 896e 85bd 1c5d b8bd 5fa9 c8bb
000003b0: c0bd 593d a3e8 1bbe 43af 523c 7f69 25bd
000003c0: 93ef 01be cf3c 09bd 2cf2 d23d 191a 23be
000003d0: d0ff 5b3d 4d95 32bd abc1 3f3c da39 17be
000003e0: 6965 c1bd f74f bb3d 78d8 dd3d f7c8 8d3d
000003f0: 0d37 d53a f522 79bc 0d8a a33d 4a76 8cbd
-0.03295179 -0.04274846 -0.029835647 0.01515342 0.1399139 0.0016538518 -0.07044658 -0.0022556074
-0.04549645 0.12803113 -0.029390492 0.07174796 0.07291041 -0.10593083 0.04372369 -0.15389206
0.21153802 0.061584234 -0.0235359 -0.0022830637 0.09222323 -0.23629855 -0.0917835 0.053179916
-0.21933667 -0.002934772 0.07153544 0.024827257 0.15509966 -0.002948234 0.08455358 -0.09689892
0.10723963 0.01314935 -0.077180825 -0.044140175 -0.04403723 -0.004409853 0.08811634 0.06612484
0.027469758 0.041532435 0.04408171 -0.005916423 -0.15065834 0.16619626 -0.14110555 -0.10177982
-0.08379691 0.025469456 -0.026705405 -0.024774594 0.1348997 -0.01976927 0.06760129 0.17381002
0.119042605 -0.15583117 -0.11904261 0.019949052 0.15757027 0.031520642 0.025991885 0.26699898
-0.07750357 0.052228455 0.06257988 0.01607344 -0.24442701 0.0028410652 0.054945827 -0.073793255
0.0022864544 0.042016957 -0.0681786 -0.005747926 -0.11422849 -0.03698593 0.006436089 0.01845499
0.017300542 -0.024250582 0.026616326 0.028586349 -0.18237507 0.09223628 0.13292421 0.028869981
0.03220711 -0.058428086 -0.06511112 0.014786372 -0.020558083 -0.11133946 -0.0013899594 0.030993903
-0.06994349 0.15948112 0.12092735 0.018765058 0.03682663 0.022801653 -0.1956715 0.06988827
-0.012321388 0.073129095 -0.14875033 -0.20145883 0.048308954 0.010855235 0.25428832 -0.017812174
0.053807277 -0.055298273 0.020292334 0.047467045 0.13268997 0.020438762 -0.042968832 -0.015323776
-0.06830647 -0.035415873 0.15564023 -0.14641377 0.11785222 -0.1522436 -0.023130396 -0.063915916
-0.106171004 -0.04917772 0.08536898 -0.070638 0.017632194 0.11828825 -0.19743656 -0.030132528
0.0704466 0.19913442 0.10051572 -0.08866805 -0.0378704 -0.094034374 -0.046077218 -0.063324496
0.00410185 0.055075392 0.021008726 0.0015708321 0.022463212 0.081519835 -0.09068224 0.028593522
0.15682326 -0.056313474 0.10428599 -0.097431555 0.0261488 -0.022244193 0.07108494 -0.046175376
0.02943891 -0.06541143 0.020129409 -0.10295972 -0.1082512 0.075892486 0.07236857 0.054386888
-0.010705345 -0.043578062 -0.0115952175 0.28167424 0.032931253 -0.1360705 -0.14074025 0.086577475
-0.08539324 0.076818645 -0.040650383 0.12319767 -0.04710114 0.08238058 0.033733204 0.13678382
0.26730144 -0.012539496 -0.05319681 0.001635781 -0.08994498 0.1109772 -0.009159745 0.056229852
-0.048465356 -0.1533945 0.057230398 -0.09039777 0.049323022 0.057777755 -0.24440733 -0.01167743
-0.021114517 0.056518674 0.14020266 -0.10069374 0.02629997 0.053185035 -0.06701722 0.042353064
-0.14263926 -0.0454391 0.06729589 -0.1556208 -0.014636729 -0.109499425 0.12002826 -0.091734655
0.009540653 0.1668366 -0.100703314 -0.062215794 -0.11189998 0.048570022 -0.051069073 0.0025032077
-0.01240455 0.13337187 -0.11399491 -0.0775495 -0.025323117 -0.11242511 -0.05098323 0.035327148
-0.098071456 -0.065152235 -0.09002134 -0.006123706 0.053159475 -0.15225463 0.012859168 -0.040383812
-0.12689047 -0.033505257 0.10300097 -0.15927924 0.05371076 -0.043599416 0.011703889 -0.14768162
-0.094431706 0.091461115 0.10832304 0.069230966 0.0016267017 -0.015206088 0.079853155 -0.06858499
