Learning/results/mx3/KartAgent.onnx (onnx, 104129 bytes, 7 tensors)

41 f4 [1, 2]
-1.6462173 -1.4965156
00000000: 40b7 d2bf d38d bfbf

distribution.mu.bias f4 [2]
0.0027770018 0.31277633
00000000: 5cfe 353b 3824 a03e

distribution.mu.weight f4 [2, 128]
-0.0026823648 -0.052062582 0.0007973022 -0.0055675707 0.0018593939 0.0013723609 -0.015022063 -0.00020406288
-0.036592316 0.004328754 0.0025507398 0.004224351 -0.000570629 0.015836637 0.0015521499 -0.00057281175
0.0021602805 0.023098968 -0.050518706 2.1111227e-05 -0.0021666877 0.029825192 -0.0022334016 -0.0016251039
-0.0031255241 -0.02638161 -0.014391274 0.0018793488 0.0027344336 0.0057111806 -0.1308685 -0.0023781236
0.004221874 -0.030593112 0.0010889614 -0.0036385413 -0.0023295898 0.0031726917 0.001510568 -0.0017644912
-0.00070320757 -0.0035398758 -0.008209495 -0.0029445111 -0.0031744696 -0.0017970531 -0.0119451955 -0.005805649
-0.0015191048 -0.003514697 0.016957039 -0.044801887 0.007346088 0.008719343 -0.037129115 0.003688257
0.028164364 -0.017617669 0.004094406 0.0065681143 0.031321436 0.010635318 -0.0033702236 -0.0017032461
-0.0007680255 -0.0028113972 0.02271962 -0.10110326 -0.000835498 -0.00099585 -0.009997416 0.0038578112
0.019526253 0.0027941559 -0.020426784 -0.0073884698 -0.0010358462 0.017169047 0.047348857 -0.004209659
-0.0010003804 0.013798075 0.016354294 0.028666768 0.019012086 0.15856725 0.002311947 -0.009740985
0.0010525353 0.0007301911 0.005952919 -0.033432405 0.004829676 0.0010615735 -0.0072652437 0.003273174
0.000167495 0.021460699 -0.00061340723 -0.0026093144 -0.0017889796 -0.008058254 -0.00093921134 0.051941976
0.029452825 -0.0137979 0.0017704006 0.0042059273 -0.0004376937 -0.00930071 -0.0035561507 0.006729632
-0.0032028768 0.028770994 -0.017235681 0.07672537 -0.061523758 -0.011335492 -0.01181101 -0.000651056
-0.0051310463 -0.0058374484 -0.0057757893 0.005408225 -0.003208834 -0.095156096 -0.017974745 0.0028838532
-0.004987103 -0.1100918 -0.00595648 -0.0098560145 -0.0063498723 -0.0049330657 0.01030598 -0.00019017188
-0.08558469 0.00087337126 -5.269968e-05 -0.032778066 -0.0072334916 0.054998334 -8.462394e-05 -0.00051973533
0.002370537 0.0045594396 -0.13109006 0.0015418562 0.0060483366 -0.10050232 0.0007014667 0.0029325013
-0.0006464782 -0.107560664 0.0010092112 0.0012807323 -0.0016047488 0.006524766 0.030815791 0.0018753301
-0.024419328 0.09811555 -0.0061191376 0.006950531 -0.0029667986 0.0051855673 0.002573786 0.0027761902
0.00342705 -0.0027509585 -0.004902415 0.0035825707 -0.0036183426 -0.00043824478 -0.14411579 0.005983646
-0.0044521736 -0.0024139711 -0.15960398 -0.13015391 -0.15100782 -0.105671495 -0.11928701 -0.015287788
-0.09962006 -0.0059097013 0.0017743784 -0.0024846764 -0.12612124 -0.005000218 0.0029426548 -0.15110749
-0.00653917 0.0024259032 -0.14667957 0.03832621 0.0001170972 -0.00056503457 -0.009387284 0.00406135
-0.013359559 -0.0016251213 -0.110518195 -0.0050685564 -0.00053478143 -0.13071632 -0.11452136 0.001078307
0.0015569323 -0.06535721 -0.048456214 -0.071176924 -0.16714089 -0.060267404 0.004483395 -0.007263631
0.00068777055 0.0027194677 -0.011405787 -0.08399642 0.0032437998 0.0011369019 -0.013431145 0.006107885
0.0029151076 -0.12910089 0.0028427579 -0.011403854 -0.0006830761 -0.0029386214 -0.0018295791 -0.07816445
-0.1253534 -0.020928597 -0.003914748 -0.0012954171 -0.011966244 -0.108208455 -0.00038382367 0.0061283875
-0.011212933 -0.08269532 -0.1489595 -0.03951705 -0.066801086 -0.13657296 -0.1377769 -0.0013435831
0.010637613 0.006754194 -0.00012329515 0.0052544926 -0.003266494 0.00861141 -0.009116959 -0.008182673
00000000: 9dca 2fbb 933f 55bd 0b02 513a 2b70 b6bb
00000010: e8b6 f33a cae0 b33a 191f 76bc b6f9 55b9
00000020: d3e1 15bd 38d8 8d3b 502a 273b 6d6c 8a3b
00000030: 4496 15ba d6bb 813c 8271 cb3a bf28 16ba
00000040: 7e93 0d3b 0c3a bd3c b4ec 4ebd 0418 b137
00000050: fdfe 0dbb f653 f43c 435e 12bb 7001 d5ba
00000060: 98d5 4cbb 3f1e d8bc 61c9 6bbc 7b54 f63a
00000070: 2f34 333b db24 bb3b 6402 06be 4bda 1bbb
00000080: a557 8a3b 689e fabc 7bbb 8e3a 9874 6ebb
00000090: 08ac 18bb efec 4f3b 40fe c53a 8046 e7ba
000000a0: 7657 38ba 43fd 67bb 1e81 06bc b3f8 40bb
000000b0: c30a 50bb 198b ebba c8b5 43bc 503d bebb
000000c0: b31c c7ba d556 66bb 7de9 8a3c 2f82 37bd
000000d0: 74b7 f03b 93db 0e3c b314 18bd afb6 713b
000000e0: f4b8 e63c ee52 90bc 5e2a 863b 5639 d73b
000000f0: e84a 003d c23f 2e3c f8de 5cbb 753f dfba
00000100: 5255 49ba 6b3f 38bb 7f1e ba3c 3a0f cfbd
00000110: 5205 5bba 2e87 82ba 34cc 23bc 55d3 7c3b
00000120: 85f5 9f3c 281e 373b 1256 a7bc fa1a f2bb
00000130: 3bc5 87ba 1aa6 8c3c e0f0 413d 2ef1 89bb
00000140: 321f 83ba 5211 623c 71f9 853c 92d6 ea3c
00000150: 3cbf 9b3c 745f 223e 0984 173b a798 1fbc
00000160: 39f5 893a 4c6a 3f3a b410 c33b 6bf0 08bd
00000170: 4242 9e3b 7f24 8b3a 4811 eebb bf82 563b
00000180: 99a1 2f39 59ce af3c 10cd 20ba 0801 2bbb
00000190: 327c eaba c406 04bc 6835 76ba 1cc1 543d
000001a0: 0d47 f13c 9610 62bc c90c e83a e0d1 893b
000001b0: 417a e5b9 0162 18bc 4f0e 69bb 3f84 dc3b
000001c0: 5be7 51bb 26b1 eb3c d831 8dbc 3122 9d3d
000001d0: 5600 7cbd 80b8 39bc f782 41bc a1ab 2aba
000001e0: 5622 a8bb 1148 bfbb d542 bdbb 7b37 b13b
000001f0: 4d4b 52bb 33e1 c2bd c63f 93bc 07ff 3c3b
00000200: da6a a3bb cf77 e1bd 932e c3bb 1f7b 21bc
00000210: 9712 d0bb 8ea5 a1bb 6ada 283c e068 47b9
00000220: 0747 afbd f4f2 643a da09 5db8 4b42 06bd
00000230: ed06 edbb ef45 613d 2278 b1b8 d93e 08ba
00000240: 035b 1b3b 5a67 953b 793c 06be 1c18 ca3a
00000250: 2031 c63b 29d4 cdbd a2e2 373a 352f 403b
00000260: 6b78 29ba c448 dcbd 8247 843a 3fde a73a
00000270: 6f56 d2ba b4cd d53b 6671 fc3c a3cd f53a
00000280: 0b0b c8bc cef0 c83d 0c83 c8bb 48c1 e33b
00000290: 9f6e 42bb b1eb a93b f7ac 283b bef0 353b
000002a0: 5c98 603b 6d49 34bb 70a4 a0bb 90c9 6a3b
000002b0: b721 6dbb 38c4 e5b9 1793 13be 7612 c43b
000002c0: 8ae3 91bb b733 1ebb 3a6f 23be 1147 05be
000002d0: cba1 1abe 4c6a d8bd bf4c f4bd a179 7abc
000002e0: 9a05 ccbd 2ba6 c1bb 4292 e83a f4d5 22bb
000002f0: ed25 01be ded8 a3bb 8ed9 403b ecbb 1abe
00000300: 8946 d6bb e7fb 1e3b 2b33 16be f2fb 1c3d
00000310: 1592 f538 d41e 14ba 1fcd 19bc 1315 853b
00000320: 0de2 5abc 0602 d5ba 5d57 e2bd 2216 a6bb
00000330: 9330 0cba 80da 05be 2d8a eabd fb55 8d3a
00000340: fb11 cc3a 00da 85bd 067a 46bd 35c5 91bd
00000350: fb26 2bbe f4da 76bd 71e9 923b c103 eebb
00000360: 804b 343a 1939 323b 57df 3abc 5106 acbd
00000370: ee95 543b 1904 953a 4e0e 5cbc a724 c83b
00000380: 640b 3f3b 0633 04be 904d 3a3b 3bd7 3abc
00000390: 7610 33ba e395 40bb 7dce efba af14 a0bd
000003a0: a45c 00be 7372 abbc 4947 80bb fcca a9ba
000003b0: 110e 44bc 659c ddbd f13b c9b9 a4d0 c83b
000003c0: 73b6 37bc 2a5c a9bd d788 18be a1dc 21bd
000003d0: 02cf 88bd c8d9 0bbe 6315 0dbe 2b1b b0ba
000003e0: 6249 2e3c 4952 dd3b ca48 01b9 e12d ac3b
000003f0: ad12 56bb df16 0d3c 4c5f 15bc 9e10 06bc

network_body.linear_encoder.seq_layers.0.bias f4 [128]
-0.11813767 0.021196987 -0.13003798 -0.1520808 -0.019191062 -0.013302757 -0.07921885 -0.11098392
0.014783618 -0.017058108 -0.034366667 -0.011384707 -0.1010504 0.0684616 -0.04468625 -0.14615874
-0.014315463 -0.11770666 -0.015102298 -0.060033616 -0.07631997 -0.08964221 -0.058855038 0.04810338
-0.08866007 0.026778271 -0.10288283 -0.07469112 -0.071404494 -0.10960236 -0.06706061 -0.15931977
-0.046793256 -0.09359457 -0.061950337 -0.076028 -0.0064555975 -0.08567627 -0.42832398 -0.15033828
-0.05434455 -0.10600955 -0.08198354 -0.019942617 -0.07040614 -0.08569648 0.040113218 -0.05387192
-0.060235612 -0.13066517 -0.06605152 -0.17888094 -0.07431265 0.0049291793 -0.018040085 -0.09257157
-0.05547858 -0.10339085 -0.13341999 -0.049319033 -0.0780862 -0.065867715 -0.12974407 -0.40384716
-0.07595933 -0.09759828 -0.2243464 -0.11200595 -0.07720379 -0.10101662 -0.020023294 -0.04659576
-0.14176647 -0.056364432 0.05001645 -0.13669251 -0.13210006 -0.14976594 -0.02238619 -0.13527532
-0.06121448 -0.121063456 -0.04378164 -0.15426922 -0.087853074 -0.05072946 -0.063325666 -0.058091406
-0.068831354 -0.026897585 -0.10368417 -0.14503132 -0.10930294 -0.064471565 -0.029218616 -0.021539718
-0.06451442 -0.01986844 -0.15861018 -0.0092069935 -0.13401882 -0.02068976 -0.03706206 -0.10159315
0.027488615 -0.10776558 -0.1305347 -0.14514665 -0.15646458 -0.094533704 -0.14033498 -0.055219483
-0.124812245 0.030012317 -0.009836189 -0.13621916 -0.15083921 -0.11173748 -0.110840105 -0.07273841
-0.06450372 -0.102709986 -0.11725053 -0.072558984 -0.08431371 -0.1581702 -0.06856648 -0.10800053
00000000: 2af2 f1bd 4ea5 ad3c ad28 05be 12bb 1bbe
00000010: 9336 9dbc cff3 59bc 7e3d a2bd 8a4b e3bd
00000020: fd36 723c 72bd 8bbc 10c4 0cbd ec86 3abc
00000030: 83f3 cebd 9835 8c3d ee08 37bd a3aa 15be
00000040: 678b 6abc 3010 f1bd a16f 77bc cfe5 75bd
00000050: a54d 9cbd 5696 b7bd fb11 71bd 0d08 453d
00000060: 6993 b5bd 1b5e db3c 3cb4 d2bd a8f7 98bd
00000070: 853c 92bd 3477 e0bd 1357 89bd b924 23be
00000080: 49aa 3fbd 83ae bfbd a3bf 7dbd 91b4 9bbd
00000090: 7a89 d3bb 0a77 afbd 484d dbbe 47f2 19be
000000a0: 6498 5ebd 891b d9bd fce6 a7bd b35e a3bc
000000b0: 1831 90bd a381 afbd c24d 243d cda8 5cbd
000000c0: 9eb9 76bd 17cd 05be 0546 87bd 912c 37be
000000d0: 3b31 98bd f484 a13b cdc8 93bc 2a96 bdbd
000000e0: 823d 63bd 95be d3bd 409f 08be c102 4abd
000000f0: a8eb 9fbd a7e5 86bd a1db 04be 0ec5 cebe
00000100: 9190 9bbd 9be1 c7bd 10bb 65be 6063 e5bd
00000110: 051d 9ebd cde1 cebd e407 a4bc 32db 3ebd
00000120: 3b2b 11be 64de 66bd 0dde 4c3d 1ff9 0bbe
00000130: 3d45 07be 3e5c 19be 3e63 b7bc 9d85 0abe
00000140: 09bc 7abd 1ef0 f7bd 6054 33bd c0f8 1dbe
00000150: 50ec b3bd b2c9 4fbd e3b0 81bd 41f1 6dbd
00000160: 74f7 8cbd 5358 dcbc 5e58 d4bd 1783 14be
00000170: 38da dfbd ab09 84bd e15b efbc 1074 b0bc
00000180: 2320 84bd 24c3 a2bc b56a 22be eed8 16bc
00000190: 3b3c 09be 927d a9bc 63ce 17bd 1210 d0bd
000001a0: ce2f e13c 33b4 dcbd e3aa 05be 53a1 14be
000001b0: 4038 20be e39a c1bd f9b3 0fbe d32d 62bd
000001c0: 909d ffbd 64dc f53c f827 21bc 097d 0bbe
000001d0: 9875 1abe 9fd6 e4bd 2300 e3bd e0f7 94bd
000001e0: 871a 84bd 9d59 d2bd 0c21 f0bd ce99 94bd
000001f0: abac acbd 5ef7 21be 956c 8cbd 622f ddbd

network_body.linear_encoder.seq_layers.0.weight f4 [128, 68]
0.05908619 -0.012212534 -0.1804137 -0.047598056 0.12389479 0.30199578 -0.2520587 -0.21653523
-0.2328352 -0.017193193 -0.23942745 -0.060406115 -0.1441152 0.09978312 -0.16735582 -0.24144109
0.37709734 0.062952004 -0.04787886 -0.03624468 0.20144092 0.00070608204 0.074677505 -0.14097609
-0.22870338 0.03029673 -0.033080228 0.17659742 -0.1427768 -0.13167426 0.24420486 0.28088206
-0.12096714 -0.017915737 -0.10035382 0.015376839 0.17202716 0.047979925 -0.15759729 -0.20872426
-0.27866554 -0.056574535 0.21751359 0.20670755 0.20032549 -0.13663132 -0.41023475 -0.3177625
-0.06650433 -0.03658688 -0.06339959 0.062291436 -0.27117702 -0.13731006 -0.13234316 -0.22023983
0.38345963 0.07068387 -0.30904597 -0.31006238 -0.19555083 -0.086248465 -0.029420227 0.048860572
0.0016227752 -0.0056983973 -0.029078566 0.08903585 -0.15306875 -0.18165365 0.2776028 0.4586405
-0.34081832 0.013844701 -0.026496625 0.634746 0.10699832 -0.028638048 -0.03852076 -0.5518674
-0.15245132 0.14966823 -0.11649783 -0.08695214 0.08491693 0.12369603 -0.057466283 -0.26650444
-0.32763398 -0.097058654 -0.25398484 -0.15730928 0.37311038 -0.01802049 -0.00077799027 -0.23132248
0.2859688 0.29928905 0.003645722 -0.2809339 0.30528477 -0.09814639 -0.12342029 -0.5693761
-0.12823239 0.07897329 0.2373361 0.25327644 0.19227244 0.057935517 -0.105579376 0.08896409
0.26849702 0.09917754 -0.15545423 -0.077383064 -0.094468586 0.064125076 0.15243281 0.020213103
0.2089585 0.06745049 -0.116954036 -0.023626925 0.0351056 0.00034289004 0.04611238 0.06156861
0.0111453645 -0.08351407 -6.7838314e-06 -0.11968455 0.007971156 -0.03458776 0.116836876 -0.085086696
0.024847502 0.060891863 -0.09655749 -0.454965 -0.10821313 -0.07406107 0.14967252 -0.17848471
0.01574961 0.051348962 -0.17953348 -0.07851176 -0.17649746 0.34334093 -0.41884166 -0.23771927
0.07228416 -0.27336848 -0.58453196 -0.080352925 0.32699504 -0.021582043 0.2734879 0.037064668
-0.2633976 -0.012888873 0.18821423 0.14729664 0.12641874 0.09253198 0.12894523 0.026634008
-0.19826373 -0.12034437 0.1663496 0.29363453 -0.05350701 -0.057217684 -0.21569334 -0.51614064
0.17861749 0.012952489 0.005227732 0.26580372 -0.043554 -0.18317579 -0.01278605 -0.27415457
0.09262135 -0.061966438 0.19507022 0.07665988 -0.3103685 0.14079712 -0.002496027 0.10159003
0.22816564 -0.042765107 -0.12124883 -0.5156799 0.13814148 0.10049431 0.17044999 0.089451715
-0.26038474 0.023534665 -0.07905517 0.14882961 -0.14681475 0.07770928 -0.046263866 0.02023615
-0.21883123 0.21379253 -0.22470018 -0.47337696 -0.11750265 0.058844604 -0.06907441 -0.10178653
-0.34667325 0.02916969 -0.5106288 -0.4569821 -0.19074725 0.022630308 -0.39544916 -0.5891479
-0.5244888 -0.09835534 -0.4512537 -0.32285395 -0.044778362 0.25341612 -0.36105612 -0.36680773
0.09000469 0.14910795 -0.56449395 -0.33624464 -0.0050227535 -0.059834067 -0.22761008 -0.61026084
-0.5035491 -0.111652076 0.47982702 0.06159397 -0.12532736 0.124374546 0.2996885 0.12228694
-0.18328694 -0.03252414 -0.090461515 0.17690434 -0.06356052 0.0821483 0.022550134 0.054475967
00000000: 5c04 723d 1517 48bc 5ebe 38be 2ef6 42bd
00000010: 8dbc fd3d 319f 9a3e d70d 81be 69bb 5dbe
00000020: 5a6c 6ebe bdd8 8cbc 782c 75be 676c 77bd
00000030: ef92 13be 185b cc3d 535f 2bbe 553c 77be
00000040: e712 c13e fbec 803d a01c 44bd 4d75 14bd
00000050: 8746 4e3e 5d18 393a 85f0 983d 095c 10be
00000060: 3831 6abe d930 f83c 227f 07bd f4d5 343e
00000070: 1534 12be 9ed5 06be d710 7a3e c6cf 8f3e
00000080: 9fbd f7bd 06c4 92bc 4e86 cdbd 23ef 7b3c
00000090: e327 303e 9986 443d 2f61 21be d0bb 55be
000000a0: 40ad 8ebe b3ba 67bd e2bb 5e3e 25ab 533e
000000b0: 2022 4d3e 15e9 0bbe 4a0a d2be c4b1 a2be
000000c0: 6c33 88bd 20dc 15bd a5d7 81bd 4e25 7f3d
000000d0: b7d7 8abe 029b 0cbe f784 07be 8d86 61be
000000e0: d254 c43e b4c2 903d 463b 9ebe 7fc0 9ebe
000000f0: 7a3e 48be 09a3 b0bd b002 f1bc 0622 483d
00000100: 4db3 d43a 9fb9 babb 2c36 eebc 6d58 b63d
00000110: 0ebe 1cbe 6a03 3abe f421 8e3e edd2 ea3e
00000120: bd7f aebe e3d4 623c 730f d9bc b77e 223f
00000130: ef21 db3d 579a eabc f2c7 1dbd 2f47 0dbf
00000140: 331c 1cbe a142 193e 6a96 eebd f713 b2bd
00000150: ede8 ad3d 5854 fd3d c461 6bbd 4573 88be
00000160: a4bf a7be b0c6 c6bd 4d0a 82be af15 21be
00000170: 5308 bf3e b59f 93bc 0bf2 4bba cddf 6cbe
00000180: 816a 923e 6a3c 993e 11ed 6e3b 91d6 8fbe
00000190: 494e 9c3e f900 c9bd c7c3 fcbd a2c2 11bf
000001a0: 5a4f 03be c0bc a13d 3c08 733e 73ad 813e
000001b0: 11e3 443e cb4d 6d3d 003a d8bd ce32 b63d
000001c0: 7178 893e 981d cb3d 652f 1fbe 037b 9ebd
000001d0: bf78 c1bd 0254 833d 5917 1c3e f395 a53c
000001e0: 38f9 553e 7c23 8a3d 9985 efbd 418d c1bc
000001f0: e4ca 0f3d ecc5 b339 56e0 3c3d 5e2f 7c3d
00000200: 0c9b 363c 6d09 abbd aba0 e3b6 2c1d f5bd
00000210: 7499 023c e5ab 0dbd 2c48 ef3d ef41 aebd
00000220: fd8c cb3c bf69 793d efbf c5bd 2cf1 e8be
00000230: d89e ddbd 55ad 97bd c143 193e b2c4 36be
00000240: 5305 813c 4a53 523d a0d7 37be c6ca a0bd
00000250: c0bb 34be 62ca af3e 6a72 d6be ae6c 73be
00000260: b809 943d f4f6 8bbe e3a3 15bf 1390 a4bd
00000270: e56b a73e d3cc b0bc 9b06 8c3e 1fd1 173d
00000280: 0ddc 86be da2b 53bc 3bbb 403e eed4 163e
00000290: ea73 013e 6881 bd3d 380a 043e 902f da3c
000002a0: a605 4bbe 1c77 f6bd 8d57 2a3e 4457 963e
000002b0: 2b2a 5bbd 175d 6abd b7de 5cbe cb21 04bf
000002c0: 81e7 363e ad36 543c 654d ab3b 6d17 883e
000002d0: ae65 32bd 6f92 3bbe 957c 51bc fd5d 8cbe
000002e0: 43b0 bd3d 85d0 7dbd 7dc0 473e dbff 9c3d
000002f0: 9fe8 9ebe 1f2d 103e 6294 23bb 6f0e d03d
00000300: 41a4 693e 772a 2fbd 4e51 f8bd 9903 04bf
00000310: f674 0d3e f6cf cd3d 718a 2e3e 7632 b73d
00000320: 2651 85be c5cb c03c ade7 a1bd ca66 183e
00000330: 9b56 16be 0b26 9f3d 2e7f 3dbd 48c6 a53c
00000340: 4b15 60be 6eec 5a3e ce17 66be 775e f2be
00000350: 3ba5 f0bd 0a07 713d e276 8dbd 7575 d0bd
00000360: 287f b1be 46f5 ee3c 92b8 02bf 8ff9 e9be
00000370: 3f53 43be 3263 b93c 5078 cabe 66d2 16bf
00000380: e644 06bf 866e c9bd ba0a e7be 1d4d a5be
00000390: 8469 37bd c2bf 813e 59dc b8be 39ce bbbe
000003a0: 6154 b83d c1af 183e ad82 10bf 4228 acbe
000003b0: e995 a4bb 9114 75bd 9e12 69be 0e3a 1cbf
000003c0: 98e8 00bf d8a9 e4bd e3ab f53e f549 7c3d
000003d0: d155 00be 15b8 fe3d c570 993e 9371 fa3d
000003e0: 92af 3bbe 0838 05bd e343 b9bd 6926 353e
000003f0: 052c 82bd 5e3d a83d 0fbb b83c 3122 5f3d

network_body.linear_encoder.seq_layers.2.bias f4 [128]
-0.05107286 -0.4123409 -0.06358217 0.020050706 -0.032933988 -0.017394684 -0.024299731 -0.004332478
-0.37713698 -0.015716523 0.00780745 -0.59773135 -0.057012185 -0.04446733 -0.059029493 0.010369345
-0.02602926 0.0010981174 -0.365242 0.016235061 0.031594492 -0.34802443 0.001949808 -0.007989589
-0.0179936 -0.3901893 -0.040822122 -0.027616134 0.01608651 0.0046162657 -0.017093077 0.0027221327
-0.57113737 -0.049211584 -0.022701217 0.0036191077 0.04590548 -0.014150343 -0.0040970976 -0.0086180065
0.014872153 -0.016063046 -0.260898 -0.027194109 -0.048077643 -0.014438793 -0.35682264 -0.030939642
-0.058358677 0.007680827 -0.3191468 -0.3345433 -0.32053104 -0.3828522 -0.36856195 -0.031317327
-0.3879057 0.011319166 -0.0073949383 -0.037745923 -0.341896 0.011770133 0.004756413 -0.33392146
0.023546001 -0.081863195 -0.371529 -0.033567023 -0.04245313 -0.029585207 -0.049772426 -0.0003021625
0.010558572 -0.043937337 -0.4356667 -0.96380323 0.044747643 -0.3009246 -0.31618175 -0.017667053
-0.003364476 -0.084072225 -0.28300676 -0.039901167 -0.3908004 0.0042025223 -0.0032092852 0.0070478786
-0.024577593 -0.011846343 -0.07647082 -0.528305 -0.024143578 -0.0018772244 0.00036195727 -0.005851668
0.002247678 -0.39934653 0.015573519 -0.012888359 -0.0071333037 -0.03061221 -0.055744223 -0.06303717
-0.31456208 -0.04100808 -0.017884232 -0.0017375236 0.0052135554 -0.40039626 -0.028174529 -0.005386059
-0.054817848 -0.3261065 -0.4029611 -0.43858317 -0.42354017 -0.3528327 -0.33851728 0.022804076
-0.05112731 -0.057065 -0.011810351 0.0036388058 -0.026162187 -0.024037953 -0.083299115 0.034887683
00000000: c631 51bd 591e d3be 5e37 82bd 6141 a43c
00000010: cae5 06bd 4c7f 8ebc 3b10 c7bc 76f7 8dbb
00000020: 1918 c1be f0bf 80bc a3d5 ff3b ec04 19bf
00000030: 9c85 69bd 6023 36bd e9c8 71bd 2fe4 293c
00000040: 513b d5bc b5ee 8f3a 0001 bbbe 64ff 843c
00000050: 3a69 013d 4230 b2be b390 ff3a c4e6 02bc
00000060: 5067 93bc e4c6 c7be 1935 27bd 3b3b e2bc
00000070: dbc7 833c 0b44 973b c806 8cbc cf65 323b
00000080: 0f36 12bf 1692 49bd e7f7 b9bc 8d2e 6d3b
00000090: 6207 3c3d d7d6 67bc f240 86bb 8a32 0dbc
000000a0: 55aa 733c a696 83bc 6c94 85be 2ec6 debc
000000b0: 10ed 44bd b090 6cbc 75b1 b6be 2275 fdbc
000000c0: 8209 6fbd 72af fb3b 3667 a3be 4249 abbe
000000d0: a51c a4be 3405 c4be 27b4 bcbe 9946 00bd
000000e0: 939b c6be 0674 393c 3d51 f2bb 789b 1abd
000000f0: fe0c afbe 84d7 403c afdb 9b3b c1f7 aabe
00000100: 8be3 c03c e4a7 a7bd 0d39 bebe 937d 09bd
00000110: 55e3 2dbd ad5c f2bc 2cde 4bbd 906b 9eb9
00000120: dcfd 2c3c a3f7 33bd b50f dfbe cfbb 76bf
00000130: 4e49 373d ca12 9abe 93e2 a1be 7fba 90bc
00000140: 8a7e 5cbb 0f2e acbd 43e6 90be 686f 23bd
00000150: fd16 c8be 50b5 893b df52 52bb e4f1 e63b
00000160: f356 c9bc 2a17 42bc bc9c 9cbd ff3e 07bf
00000170: c1c8 c5bc 330d f6ba 15c5 bd39 59bf bfbb
00000180: c84d 133b 2677 ccbe 1328 7f3c b229 53bc
00000190: 7dbe e9bb 75c6 fabc 0e54 64bd a219 81bd
000001a0: 480e a1be 17f8 27bd f481 92bc 9ebd e3ba
000001b0: 79d6 aa3b bd00 cdbe 45ce e6bc 8a7d b0bb
000001c0: ae88 60bd 6ef7 a6be eb50 cebe f98d e0be
000001d0: 42da d8be 7da6 b4be 2352 adbe 9dcf ba3c
000001e0: df6a 51bd fdbc 69bd 3480 41bc 0879 6e3b
000001f0: 1552 d6bc 3eeb c4bc ba98 aabd 63e6 0e3d

network_body.linear_encoder.seq_layers.2.weight f4 [128, 128]
0.20301059 -0.012058236 0.1827968 -0.08628716 -0.020552268 -0.1158688 0.043000806 0.026925119
-0.021396302 0.03490492 -0.10417098 -0.05158832 -0.008921211 -0.091522686 0.013272496 0.042109296
-0.024669906 -0.04461563 -0.047116235 -0.09253004 0.022339365 0.15108997 -0.017376605 -0.17692803
-0.022848625 0.012199878 -0.11555656 0.056392472 -0.04572456 0.068330616 -0.048823446 0.0038470898
-0.024181942 -0.026294583 0.013106657 -0.18307081 -0.07791539 -0.13083161 0.044543035 -0.10472999
-0.17317945 -0.16935723 0.10418674 0.11780537 0.086457096 0.20837703 -0.017123125 0.10924769
0.012756179 -0.027576923 -0.024712417 0.09744666 -0.0073631904 0.08324233 -0.1606819 -0.27949047
0.12664077 -0.20486875 -0.08028607 -0.024588179 -0.025021905 -0.14254048 -0.26697123 -0.1800212
-0.2109186 0.023416586 -0.0023456027 0.015199516 0.010680436 0.056077667 -0.14149098 0.043711502
-0.07130977 0.20318471 0.08396189 -0.104961984 0.08665368 -0.08033992 0.14385529 0.069388315
0.24243316 -0.12005116 0.071547754 -0.041396257 0.236164 0.2540302 -0.1441617 -0.07842191
0.031331286 0.07314209 0.07298481 0.02672355 -0.20028983 -0.015027522 -0.05440978 -0.12773955
0.022784771 0.17902344 -0.11231679 0.117905 -0.037508994 0.031672813 -0.033495754 -0.08452522
-0.08054548 0.013370667 0.058586124 0.05407879 0.1075211 0.15701208 -0.029145783 0.1360339
0.053031802 0.03851469 -0.014375033 0.11550954 0.15335988 -0.22046578 0.04046581 0.05749084
0.10529386 -0.1979071 0.14027168 -0.06588596 -0.28049797 0.07062916 -0.1599157 -0.016442865
-0.006567607 -0.13797617 0.02992704 0.2746753 0.11063971 -0.18323109 0.010748055 0.016036391
-0.15163471 0.051424168 -0.049079463 0.2299623 0.10146356 0.015249033 0.24472368 0.25161904
-0.048630636 0.2430529 -0.024659548 0.09200302 0.36548543 0.1116812 -0.10050721 -0.13546173
0.117405064 -0.2709571 0.07777844 0.04644433 -0.17017642 0.018247096 0.10968651 0.20911989
-0.08714434 0.07484052 -0.015852796 0.4122515 0.10944434 -0.045497853 0.15133333 0.39424857
0.11001468 0.0439074 -0.01290445 0.07489463 0.1684422 0.26896235 0.23120682 -0.17175896
0.18473174 0.1567173 0.06379127 -0.0044694757 0.034729954 0.070691615 -0.021468638 0.029477336
-0.00867565 -0.023644466 -0.034244943 0.057726912 0.15535721 -0.07516483 -0.040365033 0.21806815
0.23384771 -0.16337878 0.037917066 0.0051387907 -0.12313855 0.25240085 -0.16989195 -0.08050939
0.1413165 0.16954838 0.16543624 0.21282487 0.03032066 -0.086520575 -0.14780673 0.11535154
0.062003568 0.11931317 0.21590252 0.06740987 0.13720606 0.2898297 -0.0008209952 -0.08439164
-0.0053311493 0.021545801 0.057312526 0.21733586 0.11533032 0.09612296 0.17840184 -0.062727466
-0.10656391 0.1536994 0.14644706 0.5498425 -0.07533385 -0.13703449 0.036144193 0.3248892
-0.28301784 0.17961845 0.35547945 0.1766717 -3.5518965e-06 0.012939595 0.08315028 0.05567507
0.3540506 0.03217429 -0.016579065 0.4039521 0.1832926 -0.02780051 0.024199003 0.028421327
-0.06438199 0.038882963 -0.054205954 0.14582525 0.12168337 -0.1021854 0.3065712 0.27098376
00000000: 02e2 4f3e e88f 45bc 162f 3b3e 53b7 b0bd
00000010: 3b5d a8bc 9f4c edbd 9d21 303d 1192 dc3c
00000020: 4c47 afbc 76f8 0e3d 9857 d5bd 464e 53bd
00000030: 452a 12bc 3f70 bbbd e274 593c cc7a 2c3d
00000040: 8b18 cabc e1be 36bd f4fc 40bd 6480 bdbd
00000050: 0b01 b73c 54b7 1a3e 6259 8ebc 9f2c 35be
00000060: 0a2d bbbc ffe1 473c eba8 ecbd cbfb 663d
00000070: ad49 3bbd ecf0 8b3d 18fb 47bd 751f 7c3b
00000080: 3519 c6bc bd67 d7bc 4ebd 563c ea76 3bbe
00000090: 1b92 9fbd b9f8 05be c272 363d ad7c d6bd
000000a0: f455 31be fb6b 2dbe dc5f d53d f143 f13d
000000b0: 6b10 b13d ca60 553e cc45 8cbc 41bd df3d
000000c0: 4bff 503c 00e9 e1bc b271 cabc 1d92 c73d
000000d0: eb46 f1bb f47a aa3d cc89 24be 6019 8fbe
000000e0: 1eae 013e 1dc9 51be 066d a4bd 266d c9bc
000000f0: bdfa ccbc 22f6 11be 74b0 88be 7a57 38be
00000100: 0cfb 57be 24d4 bf3c afb8 19bb 6407 793c
00000110: fffc 2e3c b2b1 653d 03e3 10be d50a 333d
00000120: db0a 92bd a70f 503e 36f4 ab3d 4ff6 d6bd
00000130: 7c77 b13d 4289 a4bd cd4e 133e 761b 8e3d
00000140: 6640 783e 62dd f5bd a187 923d 1f8f 29bd
00000150: fad4 713e 3f10 823e 209f 13be ab9b a0bd
00000160: 3c55 003d 85cb 953d 0f79 953d 59eb da3c
00000170: c718 4dbe ff35 76bc cadc 5ebd 28ce 02be
00000180: 21a7 ba3c ec51 373e 5806 e6bd 2d78 f13d
00000190: 08a3 19bd 5abb 013d d832 09bd 8f1b adbd
000001a0: 07f5 a4bd a410 5b3c 01f8 6f3d b981 5d3d
000001b0: 0634 dc3d c6c7 203e 23c3 eebc 784c 0b3e
000001c0: e037 593d 94c1 1d3d 4285 6bbc 4490 ec3d
000001d0: 5f0a 1d3e c8c1 61be 7abf 253d 847b 6b3d
000001e0: 4fa4 d73d 29a8 4abe 61a3 0f3e 38ef 86bd
000001f0: 6e9d 8fbe 05a6 903d f1c0 23be 30b3 86bc
00000200: 1535 d7bb a049 0dbe 8d29 f53c 3ea2 8c3e
00000210: 1397 e23d eea0 3bbe 9c18 303c c05e 833c
00000220: 2146 1bbe 26a2 523d 8c07 49bd 3d7b 6b3e
00000230: 20cc cf3d 15d7 793c d898 7a3e 36d4 803e
00000240: eb30 47bd dce2 783e d202 cabc 146c bc3d
00000250: e820 bb3e 1db9 e43d b9d6 cdbd 7bb6 0abe
00000260: 1172 f03d e4ba 8abe 4e4a 9f3d 693c 3e3d
00000270: ba42 2ebe ef7a 953c 52a3 e03d 8623 563e
00000280: bb78 b2bd fd45 993d b9dd 81bc a112 d33e
00000290: 5b24 e03d f55b 3abd 20f7 1a3e f3da c93e
000002a0: 604f e13d 3fd8 333d 306d 53bc 5b62 993d
000002b0: 1d7c 2c3e 6fb5 893e 7bc1 6c3e 95e1 2fbe
000002c0: 512a 3d3e 807a 203e ffa4 823d ae74 92bb
000002d0: ff40 0e3d c4c6 903d ffde afbc 747a f13c
000002e0: 5024 0ebc 0ab2 c1bc 6d44 0cbd 0e73 6c3d
000002f0: f615 1f3e 05f0 99bd ce55 25bd 424d 5f3e
00000300: c675 6f3e c44c 27be ed4e 1b3d 4d63 a83b
00000310: 1030 fcbd af3a 813e 28f8 2dbe 1be2 a4bd
00000320: 46b5 103e 179e 2d3e 1e68 293e c3ee 593e
00000330: 0863 f83c b331 b1bd a65a 17be 6e3d ec3d
00000340: 74f7 7d3d 775a f43d 8d15 5d3e 300e 8a3d
00000350: bf7f 0c3e 8f64 943e 0e38 57ba 86d5 acbd
00000360: ecb0 aebb d280 b03c 8ac0 6a3d 4b8d 5e3e
00000370: 4e32 ec3d 1ddc c43d f9ae 363e 4277 80bd
00000380: 2e3e dabd 6063 1d3e 38f6 153e 7ac2 0c3f
00000390: a248 9abd c552 0cbe ef0b 143d e157 a63e
000003a0: b7e7 90be e6ed 373e 6701 b63e 6de9 343e
000003b0: 1e5d 6eb6 9800 543c b24a aa3d 8b0b 643d
000003c0: 1f46 b53e 30c9 033d d2d0 87bc cfd2 ce3e
000003d0: 0eb1 3b3e e5bd e3bc fd3c c63c d8d3 e83c
000003e0: b4da 83bd be43 1f3d 1007 5ebd 3753 153e
000003f0: 2135 f93d 9446 d1bd e6f6 9c3e 62be 8a3e
