Learning/results/mx1/KartAgent/KartAgent-20772.onnx (onnx, 104129 bytes, 7 tensors)

41 f4 [1, 2]
000000 26 33 de ba 8b a8 48 bc
       -0.0016952499 -0.012247215

distribution.mu.bias f4 [2]
000000 b9 4b ec bb 13 cb 58 3c
       -0.0072111753 0.01323201

distribution.mu.weight f4 [2, 128]
000000 37 59 bc bb aa c6 4f 3d af e0 02 bc b6 9d 68 3c
       -0.00574794 0.05072657 -0.007988139 0.0141977575
000010 6c d1 9f bb 59 38 56 3b b1 ae 95 bb 15 81 9c bc
       -0.00487726 0.0032687394 -0.004567944 -0.01910452
000020 b3 4a 8b 3b 52 12 83 3c e4 5d 58 b9 e7 d4 4c 3b
       0.004250848 0.015999947 -0.00020634342 0.003125483
000030 8d 74 2a ba e7 66 41 bc 95 31 87 3a 28 c6 0a 3c
       -0.0006502353 -0.011804319 0.0010314459 0.008470096
000040 40 7e 58 bc 9c 09 21 3c e6 a3 96 3a c3 10 40 3b
       -0.013213694 0.009828951 0.0011492937 0.0029306866
000050 d6 1b 13 bb 1f ec 1f 3b ad 0d 23 bd f4 12 a0 3c
       -0.0022447011 0.0024402214 -0.039807964 0.019540288
000060 67 39 83 bc af b7 d0 3a 5b 76 38 3b d2 85 a1 bc
       -0.016018583 0.0015923883 0.0028146717 -0.01971713
000070 37 1e 07 bc 6b 4f 48 bc b7 d5 92 bb 75 02 cb 3c
       -0.00824695 -0.012225966 -0.004481043 0.024781445
000080 ae 1f 8e bb c8 8c 83 3c 5f 15 c0 bc f1 b0 09 3c
       -0.0043372726 0.01605834 -0.02344769 0.0084040025
000090 99 57 5c 3c ed 05 84 bc 44 0c 3a 3c 95 fa 9f bc
       0.013448619 -0.016116107 0.011355463 -0.019528667
0000a0 fb 4d 9b 3b 90 51 fc ba 10 ce bc 3b 87 77 da 3a
       0.0047395206 -0.0019250382 0.0057618693 0.0016667702
0000b0 54 5d 9f bc f0 44 cf 3b d3 91 42 bc 3d 6c 83 bc
       -0.019453682 0.0063253567 -0.0118755875 -0.016042823
0000c0 c6 b3 03 bb 30 f5 97 3b a8 1c 82 3b 37 db d7 bc
       -0.0020096167 0.004637383 0.0039707012 -0.026349647
0000d0 04 86 5d bc 1f 28 ea bb a1 8e 9a bc aa 24 29 ba
       -0.013520721 -0.007145896 -0.018866839 -0.0006452302
0000e0 72 7b f4 3c 15 43 be bc d0 ff 2a bc 7f 9a e7 39
       0.02984402 -0.023225347 -0.010436967 0.00044174862
0000f0 35 4d cc 39 4a dd 27 bc a9 3d 12 3c 09 85 96 3a
       0.00038967436 -0.0102456305 0.008925834 0.0011483739
000100 d8 1b 02 bd 68 3c fa 3b ce 58 04 bc fc f1 ae 3c
       -0.031764835 0.0076365955 -0.008077813 0.021355622
000110 f6 7f 98 bc 4b b3 42 bc a4 50 a0 3c 7b 4a 86 3c
       -0.018615704 -0.011883567 0.019569702 0.016392937
000120 0a c1 33 ba b1 ae 95 3b 3b ea d5 ba 82 12 5c bc
       -0.0006857073 0.004567944 -0.0016320416 -0.013432147
000130 93 a8 03 ba da fb 95 3c 05 7d 3b bb ca 45 cf 3b
       -0.0005022373 0.018308569 -0.0028608453 0.006325458
000140 a6 0c d4 b7 83 1f 56 bc e7 34 90 bb 16 c3 10 bc
       -2.527826e-05 -0.013069036 -0.0044008377 -0.008835575
000150 2e 35 5e bb f2 2e da 3c 22 b4 00 3b 25 30 f7 bb
       -0.003390621 0.026633713 0.0019638618 -0.007543581
000160 8c 0b 75 3b 8c 0d d7 bb 3e 64 a4 3c a1 71 27 3c
       0.0037390916 -0.006562894 0.02006733 0.010219962
000170 c2 bd 35 3b ff f0 98 3c 19 9e 2c 3b 80 a3 a1 bc
       0.0027731513 0.018669603 0.002633935 -0.019731283
000180 f2 9e 98 3c 8a 01 85 3b 97 df f6 3b 3d a9 02 b9
       0.018630479 0.0040590214 0.007533978 -0.00012460812
000190 99 c3 e9 bb fd e1 c6 3c b3 67 32 bb cf 1a 03 bc
       -0.0071339128 0.024277681 -0.0027222454 -0.008001997
0001a0 8d ba b5 3c f5 bb 2b 3b 84 3e 2e 39 67 49 8c bb
       0.02218368 0.002620456 0.00016617222 -0.004281211
0001b0 f8 07 90 bb ee 60 bf bb 26 af 84 bc d8 eb 90 bc
       -0.004395481 -0.0058404123 -0.016196799 -0.017690584
0001c0 88 9d 8b 3c 02 11 d9 bc fa b4 40 3a bf da 8d bb
       0.01704289 -0.026497368 0.00073511864 -0.004329055
0001d0 45 58 a9 ba 71 64 2c 3b 81 6c 92 bc bd 76 9d bb
       -0.0012919983 0.0026304985 -0.017874004 -0.0048054145
0001e0 8e 3d b4 bc 0b 1d 89 bc bc f0 09 bd 82 17 55 3b
       -0.022002008 -0.016737482 -0.033676848 0.0032515232
0001f0 95 81 ff 3c ce 2b bf 3c b5 34 e5 3c 27 4a f4 3a
       0.03118972 0.023336317 0.027979234 0.0018637822
000200 1d 73 86 bc 59 50 32 ba 3b 89 54 bc e9 4a 05 bd
       -0.016412312 -0.0006802134 -0.012972171 -0.032542143
000210 a5 51 2d bb b2 a5 62 bc a6 4f b0 3b f4 df fd 3b
       -0.002644637 -0.01383345 0.0053805886 0.0077476446
000220 60 f7 05 3c fd 9f 05 3d 3e 8f 1c bc 4d 7a ca bc
       0.008176655 0.03262328 -0.009555636 -0.02471652
000230 af ae f1 ba cf b4 1e 3d a0 d8 c4 bb 38 47 93 bb
       -0.0018438901 0.03874665 -0.006007269 -0.004494574
000240 64 d0 e3 3c 7c 84 3f bc e2 eb c9 3b 0c d3 53 bb
       0.02780933 -0.011689302 0.0061621526 -0.0032321839
000250 ad 02 72 3c bf f0 0d 3c a6 22 6b bc cb 92 f4 bc
       0.014771146 0.008663355 -0.014351523 -0.029855153
000260 74 1b 2a bd 7f 6c 49 3c 8a ae 08 bc 3d e6 9c 3c
       -0.041530088 0.012293934 -0.008342395 0.019152755
000270 a8 0e da 3c f7 f3 0e 3c d2 ed ea 39 65 51 9c 3c
       0.026618317 0.008725158 0.00044809148 0.01908178
000280 64 08 d0 3b 6f f1 ac 3c 28 94 0f 3d 70 cc 87 3d
       0.0063486565 0.021111218 0.035053402 0.0663079
000290 97 14 a0 3b e4 90 f3 bc 5e 95 8c bc 3b 29 d4 3b
       0.004885267 -0.029732175 -0.017161068 0.0064746416
0002a0 46 6c 89 bb 3f 51 f9 3c 39 52 fd bc 79 19 d3 ba
       -0.0041938154 0.030434249 -0.030922996 -0.0016105614
0002b0 14 5f 1c 3c fc 69 18 3d 0d 98 d7 bb 9b 8b 2e 3b
       0.009544153 0.03721045 -0.006579405 0.0026633504
0002c0 df 0a 2a 3a 4c b0 e3 ba 32 ac 2d bd a5 85 79 bd
       0.0006486605 -0.0017371266 -0.042400546 -0.06091847
0002d0 66 53 5b bc e6 d0 09 bc 2a 4f 35 bc b6 ac c5 bc
       -0.013386583 -0.008411622 -0.011066237 -0.024130207
0002e0 7c 33 c9 3b b0 51 81 bb bd 44 93 bb 18 8a 49 3b
       0.0061401706 -0.0039465055 -0.004494278 0.0030752476
0002f0 b4 5a 61 3b e2 cc 1d 3b 30 79 a7 bb b5 fa 1e bc
       0.0034386339 0.0024078419 -0.005110882 -0.009703328
000300 88 23 d7 3c 70 28 12 bb f4 7a 81 bb 22 f4 7e bc
       0.02626206 -0.0022301935 -0.0039514247 -0.0155611355
000310 96 b8 c1 bb e3 33 ac 3c 45 bc 4b 3b a3 35 d5 3b
       -0.005911897 0.021020835 0.003108756 0.006506638
000320 24 32 03 ba d4 f9 ed ba 37 81 ae ba 4e 97 66 bd
       -0.0005004725 -0.001815612 -0.0013313656 -0.05629664
000330 d8 85 57 bb c1 11 10 3c b3 fb a8 3c c9 8b 01 bb
       -0.0032886174 0.008793295 0.020627832 -0.0019767156
000340 03 60 74 3b c4 a8 1b 3c 5c 83 5e bc c9 0f 0d bc
       0.0037288673 0.009500686 -0.013581123 -0.0086097205
000350 47 a8 30 3c 00 30 11 3c f7 db 08 bc d6 37 4f 3c
       0.010782308 0.008861542 -0.008353225 0.01264759
000360 5f a4 12 3c 69 29 a3 bb d4 85 46 3c 92 42 aa 3a
       0.008950322 -0.0049793017 0.012116868 0.001298981
000370 e2 34 a8 3b 72 c9 a7 bb d2 e7 fa 3b d0 98 0b 3d
       0.0051332572 -0.0051204497 0.0076570297 0.03408128
000380 b8 6c 6b bb 49 64 fb ba 7a 1c d1 bb 67 88 be 3c
       -0.0035922956 -0.0019179668 -0.0063815685 0.023258401
000390 cf c6 4a bc 8c 88 43 3c e9 e4 af 3c 60 96 85 3c
       -0.012376501 0.011934411 0.021471458 0.016307056
0003a0 40 c0 04 3c 32 aa 91 bc f1 1d 66 bc 68 86 4f bc
       0.008102477 -0.01778135 -0.0140452245 -0.012666322
0003b0 9d 35 ec 3c b8 99 ca 3b fc e1 a4 bc 3e 32 fd 3a
       0.028834159 0.0061828755 -0.020127289 0.0019317342
0003c0 a8 54 6f bc 52 2e 00 bd 73 5f 94 3b 5b 21 86 bb
       -0.014607586 -0.031294174 0.00452798 -0.0040933318
0003d0 32 80 1d ba d3 c2 c5 bb 29 6e 06 3d 24 f6 cf 3c
       -0.00060081773 -0.0060351877 0.0328199 0.025385924
0003e0 43 48 83 bc 7d 8b eb bc d2 57 e1 3b 9e 9c e1 b9
       -0.016025668 -0.028753037 0.006876924 -0.00043032033
0003f0 58 fe 4f 3c ad a0 f0 3c d4 bd f6 3b f5 22 40 bd
       0.012694918 0.029373491 0.0075299535 -0.046908338

network_body.linear_encoder.seq_layers.0.bias f4 [128]
000000 00 86 05 ba 54 6a 21 3c cb e5 84 3c e3 c6 ef 3b
       -0.0005093515 0.009852011 0.016222855 0.0073174103
000010 0c b9 57 bb fc a2 fb bb 70 1a 97 bc 9d 19 0a bb
       -0.0032916693 -0.0076793414 -0.018445224 -0.0021072396
000020 65 a2 d3 3b 4d 23 30 bc 9f 8b 77 3a 49 9a b3 bc
       0.006458568 -0.010750604 0.00094431074 -0.021924155
000030 cd be a8 bb 0a 98 a6 ba c7 83 59 bb 61 c4 00 bc
       -0.0051496984 -0.0012710106 -0.0033190118 -0.00785932
000040 de 59 1b bc 1f 1d d9 3b 98 d8 39 ba ed 09 a3 3b
       -0.009481875 0.006625786 -0.0007089465 0.0049755485
000050 68 07 0f 3a 5e da f5 3b 6a bb 83 bc bb 99 b6 bb
       0.00054561207 0.007502838 -0.016080577 -0.0055725253
000060 c5 8f df bb a2 f8 73 b9 d5 0b 85 bc 62 52 33 bc
       -0.0068225586 -0.00023266909 -0.016240994 -0.010944935
000070 81 94 4f bb d8 13 82 bb e8 42 0e bc e9 e5 62 3b
       -0.0031674209 -0.0039696507 -0.008682944 0.00346219
000080 40 29 1e b9 c0 de eb ba 9f 33 13 3c c4 42 f2 bb
       -0.00015083421 -0.0017995462 0.008984475 -0.007393213
000090 8b a7 b4 3b d3 70 0f bb cb 30 51 3c 07 5c 01 39
       0.0055131367 -0.0021887317 0.012767981 0.00012336682
0000a0 e1 42 3a ba ec a1 57 3a 89 8b 2d bc 87 4c 00 3c
       -0.00071053026 0.00082257274 -0.01059235 0.007830746
0000b0 b0 ff fd ba 42 e7 1d bb 21 e6 c9 bb 66 40 6b ba
       -0.0019378569 -0.002409414 -0.0061614667 -0.00089741347
0000c0 a3 c6 33 bb 4f 6f ab bb 9b e9 5f 3b 8a 38 55 bc
       -0.002743163 -0.005231775 0.003416634 -0.013013968
0000d0 de b6 8b bb 61 dd 66 bb 32 19 e9 3a 1a 74 a3 bb
       -0.004263743 -0.0035227167 0.0017783998 -0.0049882056
0000e0 c9 63 88 bc 5a 5b 74 bc 21 7b 04 3c 48 0a 18 3b
       -0.016649144 -0.014914358 0.008085997 0.0023199487
0000f0 31 a7 81 bb 63 69 bb bb b9 6b df 3b e7 75 96 bb
       -0.0039566983 -0.00571935 0.0068182615 -0.004591692
000100 e9 21 24 bc 77 d1 30 3c b0 d8 88 bb 0e e5 07 3a
       -0.01001785 0.010792128 -0.004176222 0.0005183973
000110 10 58 8f bb 56 5b b2 bb d1 49 a1 3b af 54 0a 3b
       -0.0043745115 -0.005443017 0.0049221297 0.0021107604
000120 97 49 14 bc 6c 2d 35 bc d5 d0 2b bc 56 97 97 bc
       -0.009050748 -0.011058193 -0.010486801 -0.01850478
000130 7d 62 ec 39 50 c9 30 3b bb 1d 2b bc 51 9a 1f bb
       0.00045086807 0.002697546 -0.0104441 -0.0024353454
000140 d9 8d 21 bc 52 81 95 bc 27 2e b1 3a 64 91 24 bc
       -0.009860479 -0.018250141 0.0013517783 -0.010044429
000150 ea cc 8c ba 62 47 08 3c af f4 93 3b 59 c5 48 3c
       -0.0010742221 0.0083178 0.0045152525 0.012254083
000160 80 9e 5a 3a 8d f2 b8 3c 7a 82 2d bc d5 8f 81 bc
       0.00083396584 0.022576595 -0.01059019 -0.015815655
000170 bd c3 b1 bb 95 43 21 3c 5c 61 a5 3b 82 6a f0 bb
       -0.005424945 0.009842773 0.0050470065 -0.0073369155
000180 84 64 4d bc 4d 97 ab bb f8 15 e4 bb 9e 0f 6e 3c
       -0.012536172 -0.0052365423 -0.0069606267 0.014530091
000190 7b 9c e4 bc c4 a6 90 3b f7 84 9c 3b cf 45 70 3c
       -0.027906647 0.0044144113 0.004776593 0.014665081
0001a0 18 29 40 bc b9 4c 8e bb c6 53 38 3c e2 97 c2 bb
       -0.0117285475 -0.004342642 0.011250442 -0.005938516
0001b0 91 1c 1c bc 6e 5e 25 bc 5d a1 79 3c 98 08 07 bc
       -0.009528295 -0.010093315 0.015236226 -0.008241795
0001c0 d9 c2 6f bc fa 57 9a 3c 70 ac 90 bc d9 d2 66 bc
       -0.014633858 0.018840779 -0.01766035 -0.014088356
0001d0 4b 8a 3c bc 86 7d c6 bb 78 0c a3 3a 14 aa 15 bb
       -0.011507581 -0.006057444 0.0012439629 -0.002283697
0001e0 8d be 2f 3b 6a d5 d4 3b 40 46 10 3c 78 6e e5 3a
       0.0026816458 0.0064951675 0.008805811 0.0017504236
0001f0 91 37 45 bb 03 6e 01 bc ea b5 ef bb 6f 55 bd 3a
       -0.0030092935 -0.007899764 -0.007315387 0.0014445017

network_body.linear_encoder.seq_layers.0.weight f4 [128, 68]
000000 96 d4 72 be 27 ef 44 3e 1a b8 2e 3e 9f 07 94 bc
       -0.23713908 0.19231854 0.17062417 -0.01807004
000010 7f 89 23 3c 79 3c bf 3d f6 1d 54 3e 6b 04 0b be
       0.009981512 0.09337706 0.20714554 -0.13575904
000020 c3 db d7 bd 4a 9c 8b bd bb d6 95 bd 47 e1 4e bd
       -0.10539963 -0.06816919 -0.07316347 -0.05050781
000030 d1 c5 89 3d 5e 5b c6 bd 4d b8 59 be c6 d3 d5 bc
       0.067271836 -0.09685396 -0.21261711 -0.026101958
000040 6a 49 a4 3c 39 c3 0c 3e 73 e3 ae 3d e2 15 d7 3a
       0.020054538 0.13746347 0.08539476 0.001640972
000050 cb f3 5b be fb a3 99 bb 14 c2 08 be bd c3 ba 3c
       -0.21479718 -0.0046887374 -0.13355285 0.022798413
000060 3f 17 9f bd 4d 4d b4 bd 98 cb 35 be df 36 ba 3c
       -0.07768106 -0.088038065 -0.17753446 0.022731243
000070 d5 b1 a2 3d 94 c2 86 3e b7 e6 a6 3d 04 3d 3f 3e
       0.07944075 0.26320326 0.08149474 0.1867562
000080 67 4d d0 bb d4 4a 77 bd 88 a8 14 3b b9 5e 7e 3d
       -0.0063568833 -0.060374096 0.002268346 0.062102053
000090 a9 bc de bc 8c 90 dc 3c b7 a8 8b bd f8 5a 64 be
       -0.02718957 0.026924394 -0.06819289 -0.22300327
0000a0 46 62 64 bd d0 8d 20 3e 0d 94 5f 3d 1e 78 08 be
       -0.055757783 0.15679097 0.05458455 -0.13327071
0000b0 87 2d 67 3b 9d 15 ec bd 85 fe 22 be 3f 23 26 bd
       0.003527494 -0.1152756 -0.15917404 -0.040560957
0000c0 07 fc 62 3c 62 85 7a bd 89 3e 54 3e 3f 90 67 bd
       0.013854033 -0.06116236 0.2072698 -0.05653405
0000d0 ee 71 11 be 97 28 4f bd 43 58 67 3d ad c5 99 bd
       -0.14203617 -0.05057582 0.056480657 -0.07508407
0000e0 e4 5f 80 bd 91 09 21 bd e4 d0 10 3e de c1 dd bc
       -0.0626829 -0.039315764 0.14142185 -0.027069982
0000f0 8c 16 81 bd 77 b2 4b be 35 b3 1e bd 55 b3 a9 bb
       -0.063031286 -0.19892298 -0.038745124 -0.0051788487
000100 d8 22 e3 bc 8e 91 c3 3d ba 47 2e be 6e 91 9a 3d
       -0.027726576 0.09549247 -0.17019549 0.0754727
000110 b9 3f 17 3d 94 db 3e 3e 2b 4c 83 bc 5c 40 18 3e
       0.036926005 0.1863845 -0.01602753 0.14868301
000120 02 8e 28 3d d1 93 bf 3d 2c aa 6a bc 31 dc 8e 3d
       0.041151054 0.093543656 -0.014322799 0.06975592
000130 8f 44 01 be fe 60 47 be 25 99 39 bd b6 2e 15 bd
       -0.1262381 -0.19470593 -0.045312066 -0.0364215
000140 d9 4b be 3d f7 45 a0 39 cc 3a df 3c 30 8f b1 bb
       0.092918105 0.00030569706 0.027249716 -0.0054186806
000150 f6 25 88 bd 45 a8 5b be 43 04 40 be bb 89 73 3d
       -0.066478655 -0.21450908 -0.18751626 0.059457522
000160 87 cb 28 3e 6e 2c 19 3c 14 98 90 be 8a 07 5a bd
       0.1648389 0.009348972 -0.28241026 -0.053229846
000170 94 30 bb bd e5 f8 b8 bd 8a 0d 2e ba 87 07 76 3d
       -0.09140125 -0.09031848 -0.0006639591 0.060065772
000180 cc aa d7 3d cc 0e 1f 3e b5 51 22 3c 75 6e 07 3d
       0.10530624 0.15532988 0.009907176 0.033064324
000190 41 1d 47 be 00 70 ab 3d 77 1c 24 bd 00 55 08 be
       -0.19444753 0.08370972 -0.04006621 -0.13313675
0001a0 d3 e1 b8 3d 6d d7 46 3d 9a 48 d9 3c b1 8f 0f 3e
       0.090274476 0.04854529 0.026523877 0.14019658
0001b0 7c c0 a7 3d be 20 66 3c b2 45 33 3e 61 a7 b0 bc
       0.0819101 0.014045892 0.17507055 -0.021564187
0001c0 b6 2f 65 bc 83 cd 9e bd 19 2e 30 3e 85 a4 00 bd
       -0.013988426 -0.07754042 0.17205085 -0.031406898
0001d0 92 45 a5 bc 39 1b 49 3d 18 63 c1 3d 09 8e 00 be
       -0.020174775 0.049098227 0.09442729 -0.12554182
0001e0 f8 15 c5 bd ef 1f df 3c 9b 6e 5b 3e 94 3f 47 bd
       -0.09623331 0.027236907 0.21428911 -0.048644617
0001f0 ce 6c 49 be 18 c6 f6 bd dc 10 2e 3e be c0 4e be
       -0.19670412 -0.12049502 0.16998619 -0.20190713
000200 ee 51 9d 3c 04 4b c7 bc 95 49 38 3d e6 94 a4 be
       0.019204106 -0.024327762 0.04499205 -0.3214485
000210 77 b4 51 bc 01 bb 48 be 4c 95 c5 3d cd ff a3 be
       -0.012799374 -0.19602586 0.09647617 -0.32031098
000220 82 38 28 bd 6d 8f 00 3e 48 5d 2b 3d 22 90 20 bd
       -0.041069515 0.12554713 0.041837007 -0.039199956
000230 06 30 80 3d ff 8b 9d 3d f6 ad 40 be da 41 3b 3e
       0.0625916 0.07692718 -0.18816361 0.18286839
000240 84 99 9c 3c c6 e3 3a 3e 13 0b 80 bb cf 83 15 3d
       0.01911617 0.18250951 -0.00390757 0.036502656
000250 4a 59 b5 3d d9 26 af 3d 79 b2 72 be 44 47 d5 3d
       0.08854921 0.085523315 -0.23700894 0.104139835
000260 c3 a3 15 be 10 cb 39 bd 2a 2f 9f 3d da 43 9e 3c
       -0.14613251 -0.04535967 0.07772668 0.019319464
000270 90 e1 1f 3e 7e a5 84 3e ad 56 de bd 10 0e 3f be
       0.15613389 0.2590751 -0.10856376 -0.18657708
000280 f5 1a 58 bd 50 79 84 3b 20 05 05 3e 4c 52 b9 bd
       -0.052760083 0.004042782 0.12990236 -0.090489
000290 31 67 67 3d 17 90 8b bd 53 f9 69 3d cc 25 1d be
       0.056494895 -0.06814592 0.05712254 -0.1534645
0002a0 1e 66 fe bb 48 25 29 3e c6 c6 1f 3c 17 03 1d 3d
       -0.007763638 0.16518128 0.009751981 0.038333025
0002b0 69 56 11 bd ae 5d 64 3e 6e 1e 37 be 4a 42 66 3c
       -0.035482798 0.22301361 -0.17882702 0.0140538905
0002c0 e6 fc 57 bc f1 75 0e 3e 49 ae 3e 3d b5 37 50 bd
       -0.013182854 0.13912179 0.04655293 -0.050834376
0002d0 21 59 31 be 69 b7 f7 bc 72 a5 d3 bc 26 8d 26 be
       -0.17319156 -0.030238824 -0.025835726 -0.16264781
0002e0 b5 56 ce bd de cf 6f be 3d b8 16 bd 9e 0c c0 bd
       -0.10075132 -0.23419139 -0.036796797 -0.093774065
0002f0 d7 52 28 bd cf 21 cb 3d ba f6 78 bc b3 c9 2c 3e
       -0.041094627 0.09918558 -0.015195543 0.16873817
000300 82 76 31 bd 7c c9 8e 3d 97 94 00 be 1f 56 31 3d
       -0.04332591 0.06972024 -0.12556683 0.043295022
000310 e0 69 ff 3d e1 62 24 3e a1 a7 21 bd 22 56 89 bc
       0.12471366 0.16053344 -0.039466504 -0.016764704
000320 2c 32 91 bd ee e7 05 3d 8c e7 b9 3d 63 ea 20 3e
       -0.07089648 0.03269189 0.09077367 0.15714411
000330 8d a8 bd bd f1 af 5f 3d aa d3 b6 bd b4 0c 64 be
       -0.09260664 0.05461115 -0.089270905 -0.22270471
000340 1e 6c c2 bd 39 28 aa 3c 76 60 f1 3d 0c 69 df bd
       -0.09493278 0.020771133 0.117859766 -0.10908708
000350 bd 69 59 3e d3 7d d9 bd f8 42 75 3d 89 18 ac 3d
       0.21231742 -0.10619702 0.05987832 0.08403117
000360 24 19 b1 3c b6 af cd 3d 2f e1 cf bd f1 11 73 bc
       0.021618433 0.1004328 -0.10150372 -0.0148358205
000370 ec c1 74 bd 87 a7 09 3c 12 91 a2 bd f0 72 97 bd
       -0.05975525 0.008401758 -0.07937826 -0.073949695
000380 e3 3b c3 bd 55 a4 4b bd 32 06 93 bd b5 cf 30 3c
       -0.09532907 -0.049717266 -0.07178916 0.010791709
000390 03 5c 14 be 6e 7e 1b be e1 2b ba 3d 28 51 59 be
       -0.14488225 -0.15184948 0.090904005 -0.21222365
0003a0 c8 1e 88 be 6f 47 70 3d 3a dd a2 3c 41 8f 8b 3e
       -0.26585984 0.058661874 0.01988088 0.27257732
0003b0 bd 71 4c be ea 7d ef bc bc 00 a2 3e 15 a7 b1 bd
       -0.19965263 -0.029234845 0.31641185 -0.086744465
0003c0 7f 04 39 3c fe d2 db bc 46 c7 9b bd 42 8d 89 3c
       0.011292576 -0.026834007 -0.07606368 0.01679099
0003d0 02 d7 d9 3c aa bf 6c bd b7 86 ba 3d 5d 06 44 be
       0.026591782 -0.057799973 0.09107726 -0.19143052
0003e0 76 d0 1e be e6 0c 51 be 2e b1 25 bd db 6e 3e 3c
       -0.15509209 -0.20415077 -0.040452175 0.01162311
0003f0 c1 66 9f 3d dd c3 cb 3d c9 7a 1e 3d e4 85 cc bd
       0.077832706 0.09949467 0.038691316 -0.09986475

network_body.linear_encoder.seq_layers.2.bias f4 [128]
000000 3b c3 b2 bb fb 55 94 bb 53 5f e6 bb 63 a7 30 bc
       -0.005455402 -0.0045268512 -0.0070304065 -0.010782096
000010 a8 72 3c 3c 9e 42 45 bc d2 0f ce 3a ab 92 96 3b
       0.011501946 -0.012039809 0.0015721268 0.004595121
000020 f3 09 10 bc a7 87 bc 3b 7b f0 6c bc 80 50 1e bc
       -0.008791435 0.0057534757 -0.014461632 -0.009662747
000030 86 3f 07 bb 5f a1 81 3c 79 9d 65 bb 62 79 92 ba
       -0.0020637228 0.015824018 -0.0035036488 -0.0011175091
000040 79 74 24 3c e2 d7 99 39 71 1c 0a ba 96 55 1b bc
       0.010037535 0.0002934328 -0.00052685203 -0.0094808545
000050 c2 6b 87 3c f8 49 1e 3a a9 01 ae ba c0 e0 58 bc
       0.016530875 0.0006038244 -0.0013275641 -0.013237178
000060 d3 77 05 bc a0 38 cf 3a bc 93 a9 bb 50 0e 0c 3c
       -0.008146244 0.0015809722 -0.005175082 0.008548334
000070 47 fa 09 3c 62 c1 72 3a 02 32 86 3c b1 22 b4 3b
       0.008421487 0.00092603837 0.016381267 0.0054972996
000080 78 19 26 3c 84 3c ce ba 73 ae 41 3c 22 b3 35 3c
       0.010137908 -0.0015734588 0.011821377 0.011090072
000090 9c 71 02 bc b8 bd cb bb e2 ee 4e bc a7 b8 3f 3c
       -0.007961657 -0.0062176846 -0.012630196 0.011701739
0000a0 36 e1 08 3c dc 3f 14 3c 09 96 54 bc 06 e6 58 ba
       0.008354476 0.009048428 -0.012975224 -0.0008274022
0000b0 ea 99 31 3a 40 35 05 3c cb ac a9 3b 1a 8e 3c 3b
       0.0006774949 0.008130372 0.005178069 0.0028771223
0000c0 a9 58 95 3c cc f2 11 bc e0 50 5a bc 44 95 0e bc
       0.018230753 -0.008907985 -0.013324946 -0.00870258
0000d0 9c e8 49 3a f4 bd 8d 39 ec 84 c0 3a 26 f1 1f bc
       0.0007702203 0.00027035142 0.0014688051 -0.009762084
0000e0 56 0d 8f bb d2 de 8f ba 81 e8 4a bb aa 7b 85 bc
       -0.0043656034 -0.001097644 -0.0030961337 -0.01629432
0000f0 1b 99 dd bb 75 60 99 bb ca 23 19 bc fc a3 f5 3b
       -0.0067626364 -0.004680688 -0.009346912 0.007496355
000100 8a 0c 35 3c 66 f6 18 bc f7 d5 b5 39 9e a3 3b bc
       0.011050353 -0.00933609 0.00034682426 -0.011452584
000110 25 45 28 ba 52 32 8c 3c 1b 60 12 bb bd 77 1b bc
       -0.0006418995 0.017113838 -0.0022335115 -0.009488997
000120 6a b0 50 ba 25 08 f9 3a 48 09 ce ba 4e 3e c3 bb
       -0.0007960858 0.001899962 -0.0015719319 -0.005958355
000130 b8 55 ad ba cf 00 0d bc 05 a9 e3 3b 18 fc d0 bb
       -0.0013224399 -0.00860615 0.006947639 -0.006377708
000140 f7 f5 88 3b 48 a4 cb 3b f0 d8 1a bc 92 18 13 bc
       0.004179712 0.006214652 -0.009451136 -0.008978026
000150 b3 de f3 3b 7f b3 bb bb 43 75 81 bb 9f 72 70 3b
       0.0074423193 -0.0057281847 -0.0039507463 0.0036689413
000160 be d9 56 3b 27 fa bb 3a 57 c9 07 3b 6d f6 37 bc
       0.0032783593 0.0014341519 0.0020719373 -0.011228186
000170 b7 db 1f 3c 89 f6 0f bc 1a b3 2c 3b 68 a5 2f 3c
       0.009756974 -0.008786806 0.002635187 0.010720588
000180 39 35 ef bb 8e 8c 73 bc 86 cf 84 bc ff 87 4f 3c
       -0.007300046 -0.014865054 -0.016212236 0.012666701
000190 25 dd 42 bb fa ef 9f 3b 5e d9 1a 3c 91 30 a3 3b
       -0.0029733863 0.0048809024 0.009451238 0.004980155
0001a0 c7 96 f2 bb 35 e7 49 bc 9c 0d 16 bc 2a 1d 2f bc
       -0.007403228 -0.01232319 -0.009158518 -0.010688106
0001b0 69 99 14 3c 6c 3c 95 3b be 7d 93 3b e4 92 ec 39
       0.009069779 0.004554322 0.0045010736 0.0004512287
0001c0 a7 2e 55 bc b1 fe 95 3a 62 05 96 39 a8 44 a1 3b
       -0.013011611 0.0011443702 0.0002861424 0.0049215145
0001d0 96 70 45 b9 02 c6 0a 3c 26 ad 16 3c f2 af 1a 3c
       -0.00018829326 0.00847006 0.009196555 0.009441363
0001e0 2a e1 5c 3b 8a 3f 08 bc d8 e4 27 3b 4e 9a 18 bc
       0.0033703544 -0.00831593 0.002561858 -0.009314133
0001f0 37 25 17 bb 26 58 10 3b b1 7e d3 bb 0d ea 2e bc
       -0.0023062953 0.0022025197 -0.006454312 -0.010675919

network_body.linear_encoder.seq_layers.2.weight f4 [128, 128]
000000 c9 2a bc 3c 61 9c d1 bc 11 85 c8 bd 20 1e 01 3e
       0.02296962 -0.025587263 -0.097910054 0.12609148
000010 af dc 26 3e fd c4 23 bd 42 73 3e bc f7 a6 1d be
       0.16295122 -0.039982785 -0.011624159 -0.15395723
000020 be 2f a8 bd 4b af 79 3c 4e 33 bf 3d e3 43 a4 bd
       -0.08212231 0.015239547 0.093359575 -0.08020761
000030 a5 46 28 be 40 79 7a bd 36 e4 ef 3c 29 9c 98 3b
       -0.16433199 -0.06115079 0.029283624 0.0046572876
000040 7e b4 35 3e f3 8c 22 3e 5d 25 ea bd d0 b7 da 3b
       0.17744634 0.1587408 -0.11432908 0.006674744
000050 64 65 f6 3d c4 3d e6 bd a1 c5 8f 3d 8d cb 60 be
       0.120310575 -0.112422496 0.070201166 -0.21952648
000060 cb 83 7e bd 0c eb 37 bd 91 09 a9 bb 71 da b2 3b
       -0.062137406 -0.044901893 -0.005158611 0.005458169
000070 74 99 d4 bd fb 71 9d bc 34 04 7f bd cd 46 e5 3c
       -0.10380831 -0.01921939 -0.062259868 0.027987862
000080 49 c1 fe bc 85 0f 80 bd 3e b1 44 be df 95 cb bd
       -0.031098025 -0.0625296 -0.19208238 -0.09940695
000090 09 76 cc bd e5 89 0f 3d 85 39 9c bd 0a 2c 9c bb
       -0.09983451 0.035043616 -0.076281585 -0.004765992
0000a0 91 c3 11 3e ef 1e ca 3b c2 3d 0d 3d 52 48 60 bb
       0.14234759 0.0061682384 0.034482725 -0.0034222794
0000b0 52 42 aa bd 84 47 2e be c9 28 21 3e 85 90 ab 3d
       -0.08313431 -0.17019469 0.15738215 0.08377174
0000c0 6d 67 1f bd 78 7c 26 bd f1 29 31 be 72 7d 0a bc
       -0.038916994 -0.040646046 -0.17301156 -0.00845276
0000d0 73 dd d7 3d a7 93 ef 3c d6 46 ef 3d f4 d5 ed bc
       0.10540285 0.02924521 0.11683433 -0.029032685
0000e0 73 bc f0 3c cb e6 1c 3d 17 ae 17 be 2b 52 f8 3d
       0.029386735 0.03830604 -0.14812504 0.12125047
0000f0 4c 02 cc 3d 99 a1 32 bc 91 95 c4 3b ea e2 04 be
       0.099613756 -0.010902786 0.005999275 -0.12977186
000100 88 66 27 be c2 b5 00 be e9 54 81 bd 0c 09 8b bd
       -0.16347706 -0.12569335 -0.063150235 -0.06788835
000110 26 b9 ae 3d 93 eb 47 bc 93 2c ba bc 59 ce 30 3d
       0.08531408 -0.012202161 -0.022726333 0.04316554
000120 1e 77 9e bd ec 31 df bd 82 57 37 be 12 70 dd bd
       -0.077375636 -0.10898194 -0.17904475 -0.10812391
000130 95 85 19 3d f5 40 25 3e bb c6 d8 3a e6 17 0e be
       0.03748091 0.1613806 0.0016538718 -0.13876304
000140 8d 12 90 3d b3 ab 2f bd 6a fd 85 3d 62 21 88 bd
       0.07034788 -0.042888355 0.065424755 -0.06646992
000150 e7 47 14 bd 64 eb 03 be 54 fa d3 bd ca 39 58 3d
       -0.036201384 -0.12882763 -0.10350481 0.052789487
000160 be 18 6d bd 50 48 0c 3d 89 71 bf bd 61 b2 a8 bd
       -0.057884924 0.03424865 -0.09347827 -0.08237148
000170 f2 63 b3 3d b1 9c 09 bd 77 67 15 3e 63 4b e7 3d
       0.087592974 -0.0335967 0.1459025 0.11293676
000180 ac 08 30 3d 50 3a d9 bd 6e 99 b5 3c 6d a4 b9 bd
       0.04297702 -0.10606825 0.022167888 -0.09064565
000190 2f 3c 1c bb 87 76 aa bd d7 6b e9 3c 8c dd 40 3c
       -0.0023839583 -0.083233885 0.028493805 0.011771571
0001a0 22 df 5f 3d 30 31 f6 3c 52 7c bc bd 9d 83 e3 3d
       0.054656155 0.030052751 -0.092034 0.111090876
0001b0 62 18 0c 3e ac 7a 91 3e a3 1b 8b 3c f2 bb b5 bd
       0.13681176 0.28413904 0.016980952 -0.08873738
0001c0 6e ac 27 be 8c c2 86 bd 2d 15 a0 3d 2a 6b 99 3d
       -0.1637437 -0.065800756 0.07816539 0.07491143
0001d0 52 d3 18 3b fd 8d 73 3b 8d cb 32 bc 94 6a f9 3c
       0.0023319316 0.003716349 -0.010912788 0.030446328
0001e0 ea 63 7f 3d 9c 9f b6 bd 10 cb 9b bd e2 b9 ad 3b
       0.062351145 -0.08917162 -0.076070905 0.0053017
0001f0 6a 03 ad bd 6f 00 27 bc 85 83 11 bd 4b 6e 91 3d
       -0.08447917 -0.0101929745 -0.035525817 0.07101115
000200 4f 57 51 bc 81 5b 34 3d 34 eb 0b bd 8f f6 1a 3e
       -0.012777164 0.044032577 -0.034159854 0.15133117
000210 58 dc c5 bd 05 f0 b6 bd 04 4d a3 bc 9d 9c dd 3a
       -0.09661168 -0.08932499 -0.019934185 0.0016907636
000220 93 c0 34 3e 89 bd a5 bb 28 a2 e8 3c 8e 4c 19 3c
       0.17651586 -0.0050579947 0.028397635 0.009356631
000230 b5 42 d7 bc 4a 2b f7 bc cd e4 b4 3d 96 ed dd 3a
       -0.026276926 -0.030172009 0.08832703 0.0016931768
000240 62 0c e2 bd f3 f4 67 bd 88 e2 dc 3d 38 1b 27 3d
       -0.11037518 -0.056630086 0.10785395 0.040797442
000250 3b 46 87 3c 58 77 1d be ac 10 ff 3d e0 96 8b 3d
       0.01651298 -0.15377557 0.12454352 0.068158865
000260 14 03 ee bc 0f 1d 3d 3d 72 04 39 3d 55 72 6e 3c
       -0.029054202 0.04617029 0.045170255 0.014553626
000270 1a fe 98 3d c4 88 76 3c 7a 9e 19 be a3 76 bd bd
       0.07470341 0.015047256 -0.1500186 -0.09251144
000280 92 33 96 3c b2 14 ff 3c 92 db 25 3c d5 56 05 bc
       0.018335138 0.031137798 0.01012315 -0.008138378
000290 8a e3 cb bc 0d 26 4a 3d 4d 77 80 bd 39 a6 70 3d
       -0.024888773 0.049352694 -0.06272755 0.058752272
0002a0 95 2a ad 3c 33 28 38 3d 70 71 ad bc 17 1d 04 be
       0.021138469 0.044960212 -0.021172255 -0.12901722
0002b0 98 01 6a 3c 2f 5f 40 bc 38 b1 99 3d 41 ee 9c bd
       0.014282607 -0.011741444 0.07504505 -0.07662631
0002c0 8f 8a 5a 3d 59 20 6a 3d 09 cf 31 3e 45 a6 03 be
       0.053354796 0.057159755 0.17364134 -0.12856396
0002d0 dc 7b fb 3c 07 97 63 3c 2d 68 36 be 4f ce 0a bb
       0.03069871 0.013890988 -0.17813177 -0.0021180098
0002e0 35 af af bc e7 b8 14 3d 9b 99 3f 3c a4 9f c9 bd
       -0.02144585 0.03630915 0.011694337 -0.09844902
0002f0 98 05 a8 bc 54 a8 8a bd 52 18 8f bd 36 38 00 bd
       -0.02051048 -0.06770387 -0.069870606 -0.031303607
000300 23 f0 8a 3d a7 28 69 bd cf d3 94 bc e5 56 f6 ba
       0.06784084 -0.056923535 -0.018167404 -0.0018794207
000310 48 ca 53 3d e4 0e 03 3e fb df 29 bd ef 49 66 3d
       0.051706582 0.12798649 -0.04147337 0.056222852
000320 0c 7a e7 bd 1f f7 02 3c 3f e9 58 3d 16 f6 11 bd
       -0.113025755 0.007993489 0.052956816 -0.035635076
000330 6a 22 a0 3d 76 9b 2c be 47 58 cd bd 78 1c 80 bd
       0.07819064 -0.16856179 -0.10026603 -0.0625543
000340 9d 2d a8 3c c2 8f b1 bb b0 57 3a bc cb c3 65 bd
       0.020529563 -0.0054187486 -0.011373445 -0.056094926
000350 78 37 05 3c b2 db 5d 3d c4 c8 06 3b 50 5d 9a 3d
       0.008130901 0.054164596 0.0020566443 0.07537329
000360 2d 33 c8 3d ab 3c 75 3b d0 59 a1 3d e9 ae 2c 3c
       0.09775386 0.0037420194 0.078784585 0.010539749
000370 73 53 38 3c fd 64 4b 3c f4 30 e5 3d 27 17 12 bd
       0.011250365 0.012414214 0.11190978 -0.03566661
000380 28 5b 6c 3c e2 06 c0 bd 4f a8 7c 3d bd 4b dd bc
       0.01442603 -0.09376313 0.06168395 -0.027013654
000390 d9 dd d9 bd 82 4a 8d 3d 1e 84 92 3d 8c ca a0 bd
       -0.10638017 0.06898977 0.071541056 -0.07851133
0003a0 c3 2c d3 3d 9c cb 65 3d b2 bf eb 3d 0b db b8 b8
       0.10311272 0.05610238 0.11511172 -8.814604e-05
0003b0 20 03 2e 3e 67 7c 42 bc 0f be cb 3d 20 8b 88 3c
       0.1699338 -0.01187048 0.0994836 0.016667902
0003c0 2d af 2a 3d 69 dd 20 3e c0 b0 30 ba 58 dc e5 3b
       0.041670967 0.15709461 -0.0006740205 0.0070147924
0003d0 c2 9b 1a be 69 b2 1d 3d f5 df 66 3d 56 01 1a 3c
       -0.1509848 0.038500223 0.056365926 0.009399733
0003e0 b5 23 34 3d 22 15 28 be 9e 9c b2 3d f0 e8 d9 3c
       0.043979365 -0.16414312 0.087212786 0.026600331
0003f0 fc 01 f6 3c a0 31 6b bc 40 a4 e8 bc 02 02 52 3e
       0.030030243 -0.014355093 -0.028398633 0.20508578
