Learning/results/mx3/KartAgent/KartAgent-4499959.onnx (onnx, 104129 bytes, 7 tensors)

41 f4 [1, 2]
000000 06 6a c2 bf 15 8b ba bf
       -1.5188606 -1.4573694

distribution.mu.bias f4 [2]
000000 31 12 98 3b f5 8b 9d 3e
       0.0046408405 0.3077084

distribution.mu.weight f4 [2, 128]
000000 da 51 bd 3a 42 06 56 bd 4e 4b 14 3c 2c be 2d bc
       0.0014443949 -0.05225206 0.009051157 -0.010604423
000010 25 02 36 ba 2e c7 cd b9 12 e5 18 3c 92 79 20 bb
       -0.00069430686 -0.00039249047 0.009331958 -0.0024486524
000020 47 c8 17 bd 71 fb 04 3a b4 41 0b ba 9f 19 cc 3b
       -0.037056234 0.0005072868 -0.000531222 0.00622864
000030 25 12 aa ba 94 ef 44 3b 36 94 6a 3b ad b7 a4 bb
       -0.0012975378 0.0030050026 0.0035793907 -0.0050267787
000040 2e 6e 1e ba a2 dc 90 3c 6d 30 4f bd e4 cb 0f 3a
       -0.000604364 0.01768333 -0.05058329 0.0005485399
000050 28 7d 19 3b 9b 3a 10 3d 90 1e dc 3b 08 46 21 3b
       0.0023420546 0.03521214 0.0067175105 0.0024608392
000060 0c 9b 27 b9 f7 fa af bc 16 fc c6 3a 71 7c e3 b9
       -0.0001598412 -0.021481974 0.0015181329 -0.0004338953
000070 fd eb 46 bb 08 4c a8 3a 0a 73 07 be 30 d0 8c 3a
       -0.0030353062 0.0012840042 -0.13227478 0.0010743197
000080 6e b8 f8 3b 0f 90 e7 bc df 52 b9 b9 23 bd bc b7
       0.007590345 -0.028266935 -0.00035347693 -2.249942e-05
000090 c8 9e a2 3a 8c 17 dc b8 12 ba 89 3a 23 e1 34 3b
       0.001240694 -0.000104948034 0.0010507724 0.0027600012
0000a0 89 f6 6a 3b 0c 2c 91 3a 5c 9f 10 3a 76 f2 67 3b
       0.0035852513 0.0011075749 0.00055169105 0.003539232
0000b0 78 f2 a3 ba 63 98 8f bb a8 90 9b bc d2 c2 22 bc
       -0.0012508174 -0.0043821796 -0.018989876 -0.009934144
0000c0 92 f6 93 39 92 f2 20 3c d9 f6 73 3b 68 ed 40 bd
       0.00028221734 0.009823458 0.003722599 -0.04710141
0000d0 ec 5c 84 bc 0a 5d 45 3c 59 9d 0b bd 42 3b b7 b9
       -0.01615759 0.012046108 -0.034085605 -0.0003494863
0000e0 83 c4 fe 3c 30 8d 31 3c d1 44 74 b9 5f 77 c7 39
       0.031099563 0.010836884 -0.0002329529 0.00038045176
0000f0 f3 f2 1e 3c 1d 9f 05 bc 41 10 f7 3b 5d cb 90 3b
       0.009701478 -0.008155611 0.0075397794 0.004418774
000100 30 60 4a 3a fc f6 3e bc 4c 22 41 3c 80 e1 af bd
       0.00077200215 -0.011655565 0.011787962 -0.085879326
000110 c0 c1 9c 3b 94 f7 87 ba 4e 12 d1 ba 29 bf ff 37
       0.004783839 -0.0010373467 -0.001595089 3.0487385e-05
000120 34 90 81 3c 48 b3 b7 3a 12 6e 03 bd 69 3a ad ba
       0.015815832 0.0014015222 -0.032087393 -0.001321626
000130 22 d1 23 3a 96 49 68 3c e8 bb 4f 3d 79 9e bd 3a
       0.000624912 0.0141777005 0.05071631 0.0014466784
000140 37 6b 3e 3c da 79 64 3c 3f 11 c2 3c a1 db 0f 3d
       0.011622242 0.013945067 0.023689864 0.035121564
000150 40 f3 b5 3c 4d a9 20 3e 29 61 a3 3a 9e bc f2 3b
       0.022210717 0.15689583 0.0012464869 0.007407739
000160 4a be 38 ba 8f bc d4 3a 10 ed 07 3b 3b 47 06 bd
       -0.0007047398 0.0016230511 0.0020740665 -0.032782774
000170 5f 3a 31 bb 33 75 be ba a5 cf b5 bb 91 9b 8f 3b
       -0.0027042849 -0.0014530778 -0.005548435 0.0043825586
000180 e4 3b e6 3b ec df 53 3c 04 68 58 ba a4 4c 9c ba
       0.0070261825 0.012931805 -0.00082552456 -0.0011924696
000190 fe be ca 3b bf 89 54 3a e0 ab e6 ba d6 e1 1c 3d
       0.006187319 0.0008107684 -0.001759883 0.03830131
0001a0 e6 69 16 3d 8d a5 27 bc 85 25 08 3b 5d 4a c0 3b
       0.036722086 -0.0102323415 0.0020774317 0.00586824
0001b0 ce 60 39 b9 35 4c ac bc e8 04 ca 3b 56 31 13 bc
       -0.00017679037 -0.021032432 0.0061651357 -0.008983931
0001c0 92 32 83 bb de 3d 3e 3d b8 ed d8 bc 92 9c a2 3d
       -0.004003831 0.04644572 -0.02648054 0.0794002
0001d0 34 63 8f bd 79 fa ae bc 1f 63 35 bc b1 4f 2c ba
       -0.07001343 -0.021359669 -0.011070996 -0.0006573154
0001e0 42 23 b0 b9 d4 8a 0a 3c 14 a5 ce b9 1c 57 11 bb
       -0.00033595605 0.008455951 -0.00039414375 -0.0022177165
0001f0 4d 67 88 b9 c8 f3 ba bd 12 01 9a bc 1e 62 fa 3b
       -0.00026016906 -0.09128529 -0.018799338 0.007641091
000200 c1 7a bf bb d1 b9 e9 bd 3b 15 dc 3b ed 8a d9 3a
       -0.005843491 -0.11412395 0.006716398 0.0016597189
000210 dd f3 be ba 11 96 db 39 ca 35 f8 ba 7f d5 de b9
       -0.0014568527 0.00041882743 -0.0018936929 -0.00042502207
000220 b8 d7 ae bd 15 87 a9 3b ad ee ae bb 27 88 e6 bc
       -0.08537239 0.0051735737 -0.005338511 -0.028141094
000230 d4 66 49 ba 56 8c 6c 3d 64 c7 33 3a f4 25 a4 bb
       -0.0007682864 0.057751022 0.00068580196 -0.005009407
000240 2c f6 8a ba 4d 79 34 3c 13 e6 03 be 8a 37 90 ba
       -0.0010601929 0.0110152485 -0.12880735 -0.001100288
000250 f0 da c8 39 ba 44 c9 bd 0f 12 ce ba a1 29 68 bb
       0.00038310094 -0.09827562 -0.0015721935 -0.0035425203
000260 97 61 e7 3a 08 37 de bd 22 db 08 3b c3 57 41 bb
       0.0017652985 -0.1085034 0.0020882566 -0.0029501773
000270 95 e6 ba bb 41 20 9e 3a 30 33 1c 3d 58 04 60 b9
       -0.005703757 0.0012064056 0.038134754 -0.00021363923
000280 c5 ed c8 bc c0 c6 db 3d 60 7d 6e ba a9 ab 75 bb
       -0.02452744 0.10731268 -0.0009097662 -0.003748635
000290 55 5f 80 3b 76 32 28 3b 4e 0d b0 3b b3 4e 16 bb
       0.0039176145 0.0025664843 0.00537268 -0.0022935092
0002a0 7a 57 82 3a 7a 50 d9 ba a2 ed 4d bc e1 95 60 bb
       0.0009944283 -0.001657977 -0.012568863 -0.0034269022
0002b0 d4 1d 87 3a b1 36 1b 3a 64 7a 13 be 15 42 38 3b
       0.0010308572 0.00059209304 -0.14402157 0.002811556
0002c0 0d 87 13 bb 3f d5 bb 3b 1c 74 23 be 13 44 fd bd
       -0.0022510916 0.005732208 -0.15962261 -0.123665
0002d0 90 33 16 be 1c 62 df bd ac 75 ed bd d5 e4 5f 3c
       -0.14668107 -0.10907385 -0.1159471 0.013665398
0002e0 55 c8 d2 bd 24 d5 ea bb e7 2e 14 bb 84 c2 69 3a
       -0.102921166 -0.0071665216 -0.0022610964 0.000891723
0002f0 76 d8 f9 bd f8 75 fd 3c d4 c2 c8 bb 8c 4a 1c be
       -0.1219949 0.030940041 -0.006126741 -0.15262812
000300 ae 83 46 bb 92 64 63 bc 07 71 18 be a1 89 e6 3c
       -0.003029089 -0.013878958 -0.14886867 0.028141798
000310 6c 66 60 bb eb 01 cf ba 11 d8 a8 3a ba 23 da 3b
       -0.0034240736 -0.0015793418 0.0012881776 0.006657091
000320 90 a5 1c 3b c3 1c 22 3b d3 93 e4 bd 8b 4b 26 bb
       0.0023902394 0.0024736382 -0.11161008 -0.0025374617
000330 bb 26 4c bb c4 ff 07 be 3e 26 e4 bd 5f 0f 39 bb
       -0.0031151015 -0.1328116 -0.111401066 -0.0028237922
000340 b4 22 3f bb d7 48 9a bd 35 f3 88 bd 76 1b 92 bd
       -0.0029164972 -0.07533424 -0.06687013 -0.07134144
000350 86 97 32 be f4 86 9e bd 4c 01 31 3a a3 82 5a 3b
       -0.17440614 -0.07740584 0.00067522074 0.0033342026
000360 6f f0 9a bb d9 9e b8 bb 0c 08 6b b9 54 25 a9 bd
       -0.004728369 -0.0056341705 -0.00022414344 -0.08259073
000370 46 a5 2b 3a 38 9b f0 ba 08 b5 1a 38 48 59 1e 3a
       0.000654776 -0.0018356806 3.688506e-05 0.00060405256
000380 c3 45 82 ba 8d 88 0a be 1d 82 3d bb 69 8a e2 3a
       -0.0009939004 -0.13528652 -0.0028916665 0.0017283681
000390 18 ca 4b bb b6 5a 8a b9 a9 9a 31 ba 6b fb bc bd
       -0.00310958 -0.00026388996 -0.00067750603 -0.09227642
0003a0 9c 7d 01 be d7 1c 48 bb d9 63 64 3b 5c a1 a0 3a
       -0.12645572 -0.0030534768 0.0034849553 0.001225512
0003b0 26 85 8e bb 16 5f da bd 8b b1 4f 3c 80 59 30 bc
       -0.0043493686 -0.106626675 0.012676607 -0.010763526
0003c0 29 aa 00 bb 6f 23 9a bd 78 46 22 be 8e 04 36 bd
       -0.0019632673 -0.0752629 -0.15847194 -0.044437937
0003d0 2f 6f 7f bd f9 23 0c be df 50 09 be 4e 46 15 bb
       -0.062361892 -0.13685597 -0.13409756 -0.00227775
0003e0 92 64 57 3b 57 f0 f5 3b 89 2c 12 3b 4a b0 ce 3a
       0.003286634 0.0075054574 0.0022304377 0.0015769091
0003f0 27 9a 7b 3a a2 c4 31 3c 05 e2 0b 3c 0f b4 f2 bb
       0.00095978606 0.010850104 0.008537774 -0.0074067186

network_body.linear_encoder.seq_layers.0.bias f4 [128]
000000 c5 94 00 be b7 ef d5 3c cb 5f f0 bd 45 77 14 be
       -0.12556751 0.026115282 -0.11737021 -0.14498623
000010 c4 7b 4a bc 72 c4 58 bc 4a b3 98 bd b2 05 ca bd
       -0.01235861 -0.01323043 -0.07456072 -0.098643675
000020 4c 49 2e ba ce a1 21 bc 06 4b 0d bd 7a c1 4d 3b
       -0.00066484953 -0.009865237 -0.034495376 0.0031395839
000030 68 f7 d7 bd fc 81 92 3d 54 92 0c bd 90 2e 1b be
       -0.10545236 0.07153699 -0.034319237 -0.15154481
000040 2d 55 9a bc d9 07 e3 bd c9 ae 1f bc 5e 56 61 bd
       -0.018839443 -0.11085481 -0.009746262 -0.055014007
000050 81 af ec bd 93 2c e4 bd 16 69 68 bd 56 ba 31 3d
       -0.11556912 -0.11141314 -0.056740843 0.043390594
000060 74 55 90 bd 35 c8 b7 3c 7d d9 ee bd 96 ce 7c bd
       -0.07047549 0.022434333 -0.11662576 -0.061720453
000070 7e c8 8c bd b6 58 dc bd 35 06 92 bd 90 07 23 be
       -0.06874178 -0.10759108 -0.0713009 -0.15920854
000080 e0 b6 e8 bc 32 6b c2 bd 15 13 62 bd 47 7e 5c bd
       -0.028407514 -0.09493102 -0.05519398 -0.053831365
000090 e1 31 9f 3b 24 98 b0 bd 16 7d cc be 4f 69 12 be
       0.004858241 -0.086227685 -0.39939183 -0.14297985
0000a0 5d 3b 61 bd f7 09 be bd 8c a0 8c bd 8e ba ba bc
       -0.054988254 -0.092792444 -0.068665594 -0.022794034
0000b0 91 2f 5e bd 65 aa b9 bd fd e3 22 3d 25 bf 4e bd
       -0.05424458 -0.09065703 0.039768208 -0.05047526
0000c0 ac 2e 5d bd 80 97 00 be 17 cd 51 bd 9e 6f 32 be
       -0.053999588 -0.12557793 -0.05122098 -0.17425391
0000d0 19 e7 a2 bd 72 d4 51 3a fa b5 2f bc ba d8 bf bd
       -0.07954235 0.0008004374 -0.010724539 -0.09367509
0000e0 80 7e 7c bd e5 d8 e0 bd 8e 2c f5 bd 96 b2 37 bd
       -0.061644077 -0.10978869 -0.11971389 -0.044848047
0000f0 a1 eb 9e bd 67 00 4b bd 82 37 0e be f4 ba c9 be
       -0.077597864 -0.04956093 -0.13888362 -0.39400446
000100 4c 9a 8d bd c8 83 c9 bd 1a 87 59 be 1a 2b 07 be
       -0.069141954 -0.098395884 -0.21242943 -0.13200036
000110 c0 a8 97 bd eb fb ca bd 37 48 b1 bc dc a2 60 bd
       -0.074052334 -0.09911331 -0.02164088 -0.054842815
000120 19 5f 12 be 14 02 74 bd a4 81 1c 3d da d7 ea bd
       -0.1429409 -0.059572294 0.038209572 -0.11466952
000130 47 39 ed bd 82 fc fe bd 30 e1 ac bc 37 2e 01 be
       -0.115831904 -0.12450506 -0.021103472 -0.12615286
000140 7e 66 7b bd 93 0e f4 bd 52 2e 3b bd be c5 1b be
       -0.06137704 -0.11916842 -0.04569847 -0.15212151
000150 0f 01 b1 bd 67 09 06 bd 34 52 58 bd b3 3f c1 bc
       -0.0864278 -0.03272381 -0.05281277 -0.023589944
000160 cb 4b a0 bd ac f3 31 bd 86 92 06 be 82 b0 0f be
       -0.07826956 -0.043445274 -0.13141832 -0.14032176
000170 e5 aa ca bd d7 73 94 bd e4 ac 3b bd a8 ab a9 bc
       -0.09895877 -0.07248657 -0.04581918 -0.020711735
000180 cc 96 8f bd f7 a4 82 bc a2 a4 1e be 51 f5 da 3b
       -0.07011184 -0.015947802 -0.1549249 0.006682076
000190 fd b8 fb bd fa eb c7 bc e5 fc f6 bc a1 e2 9f bd
       -0.12291143 -0.024404515 -0.030149886 -0.07806898
0001a0 b7 42 a1 3c 54 59 f9 bd 45 41 06 be 4b 5b 1b be
       0.019685132 -0.12175241 -0.13110836 -0.15171544
0001b0 4a 00 23 be c9 14 a3 bd 99 d8 04 be 09 fc 0d bd
       -0.15918079 -0.07962949 -0.1297325 -0.034664188
0001c0 8c 6a f9 bd e3 7f fa 3c 6e ac 24 bc cf dd 0e be
       -0.12178525 0.03057856 -0.010050876 -0.13951801
0001d0 3e 47 22 be 10 d1 a7 bd 20 ff d2 bd 28 0d a2 bd
       -0.15847489 -0.081941724 -0.103025675 -0.079126656
0001e0 48 df 82 bd dd 5e c1 bd 39 71 fd bd c6 60 a5 bd
       -0.06390244 -0.09441922 -0.12375111 -0.08075099
0001f0 76 7c c8 bd 1a 33 1f be f4 e1 2a bd 90 81 b0 bd
       -0.09789364 -0.15546837 -0.041719392 -0.08618462

network_body.linear_encoder.seq_layers.0.weight f4 [128, 68]
000000 a3 d2 86 3d 15 17 48 bc 64 cb 45 be 43 96 87 bd
       0.065831445 -0.012212534 -0.19315869 -0.06620457
000010 be b0 8e 3d 31 9f 9a 3e 44 95 62 be d0 b7 55 be
       0.06967305 0.30199578 -0.22127253 -0.208709
000020 06 3c 79 be bd d8 8c bc c2 9c 85 be 0a 15 a6 bd
       -0.24339303 -0.017193193 -0.2609616 -0.08109482
000030 b8 bd 26 be 18 5b cc 3d 01 eb 10 be 7b a7 6e be
       -0.1628331 0.09978312 -0.14152147 -0.23306076
000040 c1 d0 ad 3e fb ec 80 3d d3 2f 51 bd 26 4a 10 bd
       0.3394833 0.062952004 -0.051071 -0.035226963
000050 23 31 34 3e 5d 18 39 3a 73 c4 03 3e 1d fa c4 bd
       0.17596869 0.00070608204 0.12867908 -0.09618018
000060 c3 a9 72 be d9 30 f8 3c 6d ab 48 bd b7 8e 24 3e
       -0.23697571 0.03029673 -0.04899161 0.16070066
000070 7a 2f 15 be 9e d5 06 be 27 94 96 3e 00 fd a3 3e
       -0.14568892 -0.13167426 0.29409906 0.3202896
000080 16 16 09 be 06 c4 92 bc 96 08 dd bd 33 e8 04 3c
       -0.13387331 -0.017915737 -0.10792653 0.008112001
000090 81 79 34 3e 99 86 44 3d a7 b0 08 be 01 bf 47 be
       0.17624475 0.047979925 -0.13348638 -0.19506456
0000a0 c0 cf 9c be b3 ba 67 bd 4a 42 68 3e b7 ed 5a 3e
       -0.3062725 -0.056574535 0.22681537 0.21379744
0000b0 0f 44 4a 3e 15 e9 0b be ca f0 d7 be a1 c9 a6 be
       0.19752525 -0.13663132 -0.42175895 -0.32575706
0000c0 35 68 a4 bd 20 dc 15 bd d6 a3 62 bd dd 88 83 3d
       -0.080276884 -0.03658688 -0.055332027 0.06422589
0000d0 de 69 7f be 02 9b 0c be e5 af 1b be da bf 6e be
       -0.24942729 -0.13731006 -0.15203817 -0.23315373
0000e0 87 71 b2 3e b4 c2 90 3d 5e 16 9d be 88 26 a0 be
       0.3485224 0.07068387 -0.30681127 -0.31279397
0000f0 75 55 19 be 09 a3 b0 bd 59 4c 4e bd 62 bf 3d 3d
       -0.14974006 -0.086248465 -0.05036578 0.046325095
000100 8b 4a 42 3d 9f b9 ba bb 1b e6 4c bd b5 26 b1 3d
       0.04743437 -0.0056983973 -0.050024133 0.08649961
000110 99 03 2c be 6a 03 3a be da 87 97 3e d1 80 ed 3e
       -0.16798247 -0.18165365 0.29595834 0.46387342
000120 ce a8 af be e3 d4 62 3c ba 0d a4 bc 24 03 25 3f
       -0.34308475 0.013844701 -0.020026077 0.6445792
000130 40 2a c6 3d 57 9a ea bc cb f6 f0 bc 92 ef 0b bf
       0.09676027 -0.028638048 -0.029414555 -0.5466243
000140 c7 e3 29 be a1 42 19 3e d4 c6 cc bd 15 8a 84 bd
       -0.16590796 0.14966823 -0.09998861 -0.064716496
000150 4c ba 94 3d 58 54 fd 3d 71 c6 dd b9 3d ac 65 be
       0.07262096 0.12369603 -0.00042300255 -0.22428985
000160 ef a2 a7 be b0 c6 c6 bd ff f0 82 be a9 52 21 be
       -0.32741496 -0.097058654 -0.2557449 -0.15754189
000170 6a 8a b7 3e b5 9f 93 bc 84 a0 09 3d 0e 16 59 be
       0.3584779 -0.01802049 0.033600345 -0.2119982
000180 0f 2c 92 3e 6a 3c 99 3e b0 b1 1e 3d e1 5f 76 be
       0.2854924 0.29928905 0.038743675 -0.24060012
000190 7a 17 9a 3e f9 00 c9 bd 2d bb 0a be 78 58 15 bf
       0.30096036 -0.09814639 -0.13547964 -0.5833812
0001a0 bd f0 ed bd c0 bc a1 3d f5 6f 7f 3e 35 f2 8b 3e
       -0.11618183 0.07897329 0.24945052 0.27333227
0001b0 21 c1 40 3e cb 4d 6d 3d 47 24 e6 bd ab 08 bd 3d
       0.18823673 0.057935517 -0.11237388 0.09230169
0001c0 ac 0a 91 3e 98 1d cb 3d 51 0e 3b be 1e a7 dc bd
       0.28328454 0.09917754 -0.1826718 -0.107740626
0001d0 c8 9d c4 bd 02 54 83 3d b5 76 15 3e 22 c4 a6 3c
       -0.09600407 0.064125076 0.14596064 0.020357195
0001e0 a2 18 54 3e 7c 23 8a 3d 7e 75 00 be 8b 84 05 bd
       0.20712522 0.06745049 -0.1254482 -0.032597106
0001f0 72 0b 99 3d ec c5 b3 39 23 c3 2e 3d d7 86 75 3d
       0.07472886 0.00034289004 0.042666566 0.059943046
000200 a9 95 cd 3b 6d 09 ab bd f2 be 25 bb 61 ab f8 bd
       0.0062739444 -0.08351407 -0.0025290814 -0.12142063
000210 43 25 4b 3b e5 ab 0d bd cd 1d ea 3d ec cf b1 bd
       0.0030997552 -0.03458776 0.11431465 -0.08682236
000220 1b ed 15 3d bf 69 79 3d ee 82 ae bd ae c3 d4 be
       0.036603075 0.060891863 -0.085210666 -0.41555542
000230 9b d0 dc bd 55 ad 97 bd e4 a5 11 3e 75 85 30 be
       -0.10781976 -0.07406107 0.14223439 -0.1723841
000240 9f 15 cc 3c 4a 53 52 3d 84 79 21 be c7 93 83 bd
       0.024912653 0.051348962 -0.15769011 -0.06424671
000250 4b 20 3b be 62 ca af 3e 94 33 b0 be bd 82 39 be
       -0.18274038 0.34334093 -0.3441435 -0.18116279
000260 d7 d4 c6 3c f4 f6 8b be 3e 74 0b bf 48 ee 21 bd
       0.024271412 -0.27336848 -0.54474247 -0.039533883
000270 1d 03 a9 3e d3 cc b0 bc b2 c6 99 3e 96 82 3c 3d
       0.33010188 -0.021582043 0.30034405 0.046022974
000280 e1 a0 81 be da 2b 53 bc 41 bb 3e 3e 17 08 13 3e
       -0.25318053 -0.012888873 0.18626119 0.14358555
000290 75 48 e9 3d 68 81 bd 3d 8f 6c 26 3e 19 ad 69 3d
       0.11390773 0.09253198 0.1625235 0.057049844
0002a0 76 63 60 be 1c 77 f6 bd 9b 94 50 3e 63 21 a8 3e
       -0.21912941 -0.12034437 0.20369188 0.32837972
0002b0 00 b0 97 bd 17 5d 6a bd 38 64 73 be f2 33 08 bf
       -0.07406616 -0.057217684 -0.23768699 -0.5320426
0002c0 6c 6a 36 3e ad 36 54 3c 67 0e 68 3c 5d 63 8a 3e
       0.17814034 0.012952489 0.01416359 0.27028933
0002d0 70 a2 81 bd 6f 92 3b be 58 f5 e0 3c bd ae 71 be
       -0.063298106 -0.18317579 0.027460739 -0.23601814
0002e0 a4 08 e3 3d 85 d0 7d bd 9c b3 2e 3e 9f f3 4f 3d
       0.110856324 -0.061966438 0.17060703 0.050769445
0002f0 6b 7d 8c be 1f 2d 10 3e df f2 0f 3c 09 43 eb 3d
       -0.27439436 0.14079712 0.008785932 0.11487395
000300 9d f5 67 3e 77 2a 2f bd 5f e5 16 be 27 9c 0a bf
       0.22652288 -0.042765107 -0.14735936 -0.5414452
000310 04 a0 55 3e f6 cf cd 3d 6c 6a 0d 3e 11 1b 8b 3d
       0.20861822 0.10049431 0.13810128 0.06792272
000320 28 77 42 be c5 cb c0 3c 66 27 e4 bd 32 5b 02 3e
       -0.18990767 0.023534665 -0.11140327 0.12730101
000330 15 a4 2d be 0b 26 9f 3d a1 5e 46 bd e8 00 ab 3c
       -0.16957124 0.07770928 -0.04843009 0.020874456
000340 c7 c6 84 be 6e ec 5a 3e 33 56 7e be d7 b7 f9 be
       -0.25932905 0.21379253 -0.2483757 -0.4877307
000350 a7 77 12 be 0a 07 71 3d 46 a8 96 bd ad d0 ef bd
       -0.14303456 0.058844604 -0.07356314 -0.117097236
000360 8f af bc be 46 f5 ee 3c fe 1c ff be cc ad e1 be
       -0.3685269 0.02916969 -0.49826807 -0.4407791
000370 eb a3 26 be 32 63 b9 3c ea 81 b9 be 32 20 11 bf
       -0.16273467 0.022630308 -0.3623193 -0.5668975
000380 1f 4a f2 be 86 6e c9 bd aa 61 e8 be dd 01 aa be
       -0.47322175 -0.09835534 -0.45387012 -0.33204547
000390 9e 84 e8 bc c2 bf 81 3e cd 11 b0 be 12 ea b5 be
       -0.02838355 0.25341612 -0.3438858 -0.35530144
0003a0 ca 6e b3 3d c1 af 18 3e 81 23 0b bf 18 8f ac be
       0.08761366 0.14910795 -0.5435105 -0.33702922
0003b0 03 e7 c4 bb 91 14 75 bd d9 e3 69 be ee 16 1c bf
       -0.006008984 -0.059834067 -0.22840823 -0.6097249
0003c0 30 cf f7 be d8 a9 e4 bd a3 88 f4 3e bf a4 74 3d
       -0.4840026 -0.111652076 0.47760496 0.059727427
0003d0 71 11 ca bd 15 b8 fe 3d b7 e7 95 3e 0b 53 ef 3d
       -0.09866608 0.124374546 0.29278347 0.11685761
0003e0 72 98 41 be 08 38 05 bd 92 c9 9e bd fe 60 41 3e
       -0.1890581 -0.03252414 -0.0775329 0.18884656
0003f0 dc d8 9a bd 5e 3d a8 3d e2 37 01 3d cb e2 81 3d
       -0.07560894 0.0821483 0.031547435 0.063420855

network_body.linear_encoder.seq_layers.2.bias f4 [128]
000000 b7 ff 2e bd 56 f0 d3 be 26 00 90 bd 0c 2f 10 3c
       -0.042724337 -0.413943 -0.07031278 0.008800279
000010 f1 88 0b bd a8 8c b5 bc 94 5c e9 bc 5c 28 88 bb
       -0.034066144 -0.022161797 -0.028486528 -0.004155202
000020 46 9f bc be 77 47 32 bc 0a f9 f4 3b b9 89 18 bf
       -0.36840266 -0.010881296 0.007475977 -0.5958515
000030 fb 03 77 bd 77 6e 21 bd 73 3a 6b bd 54 6a 0e 3c
       -0.06030653 -0.039411988 -0.05742879 0.008692343
000040 62 8f c9 bc 05 87 d7 3b 44 fc ae be c3 c1 99 3c
       -0.024604503 0.006577375 -0.34176838 0.01876915
000050 72 1c 08 3d 06 7c af be ce e2 54 3b 3a db 07 bc
       0.033230253 -0.3427431 0.003248382 -0.008292014
000060 6a d5 bf bc 40 39 c5 be 7f 2e 23 bd df bd b7 bc
       -0.023417193 -0.3852024 -0.039839264 -0.022429405
000070 d6 80 81 3c f3 7e 48 3c 62 68 36 bc ae 8f f7 39
       0.015808504 0.012237298 -0.011133285 0.0004721856
000080 81 e8 09 bf 47 1e 46 bd ec 4d 81 bc cf 74 74 3b
       -0.538704 -0.04836872 -0.015784226 0.0037301069
000090 1c 77 2a 3d 1b d1 9f bc 02 64 8b bb c9 b4 31 bc
       0.041617498 -0.019508889 -0.004253865 -0.010846325
0000a0 55 ce 89 3c 9a 63 45 bc 86 91 89 be b6 e1 ee bc
       0.01682202 -0.012047673 -0.26868838 -0.029160362
0000b0 df c5 61 bd 2c 47 91 bc e0 d0 ae be 63 fc 2f bd
       -0.055120345 -0.017734133 -0.34143734 -0.042965304
0000c0 68 0d 5e bd 9e 1a 26 3c 64 14 a7 be 3d 90 a6 be
       -0.054212004 0.010138182 -0.32632744 -0.3253192
0000d0 7b 0b a9 be 16 cb c3 be db 84 b9 be 23 b1 08 bd
       -0.3301657 -0.3824088 -0.36234173 -0.033372056
0000e0 68 8b c2 be 6c 3a 77 3c 6f f2 37 ba 08 c1 06 bd
       -0.37996984 0.015089612 -0.00070170214 -0.032898933
0000f0 d7 9f b1 be 4a 90 47 3c a7 ec 3b 3c 5b 3c b7 be
       -0.3469226 0.012180397 0.0114699965 -0.35788235
000100 c6 0e a0 3c 68 2e a0 bd cb 65 c3 be 96 43 0b bd
       0.019538295 -0.07821351 -0.381636 -0.034
000110 84 bd 18 bd 9b f1 00 bd a3 10 72 bd 6e fb 6e ba
       -0.03729011 -0.031480413 -0.059097897 -0.00091164454
000120 91 66 cb 3b e2 1d 42 bd 4d ca e8 be 10 8f 53 bf
       0.006207295 -0.04739178 -0.45466843 -0.8264017
000130 6a 50 31 3d 44 55 95 be 5c 94 a3 be 6d 27 00 bc
       0.04328958 -0.29166615 -0.31949127 -0.0078219
000140 ff c8 33 3b d3 53 62 bd e9 f7 85 be a3 89 c1 bc
       0.0027433035 -0.055255722 -0.26165703 -0.0236252
000150 7b 7b c7 be e1 30 57 3a 7b 9d 6e bc 2d 14 04 3c
       -0.38961396 0.00082088826 -0.014563913 0.008061451
000160 c0 89 c5 bc 11 9a 11 bc f0 eb 93 bd 31 84 06 bf
       -0.024113536 -0.00888683 -0.07222736 -0.5254546
000170 e6 61 ae bc 5b 4b b7 bb 2d 40 a5 3a d6 cd 13 bc
       -0.021286916 -0.0055937 0.0012607627 -0.009021243
000180 34 10 76 ba f1 8c cb be c2 5b 6f 3c a8 d6 aa bc
       -0.000938657 -0.39755967 0.014609279 -0.02085431
000190 be 6a 3b 3b ac 34 f8 bc b1 84 5d bd f3 c9 36 bd
       0.002859756 -0.030298553 -0.054081623 -0.044626188
0001a0 53 1f 9a be b5 f7 55 bd 26 b0 ac bc d4 58 21 b9
       -0.30102023 -0.052238185 -0.021080088 -0.00015387248
0001b0 f4 a0 bf 3b f0 06 d2 be b7 b4 f8 bc 14 15 10 bb
       0.0058480445 -0.41020918 -0.030359609 -0.002198522
0001c0 9e ce 54 bd 3d 74 9e be b5 db bf be df 86 de be
       -0.051954858 -0.30948058 -0.3747231 -0.43462273
0001d0 22 11 d3 be 9d 3c a8 be 7f 98 a4 be 0a 04 c8 3c
       -0.4122401 -0.32858744 -0.32147595 0.024415988
0001e0 3b 01 6b bd e8 b6 86 bd 5f 2d 85 bc 2a 8d fc 3a
       -0.05737422 -0.06577855 -0.016256986 0.0019268144
0001f0 c4 d2 da bc 0f ac b3 bc 1c 8c c1 bd 64 73 1f 3d
       -0.026711829 -0.02193263 -0.09450552 0.038928404

network_body.linear_encoder.seq_layers.2.weight f4 [128, 128]
000000 de c6 57 3e a1 31 bf bb 91 8f 4f 3e 52 94 b7 bd
       0.21071956 -0.0058347736 0.2026961 -0.08963837
000010 f0 c4 22 bd 29 30 c2 bd e8 2a b7 3c 27 09 f0 3c
       -0.039738595 -0.09481842 0.022359326 0.02930124
000020 1a 78 9f bc db af 61 3d 5e eb b4 bd 88 04 49 bd
       -0.019466449 0.05509935 -0.08833955 -0.049076587
000030 fc 88 84 bc bb cf c5 bd 1e d4 93 3c d0 2d 2a 3d
       -0.0161786 -0.09658762 0.018045481 0.041547596
000040 6b e7 a0 bc 92 3d 2d bd 27 e6 1b bd 11 54 e3 bd
       -0.019641599 -0.042295046 -0.038061287 -0.11100019
000050 ce 64 d4 3b 96 ba 23 3e 03 53 b0 bc 20 c7 22 be
       0.0064817434 0.15989146 -0.021523958 -0.15896273
000060 55 3e b9 bc 0f 3e 44 3c af f4 d4 bd a2 35 8c 3d
       -0.02261273 0.011977687 -0.10398232 0.06846167
000070 f0 47 5c bd 6b 0f 7f 3d 36 fd 8f bd 8b 45 5e bc
       -0.053779542 0.062270563 -0.07030718 -0.013566385
000080 9e c4 63 bb 4e 5d aa bc 98 ab 72 3d f9 05 48 be
       -0.0034754644 -0.020796444 0.059245676 -0.19533528
000090 f4 62 3e bd 88 b6 10 be 97 10 bd 3c 1e 7d e1 bd
       -0.046481088 -0.1413213 0.0230792 -0.11010192
0000a0 65 ff 31 be ac b1 1e be 7d 25 cf 3d 2b 0b f7 3d
       -0.17382582 -0.15497464 0.10114572 0.12062677
0000b0 35 9a 87 3d b7 90 46 3e 3f 98 bc bb 0e 85 fa 3d
       0.066212095 0.19391142 -0.005755454 0.122324094
0000c0 38 2c d9 3c 91 b4 02 bd ea 1f 23 bc 33 8e be 3d
       0.026510343 -0.031910483 -0.009956339 0.09304466
0000d0 7b c9 09 bc 95 01 86 3d d5 f9 11 be 68 38 92 be
       -0.008409853 0.065432705 -0.1425546 -0.2855866
0000e0 c4 ba 05 3e 8b a0 4d be 06 99 a8 bd 3d 38 6d bd
       0.13059527 -0.20080774 -0.08232312 -0.05791496
0000f0 3f bf 2a 3b 0a 5d 15 be 13 7f 85 be 21 6b 44 be
       0.0026053933 -0.14586273 -0.26073512 -0.19181491
000100 dc ad 5d be 83 1f 08 3d 1b 76 a7 bc 8f 38 46 3c
       -0.21648353 0.033233177 -0.02044206 0.012098446
000110 bd 58 16 3d 3e c0 74 3d 2a eb 15 be 2e f0 14 3d
       0.03670572 0.05975365 -0.14640489 0.036361866
000120 88 31 bd bd ea 65 57 3e d5 69 ab 3d e7 1b e4 bd
       -0.09237963 0.21034971 0.08369795 -0.111381344
000130 7c 08 b5 3d aa e9 ad bd c8 86 14 3e 37 e7 3a 3d
       0.08839509 -0.084918335 0.1450454 0.04563066
000140 bd 38 79 3e cb f4 01 be fe 67 51 3d 18 5a 1e bd
       0.2433805 -0.12691037 0.051124565 -0.03866014
000150 81 56 51 3e 69 64 7f 3e 05 4d 1a be 28 ee a0 bd
       0.20443155 0.24940647 -0.15068443 -0.07857925
000160 33 05 2f 3d 60 b4 90 3d e0 fd 9d 3d 32 a2 ba 3c
       0.042729568 0.07065654 0.077144384 0.022782419
000170 17 cf 65 be e7 4b 87 bc c6 01 59 bd 8a f2 eb bd
       -0.2244228 -0.016515685 -0.052980207 -0.1152087
000180 52 7c c0 3c 8c 33 52 3e fe 74 e6 bd 96 ff ff 3d
       0.02349678 0.20527476 -0.11252783 0.12499921
000190 15 65 ff bc 29 a2 27 3d 3b 38 2d bd 10 c0 b2 bd
       -0.03117613 0.040926132 -0.042289954 -0.08728039
0001a0 70 d5 ae bd 6f 61 bc 3b 3e a4 65 3d 08 b6 64 3d
       -0.08536804 0.0057489197 0.056064837 0.05583766
0001b0 d8 9e c1 3d 6d 27 2e 3e b3 6c 18 bd a5 41 0a 3e
       0.09454125 0.17007227 -0.03721304 0.13501604
0001c0 32 a2 4f 3d 8d c6 4b 3d 0f 51 c4 bb fa 2e d9 3d
       0.05069179 0.0497499 -0.0059911082 0.10604663
0001d0 1d b5 13 3e 68 4e 5a be 5f 17 18 3d c3 d5 a8 3d
       0.14424558 -0.21318972 0.037131663 0.08243897
0001e0 fa 38 ad 3d 1a f3 43 be cf 62 1b 3e a9 0c 80 bd
       0.08458133 -0.19135705 0.15174411 -0.06252415
0001f0 6d ac 90 be bd 0a b1 3d 98 5b 33 be 09 aa 07 bd
       -0.2825655 0.08644626 -0.17515409 -0.033121143
000200 05 10 41 bc 22 48 08 be c7 33 41 3c dc 28 8e 3e
       -0.0117836045 -0.13308766 0.01179213 0.27765548
000210 45 b7 d9 3d d0 5b 55 be 1d 4c 57 3b 86 8c 65 3c
       0.10630659 -0.20835805 0.0032851764 0.014010554
000220 0f 35 25 be 7b 56 88 3d 30 85 a1 bd 6b 2d 89 3e
       -0.16133521 0.0665712 -0.078867316 0.26792464
000230 a0 65 b7 3d 21 29 ef 3c 30 ce 61 3e 5c 04 74 3e
       0.0895493 0.029194416 0.2205131 0.23829788
000240 53 63 21 bd fb d9 83 3e 90 c8 f4 bc ca a4 c1 3d
       -0.039401364 0.25752243 -0.029880792 0.09455259
000250 e4 a2 b9 3e ec ee cc 3d 05 4d a6 bd 68 b0 16 be
       0.36257088 0.10006508 -0.08120159 -0.14715731
000260 23 1a ca 3d f5 fb 85 be e3 04 97 3d bf 38 cf 3c
       0.098682664 -0.2616879 0.07373979 0.025295613
000270 b3 09 27 be a4 9c b0 3c 71 ff bc 3d 7a 95 64 3e
       -0.16312294 0.021559067 0.09228409 0.22322646
000280 ac 78 3c bd 43 77 ac 3d cf 17 52 3c 48 6f d2 3e
       -0.04601352 0.08421185 0.012823059 0.41100526
000290 99 de 0b 3e c1 83 b4 bd 7f 8a 29 3e a5 79 cc 3e
       0.13659133 -0.088141926 0.16556738 0.39936557
0002a0 49 84 14 3e e1 29 14 3d 9c 95 01 bd 83 bb db 3d
       0.14503588 0.03617275 -0.03163682 0.107291244
0002b0 d0 d0 54 3e de a0 90 3e 3c 49 7c 3e 65 17 31 be
       0.2078278 0.28247732 0.24637312 -0.1729408
0002c0 88 ed 3f 3e 3a db 08 3e 83 07 9f 3d eb 57 6b bb
       0.18742955 0.13364878 0.077651046 -0.0035910557
0002d0 14 f8 5d 3d 30 57 e1 3d e4 78 57 bd 7f 76 0a 3c
       0.054191664 0.11002958 -0.052605525 0.008451103
0002e0 ae c7 50 3a 9a 18 44 bc 15 e7 4c bd 99 0c 77 3d
       0.0007964325 -0.011968756 -0.050025064 0.06031475
0002f0 cf 75 21 3e 10 7a b8 bd a8 6e 69 bd 4d 69 64 3e
       0.15767597 -0.090076566 -0.056990296 0.22305794
000300 4f 6e 7e 3e 88 a4 34 be 09 b4 2e 3d d1 f1 5b 3c
       0.24846767 -0.17640889 0.042652164 0.013424353
000310 2f 92 08 be 8f 6c 82 3e f8 2b 1d be c6 fc 43 bd
       -0.13337015 0.2547345 -0.15348804 -0.047848485
000320 a1 3e 1f 3e 85 3d 46 3e 4d b4 29 3e 09 0c 63 3e
       0.15551235 0.19359405 0.16572686 0.2217256
000330 dc 17 11 3d e0 59 d6 bd e8 82 10 be a4 d0 02 3e
       0.035423145 -0.10466361 -0.14112437 0.12774903
000340 90 dd 45 3d 54 6d cd 3d 8b 55 80 3e da eb 19 3d
       0.048307 0.10030618 0.25065264 0.03757844
000350 7f fd 01 3e 8c 00 88 3e a2 a7 05 bd 2c 87 b5 bd
       0.12694357 0.26562917 -0.03263057 -0.088636726
000360 8d 13 34 bc ee 2f 46 3d 2e 16 91 3d 62 ea 71 3e
       -0.010990989 0.048385553 0.070843086 0.23624566
000370 97 0d e7 3d e0 f6 f5 3d 0d 50 3f 3e 11 9f 57 bd
       0.11281889 0.12009978 0.1868288 -0.052641932
000380 9c 1b bb bd b8 d6 2d 3e 2a d7 26 3e 12 b2 0c 3f
       -0.091361254 0.1697644 0.16293016 0.54959214
000390 cf d2 a0 bd 9e 42 1c be 5c 1e 7b 3d 12 a2 a8 3e
       -0.078527085 -0.15259787 0.06130825 0.3293615
0003a0 a8 25 8b be 54 90 3a 3e fd e3 c2 3e 14 cc 34 3e
       -0.27177167 0.1821912 0.38064566 0.17655975
0003b0 c5 3f 04 bc 79 de 0c 3c c4 cb d6 3d 81 79 2b 3d
       -0.0080718445 0.0085979635 0.10488084 0.041863922
0003c0 57 ce b0 3e 9b ba 58 3d d0 75 a6 bc 26 64 d0 3e
       0.34532425 0.052912336 -0.02031985 0.40701407
0003d0 e9 54 35 3e 78 1b 26 bd 7a a3 f6 3c 9d 26 8f 3c
       0.17708172 -0.04055354 0.030107249 0.017474467
0003e0 db 3b 8b bd 44 e9 ff 3c f4 4d a1 bd c9 15 26 3e
       -0.06798526 0.03123916 -0.078761965 0.16219248
0003f0 cf 16 f4 3d e5 9f c3 bd f9 62 a0 3e f2 e5 8e 3e
       0.11918413 -0.09551982 0.3132551 0.2790981
