Learning/results/mx3/KartAgent/KartAgent-4599944.onnx (onnx, 104129 bytes, 7 tensors)

41 f4 [1, 2]
000000 7d 6e d0 bf 7f 69 ba bf
       -1.6283718 -1.4563445

distribution.mu.bias f4 [2]
000000 34 ac 9d b6 af 11 9f 3e
       -4.6990117e-06 0.3106818

distribution.mu.weight f4 [2, 128]
000000 20 aa 8c bb 59 c7 54 bd 92 5d 7b 3b ec 93 51 3b
       -0.0042927414 -0.051947925 0.0038355333 0.0031979037
000010 2f 30 3b ba cd f3 51 3c b1 99 c5 bb a6 42 54 3a
       -0.0007140664 0.012814474 -0.0060302843 0.00080970896
000020 09 0f 1f bd 93 46 8f 3b 07 bc 77 3b 73 d1 0a 3c
       -0.038832698 0.004372427 0.0037801282 0.008472788
000030 84 1e b2 3b d4 a0 98 3b e7 97 97 3b b7 0f 3f bb
       0.0054357667 0.004657844 0.0046262625 -0.0029153654
000040 2c 0b 40 b9 ac be fd 3c 9e 9b 56 bd cf 30 0f 3b
       -0.00018314709 0.030974708 -0.052394502 0.002184916
000050 7d 39 07 bb b3 a8 08 3d 94 bf 84 3b 33 73 71 3b
       -0.002063363 0.03336401 0.004051158 0.0036842346
000060 8b 5b 2c bb 81 92 c1 bc 55 d5 87 bc 35 87 bf ba
       -0.002629968 -0.023629429 -0.016581217 -0.0014612438
000070 54 20 8c bb e7 31 24 bb 2c 7d 06 be 57 75 2f bb
       -0.0042763148 -0.0025054158 -0.13133687 -0.002677282
000080 95 9c e0 3b 66 37 0a bd b6 6b f7 ba 44 a8 5b 3c
       0.0068546035 -0.03374424 -0.0018876705 0.013406817
000090 9b bc 4f 3b 8c 03 3c 3a b5 6a e1 ba 7c d1 ae bb
       0.003169811 0.00071721594 -0.0017197939 -0.005335031
0000a0 44 1f 9e 3b 49 60 20 bb 9d f9 0d bc 8e 1b a5 3b
       0.0048255045 -0.0024471453 -0.0086654695 0.005038685
0000b0 d9 24 fb 3a ae 3e 27 bb 7b 1f 3d bc 26 ec 70 3b
       0.0019160762 -0.0025519538 -0.01154315 0.003676185
0000c0 5c 1d 37 ba d9 22 80 37 62 60 8d 3c d5 0f 31 bd
       -0.0006985271 1.5275016e-05 0.017257873 -0.04322799
0000d0 73 91 d1 3b 00 e6 20 3c d8 cc 11 bd 8f 5f 87 3c
       0.0063955127 0.009820461 -0.035595745 0.016525058
0000e0 19 d2 ed 3c 70 90 7b bc b2 22 86 3b ac f3 07 3c
       0.029030846 -0.015354261 0.0040934915 0.008297842
0000f0 0b 20 ec 3c e4 1d 75 3c 04 e9 20 3c ac b0 8b 3a
       0.028823873 0.01496074 0.00982118 0.0010657511
000100 a1 97 4f 3b 14 c4 14 bc d3 70 c0 3c 62 31 d6 bd
       0.0031676071 -0.009079952 0.023491299 -0.10458638
000110 2f ee 7a 39 ba 6f 05 bb aa e5 b7 b8 3a 1f 26 3b
       0.00023930588 -0.0020360784 -8.768898e-05 0.0025348202
000120 94 d8 f9 3c 72 c7 f9 3a 8f 89 c8 bc 0c 6b 04 39
       0.03049878 0.0019056632 -0.024479656 0.00012628379
000130 0d 95 89 3a 38 b7 91 3c 65 3f 5c 3d c4 e5 8e 3b
       0.0010496691 0.01778756 0.053771395 0.0043608863
000140 7a 58 b9 3b ec ec 8f 3c 3e fa a0 3c 00 26 08 3d
       0.005656299 0.017569028 0.019650575 0.033239365
000150 5f eb b4 3c fa db 29 3e df a1 b9 ba 6f 75 04 3c
       0.02208489 0.1658782 -0.0014162621 0.008084639
000160 2a 58 e2 3b 88 fb 31 3c 8e a0 aa 3c 11 e2 de bc
       0.0069074826 0.010863192 0.020828512 -0.027207406
000170 3f 10 6b ba 19 c8 fa 3a 33 30 d8 bb 60 6e 86 3a
       -0.00089669594 0.001913312 -0.0065975427 0.0010256283
000180 8d 27 1c 3c 35 d9 aa 3c e5 8c 29 3b 2b 3f 0c bc
       0.009530914 0.020855526 0.0025871333 -0.008559982
000190 e1 33 23 3b 2c 32 35 bb b6 d0 84 3a 01 9f 67 3d
       0.0024902748 -0.0027648313 0.0010133001 0.056548122
0001a0 8f d4 05 3d 25 e4 6b 39 d2 c8 8e 3b dd 6f 7b 3b
       0.032673415 0.00022496337 0.0043574357 0.0038366236
0001b0 0b 91 e8 3b bb 1a 7a bc 39 e5 0b 3b 6c b1 87 bb
       0.0070973686 -0.015265162 0.0021346344 -0.0041410234
0001c0 21 e5 30 bb 93 a9 04 3d 19 72 aa bc d0 9c 9f 3d
       -0.002699204 0.03238828 -0.02080636 0.077935815
0001d0 80 30 77 bd 7b f3 49 bc 6a f0 1e bc bc 9b 80 3b
       -0.060348988 -0.012326117 -0.009700874 0.003924815
0001e0 a9 b7 1b 3a dd fe 6d bb 06 2f d5 ba ce 5e 59 3b
       0.0005940148 -0.003631524 -0.0016264624 0.003316808
0001f0 07 67 26 3b 6c b4 ce bd 77 40 51 bc 8e f0 bb 3c
       0.0025391 -0.100930065 -0.012771717 0.022941854
000200 18 19 21 3b 62 45 e2 bd f1 fc 4e ba 93 35 04 bb
       0.0024581607 -0.1104839 -0.00078959676 -0.0020173534
000210 63 a8 cf 3a cd 95 c7 3b c1 21 cf bb f8 0d 61 ba
       0.001584303 0.0060908557 -0.0063211625 -0.00085851504
000220 11 ff ab bd 89 5c 4f 3c b6 43 e0 3b 1a e3 05 bd
       -0.083982594 0.012656339 0.0068440093 -0.032687284
000230 e5 c2 28 3c ca 26 83 3d 0b fd a8 39 3e df 20 bb
       0.010300373 0.06403883 0.0003223199 -0.0024547125
000240 f1 7a c8 ba 99 b0 0f 3c f9 d8 05 be f8 ea 7f 3b
       -0.0015295428 0.0087701315 -0.1307105 0.0039049964
000250 3d 93 5f ba 11 94 cb bd 75 10 aa bb 2d 9f a6 bb
       -0.0008528715 -0.09940351 -0.00518995 -0.005084893
000260 eb 5f 16 bb 30 5f df bd 4a 9d c1 bb c0 a3 48 3b
       -0.0022945355 -0.109068274 -0.005908643 0.003061518
000270 d1 43 3e 3b d3 c4 14 3a 3c 88 15 3d a9 c5 00 bb
       0.002903212 0.0005675081 0.036506876 -0.0019649065
000280 93 fa c2 bc e4 f4 ce 3d 05 98 34 bb 1d 0d 3d 3c
       -0.023801124 0.10105303 -0.002755643 0.011538771
000290 10 d1 71 bb 6c e9 cb 3b 6e 54 55 bb 99 2e dd 3a
       -0.0036898293 0.0062228944 -0.0032551545 0.0016874849
0002a0 37 95 00 bc 74 c9 cb 39 b1 6c d8 bb 21 d1 34 3b
       -0.007848076 0.00038869272 -0.006604754 0.002759047
0002b0 8b c8 07 3b fe a2 88 3b 70 61 10 be 8c 65 34 3b
       0.0020718898 0.004169821 -0.1409967 0.0027526347
0002c0 40 5f a5 3b 9b fc 2c 3b 9e ad 22 be 03 6c 04 be
       0.005046755 0.0026395682 -0.15886542 -0.12931828
0002d0 a9 a7 18 be 74 a2 d9 bd 2b 34 ef bd 6d 55 f2 3b
       -0.14907707 -0.106266886 -0.11679872 0.0073954375
0002e0 59 ea cf bd 66 01 ba 3b e5 c4 b1 3b 17 b3 60 3b
       -0.1015212 0.0056764362 0.005425083 0.0034286433
0002f0 f4 34 01 be c5 6d a0 3b f0 d5 cb 3b fb 48 19 be
       -0.12617856 0.004895898 0.0062205717 -0.14969246
000300 b8 08 2b 3b 47 95 7b 3b 92 c7 15 be 6d 63 3a 3d
       0.0026097726 0.0038388537 -0.14626911 0.045504976
000310 1b 8d fc ba a5 45 c2 39 da 64 3f bc eb f8 c8 3b
       -0.0019268127 0.00037054453 -0.01168176 0.006133189
000320 31 15 c8 ba c6 94 20 3b 5e d6 e2 bd 6a e4 f9 ba
       -0.0015265105 0.0024502738 -0.110760435 -0.0019065265
000330 ac df f2 3a 0b 67 06 be 9f 21 e8 bd 9c da 02 bb
       0.0018529794 -0.13125245 -0.11334538 -0.0019966727
000340 40 ac a0 3b 3c 2b 87 bd f9 06 46 bd aa 38 89 bd
       0.0049033463 -0.06600043 -0.048346493 -0.06700261
000350 58 c5 2d be 42 ba 73 bd 23 bd 93 3a a5 9e 39 3b
       -0.16969812 -0.0595038 0.0011271577 0.002832332
000360 1d 21 0f 3b 96 9d e9 bb b4 4a 29 3c a0 6f a9 bd
       0.0021839805 -0.0071293814 0.010332752 -0.08273244
000370 ce d1 fc 39 ff 7e 7a 3b 9b 55 25 bc d9 a6 16 3b
       0.00048221502 0.0038222668 -0.010091211 0.0022987633
000380 1e be 29 bb fa 73 07 be c0 f4 12 bb 87 3d 12 bc
       -0.0025900672 -0.13227835 -0.0022423714 -0.008925802
000390 d9 60 85 3b 0a f3 cd bb 28 70 c7 3a b3 52 98 bd
       0.004070383 -0.006285076 0.001521592 -0.074376486
0003a0 40 45 ff bd ce e8 2b bc f8 ed 51 ba e0 b3 b8 bb
       -0.1246438 -0.010492517 -0.00080081774 -0.005636677
0003b0 9c eb e4 bb fe da d9 bd cc 85 16 3c 4a 71 51 3c
       -0.0069860946 -0.106374726 0.009187173 0.012783358
0003c0 37 c7 08 bb 92 6f a1 bd 89 bd 1c be 8f cc 22 bd
       -0.0020870694 -0.078826085 -0.15306677 -0.039745864
0003d0 c9 49 89 bd 36 74 07 be e6 a5 0a be 3e 33 38 3a
       -0.067035265 -0.13227925 -0.13539848 0.00070266786
0003e0 a8 9c 4b bb 34 e3 28 3a 13 53 c7 39 d2 ba 7e 3b
       -0.0031068716 0.00064425473 0.00038018133 0.0038868678
0003f0 ea a3 8a bb fe 5c c3 3b 63 d7 7f bb 75 3f 48 bc
       -0.004230966 0.0059620133 -0.0039038293 -0.012222161

network_body.linear_encoder.seq_layers.0.bias f4 [128]
000000 1d 6b 00 be 9c 3b a3 3c 7e b4 fc bd cf 11 16 be
       -0.1254086 0.019925885 -0.12339114 -0.14655231
000010 dd 14 57 bc e9 c1 85 bc 0c 39 9a bd ee 1c d6 bd
       -0.013127533 -0.016327815 -0.07530412 -0.10454737
000020 bd 5f 2a 3c 6f 77 9b bc fd 45 0d bd 21 3d 32 bc
       0.010398802 -0.018977849 -0.034490574 -0.010878832
000030 4d 31 d0 bd 40 e2 8e 3d 17 95 0d bd 74 43 28 be
       -0.101656534 0.069767475 -0.03456601 -0.16431981
000040 ea c4 ef bb 82 17 f3 bd 6c 9b b1 bb 57 61 81 bd
       -0.007317175 -0.11869718 -0.005420139 -0.06317394
000050 a0 ad ab bd bc d3 b7 bd 9e 67 7b bd 8c a2 40 3d
       -0.08382726 -0.08975932 -0.061378114 0.047030017
000060 b7 39 b8 bd f8 f4 b7 3c d0 af c9 bd 3a c3 89 bd
       -0.08995383 0.022455677 -0.09847987 -0.0672669
000070 eb f7 96 bd 2a 07 fa bd 4d e0 8e bd e5 73 1f be
       -0.07371505 -0.12208398 -0.06976376 -0.15571554
000080 36 74 0e bd 65 6b c4 bd 57 9d 84 bd 46 a4 76 bd
       -0.034778796 -0.095907964 -0.06475323 -0.060215257
000090 f4 75 f4 bb aa 30 b6 bd ac 51 d9 be 8b f0 15 be
       -0.00746035 -0.08896001 -0.42445123 -0.14642541
0000a0 42 13 6a bd 22 70 c9 bd 4b c6 9a bd e7 22 9b bc
       -0.057147272 -0.09835841 -0.07557353 -0.018937541
0000b0 6c aa 83 bd 0e fc ab bd d3 31 25 3d c6 86 43 bd
       -0.0642899 -0.08397685 0.04033072 -0.04773595
0000c0 fc 51 6c bd 75 04 ed bd f4 ff 65 bd f4 52 2f be
       -0.057695374 -0.11573116 -0.0561523 -0.17121488
0000d0 46 b6 81 bd 13 dc cc 3b c1 b2 d0 bc 53 c9 bc bd
       -0.06333594 0.006251821 -0.025475862 -0.09218087
0000e0 0e b2 6c bd a3 bc cb bd a1 b8 0d be 5c 6d 26 bd
       -0.057786994 -0.09948089 -0.13839962 -0.040631637
0000f0 c6 7b a1 bd 51 9e 85 bd 6f b2 01 be 28 4a cd be
       -0.07884936 -0.06524337 -0.12665723 -0.4009564
000100 24 a2 88 bd 2d 9d bb bd f0 50 69 be 45 15 de bd
       -0.06671551 -0.09160838 -0.22784781 -0.108439006
000110 98 d0 95 bd 54 f2 c9 bd fb 9d ba bc 15 13 44 bd
       -0.07315177 -0.098606735 -0.02278041 -0.04786976
000120 a2 7d 17 be 07 55 70 bd ff 4a 58 3d 11 39 0a be
       -0.14794019 -0.05867484 0.052805897 -0.13498332
000130 18 39 06 be 23 5b 17 be 32 1b bc bc c8 6f 08 be
       -0.13107717 -0.1478086 -0.022962186 -0.13323891
000140 63 75 69 bd a1 fc e3 bd 6b cc 0b bd 9c 33 1d be
       -0.056996714 -0.111321695 -0.034130495 -0.15351719
000150 2a 62 ab bd da 03 28 bd fc 5d 66 bd cc 5d 37 bd
       -0.08368333 -0.041019298 -0.056241974 -0.044767186
000160 5b 05 92 bd 00 b7 e8 bc 09 7c d1 bd 17 bd 1c be
       -0.07129928 -0.028407574 -0.10228736 -0.15306507
000170 c7 06 e8 bd ae 68 8a bd 42 89 e5 bc de 6a 84 bc
       -0.11329418 -0.06758247 -0.028019551 -0.01616424
000180 9d a6 84 bd a1 98 44 bc 17 36 30 be 60 93 96 bb
       -0.064770915 -0.01199928 -0.17208134 -0.004595205
000190 94 cd 0b be 06 a7 a2 bc e5 e3 15 bd 67 f8 bc bd
       -0.1365264 -0.019855034 -0.03659429 -0.092270665
0001a0 e1 d8 d6 3c ed b0 f1 bd cb 74 01 be 41 fd 1a be
       0.026226463 -0.11801324 -0.12642209 -0.15135671
0001b0 2d de 19 be 61 06 b8 bd eb 34 11 be 27 2a 26 bd
       -0.1502616 -0.08985592 -0.14180343 -0.040567543
0001c0 12 44 fa bd 89 45 ed 3c 94 23 5a bc 85 20 0a be
       -0.12220015 0.028963821 -0.013314147 -0.13488968
0001d0 29 66 16 be 48 45 bd bd 17 4e df bd 3a 91 a4 bd
       -0.14687409 -0.0924173 -0.10903566 -0.08035512
0001e0 7a 06 6f bd 87 84 be bd 23 bd ea bd d5 2a a6 bd
       -0.058355786 -0.09302621 -0.11461856 -0.08113638
0001f0 bc ff 9e bd 4e 33 1b be 94 49 80 bd b2 67 bc bd
       -0.07763621 -0.1515629 -0.06264034 -0.09199466

network_body.linear_encoder.seq_layers.0.weight f4 [128, 68]
000000 6a 91 4b 3d 15 17 48 bc 3c 66 51 be ac cf 8e bd
       0.049699225 -0.012212534 -0.20449156 -0.06973204
000010 18 b2 df 3d 31 9f 9a 3e 88 7a 80 be 46 13 5b be
       0.109226406 0.30199578 -0.25093484 -0.21394071
000020 66 0d 7b be bd d8 8c bc 2f e8 7f be 1e c9 8f bd
       -0.2451683 -0.017193193 -0.24990915 -0.07020782
000030 0b 35 24 be 18 5b cc 3d df 8e 30 be 46 27 7b be
       -0.1603586 0.09978312 -0.17242001 -0.245267
000040 1d 85 ba 3e fb ec 80 3d 72 18 5c bd 5b 5d 2e bd
       0.36429682 0.062952004 -0.05373425 -0.0425695
000050 5e c0 40 3e 5d 18 39 3a 38 9c c4 3d c4 d1 fa bd
       0.18823382 0.00070608204 0.09600109 -0.12247041
000060 ed b2 74 be d9 30 f8 3c 93 20 29 bd 24 9b 2c 3e
       -0.2389638 0.03029673 -0.04129083 0.16856056
000070 fa 16 16 be 9e d5 06 be 11 ca 70 3e 0a 83 89 3e
       -0.14657202 -0.13167426 0.23514582 0.26857787
000080 2d 24 f1 bd 06 c4 92 bc b3 ae d0 bd 41 9e 66 3c
       -0.11774478 -0.017915737 -0.10189571 0.014075817
000090 2d ef 37 3e 99 86 44 3d 12 39 3e be 50 10 73 be
       0.17962332 0.047979925 -0.18576458 -0.23736691
0000a0 ea b2 8d be b3 ba 67 bd 85 6e 55 3e e3 ab 49 3e
       -0.27675563 -0.056574535 0.20842941 0.19694476
0000b0 2d 9f 4e 3e 15 e9 0b be b0 90 d8 be 26 e2 a7 be
       0.20177908 -0.13663132 -0.42297888 -0.32789725
0000c0 47 33 8b bd 20 dc 15 bd 33 fc 8e bd b3 30 61 3d
       -0.0679689 -0.03658688 -0.06981697 0.054978084
0000d0 38 f9 86 be 02 9b 0c be 8d 6c 02 be 3d 1d 56 be
       -0.26362014 -0.13731006 -0.12736721 -0.20909591
0000e0 38 bc be 3e b4 c2 90 3d 1e 68 9b be 21 da 9d be
       0.37252975 0.07068387 -0.30352873 -0.30830482
0000f0 02 70 41 be 09 a3 b0 bd 11 2d f9 bc 1d a4 58 3d
       -0.18890384 -0.086248465 -0.030416997 0.052890886
000100 45 7e 07 3c 9f b9 ba bb 91 60 f6 bc 60 99 be 3d
       0.008269851 -0.0056983973 -0.030075343 0.09306598
000110 fd cb 1c be 6a 03 3a be 62 d8 8d 3e 4d 8e ea 3e
       -0.1531219 -0.18165365 0.2770415 0.45811692
000120 95 28 ad be e3 d4 62 3c d4 1f d5 bc 41 d6 22 3f
       -0.33820024 0.013844701 -0.026016153 0.63608176
000130 59 6f dc 3d 57 9a ea bc 84 72 31 bd 40 ea 0e bf
       0.107634254 -0.028638048 -0.0433221 -0.5582619
000140 a7 25 1d be a1 42 19 3e b0 d9 e2 bd db 04 a6 bd
       -0.15346394 0.14966823 -0.11076677 -0.08106395
000150 24 9b b3 3d 58 54 fd 3d 66 a5 4e bd 0c 32 85 be
       0.08769825 0.12369603 -0.050450705 -0.26014745
000160 9b 87 a8 be b0 c6 c6 bd ee d6 7f be fd 4a 1c be
       -0.3291596 -0.097058654 -0.24984333 -0.15262981
000170 ca 44 bb 3e b5 9f 93 bc 88 ac ed 3a 01 59 6d be
       0.3657592 -0.01802049 0.0018133083 -0.23178484
000180 d8 bf 90 3e 6a 3c 99 3e 77 db 6c 3c 9e bf 89 be
       0.28271365 0.29928905 0.014456621 -0.26904005
000190 42 f4 99 3e f9 00 c9 bd a8 01 ee bd f8 bc 11 bf
       0.30069166 -0.09814639 -0.1162141 -0.5692897
0001a0 46 c7 01 be c0 bc a1 3d 31 aa 77 3e 50 89 84 3e
       -0.12673673 0.07897329 0.24186017 0.2588601
0001b0 90 27 42 3e cb 4d 6d 3d ef 92 f8 bd 50 d2 9b 3d
       0.18960404 0.057935517 -0.121374 0.07608473
0001c0 c4 c2 89 3e 98 1d cb 3d 6f 78 26 be d8 7a a9 bd
       0.26906407 0.09917754 -0.1625688 -0.08275384
0001d0 84 36 c5 bd 02 54 83 3d 96 a4 11 3e dc 90 38 3c
       -0.09629539 0.064125076 0.14222941 0.011265006
0001e0 c2 6c 5c 3e 7c 23 8a 3d f4 18 fd bd a9 31 ff bc
       0.21525863 0.06745049 -0.12358275 -0.03115161
0001f0 d2 14 44 3d ec c5 b3 39 59 8d 1e 3d df 33 63 3d
       0.04787142 0.00034289004 0.03870902 0.05546939
000200 89 1b 10 3c 6d 09 ab bd 3b c5 dd bb 25 65 f2 bd
       0.008795627 -0.08351407 -0.0067678965 -0.11835698
000210 fd 33 b8 3b e5 ab 0d bd 5d 6f e1 3d e9 89 ab bd
       0.005621432 -0.03458776 0.11007569 -0.08375914
000220 f3 db df 3c bf 69 79 3d 51 3c b1 bd 81 54 e1 be
       0.02732656 0.060891863 -0.086540826 -0.44009784
000230 8f 32 d5 bd 55 ad 97 bd b2 21 14 3e ae d4 3e be
       -0.10410034 -0.07406107 0.14465979 -0.18635818
000240 d2 bb 1b 3d 4a 53 52 3d a0 f8 2f be 6f 34 8c bd
       0.038020916 0.051348962 -0.17184687 -0.068459384
000250 c4 ac 32 be 62 ca af 3e 93 7c d3 be d3 34 6e be
       -0.17448717 0.34334093 -0.4130598 -0.23262338
000260 df 71 9e 3d f4 f6 8b be b7 ba 12 bf 33 bb 8c bd
       0.07736563 -0.27336848 -0.57316154 -0.06871643
000270 bd f4 a8 3e d3 cc b0 bc 5a e2 96 3e d1 14 4e 3d
       0.3299922 -0.021582043 0.29469568 0.05031282
000280 c3 b3 85 be da 2b 53 bc 62 ee 47 3e c9 9c 1e 3e
       -0.2611371 -0.012888873 0.1952453 0.15489496
000290 78 b4 f2 3d 68 81 bd 3d e3 c2 09 3e 4a 16 fe 3c
       0.11850828 0.09253198 0.1345325 0.031016488
0002a0 99 92 50 be 1c 77 f6 bd dc 29 33 3e a5 5b 9b 3e
       -0.20368423 -0.12034437 0.17496437 0.30343357
0002b0 d6 2c 78 bd 17 5d 6a bd 49 32 64 be 41 c3 05 bf
       -0.060589634 -0.057217684 -0.22284807 -0.5225106
0002c0 4a 5d 3e 3e ad 36 54 3c 5c fa 31 3b 01 b7 86 3e
       0.18590274 0.012952489 0.0027157282 0.26311496
0002d0 3e 28 22 bd 6f 92 3b be ea dd 77 bc 56 5b 8d be
       -0.03958916 -0.18317579 -0.015128592 -0.27608746
0002e0 c0 da d3 3d 85 d0 7d bd 20 ee 3d 3e 3f 1d 8b 3d
       0.103444576 -0.061966438 0.18547869 0.067926876
0002f0 6b 5e 9b be 1f 2d 10 3e c2 f0 1f 39 07 36 d5 3d
       -0.30345473 0.14079712 0.00015253111 0.104106955
000300 f6 6b 71 3e 77 2a 2f bd 7c a6 02 be 13 42 05 bf
       0.2357634 -0.042765107 -0.12758821 -0.52053946
000310 4e 8c 23 3e f6 cf cd 3d 83 cd 21 3e 98 3c a4 3d
       0.1597149 0.10049431 0.15801053 0.0801937
000320 de 8a 74 be c5 cb c0 3c 81 61 bb bd d8 eb 0e 3e
       -0.23881099 0.023534665 -0.09149457 0.13957155
000330 52 4d 01 be 0b 26 9f 3d 73 be 37 bd ba 6c d0 3c
       -0.12627152 0.07770928 -0.04485936 0.02544247
000340 2d 8b 82 be 6e ec 5a 3e e1 08 70 be d7 b3 f7 be
       -0.25496808 0.21379253 -0.23440887 -0.48379394
000350 c1 d4 c6 bd 0a 07 71 3d 50 03 96 bd de 80 d7 bd
       -0.09708548 0.058844604 -0.073248506 -0.10522626
000360 6c ed b3 be 46 f5 ee 3c e0 f4 03 bf 95 c5 ec be
       -0.35142076 0.02916969 -0.51545525 -0.46244493
000370 0f c7 35 be 32 63 b9 3c 49 cf c4 be d9 a8 14 bf
       -0.17751716 0.022630308 -0.38439396 -0.5807014
000380 aa d9 06 bf 86 6e c9 bd 31 a6 e9 be a1 d1 a9 be
       -0.5267588 -0.09835534 -0.45634606 -0.33167747
000390 41 62 18 bd c2 bf 81 3e 8f 71 af be 74 bb b2 be
       -0.037203077 0.25341612 -0.34266326 -0.3490864
0003a0 3f 9e b4 3d c1 af 18 3e a1 29 0d bf 67 93 a4 be
       0.088192455 0.14910795 -0.55141646 -0.3214371
0003b0 c3 3c f1 bb 91 14 75 bd 3a eb 5a be a9 03 19 bf
       -0.0073619797 -0.059834067 -0.21378794 -0.5977121
0003c0 4b 51 00 bf d8 a9 e4 bd cb 9b f5 3e 42 fa 7b 3d
       -0.50124043 -0.111652076 0.47970423 0.06151796
0003d0 08 60 ee bd 15 b8 fe 3d 5e 76 98 3e 9b 52 f7 3d
       -0.1163941 0.124374546 0.29777807 0.120763026
0003e0 ff e9 38 be 08 38 05 bd b0 55 b3 bd 48 e5 37 3e
       -0.18058012 -0.03252414 -0.08756578 0.17958558
0003f0 e9 04 8b bd 5e 3d a8 3d 2b 39 e3 3c af 58 75 3d
       -0.06788046 0.0821483 0.02773722 0.05989903

network_body.linear_encoder.seq_layers.2.bias f4 [128]
000000 39 36 41 bd 16 b6 cf be d4 db 8f bd 8c 74 64 3c
       -0.04717085 -0.40568608 -0.07024351 0.013943803
000010 fe 3a f9 bc 02 0e 5c bc 74 0c dc bc d2 de 09 b9
       -0.030423637 -0.013431074 -0.026861407 -0.00013148345
000020 f4 2b be be 36 e0 53 bc d1 12 31 3c 6d 02 18 bf
       -0.3714291 -0.012931874 0.010807709 -0.593787
000030 82 10 5e bd 90 17 2d bd 4e 19 66 bd 4c f7 0b 3c
       -0.05421496 -0.0422588 -0.056176476 0.008542847
000040 de e6 d4 bc b6 46 86 3b d5 72 b6 be 70 40 9b 3c
       -0.025988992 0.004097785 -0.35634485 0.018951625
000050 11 2b ef 3c cb 0c b2 be 71 25 00 39 ae 68 e5 bb
       0.02919534 -0.34775385 0.00012220979 -0.007001004
000060 c6 e0 b1 bc 14 9a c7 be 84 ab 2b bd 91 63 da bc
       -0.021713626 -0.3898474 -0.041911617 -0.026658805
000070 e1 a3 66 3c 3f 31 a7 3b a1 f4 6c bc 56 5e 1c bb
       0.014077158 0.005102306 -0.014462621 -0.002385994
000080 cd 3d 10 bf 2f 1c 48 bd 07 5a 87 bc 12 8f 9f 3b
       -0.563443 -0.048855003 -0.01652242 0.00486935
000090 84 93 33 3d 2e 68 49 bc 5e 5f 44 bb b3 73 3f bc
       0.043841854 -0.012292905 -0.002996407 -0.0116853
0000a0 9d 2c 88 3c 8f 44 82 bc 6f 3a 86 be 67 9d dd bc
       0.016622836 -0.015901832 -0.26216456 -0.027052594
0000b0 1c 4d 48 bd 34 65 89 bc 5d db b5 be 96 90 19 bd
       -0.048901662 -0.01677189 -0.35518923 -0.037491404
0000c0 b2 81 6b bd bc 21 46 3c f2 30 a4 be 69 f5 a8 be
       -0.057496734 0.012093004 -0.32068592 -0.32999733
0000d0 37 4a a4 be ad 7a c5 be c6 3b bb be 9e 93 eb bc
       -0.3208787 -0.38570157 -0.3656904 -0.028756913
0000e0 3d 8e c5 be 22 87 6a 3c 50 96 9a ba 77 96 0d bd
       -0.38585082 0.014314445 -0.0011794064 -0.034567323
0000f0 13 fe ac be 73 76 43 3c 0e 09 14 3c 17 1a af be
       -0.33787593 0.011930096 0.009035362 -0.34199592
000100 91 10 d6 3c 9c f8 ab bd 33 2f c0 be 93 f5 0a bd
       0.026130946 -0.08397028 -0.3753601 -0.033925604
000110 af 2b 1e bd d0 62 f2 bc eb 04 4c bd bd cc a3 ba
       -0.03861588 -0.029588133 -0.049809378 -0.001249693
000120 fd 3e 2a 3c 0a cc 1d bd 98 fe e0 be ae 58 6e bf
       0.010390994 -0.038524665 -0.4394424 -0.93104064
000130 e4 9c 34 3d 4b af 96 be 0b 85 a1 be 94 61 50 bc
       0.044094935 -0.29430613 -0.31546816 -0.012718577
000140 5c b1 e8 3a 74 04 a1 bd 92 bc 8e be 0d 11 0f bd
       0.0017753053 -0.078621775 -0.27878243 -0.03492837
000150 be 09 c8 be 11 ef b8 3b 1f 1a 13 bc 27 77 1a 3c
       -0.39069933 0.0056437333 -0.008978396 0.009427822
000160 48 c9 c7 bc e9 b9 1f bc 73 15 93 bd b4 a0 07 bf
       -0.02438797 -0.009748914 -0.071818255 -0.5297959
000170 f1 e7 b4 bc ff bb 9e 3a 70 08 87 39 fd 37 f2 bb
       -0.022083255 0.001211047 0.00025755493 -0.007391928
000180 97 d3 a0 b9 ad f7 ca be a4 b6 a3 3c c2 5f 5e bc
       -0.00030675225 -0.39642087 0.01998455 -0.013572635
000190 ff ad ed ba fa 24 df bc 95 02 62 bd 91 cf 6e bd
       -0.001813352 -0.027239311 -0.055178244 -0.05830342
0001a0 62 9b 9f be 6e 76 31 bd 7c cc 85 bc 19 60 24 3b
       -0.31173235 -0.043325834 -0.016332857 0.0025081693
0001b0 50 15 22 3c f6 bb cb be 4f 2b e6 bc 5c 86 4b bb
       0.009892777 -0.3979184 -0.028096823 -0.0031055426
0001c0 c8 a4 51 bd 7d 42 a9 be c5 ec c7 be 9f 9d e1 be
       -0.05118254 -0.3305854 -0.39047828 -0.44065568
0001d0 20 38 d7 be 86 8a b3 be ba 20 ac be 81 d0 e1 3c
       -0.42035007 -0.35066622 -0.33618718 0.027565243
0001e0 6d 22 5a bd 57 e3 75 bd 92 b1 7d bc 86 09 90 3b
       -0.053255487 -0.06003126 -0.015484231 0.0043956665
0001f0 37 9e bf bc f0 d8 a6 bc 6d aa ac bd 3a 76 1e 3d
       -0.023390872 -0.020367116 -0.08430944 0.03868697

network_body.linear_encoder.seq_layers.2.weight f4 [128, 128]
000000 f0 63 4c 3e ec 14 54 bc ab c9 2d 3e 16 0d aa bd
       0.19959998 -0.012944441 0.16971461 -0.08303277
000010 39 65 d5 bc 0e 2b dc bd b7 8b 03 3d 55 0d d4 3c
       -0.026049243 -0.107503995 0.032115664 0.025885263
000020 a2 51 ad bc bf 82 32 3d 35 e3 b1 bd f1 2a 45 bd
       -0.02115709 0.04358172 -0.086859144 -0.048136655
000030 05 1b 8c bc 9c ae c1 bd 1c 66 8e 3c 19 7b 34 3d
       -0.017102728 -0.09457132 0.017382674 0.044062708
000040 3a b2 f1 bc 15 d6 30 bd a5 9f 3f bd 36 b9 aa bd
       -0.02950393 -0.043172915 -0.04678311 -0.083361074
000050 d3 9b f6 3c d2 ba 20 3e 78 23 ec bc 1a 90 2f be
       0.0301036 0.15696266 -0.028825507 -0.17144814
000060 83 11 b7 bc c9 46 95 3c 1f 31 05 be b9 fa 75 3d
       -0.022347217 0.01822223 -0.1300702 0.06005356
000070 f3 e1 44 bd 6f 8f 42 3d 0f f4 4c bd 42 ba 99 3c
       -0.048067044 0.04750007 -0.05003744 0.018765572
000080 30 43 30 bc 44 94 c3 bc f0 f3 41 3c be c4 38 be
       -0.010758206 -0.02387441 0.011837944 -0.18043801
000090 6e cb 85 bd f1 51 04 be ee d5 22 3d 8d 2a d3 bd
       -0.06532942 -0.12921883 0.0397548 -0.1031085
0000a0 6f fc 34 be bd 9c 29 be 1d ad d4 3d f0 33 fd 3d
       -0.17674421 -0.16563697 0.10384581 0.12363422
0000b0 cf ea a2 3d 0a 08 58 3e cc b7 01 bc ca 22 fd 3d
       0.079549424 0.21096817 -0.007917356 0.12360151
0000c0 07 7e 96 3c 53 fd 0d bd 6e 15 bd bc 98 58 b5 3d
       0.018370641 -0.034665417 -0.023081508 0.088547885
0000d0 a7 73 70 3c ac 57 b4 3d 78 b4 2a be e2 bc 90 be
       0.014676011 0.088057846 -0.16670406 -0.28269106
0000e0 9c d2 f8 3d 96 9b 55 be a7 89 cd bd b3 ce 1b bd
       0.121495456 -0.20860133 -0.10036021 -0.03803892
0000f0 bb c4 62 bc 32 93 15 be 88 4a 89 be e2 0a 3d be
       -0.0138408495 -0.14606932 -0.26814675 -0.18461183
000100 fc 24 5c be c0 0a 7d 3c a4 45 f3 bb 99 50 5b 3c
       -0.21498483 0.0154444575 -0.0074240733 0.013385915
000110 f6 98 fa 3c 5c 8c 87 3d 28 bb 08 be f9 72 27 3d
       0.030590516 0.06618568 -0.13352644 0.04088113
000120 e9 9a a4 bd 82 38 60 3e 7c 32 a6 3d 93 40 d7 bd
       -0.08037359 0.21896556 0.08115098 -0.105103634
000130 c3 58 9d 3d 37 a3 a6 bd 6d 66 16 3e 9f 24 72 3d
       0.076829456 -0.081365995 0.1468751 0.059116956
000140 9f 79 79 3e 4a e0 00 be 4e 69 81 3d d4 75 26 bd
       0.24362801 -0.1258556 0.063189134 -0.040639713
000150 f2 c7 66 3e f0 4e 84 3e a9 bc 18 be b7 d3 93 bd
       0.2253721 0.25841475 -0.14915718 -0.07218116
000160 98 10 f4 3c 92 1c 89 3d 50 1b ad 3d 59 78 e6 3c
       0.029793069 0.066949025 0.08452475 0.028133558
000170 76 9d 4f be f9 b5 15 3b 26 8a 57 bd ea 8b 08 be
       -0.2027491 0.002284406 -0.052621983 -0.13334623
000180 52 41 c3 3c 29 fe 41 3e 53 c0 de bd 02 d2 f1 3d
       0.023834858 0.1894461 -0.10876527 0.11807634
000190 40 59 0a bd 0a 49 1b 3d ee 92 1b bd c2 a0 a6 bd
       -0.03377652 0.037911452 -0.03798192 -0.08136131
0001a0 b0 44 a2 bd 16 bd 4a 3c d8 c4 83 3d 5c a0 6d 3d
       -0.07923257 0.012374183 0.06434029 0.05801426
0001b0 45 7c d8 3d c0 c2 1b 3e 6b f7 f3 bc 6e d8 07 3e
       0.105705775 0.1521101 -0.029781064 0.13266155
0001c0 2e 43 61 3d a3 3f 1a 3d 62 63 03 bc 3d 4c e6 3d
       0.05499571 0.037658345 -0.0080193 0.1124501
0001d0 c0 4c 18 3e 9a b0 59 be cc 0b 31 3d 8b a9 85 3d
       0.14873028 -0.21258774 0.04322414 0.065264784
0001e0 c0 83 ba 3d 1a 4e 3a be 7f 8e 19 3e da fc 8c bd
       0.091071606 -0.18193856 0.14995764 -0.06884165
0001f0 db ca 91 be ac 90 9e 3d ff 7c 2b be 9e 7e c4 bc
       -0.2847508 0.07742438 -0.16746901 -0.023986157
000200 3b da d6 bb 77 17 06 be 08 73 fb 3c cc 70 87 3e
       -0.006556777 -0.13094889 0.0306945 0.26453245
000210 32 34 f8 3d c1 65 45 be a2 1b 16 3b 8f bb 10 3c
       0.121193305 -0.19277097 0.0022904654 0.00883378
000220 77 d5 1e be 39 6c 3f 3d bc 04 21 bd 0b 1d 81 3e
       -0.15511118 0.04673407 -0.039311156 0.2521747
000230 7d 0b bb 3d c6 a1 9d 3c c4 81 86 3e c1 70 7f 3e
       0.091330506 0.019242179 0.26270878 0.24945356
000240 2e 02 56 bd 27 13 6f 3e 6d 8d 9e bc e8 98 d8 3d
       -0.052248172 0.2334715 -0.019354546 0.105760396
000250 d5 a1 b5 3e 33 c9 d1 3d 4e ba c5 bd 3d 79 04 be
       0.3547503 0.10243454 -0.096546754 -0.12936874
000260 eb 33 f7 3d 5c b5 8a be d8 24 89 3d 39 98 0a 3d
       0.120704494 -0.2709149 0.066964805 0.033836577
000270 36 cc 38 be d8 4d ac 3c 7c ef f2 3d de 2d 64 3e
       -0.1804665 0.021033213 0.11862084 0.22283122
000280 91 b5 9c bd cf a2 8e 3d 6f 61 61 3a 0a 8e d9 3e
       -0.076518185 0.06964647 0.00085975876 0.4249118
000290 a7 24 e8 3d 17 2a 67 bd 39 fe 0b 3e ef fd cf 3e
       0.11335116 -0.056436624 0.13671197 0.40623423
0002a0 52 33 ed 3d 0a 1e 3f 3d 98 5b 11 bd bb 9e 95 3d
       0.11582054 0.046659507 -0.03548774 0.07305666
0002b0 81 9d 2e 3e ca a3 85 3e 7c 9d 74 3e 14 44 3c be
       0.1705227 0.26101524 0.238882 -0.18385345
0002c0 b9 66 49 3e 30 5e 0f 3e 0c 61 8a 3d 4f e8 43 bb
       0.19668092 0.14000773 0.067567915 -0.0029893105
0002d0 02 65 33 3d 8c bd 66 3d 5c d0 15 bd cd 52 bd 3c
       0.0437975 0.05633311 -0.03657566 0.023110772
0002e0 fc ae 8b bc b9 34 cf bc 03 79 12 bd 10 8f 89 3d
       -0.017051212 -0.025293695 -0.035759937 0.0671674
0002f0 ba d8 1d 3e ad a9 62 bd 32 a0 54 bd 04 8c 59 3e
       0.15414706 -0.055337597 -0.051910587 0.21244818
000300 8f fd 69 3e fd 50 2d be d7 d0 f2 3c 00 3b 7e bb
       0.22850631 -0.16925426 0.029640598 -0.003879249
000310 5e ea fb bd dc 4f 7f 3e 65 9b 2b be 8c 29 93 bd
       -0.12300561 0.24932808 -0.16758497 -0.07185659
000320 0f 42 0a 3e 42 27 3d 3e 03 e6 33 3e 74 86 54 3e
       0.13501762 0.18472007 0.17568211 0.20754415
000330 9f b2 00 3d 47 fe c8 bd 5d d1 0b be 97 be d7 3d
       0.031420346 -0.098141246 -0.13654085 0.10534399
000340 f0 48 3e 3d 5d 9e f1 3d 34 f8 69 3e d3 07 37 3d
       0.046456277 0.117977835 0.22848588 0.044685196
000350 77 56 0a 3e 7a 78 9d 3e f8 64 8e bc 1e e6 89 bd
       0.13509546 0.3075598 -0.01738213 -0.067333445
000360 46 9a d2 3b f2 fc fe 3c a4 41 45 3d 45 22 56 3e
       0.0064270822 0.031126473 0.048158303 0.2091151
000370 dd 89 ed 3d 29 d4 d6 3d 86 22 39 3e 77 dd 94 bd
       0.11598561 0.10489685 0.18079576 -0.072688036
000380 c1 69 ed bd 76 e6 1e 3e c4 93 0e 3e 80 ee 0e 3f
       -0.115924366 0.15517601 0.13923556 0.5583267
000390 dc 25 b1 bd 45 65 14 be b9 11 08 3d 87 d2 a0 3e
       -0.08649799 -0.14491756 0.033220027 0.3141062
0003a0 49 94 8d be 91 5e 29 3e 58 23 bd 3e 7a 4d 2a 3e
       -0.27652195 0.1653998 0.36941028 0.16631117
0003b0 68 81 12 bc 8d 27 61 3c 86 d9 bb 3d 6f 37 49 3d
       -0.008941986 0.01374234 0.09172349 0.04912513
0003c0 c0 84 ae 3e 31 2b 12 3d d6 37 c9 3b 40 89 cc 3e
       0.34085655 0.03568572 0.0061406894 0.39948463
0003d0 1c 8a 32 3e 58 91 64 bd ec 0e 43 3c f9 fe ae 3c
       0.17435497 -0.055802673 0.011905413 0.021361815
0003e0 dd 16 85 bd 7b 5d b5 3c f9 03 86 bd c8 d0 18 3e
       -0.064985014 0.022139302 -0.065437265 0.14923394
0003f0 dd 72 08 3e 2c d4 dd bd e4 b8 9b 3e b7 30 8a 3e
       0.13325067 -0.10831484 0.30414498 0.2699029
