Learning/results/mx2/KartAgent.onnx (onnx, 104129 bytes, 7 tensors)

41 f4 [1, 2]
0	0xbd0d3e1d	-0.034483064
1	0xbdcdca39	-0.100483365

distribution.mu.bias f4 [2]
0	0x3a8666bb	0.0010254005
1	0x3d3ce544	0.046117082

distribution.mu.weight f4 [2, 128]
0	0xbd023aae	-0.031794243
1	0x3bf98e6f	0.0076158564
2	0x3cef77cf	0.029231934
3	0xbce6716e	-0.02813026
4	0x3c3d1d8a	0.011542687
5	0xbcfd9016	-0.030952495
6	0x3baa7526	0.0052019535
7	0x3c9449c1	0.018101575
8	0x3c6ed195	0.014576335
9	0x3be35b2c	0.006938359
10	0x3d42c8ee	0.047554903
11	0x3959b1ee	0.00020761017
12	0x3cd7e603	0.026354795
13	0xbc1001c0	-0.00878948
14	0xbca994f6	-0.020700913
15	0xbced162c	-0.028941236
16	0xbcc01bdf	-0.02345079
17	0xbb08c0ea	-0.002086694
18	0xba5e7cba	-0.00084872136
19	0xbd0a5def	-0.03378099
20	0x3ae1429a	0.0017185987
21	0x3c38d5bb	0.011281426
22	0xbc3dd41e	-0.011586217
23	0xbcc9c7cc	-0.024631403
24	0x3bff0eec	0.0077837612
25	0xbc999e38	-0.018752202
26	0x3c62bebc	0.01383942
27	0x3c4e3bce	0.012587501
28	0xbcb4b1d3	-0.02205745
29	0x3c388b11	0.011263625
30	0x3c5be0ce	0.013420297
31	0xbca9c419	-0.02072339
32	0xba182a80	-0.0005804673
33	0xbc6d4c82	-0.014483573
34	0xbc98b3d6	-0.01864044
35	0x3d346a88	0.04404691
36	0x3c3fcafd	0.011706111
37	0xbc7e9dd4	-0.015540559
38	0x3a8949d2	0.0010474271
39	0xbd00d6a9	-0.031454716
40	0x3bcd5bcf	0.006267048
41	0xbca02f57	-0.019553823
42	0xbcb3036b	-0.021852216
43	0xbc8ee2ce	-0.017442133
44	0xbd11ae52	-0.035566635
45	0xbd00b904	-0.031426445
46	0xbbca84d7	-0.0061803865
47	0xbbf7e09f	-0.0075646187
48	0xbc304aee	-0.010760052
49	0x3ca24a91	0.019810947
50	0x3c1b9c2a	0.009497682
51	0x39f39116	0.0004645667
52	0xbbfb84b8	-0.0076757334
53	0x3d352e63	0.04423369
54	0xbc0d8e29	-0.008639851
55	0x3d4813f1	0.048847143
56	0xbc84a8f2	-0.01619384
57	0xbb2664d2	-0.0025389683
58	0x3c3a76d0	0.011380866
59	0xbcaa2656	-0.020770233
60	0x3be5f38f	0.00701756
61	0xba2abd62	-0.00065132056
62	0x3ca47b84	0.020078428
63	0x3c3a35d1	0.01136537
64	0x3caf4f7d	0.021400208
65	0xbc09ead4	-0.008417804
66	0x3cba64a4	0.022753067
67	0x3c8347a5	0.016025374
68	0xbbef642b	-0.007305642
69	0xbc72a327	-0.014809406
70	0x3ad1fde5	0.0016021101
71	0xbd2a8f87	-0.041640785
72	0x3d3687c7	0.04456308
73	0x3c3e72c6	0.011624044
74	0xbbe2fc0a	-0.006927018
75	0xbc3979b6	-0.011320522
76	0xbc842af7	-0.016133768
77	0x3c4bf79a	0.0124491695
78	0x3cbd1769	0.023082452
79	0x3c4c0f66	0.012454843
80	0xbba3919e	-0.004991724
81	0x3d0c7cdc	0.034298763
82	0xbd0a6991	-0.033792082
83	0x3abf9f59	0.0014619633
84	0xbc25688b	-0.010095726
85	0x3d18cad5	0.03730281
86	0x3c0b0159	0.008484208
87	0xbb4c9be8	-0.0031220857
88	0xbb799888	-0.00380853
89	0x3bfc7c11	0.0077052196
90	0xbcc5e62b	-0.024157604
91	0x3b6fa5e6	0.003656739
92	0x3ae75bf7	0.0017651309
93	0x3ca91a08	0.020642295
94	0x3c5e7a18	0.013578914
95	0xbc1c84e9	-0.009553173
96	0xbcfb6738	-0.030688867
97	0xbb99dedc	-0.0046957564
98	0xbd476d37	-0.04868814
99	0xbc9b698b	-0.018971225
100	0x3d41c890	0.047310412
101	0x3d0056d8	0.03133282
102	0x3c70ad35	0.014689733
103	0x3c5a53fb	0.013325687
104	0xbc3b0355	-0.011414369
105	0x3c91c206	0.017792713
106	0x3c2d83a8	0.010590471
107	0x3ce13326	0.02749021
108	0x3c49451e	0.012284545
109	0xbc136c43	-0.00899798
110	0xbc88a79d	-0.016681487
111	0x3c962d09	0.018332021
112	0x3be26da6	0.006910044
113	0xbd2e4ae7	-0.0425519
114	0x3c83028c	0.015992425
115	0xbb6ff3b2	-0.003661376
116	0x3cab5452	0.02091423
117	0xbb27f0e2	-0.0025625755
118	0xbc16361c	-0.009168174
119	0xba92ce19	-0.0011200338
120	0xbd1ebdde	-0.03875529
121	0x3c8c5ccd	0.017134095
122	0x3accb9bb	0.0015619317
123	0xbbafd36f	-0.005365781
124	0xbb17d351	-0.0023166726
125	0xbc8bdf0d	-0.017074132
126	0xbd8853d0	-0.06656611
127	0xbc8dae60	-0.017295063
128	0xbd7f3bb6	-0.062312804
129	0xbbdb59b6	-0.006694044
130	0xbb824134	-0.003975058
131	0x3cdd62e7	0.0270247
132	0xbd1a777d	-0.03771161
133	0x3a1eff6b	0.0006065282
134	0xbba73626	-0.0051028905
135	0x3bd634eb	0.00653707
136	0xbd1c1686	-0.038107418
137	0xbc32989e	-0.010900645
138	0x3d2fe396	0.042941652
139	0x3d43247d	0.04764222
140	0x3d4acfb5	0.04951449
141	0x3b3b498e	0.0028577778
142	0xbb50de61	-0.003187083
143	0xbd3696d2	-0.044577427
144	0xbca1c81c	-0.01974874
145	0x3d66d714	0.05635746
146	0xb980518f	-0.00024474828
147	0x3ab3f446	0.0013729415
148	0xbb7522bd	-0.0037404739
149	0xbd20c20f	-0.03924757
150	0x3d565efb	0.052336674
151	0xbd0fdd7a	-0.035123326
152	0x3ca45772	0.020061228
153	0x3a8c6c2f	0.0010713394
154	0x3ca09c79	0.019605862
155	0xbd809871	-0.06279076
156	0xbbed1f34	-0.0072363857
157	0x399e47b8	0.00030189543
158	0x3bfb30f4	0.007665748
159	0x3c4e941e	0.012608556
160	0xba874f47	-0.0010323309
161	0xbce2f4be	-0.027704593
162	0xbb89e7a4	-0.004208522
163	0x3b801d51	0.003909745
164	0xbd68ef2e	-0.056868725
165	0x3bb7a5dd	0.0056044892
166	0x3d6905a9	0.056890164
167	0xbc489519	-0.012242579
168	0xbc8bba03	-0.01705647
169	0x3c67cc48	0.014147826
170	0xbd2a47a4	-0.041572228
171	0xbc64c570	-0.013963088
172	0xbcb73815	-0.02236561
173	0xbc348eee	-0.011020405
174	0x3d8777fa	0.066146806
175	0xbb5edc30	-0.0034005754
176	0xbd0ceac4	-0.034403577
177	0xbc3e2688	-0.011605866
178	0xbd0c125c	-0.034197196
179	0xbd30bed6	-0.043150745
180	0xba6c3760	-0.0009010937
181	0xbbbf52c7	-0.0058387253
182	0xbcad26e6	-0.021136712
183	0x3c45a523	0.012063297
184	0xbd4b7ffc	-0.049682602
185	0xbd718e48	-0.05897358
186	0xbd3aed61	-0.04563654
187	0xbd23f79f	-0.04003107
188	0xbcde89e4	-0.02716536
189	0xbd01a29f	-0.03164923
190	0xbd1933c7	-0.037402894
191	0xbbea02ac	-0.007141432
192	0xbd65c194	-0.056092814
193	0x3d313d76	0.043271504
194	0x3c6299eb	0.013830642
195	0xbd79f748	-0.06102684
196	0xbd12b4e8	-0.035817057
197	0x3c75f71b	0.015012528
198	0x3d48d929	0.049035225
199	0xbb73c67f	-0.003719717
200	0xbd22be9c	-0.03973256
201	0xbd53c8e8	-0.05170527
202	0xbc9df95d	-0.019283945
203	0x3c9153eb	0.01774021
204	0x3a67de56	0.00088450813
205	0xbbdc44c0	-0.006722063
206	0xbcdc0224	-0.02685649
207	0xbd610a27	-0.054941323
208	0x3b89568d	0.004191226
209	0x3bf7322a	0.007543822
210	0x3cdf0097	0.027221961
211	0xbd379e53	-0.044828724
212	0x3c0d2b04	0.008616213
213	0xbb47d026	-0.0030489056
214	0xba8455b6	-0.0010096345
215	0xba973f82	-0.0011539313
216	0xbbafd7ea	-0.005366315
217	0x3cefce41	0.029273154
218	0xbae562eb	-0.0017500793
219	0xbd2b6ab7	-0.041849818
220	0xbc67a700	-0.014138937
221	0x3be63b00	0.0070260763
222	0xbca31b65	-0.019910524
223	0xbd07b535	-0.033131797
224	0xbc980129	-0.01855524
225	0x3c876cd9	0.016531395
226	0x3d34fe3b	0.044187766
227	0xbcf5f154	-0.0300223
228	0x3c76d84c	0.015066218
229	0x3bbb79ed	0.005721322
230	0xbd312f9a	-0.043258287
231	0xbc234737	-0.009965709
232	0xbcc346a3	-0.023837393
233	0xbd61db88	-0.055141002
234	0xbba39b42	-0.0049928734
235	0x3c300969	0.010744431
236	0x3b39ad1b	0.0028331939
237	0xbd11bb7c	-0.03557919
238	0xbcbcd1d1	-0.023049267
239	0x3bbb7f6b	0.0057219765
240	0x3c9f1254	0.01941792
241	0xbc9e1af0	-0.019299954
242	0xbcb9efef	-0.022697417
243	0x3c0523c8	0.008126207
244	0xbc514a92	-0.012774127
245	0x3d128b0d	0.03577714
246	0x3cf57063	0.029960817
247	0x3ca6215c	0.020279579
248	0xbbe8e0d9	-0.007106882
249	0x3d64f6c0	0.05589938
250	0xbd139eda	-0.036040165
251	0x3cb55e9d	0.022139842
252	0xbd7416c7	-0.059592035
253	0x3d3cddf6	0.046110116
254	0x3c518c0b	0.0127897365
255	0xbd1f99a2	-0.038964875

network_body.linear_encoder.seq_layers.0.bias f4 [128]
0	0x3c810656	0.015750092
1	0xbd0d3e0c	-0.034483
2	0x3c413c9a	0.011794234
3	0xbc20f609	-0.009824284
4	0x3ce484a3	0.027895277
5	0xbc17123a	-0.009220654
6	0xbc7fb618	-0.015607379
7	0x3c01d623	0.007924589
8	0xbcc3ae8e	-0.023886945
9	0x3c03d1b6	0.008045604
10	0xbcd53e44	-0.026030667
11	0xbc7e556c	-0.015523296
12	0xbcf8a5c1	-0.030352475
13	0xbc3d8851	-0.011568145
14	0xbc376741	-0.011194051
15	0x3a0558e2	0.0005086792
16	0xbca86762	-0.02055711
17	0x3c14f3ff	0.009091376
18	0xbc86b4fc	-0.016443722
19	0x3ca0f2f5	0.019647101
20	0x3ce8ecd4	0.028433241
21	0x38b2729a	8.5090476e-05
22	0xbc8eec2d	-0.017446602
23	0x3cb88757	0.022525473
24	0x3c119136	0.008884719
25	0xbc8c3b24	-0.017118044
26	0xbca10d86	-0.019659769
27	0xbcc78f6b	-0.02436038
28	0xbd8d0168	-0.06885034
29	0x3c10b450	0.008832052
30	0x3b047598	0.0020211693
31	0xba871c73	-0.0010308161
32	0x3b7f4fa9	0.0038957393
33	0xbca57a99	-0.02020006
34	0x3bc416a6	0.005984145
35	0xbbb894be	-0.005632966
36	0xbcb6c2cf	-0.022309689
37	0xb9c9bad4	-0.00038476905
38	0x3c7aab32	0.015299605
39	0xbcf97b31	-0.03045425
40	0x3c9fac6d	0.019491399
41	0x39bb2c11	0.00035700251
42	0xbcfbb761	-0.03072709
43	0xbaa50ed2	-0.0012592918
44	0xbc33c880	-0.010973096
45	0x389f6f82	7.602481e-05
46	0x3c997128	0.018730715
47	0x3c073396	0.008252045
48	0x3c0e4533	0.008683491
49	0xbca90d5b	-0.020636251
50	0xbc0c2c87	-0.008555538
51	0x3bdbf5a2	0.0067126313
52	0x3b220e1d	0.002472765
53	0xbc20f2b4	-0.00982349
54	0x3b5546c5	0.0032543403
55	0xbabc461b	-0.0014364155
56	0x3cdd0b50	0.026982933
57	0x3c795db1	0.015220092
58	0xbafdf582	-0.0019375535
59	0xbc9bf5cc	-0.019038104
60	0xbc93a7e6	-0.018024396
61	0xbd1092d3	-0.035296272
62	0x3caea7d5	0.021320263
63	0x3c8547d7	0.016269607
64	0x3c3a53ab	0.011372487
65	0xbd2dc0f8	-0.042420357
66	0x3c9d55d9	0.019205974
67	0xbb6ab182	-0.003581137
68	0xbc199a74	-0.009375203
69	0x3b4005a6	0.0029300242
70	0xbd0d63c6	-0.03451898
71	0x3ca98edb	0.020698002
72	0xbc0f87db	-0.008760418
73	0xbd0e5ce8	-0.03475657
74	0xbb676bea	-0.0035312125
75	0x3ba7ace5	0.005117046
76	0x3bd49ff5	0.006488795
77	0x3b88c25a	0.004173559
78	0xbc1cd482	-0.00957215
79	0x3899d66a	7.335546e-05
80	0xbbde787c	-0.006789265
81	0xbc33d7cb	-0.010976742
82	0xbb8f369c	-0.0043705236
83	0xbca3fbf5	-0.020017603
84	0xbc25336b	-0.01008306
85	0xbc7d07bb	-0.015443738
86	0xbc97b324	-0.018518038
87	0xbc4fcebf	-0.012683569
88	0xbc74c6e8	-0.014940001
89	0xbc9c0980	-0.019047499
90	0xba2f41da	-0.0006685533
91	0x35b5e7cf	1.3553016e-06
92	0xbc6b129e	-0.0143477
93	0xbaa1f799	-0.0012357115
94	0xbc8aca4b	-0.016942164
95	0xbc81fa41	-0.0158664
96	0x3c4eefd6	0.0126304235
97	0xbc754893	-0.014970916
98	0xbb349607	-0.0027555244
99	0xbc3cfa91	-0.011534349
100	0xbc00c413	-0.007859248
101	0xbb075b39	-0.0020653738
102	0xbc5972aa	-0.013271967
103	0xbbe3b983	-0.006949605
104	0x3cfc427d	0.030793423
105	0x3c57060b	0.013123999
106	0x3c7bfd87	0.01538027
107	0xbb9aa41d	-0.004719271
108	0x3ca01aa5	0.019543955
109	0xbcc92c13	-0.024557149
110	0xbbfd7976	-0.0077354265
111	0xbc62b4a0	-0.01383701
112	0xbc902236	-0.017594438
113	0x3c42355b	0.011853541
114	0xbbe8f702	-0.0071095238
115	0xbc0a67aa	-0.008447567
116	0x3bf00e74	0.0073259417
117	0xbc58e252	-0.013237553
118	0xbc011850	-0.007879332
119	0x3c2ac90a	0.010423908
120	0x3a197927	0.000585454
121	0xbd8852e7	-0.06656437
122	0xbc1ac6e2	-0.009446831
123	0xbc5ad35e	-0.013356058
124	0x3b82e664	0.00399475
125	0x3c5f14ec	0.013615828
126	0x3ba3c31e	0.004997625
127	0xbbc416da	-0.0059841694

network_body.linear_encoder.seq_layers.0.weight f4 [128, 68]
0	0xbe398853	-0.1811841
1	0x3d7f43a5	0.06232037
2	0xbdb17187	-0.08664232
3	0xbe29342e	-0.16523811
4	0x3ca9ee05	0.02074338
5	0xbe3acb5d	-0.1824164
6	0x3d7c5fc5	0.06161477
7	0x3e5b5dbe	0.21422479
8	0x3e0e963c	0.13924497
9	0x3dfcd899	0.12346
10	0xbd57eb73	-0.052714776
11	0xbd24ea97	-0.040262785
12	0xbcad7ac6	-0.021176707
13	0x3e80fab1	0.25191262
14	0xbcf22970	-0.029560775
15	0xbdeca9e7	-0.11555844
16	0xbdaf4746	-0.08558516
17	0xbe166513	-0.14686994
18	0x3e8113cd	0.2521042
19	0xbd877474	-0.066140085
20	0xbdd933e4	-0.106056005
21	0x3cc97a24	0.024594374
22	0x3b94eabb	0.0045445836
23	0xbd42307b	-0.047409516
24	0x3e1c780b	0.15280168
25	0x3d756922	0.059914716
26	0x3e4854a8	0.19563544
27	0xbd406710	-0.046973288
28	0x3cbd188a	0.02308299
29	0xbae8c951	-0.0017760192
30	0x3e36bd88	0.17845738
31	0xbd4b0c31	-0.049572174
32	0xbd2123f9	-0.039340947
33	0x3d21e11e	0.03952133
34	0xbd955ac6	-0.07292704
35	0x3dd01eb1	0.10162104
36	0x3cdb625a	0.026780296
37	0x3b80bfac	0.003929099
38	0x3cd70f1c	0.026252322
39	0xbe3c325d	-0.18378587
40	0xbd1fff02	-0.039061554
41	0x3e35b6ac	0.17745465
42	0x3e1260c4	0.14294726
43	0x3c5db55d	0.01353201
44	0xbdaa659d	-0.083201624
45	0x3db5b6a6	0.08872728
46	0xbbbeffaf	-0.0058288197
47	0x3d9fa716	0.07795541
48	0x3d5bd689	0.053671394
49	0xbda1ef95	-0.07907025
50	0x3cdd6a0c	0.027028106
51	0x3e2f51e0	0.17121077
52	0xbe458d5c	-0.19292206
53	0x3e1fa7c5	0.15591343
54	0xbd068a1a	-0.032846548
55	0x3d78dc45	0.06075694
56	0x3e09ae18	0.13445318
57	0xbe202278	-0.15638149
58	0x3db90643	0.090343975
59	0x3df1f63f	0.11814546
60	0x3e3ee0ad	0.18640395
61	0xbdd9ce37	-0.106350355
62	0xbe471160	-0.19440222
63	0x3d0cc8bf	0.034371134
64	0x3d392b71	0.045207445
65	0xbe29e769	-0.16592182
66	0x3d788b0f	0.06067949
67	0xbdfc935e	-0.123327956
68	0x3e4bb2c1	0.19892408
69	0xbe08d91f	-0.13364075
70	0xbcbb27c1	-0.022846105
71	0xbdfddad1	-0.123952515
72	0x3de2614d	0.11053715
73	0xbdc8ce55	-0.0980498
74	0x3db50392	0.088385716
75	0xbe613701	-0.21993639
76	0xbbb29d40	-0.0054508746
77	0x3ce6a8c7	0.028156651
78	0xbd1604d2	-0.03662569
79	0x3d572c06	0.05253222
80	0x3dc1ff89	0.094725676
81	0xbe22a3f7	-0.1588286
82	0x3d6271d8	0.05528435
83	0x3e39e330	0.18153071
84	0xbc9a150f	-0.01880887
85	0x3dbac02d	0.09118686
86	0xbd2c4cfe	-0.042065613
87	0xbe70a5ad	-0.235007
88	0xbd965565	-0.073405065
89	0xbe1539ff	-0.14572905
90	0x3e01253c	0.1261186
91	0xbdbe3883	-0.092881225
92	0xbdd94593	-0.10608973
93	0x3d384ad7	0.044993248
94	0xbbe856e5	-0.0070904368
95	0xbd972c08	-0.07381445
96	0xbd5a255f	-0.053258296
97	0xbd43cba8	-0.047801644
98	0x3db73418	0.08945483
99	0xbd288163	-0.041139018
100	0xbe951ed5	-0.29125085
101	0xbd4883a1	-0.048953656
102	0xbe87763c	-0.26457393
103	0x3e751e5b	0.23937361
104	0xbd42cd6a	-0.04755918
105	0x3eafd9ba	0.343458
106	0x3c96f589	0.018427627
107	0x3e361a14	0.17783386
108	0x3d7850d8	0.060623974
109	0xbe312fc7	-0.17303382
110	0xb9bd5ba7	-0.00036117175
111	0x3d8d51fd	0.06900404
112	0x3e037198	0.12836301
113	0xbdcae3d2	-0.099067345
114	0x3c836371	0.016038628
115	0x3d67a456	0.056553207
116	0x3d197049	0.0374606
117	0xbd0f0675	-0.034918267
118	0xbd864c85	-0.06557564
119	0xbe18d140	-0.14923573
120	0x3d73bf78	0.05950877
121	0x3dd19fb0	0.10235536
122	0xbdc3a4a1	-0.09552885
123	0x3d1b84fd	0.037968624
124	0x3e3682d8	0.1782335
125	0x3d4a224b	0.04934911
126	0x3cdbdb07	0.026837839
127	0x3db61236	0.08890192
128	0xbd19010a	-0.037354507
129	0x3dd0df2e	0.10198818
130	0x3e4135db	0.188682
131	0xbe59e1ea	-0.21277586
132	0xbd597eae	-0.053099327
133	0xbda32fd1	-0.07968105
134	0xbe20976c	-0.15682763
135	0x3d568b0f	0.05237871
136	0xbd210086	-0.03930714
137	0x3d1149e0	0.035470843
138	0xbc7003c8	-0.014649339
139	0xbda35061	-0.079743154
140	0xbdd9cdfb	-0.10634991
141	0xbdeef4da	-0.116677955
142	0x3dd52456	0.10407321
143	0x3d548c1f	0.051891442
144	0xbe1fafd8	-0.15594423
145	0x3dd8e38d	0.10590277
146	0xbd31210b	-0.043244403
147	0xbd7f7ebb	-0.06237672
148	0xbc5c17c7	-0.013433403
149	0xbdc59bbe	-0.09648846
150	0xbd2cf531	-0.04222602
151	0x3e445de7	0.19176446
152	0xbe022c04	-0.12712103
153	0x3e08c11b	0.13354914
154	0x3c99d166	0.018776607
155	0xbdac15ea	-0.08402617
156	0x3cc9dc6a	0.024641234
157	0xbd9f5ded	-0.07781587
158	0xbdff3289	-0.12460811
159	0xbd11d611	-0.03560454
160	0xbde7d155	-0.11319224
161	0x3d10c012	0.035339423
162	0x3d3698b2	0.044579215
163	0xbc98e588	-0.018664137
164	0xbd3d62a0	-0.046236634
165	0xbdebeb7b	-0.11519524
166	0x3de695de	0.11259054
167	0x3e690f10	0.22759652
168	0xbd95c786	-0.07313447
169	0xbe02e502	-0.12782672
170	0xbe79c765	-0.24392469
171	0x3e3e2b4b	0.18571202
172	0xbbd27a50	-0.006423272
173	0xbdc58e53	-0.09646287
174	0x3e79739a	0.24360505
175	0xba9ca7ff	-0.0011951922
176	0x3d5067fc	0.050880417
177	0x3d8f32fc	0.069921464
178	0xbd277f54	-0.040892914
179	0xbe76c214	-0.24097472
180	0xbe394e55	-0.18096288
181	0x3db32c7d	0.0874872
182	0x3e349268	0.17633975
183	0x3d3480dc	0.044068202
184	0x3dbe54a8	0.09293491
185	0x3d4365de	0.04770457
186	0xbd8c4841	-0.06849719
187	0x3dc820ac	0.09771857
188	0x3dcb9b2f	0.09941708
189	0xbdeabb73	-0.11461534
190	0xbda7e533	-0.08198013
191	0x3e176559	0.14784755
192	0xbd397f01	-0.045287136
193	0xbe1034a4	-0.14082581
194	0xbcdbbf7f	-0.02682471
195	0x3d152906	0.036416076
196	0xbcb02216	-0.021500628
197	0xbe3fd4e5	-0.18733557
198	0xbc9c1968	-0.019055083
199	0xbe07b92f	-0.13254236
200	0xbe18e430	-0.14930797
201	0x3e15351b	0.1457104
202	0x3d4a52ed	0.04939549
203	0x3d16e23a	0.03683684
204	0x3e547d3c	0.20750898
205	0xbcf24d8a	-0.02957799
206	0x3dae218e	0.08502494
207	0x3d55d27c	0.052202687
208	0x3d4537ac	0.048148796
209	0x3dbeda10	0.09318936
210	0x3d01fc75	0.031734902
211	0xbda8dfaa	-0.082457855
212	0x3df400b5	0.11914197
213	0x3d240040	0.0400393
214	0x3d30e3dc	0.043186054
215	0xbe8629d9	-0.26203802
216	0xbc2bd9d3	-0.010488945
217	0x3c7adcc1	0.015311421
218	0xbdde2553	-0.10846963
219	0xbd7e2f9c	-0.062057123
220	0x3cca658c	0.024706624
221	0x3e439a0f	0.19101737
222	0x3d70b862	0.05876959
223	0xbe327b88	-0.17429936
224	0xbd7defa9	-0.061996136
225	0xbd83ac71	-0.06429375
226	0x3d9dfe23	0.07714488
227	0x3d02eba7	0.031963017
228	0xbbc2d9be	-0.005946367
229	0x3e29175b	0.16512816
230	0x3cefcfd9	0.029273914
231	0x3ea854f4	0.32877314
232	0xbd555a52	-0.05208809
233	0x3d8902a1	0.066899545
234	0xbe1cff47	-0.15331756
235	0x3b20d854	0.0024543004
236	0xbe6a5fc1	-0.2288809
237	0x3cfe6a92	0.031056676
238	0xbc58c33b	-0.01323014
239	0xbdebb7e5	-0.115096845
240	0x3d58f172	0.052964635
241	0xbd64f86a	-0.05590097
242	0xbd99915f	-0.074984305
243	0x3c5d0f03	0.013492349
244	0xbc70cf7c	-0.014697906
245	0xbe09246f	-0.13392805
246	0xbe3d6b95	-0.1849807
247	0x3ce00562	0.027346317
248	0x3de90898	0.11378592
249	0xbe1ad92d	-0.15121908
250	0x3cc5170c	0.024058841
251	0xbe3562f8	-0.17713535
252	0xbc4ff537	-0.012692741
253	0xbd878670	-0.06617439
254	0xbb1061ae	-0.0022030878
255	0x3d61d592	0.055135317

network_body.linear_encoder.seq_layers.2.bias f4 [128]
0	0xbd0bd680	-0.03414011
1	0x3c095e94	0.008384366
2	0x3b9a77c2	0.0047139833
3	0x3ca17629	0.019709663
4	0xbce2506a	-0.027626235
5	0xbba834c7	-0.0051332447
6	0xbc32d5fb	-0.010915275
7	0xbb8f8493	-0.0043798178
8	0xbd03370b	-0.032034915
9	0x3bcc89f1	0.00624203
10	0x3c086dcf	0.008326962
11	0x3c859593	0.016306674
12	0x3cdc108c	0.026863359
13	0xbc3d6c89	-0.011561521
14	0xbb2357c0	-0.002492413
15	0xbcba8fe2	-0.022773687
16	0xbcb76779	-0.022388207
17	0x3cef2cb0	0.029196113
18	0x3ae5e49e	0.0017539447
19	0xbc1668ff	-0.009180306
20	0x3ab26cae	0.0013612711
21	0xbcfc9032	-0.030830476
22	0x3cdb671b	0.026782563
23	0xbcd5338b	-0.026025554
24	0xbae592f0	-0.0017515104
25	0x3a75e74e	0.00093804754
26	0x3c536f14	0.012904901
27	0xbd13e1ec	-0.036104128
28	0xbc396e13	-0.011317748
29	0xbb5dd34d	-0.003384787
30	0xbcc9bdc6	-0.024626624
31	0x3b84ba05	0.0040504956
32	0x3c8b5ad3	0.017011082
33	0xbd10e4c9	-0.035374437
34	0xbc5e5bb6	-0.01357167
35	0x3bb8d1e4	0.0056402553
36	0xbd568e73	-0.052381944
37	0xbc88cb2a	-0.016698439
38	0x3cd10ac9	0.025517838
39	0xbc71e5d1	-0.014764265
40	0xbcacf3b9	-0.02111231
41	0x3beda9be	0.007252901
42	0xbcf3a226	-0.029740404
43	0xbc37224b	-0.01117761
44	0xbc91f18d	-0.017815376
45	0xbb98b93f	-0.004660755
46	0x3cd89d83	0.026442295
47	0xbc1759a3	-0.00923768
48	0xbd08bf1f	-0.033385392
49	0xbc58b1f6	-0.013226023
50	0xbc2e8908	-0.010652788
51	0xbcda0149	-0.026611941
52	0xbc23ff63	-0.010009619
53	0x3c978666	0.018496703
54	0xbb912cef	-0.0044304053
55	0xbb903bdd	-0.0044016675
56	0xbd1ea839	-0.03873465
57	0xbcf8cd55	-0.030371347
58	0xbbc2965e	-0.0059383353
59	0xbcfb03fe	-0.030641552
60	0xbcdc2b2b	-0.026876053
61	0xbcca5a17	-0.024701161
62	0xbcca452b	-0.024691185
63	0xbc0e80f7	-0.00869774
64	0xbcff8183	-0.031189686
65	0x3c6c4710	0.0144212395
66	0x3ba28d52	0.0049606944
67	0xbd19c6fb	-0.03754328
68	0xbcbf1640	-0.02332604
69	0x3c1c8cd2	0.009555059
70	0x3c8325ce	0.016009238
71	0x3c01b1c3	0.007915917
72	0xbcda8fab	-0.026679834
73	0xbcfd189a	-0.03089552
74	0xbd12e38e	-0.035861544
75	0xbb456ed6	-0.0030125878
76	0xbc65ac93	-0.014018196
77	0xbbb2ff70	-0.0054625794
78	0xbbf5d6af	-0.007502399
79	0xbd1fc690	-0.039007723
80	0x3b1cc061	0.0023918378
81	0x3b960c51	0.004579105
82	0x3c9d961f	0.019236622
83	0xbd0dfe76	-0.0346665
84	0x3bf75727	0.007548231
85	0xbb81ae64	-0.0039575566
86	0xbc06bbf4	-0.008223522
87	0xbc28ed8b	-0.010310541
88	0x3bbc4a2d	0.005746147
89	0x3c3fd86a	0.011709312
90	0x3a30add6	0.0006739771
91	0xbd21ef41	-0.03953481
92	0xbc1edf34	-0.00969677
93	0x3c83257d	0.016009087
94	0x3ae40f6b	0.0017399614
95	0xbca092d1	-0.019601258
96	0xbce54546	-0.027987134
97	0xbb5c4c84	-0.0033614943
98	0x3c84838f	0.016176013
99	0xbc419ab1	-0.011816666
100	0x3c64dd26	0.0139687415
101	0x3c93ddab	0.018050035
102	0xbceafee7	-0.028686
103	0xbc953d27	-0.018217636
104	0xbae86262	-0.0017729516
105	0xbd25a604	-0.040441528
106	0xbc4960ca	-0.012291143
107	0xbc5e4de3	-0.013568374
108	0x3c200e45	0.009769027
109	0x3c5f2061	0.01361856
110	0xbcb9991e	-0.02265602
111	0x3c26f347	0.010189838
112	0xbbb4dc9a	-0.005519462
113	0xbc8e271d	-0.017352635
114	0xbc9715ae	-0.018442955
115	0xbb3fab77	-0.0029246488
116	0xbc3ef066	-0.011653995
117	0x3c5b8cb5	0.013400246
118	0x3b02fa0f	0.0019985472
119	0x3c3ae66b	0.011407475
120	0xbad2e39e	-0.0016089564
121	0x3c75a1b5	0.014992167
122	0xbc6ad4ec	-0.014332991
123	0x3bec92f6	0.0072196675
124	0xbd0055ff	-0.031332012
125	0x3c9960f8	0.018722996
126	0x3c76df5d	0.015067902
127	0xbc440075	-0.011963

network_body.linear_encoder.seq_layers.2.weight f4 [128, 128]
0	0x3c86ca56	0.016453903
1	0x3d9b2d8c	0.07577047
2	0xbde57cb1	-0.112054236
3	0xbd07982b	-0.033104103
4	0xbe6debfa	-0.23234549
5	0x3d0b53dd	0.034015525
6	0x3c05e36b	0.008171896
7	0x3c8bfcdd	0.017088348
8	0x3d922247	0.07135444
9	0xbe4ae146	-0.19812497
10	0x3d253caf	0.040341076
11	0x3e0c8cc9	0.1372558
12	0xbd4ff77d	-0.050773133
13	0x3e2ff183	0.17181973
14	0xbdf4b103	-0.11947825
15	0xbdc2d4f1	-0.095132716
16	0x3db27872	0.08714379
17	0x3da5e046	0.080994174
18	0x3c41a371	0.011818753
19	0xbe2c79c9	-0.16843332
20	0x3d06b76c	0.03288977
21	0xbd89cbcf	-0.067283265
22	0xbe39a7a9	-0.18130364
23	0xbd40649d	-0.046970952
24	0xbe086364	-0.13319165
25	0xbe44a47e	-0.19203374
26	0xbda244dd	-0.07923291
27	0x3d610b58	0.05494246
28	0x3d163e21	0.036680344
29	0x3d9af626	0.0756648
30	0x3d1cbb51	0.038264576
31	0x3d8154a1	0.0631497
32	0xbca7dc82	-0.020490889
33	0xbd21dff6	-0.039520226
34	0xbe4b18e6	-0.19833717
35	0xbe64f3a0	-0.2235856
36	0xbc13d875	-0.009023775
37	0xbdf47da8	-0.119380295
38	0x3c9bd1d6	0.019020956
39	0xbb24a8f2	-0.0025125113
40	0x3d0aa4e5	0.033848662
41	0xbdc21ed4	-0.09478536
42	0xbe1cc593	-0.15309744
43	0x3d91f92b	0.07127603
44	0xbe889a2f	-0.26680133
45	0xbdd355a8	-0.10319072
46	0x3d8da3fc	0.06916043
47	0xbc79fa28	-0.015257396
48	0xbdbfd9c3	-0.093677066
49	0xbd4494bf	-0.047993418
50	0x3e17cdc4	0.14824587
51	0xbdf315b9	-0.11869378
52	0xbe192f28	-0.14959395
53	0xbdce74fd	-0.100809075
54	0x3de36ac6	0.1110435
55	0x3d341057	0.043960895
56	0xbeacc519	-0.33744124
57	0x3be8f4cd	0.0071092607
58	0xbd27a464	-0.04092826
59	0xbd1d7aec	-0.038447306
60	0xbd5ff304	-0.054675117
61	0x3c71818a	0.014740357
62	0x3d92c2b2	0.071660414
63	0x3d601b1f	0.054713365
64	0xbdc69511	-0.09696401
65	0xbd6e0ba6	-0.058116578
66	0xbd420ff0	-0.04737848
67	0x3d705b44	0.058680788
68	0xbe24ea2c	-0.16104954
69	0xbdd157a8	-0.10221797
70	0x3d25aebe	0.04044985
71	0x3d822860	0.06355357
72	0xbbdfa953	-0.006825605
73	0x3d102d82	0.03519965
74	0x3df077d9	0.11741609
75	0xbc880f3b	-0.016608825
76	0x3e09f215	0.13471253
77	0x3e03da9d	0.12876363
78	0xbc1e0af3	-0.009646165
79	0x3dbcb04c	0.092133135
80	0xbde44b3e	-0.11147164
81	0xbd6f4288	-0.05841306
82	0x3dc7c79e	0.09754871
83	0x3d92cbfb	0.071678124
84	0xbe0864b4	-0.13319665
85	0xbe2f7c98	-0.17137372
86	0xbc249545	-0.010045354
87	0xbcfedafb	-0.031110277
88	0xbe1d4b72	-0.15360811
89	0x3e63c2b8	0.22242248
90	0x3e110ce4	0.14165074
91	0xbd013bdc	-0.031551227
92	0xbd995241	-0.07486392
93	0xba84c36f	-0.0010129045
94	0xbe032106	-0.12805566
95	0x3daeee05	0.085414924
96	0x3d1b9298	0.0379816
97	0x3d90a6a3	0.070630334
98	0xbdb55b37	-0.088552885
99	0x3d7a6376	0.06113001
100	0x3e601a99	0.21885146
101	0xbd571076	-0.052505933
102	0xbd27b86d	-0.040947367
103	0x3d9b6057	0.07586735
104	0x3d7f8100	0.062378883
105	0xbca0bd28	-0.019621447
106	0x3da80940	0.08204889
107	0xbe57c099	-0.21069564
108	0x3d9b182a	0.07572968
109	0x3d3ca91a	0.046059705
110	0xbe479231	-0.19489361
111	0x3e2ea130	0.17053676
112	0x3d79a339	0.060946677
113	0xbcb387c0	-0.021915317
114	0xbd034b52	-0.032054253
115	0xbc58ad4e	-0.013224913
116	0x3e2b0272	0.16700152
117	0xbd88809d	-0.06665156
118	0x3c9a9853	0.018871462
119	0xbd5ba57d	-0.05362462
120	0x3de2d893	0.110764645
121	0x3e186f79	0.14886273
122	0x3e3d2694	0.18471748
123	0xbc915398	-0.017740056
124	0x3daddc9f	0.08489346
125	0xbde22757	-0.1104266
126	0x3e03d6f8	0.12874973
127	0x3d378cf3	0.044812154
128	0xbc980ab9	-0.0185598
129	0x3e206711	0.15664317
130	0x3d137c1b	0.036007028
131	0x3d4add99	0.04952774
132	0x3db2914e	0.08719121
133	0xbcf454ed	-0.029825652
134	0xbd8c99b5	-0.06865255
135	0xbbaddfd7	-0.005306225
136	0xbd9358f8	-0.07194704
137	0x3c7483f8	0.014924042
138	0xbdd0d8b1	-0.101975806
139	0xbd545896	-0.051842295
140	0x3d9f1a5f	0.07768702
141	0xbd325a38	-0.04354307
142	0x3b8b5f6e	0.0042533195
143	0xbdca728c	-0.09885129
144	0x3d482fc1	0.048873667
145	0x3d1394a6	0.036030434
146	0xbd1fbd74	-0.038999036
147	0xbd7836ec	-0.060599253
148	0xbd80a01e	-0.0628054
149	0x3e2c9658	0.16854227
150	0x3c2e75b9	0.010648184
151	0xbddb34aa	-0.10703404
152	0xbd4b320d	-0.04960828
153	0x3d9696f3	0.0735301
154	0xbde3fdd6	-0.111324
155	0x3c34483e	0.011003552
156	0xbd4b0dcd	-0.04957371
157	0xb92e9169	-0.00016648103
158	0x3df30772	0.118666545
159	0x3d5c5eba	0.053801276
160	0x3de2cc4f	0.11074125
161	0xbc8e27a7	-0.017352892
162	0x3e25f33b	0.16206066
163	0xbe15d9cf	-0.14633869
164	0xbe10bdc7	-0.14134894
165	0xbd81fe92	-0.063473836
166	0x3c802d5b	0.015646627
167	0x3d9a9011	0.0754701
168	0x3d36c27e	0.044619076
169	0x3d214dd4	0.039380863
170	0x3ddef28a	0.108861044
171	0x3dd32b5e	0.10311006
172	0xbd3a9616	-0.04555329
173	0xbd559f99	-0.052154157
174	0xbdec0d0d	-0.11525927
175	0xbd958d4b	-0.0730234
176	0x3dc46658	0.09589833
177	0xbde2b60e	-0.110698804
178	0xbc3fe9ec	-0.011713486
179	0xbc29c9f3	-0.01036309
180	0xbdd28cae	-0.10280739
181	0x3d27d154	0.040971115
182	0x3b8a4e31	0.004220747
183	0xbddce9d8	-0.1078679
184	0xbdebe062	-0.11517407
185	0xbaff67a6	-0.0019485846
186	0x3cb7403b	0.022369495
187	0xbd8a054a	-0.0673929
188	0xbd240844	-0.040046945
189	0xbd5ad7ff	-0.053428646
190	0x3d54ec27	0.051983025
191	0x3c12b5a7	0.008954442
192	0x3d318f29	0.04334942
193	0xbb99ec98	-0.0046973936
194	0xbd2ddd6a	-0.042447485
195	0x3c8f83a2	0.017518822
196	0xbdc253ef	-0.09488665
197	0xbba25d0a	-0.004954939
198	0xbc2f8c8f	-0.010714664
199	0x3e7bd8d0	0.24594426
200	0xbe068f67	-0.13140641
201	0x3e23914f	0.159734
202	0x3dbf8552	0.09351601
203	0x3cbe9d77	0.023268444
204	0xbd09de93	-0.03365953
205	0x3d415a22	0.047205098
206	0x3da323fd	0.079658486
207	0x3cb42148	0.021988526
208	0xbd6927d2	-0.05692274
209	0xbd7fe494	-0.06247385
210	0xbdbe6b84	-0.09297851
211	0x3dc63634	0.09678307
212	0x3d1f32a6	0.03886666
213	0xbe391115	-0.18072923
214	0x3e1c1aa9	0.15244545
215	0xbdf3b775	-0.11900226
216	0x3bddf011	0.006773003
217	0x3cf150e6	0.02945752
218	0x3d333a85	0.04375698
219	0x3d31c191	0.04339749
220	0x3ea08232	0.3134933
221	0x3df73fd4	0.12072721
222	0x3c2c5080	0.01051724
223	0xbe12bd37	-0.14329992
224	0x3d0731b5	0.03300639
225	0x3ddb1bcd	0.10698662
226	0xbd73c178	-0.059510678
227	0xbc125195	-0.0089305835
228	0xbd1906f5	-0.03736015
229	0x3c16e8f5	0.009210815
230	0x3cdc51b7	0.026894433
231	0x3de7440c	0.11292276
232	0x3d814542	0.06312038
233	0xbc97498a	-0.018467683
234	0xbd32a9cc	-0.043618962
235	0xbe1f27b4	-0.1554249
236	0x3bda2ef6	0.00665843
237	0x3b83dcc4	0.00402412
238	0xbd92196e	-0.071337566
239	0xbd800c04	-0.06252292
240	0x3de71afa	0.11284442
241	0x3da329fa	0.07966991
242	0xbd103399	-0.035205457
243	0x3d7479ad	0.05968635
244	0xbd869cbc	-0.065728635
245	0xbad7e16d	-0.001647038
246	0xbd4bbfaf	-0.04974335
247	0x3c6b5601	0.014363767
248	0x3ce30cf8	0.027716145
249	0x3d2ca107	0.042145755
250	0xbc3ca4b1	-0.011513875
251	0x3e2954d5	0.16536267
252	0xbde70eb0	-0.11282098
253	0x3deae510	0.114694715
254	0xbda7da07	-0.08195882
255	0xbda9603d	-0.08270309
