Learning/results/mx8/KartAgent.onnx (onnx, 104129 bytes, 7 tensors)

39 f4 [1, 2]
00000000: 829c 893c 3745 37bd
0.016798262 -0.044743743

distribution.mu.bias f4 [2]
00000000: d0ca 93ba ba94 ac3c
-0.0011275653 0.021067012

distribution.mu.weight f4 [2, 128]
00000000: 9030 133c 17db 02bc f69b e6bc 2e9e 9f3b
00000010: 330f 6c3c 6dcf d9bc 3444 c23c 99fd 9c3c
00000020: 8e7f 68bc 4762 143c ef2c 043d 18bf 99bc
00000030: 0821 c23a 2d6c cebc c540 913c 139a 0abc
00000040: a1a1 473c ceb1 8abb f536 15bc 59d2 52bc
00000050: 51f0 793c dc9c c5bc a64d 47bc f4b8 3b3c
00000060: 73d9 0cbd f04b 783c bbf5 f4bc 633e d5bc
00000070: f2e0 1a3d 43d1 37bb e6fd b5bc 2718 a7ba
00000080: 96c4 b63c c55b e0bb 8593 113d fc19 8d3c
00000090: 3ade 913c 7a7c e3bc 2df6 95bc 7eca 6f3c
000000a0: c66f 1dbc 98f3 e7bb 79bb b13c 6be0 fa3c
000000b0: 0526 2e3d 5b22 82bc bd6c 523b e918 303d
000000c0: f958 293b 0527 66bb 9112 bdb9 9ccd 50bb
000000d0: 4aa3 72bd 9bb5 c83b 036f 0fbc e079 26bd
000000e0: 948c 59bc 62cf 82bc a60d dfbc 5214 723b
000000f0: 142b 98bc 7dd0 b73c c543 983b 4cd8 2ebb
00000100: d1c0 a73b 5408 7e3c 3fdf b53c a7d1 0fbb
00000110: 1202 913c 1724 883c 9d40 df3c 893b cabb
00000120: cb6b 93ba adae 1f3a 0cd7 fcbc 3bcd 353d
00000130: cfc1 f13c 214c 78bc d53e b83c 1ca5 ff3c
00000140: deed 3b3b 9231 8bbc 597d 99bc 48a6 b8ba
00000150: 5671 893c 6416 ab3b 1761 d1bb fe30 99bc
00000160: bd79 d93b 5493 dcbc 3a7b 6dbc a69f a0bc
00000170: 4e9f ce3b 4a6b 4cbc 5395 79bb 0251 3e3c
00000180: e11b bf3c fd16 973c 05b2 cabc 2875 e13b
00000190: 08cd 2a3c e167 2e3c 579f 1dbc e215 7d3c
000001a0: 57a1 b73a 9846 843c c11e 173d 7495 2e3b
000001b0: 2199 8ebc 9216 a6bc b5c4 27bc 41e4 09bd
000001c0: 1379 353c 62aa 893c 6210 b73c 90ca 79bb
000001d0: 3f81 083d 3dab 4cbb e54f 47bd a43c 393c
000001e0: 54c8 083d d005 a63c 2611 cebc 1bcb 8c3b
000001f0: 249a 833c c559 d53c 93ba 313c c255 bbbc
00000200: 2486 0dbd e0fc 8a3d 55a0 cbbc 8a5b 3a3d
00000210: c868 a0bc 546b 58bd 4f22 6d3c 3c3c 01bd
00000220: fc42 f3bc 16e4 5fbd 6db2 b3bc bc8f 04bd
00000230: ff41 973c 08a3 4b39 780b f03b 73dc 84bc
00000240: 52d8 13bd 12fd 113d e1bd 073d 4038 0e3d
00000250: c2db 15bd 44b6 8cbd 48c5 07bd 8689 35bd
00000260: b00e cfbc 938f 4dbd 32e1 883c 79e0 433c
00000270: c6be 57bd 3255 793d f2e8 efbc a8b9 2a3d
00000280: 1418 61bc 40ca 043d b3d2 473d 4787 8e3c
00000290: cda7 6d3c 90c0 ddbc aca8 07bd a45f 3a3d
000002a0: 86f7 153d 3e83 f43c 2534 993c b542 9fbc
000002b0: a4a9 3fbc 1e44 e8bc 80e4 c4bc d3ed 193d
000002c0: c556 9e3c b31f 003d 0509 0b3d 67a9 e2bc
000002d0: 4104 dbbc e8d1 d4bc f18d 28bd 03e5 c8bc
000002e0: 658c 30bd c757 323d 94dc 1dbd b827 ea3c
000002f0: 9b0d f3bc dac8 89bc f98b fbbc 36df bdbc
00000300: 6854 09bd 5f7f 37bd b610 cabb 685d 2bbd
00000310: 4ed4 a2bc 6394 d4bc 89e5 efba c86e 15bd
00000320: 5c0c 823c 49e4 f83c 00ff 423d 1d38 1abc
00000330: 39a1 c8bc 0b18 0ebd e78c 263d 47f6 993d
00000340: cd80 383d 161a 3d3d d501 77bc 2d79 aabc
00000350: 5a4d 3bbd 21b4 073c 7fa7 c73c 6ee1 6c3c
00000360: c860 edbc 71c4 073c 6319 abbb f4f7 463c
00000370: 4b0d 66bc d626 c1bc e76d 17bd 7166 113d
00000380: 35e0 ad38 9172 003c c4dc b33b 02e9 c2bc
00000390: 0400 a53c 40b4 bf3c 2e23 c0bc c307 20bd
000003a0: a2e1 bbbc 7149 973c 08e5 763c b0a3 88bc
000003b0: a23b 0abd 582f 8f3b 6fb5 18bd 79bd bc3c
000003c0: cdbe 37bd d657 113c f96f e13c 3802 13bd
000003d0: 52d9 68bc dd81 973d 3d85 913c 6f1e 3cbd
000003e0: dbcc 02bd aa2e 22bc 23f3 05bd 51e2 04bc
000003f0: 5821 34bd 5827 a73c 0f42 893c 5fac b23c
0.008983746 -0.007986805 -0.02815054 0.0048711514 0.014407921 -0.026588166 0.023714162 0.019163894
-0.014190568 0.009056634 0.032269415 -0.018767878 0.001481087 -0.025198067 0.01773108 -0.008459586
0.012184531 -0.0042326218 -0.009107341 -0.012867534 0.01525505 -0.024122648 -0.012164509 0.0114576705
-0.034387063 0.015154824 -0.02990233 -0.026030725 0.03781218 -0.0028048314 -0.022215795 -0.0012748287
0.022310536 -0.0068468773 0.035541076 0.017224304 0.017806161 -0.027769316 -0.018305862 0.01463568
-0.009609168 -0.007078599 0.02169584 0.030624589 0.042516727 -0.015885523 0.003210827 0.042992506
0.0025840385 -0.0035118472 -0.00036062722 -0.0031860834 -0.059237756 0.0061251647 -0.008754495 -0.040643573
-0.013278145 -0.015968028 -0.027228188 0.0036938381 -0.018575229 0.022438282 0.0046467506 -0.0026679216
0.005119421 0.015504915 0.022201179 -0.002194503 0.017701183 0.016618771 0.02725249 -0.006171648
-0.0011247335 0.00060913974 -0.030864261 0.044385176 0.02951136 -0.015154869 0.022490898 0.03120666
0.0028675715 -0.01699141 -0.018736528 -0.0014087642 0.016777676 0.005221175 -0.006389748 -0.01870012
0.006636827 -0.02692572 -0.0144947115 -0.019607376 0.0063056117 -0.012476752 -0.003808339 0.011615993
0.023328723 0.018443579 -0.02474309 0.006880421 0.01042486 0.010644884 -0.009620509 0.015447112
0.0014009875 0.016146943 0.036894564 0.0026639374 -0.017407002 -0.020274434 -0.01023977 -0.033664946
0.01107623 0.016804878 0.02234668 -0.0038115121 0.033326384 -0.0031229996 -0.048660178 0.011305962
0.033394173 0.020266443 -0.025154661 0.004296673 0.01606471 0.026043782 0.010847705 -0.022868041
-0.034551755 0.06786513 -0.024856726 0.045497455 -0.019581214 -0.05283673 0.014473512 -0.031551585
-0.029695027 -0.05466088 -0.021935666 -0.03236364 0.018464087 0.00019420322 0.007325586 -0.0162184
-0.03609497 0.035641737 0.033140067 0.034721613 -0.03658653 -0.06870702 -0.033147126 -0.044320606
-0.025275558 -0.05018575 0.016708944 0.011955374 -0.05267217 0.060872264 -0.029285882 0.04168096
-0.013738651 0.032419443 0.048784923 0.01739849 0.014505339 -0.02706936 -0.033119842 0.045501366
0.03661301 0.029847737 0.018701622 -0.019440988 -0.01169816 -0.028352793 -0.024034739 0.037580322
0.019328484 0.03128023 0.03394415 -0.027668668 -0.026735427 -0.025978997 -0.04115099 -0.024523264
-0.04310264 0.043540742 -0.038540438 0.028583393 -0.029669574 -0.016819406 -0.030706393 -0.023177724
-0.03352776 -0.044799205 -0.006166543 -0.041837126 -0.019876625 -0.025949663 -0.001830266 -0.036482602
0.015875034 0.030382292 0.04760647 -0.0094127925 -0.02449094 -0.034690898 0.04066172 0.07517677
0.04504471 0.046167456 -0.01507612 -0.020809734 -0.045728065 0.008282692 0.02437186 0.0144580435
-0.028976813 0.008286581 -0.005221532 0.012144078 -0.014041255 -0.023578089 -0.036970045 0.035498086
8.291045e-05 0.007839815 0.005488964 -0.023792747 0.020141609 0.02340138 -0.023454275 -0.039069902
-0.022934739 0.018467637 0.015069254 -0.016679615 -0.033748277 0.0043696575 -0.037282404 0.023039566
-0.044859696 0.008871039 0.027519213 -0.035890788 -0.014211969 0.07397816 0.017763728 -0.04592746
-0.031933647 -0.009898821 -0.032702576 -0.008110599 -0.04397711 0.020404503 0.016755132 0.021810709

network_body.linear_encoder.seq_layers.0.bias f4 [128]
00000000: a5d6 64bc 5d90 c93c 57b5 7ebc a55c b73b
00000010: 648f 953c 1f46 7abc aa70 883c 4761 9cbc
00000020: 0da7 8c3c 0f52 4c3c 5150 0a3c e5ba 373c
00000030: 04f3 81bc f1d8 633c 5967 9cbc 62d6 6c3c
00000040: d672 7abc 52e4 ea3b 5200 9abc 9c10 55bc
00000050: 6b8b 95bc c964 a53c f162 b23c 00be 85bc
00000060: 84ba 863b 8cdc edbb 0838 34bc d9bd c83c
00000070: 051e 0abd 0b43 4bbc 163e 863c 3cd3 a1bc
00000080: f0e5 a03c bdb6 eb3b 6ab2 00bc 1120 acbc
00000090: b5b4 d8bc 7d8b 693c ee6b a43c 9f84 883c
000000a0: ad06 9b3c 2805 d8b7 80e9 bdbc 58a1 8dbc
000000b0: 1059 223c 9df4 b5ba 0158 79bc c137 76bc
000000c0: eba2 b4bc 62b3 e9bc 37a3 b23b a9b9 6cbc
000000d0: 16a4 a13b edd6 9bbc 3921 98bc 5890 10bc
000000e0: ccbb 82bc e725 aa3c c56b 3fbc d113 83bc
000000f0: 29a9 953c e11f 733b f7c2 aabc 58e5 1ebb
00000100: cefc 62bc b0f3 c0bc 87fb 19bc 7e40 90bc
00000110: a5bf b3bc dc0f c8bc 060d 8f3c 77ef 9a3c
00000120: 0d11 c1bb 60c0 a1bc 9e3f ba3c 150a 993b
00000130: 26c3 44bc 662f c63c 38db a1bc 56a6 c23c
00000140: 0cd0 2ebc 4b04 a5bc 30ae 87bc 6909 3ebc
00000150: 2ae8 15bc eb60 62bc 72e0 5f3c 3354 e53c
00000160: e22d 98bc efda b3bc 887e 8cbc 2f84 e93b
00000170: 8553 90bc 1439 ccbb e84d 44bc a876 94bc
00000180: ea5d 333c 92e2 d53c e9bd c6bc cf2c bc3c
00000190: cc72 393c 587e 1ebc 9d63 b83c 4786 ba3c
000001a0: a207 ec3b a023 683c b147 bbbc 213f 5f3c
000001b0: 909f 833c 4322 06bc cd3d 9dbc 689b 8dbc
000001c0: 751e adbb 1da9 90bc 9f77 7b3c 77e9 b23c
000001d0: 2f19 55bc 6c98 643c c7dc b3b9 1dd5 d0bc
000001e0: 689a 953c 4aa0 d43c 9469 933c e5cd 5ebb
000001f0: fa08 653c 9641 a03c 40b6 d03b 498c 9b3c
-0.013967191 0.02460497 -0.0155461645 0.005595761 0.01825685 -0.015275507 0.016655285 -0.019089354
0.0171695 0.012470736 0.0084420005 0.011213993 -0.01586295 0.013906703 -0.019092249 0.01445541
-0.015286168 0.007168331 -0.01879898 -0.013004448 -0.018254956 0.02018966 0.021775695 -0.01632595
0.00411159 -0.0072589573 -0.010999687 0.024504589 -0.033720035 -0.012406121 0.016387027 -0.019754045
0.019640893 0.007193415 -0.007855037 -0.021011384 -0.026453355 0.014254448 0.020070996 0.016664801
0.018924082 -2.5751608e-05 -0.02318263 -0.017288849 0.0099089295 -0.0013882105 -0.015218736 -0.015027941
-0.022050342 -0.02852792 0.0054515856 -0.014448562 0.0049328906 -0.019023383 -0.01857053 -0.008823477
-0.01595869 0.020770026 -0.011683409 -0.01600066 0.018269138 0.0037097859 -0.02084492 -0.0024245586
-0.013854219 -0.0235537 -0.009398348 -0.017608877 -0.02194197 -0.024421625 0.017462265 0.018913014
-0.005891925 -0.019745052 0.022735413 0.0046703913 -0.012009418 0.024192523 -0.019757852 0.023760956
-0.010669719 -0.020143649 -0.016562551 -0.011598923 -0.0091495905 -0.013817052 0.013664352 0.02799425
-0.018576566 -0.021954982 -0.017150179 0.007126353 -0.01761795 -0.00623239 -0.011981465 -0.018122986
0.010947684 0.026109014 -0.024260478 0.022970585 0.011318874 -0.009673677 0.022508437 0.022769107
0.0072030583 0.01416865 -0.022861334 0.013625891 0.016067296 -0.00818688 -0.019194508 -0.017286018
-0.005283172 -0.017658764 0.015348344 0.02183984 -0.0130064925 0.013952356 -0.00034306032 -0.025492245
0.018262103 0.025955338 0.01799468 -0.0033997234 0.013979191 0.019562524 0.006369382 0.018987792

network_body.linear_encoder.seq_layers.0.weight f4 [128, 68]
00000000: 6597 a2bd efd8 0dbd e71a f63c d16c 2abc
00000010: 453b 86be 1a05 4d3c ad1c 25bd 6951 4f3d
00000020: c74a f83d 86c1 8f3c bae3 3c3e 87de c3bd
00000030: 41ba 743d 4c31 c738 b52d f6bb ee9b 32be
00000040: 700d 50be 7e8b 213c 0b16 be3c e3b7 a1bd
00000050: c9dc d1bd 7f9f d4bd 1928 bf3c 8e1e 183e
00000060: b4f7 57bc a296 bd3d 2e77 f03d d781 c0bd
00000070: 567c e3bd 3b45 40be 4802 efbd 054a 763c
00000080: 9423 67be 4855 c2bd f247 ffbd fcd1 99bd
00000090: beaf fa3c 991b e33d b52a a43b 3470 163d
000000a0: 77e3 003e c467 9bbd b996 c63d 9867 f0bd
000000b0: cfa4 19be b2b5 5cbe 8c80 383e ee71 7c3d
000000c0: 759d 843e 9505 71be a44e 863d b78f 22be
000000d0: 1c98 0fbc 87b3 76bd feca 023e 8062 7cbd
000000e0: 3b2a 8dbd efcd b93c 2820 3fbe 40f8 a2bc
000000f0: 1e9d b9bd b0b9 32be d479 0bbe 595c 39be
00000100: 5b8d 7e3e b2f7 05be 6e65 23bd 1919 87bc
00000110: 1f8b 8d3e dd7f ed3d 0021 d0bd 6a8d 903e
00000120: 5c9e 8dbd ccd0 ed3c c0bd 9bbd d637 a13e
00000130: bc43 0d3a 8d75 0d3b f7d6 d6bd 26eb b03d
00000140: 9eda db3d 61b0 6bbe cf28 86bc 3f9b 68bd
00000150: d3da d63d 981d 383a 02d7 0ebe db9f 333e
00000160: ced0 043d 17dd 013e 93ba 8f3c 1c2e 9d3d
00000170: 266e 3bbd eef6 8abe aa4b 3cbe dc74 353d
00000180: 98ee 2f3e 613f d53d 547c 26bd d5d8 e5bd
00000190: 2e94 1dbc b93e e3bd 7551 36be cfc5 423e
000001a0: 891f adbd 5d3c b23d 66fc 513e 427e ba3c
000001b0: 634a aebc e0d6 1b3d d805 21be 07ac c23d
000001c0: 4ad5 7f3c ee3d 3ebc 27e3 e3bd 0f1a 41be
000001d0: 17e2 293e 1cdd 79ba b01d 8d3e dcdc 093e
000001e0: f65a a43d 57b0 873d 2253 afbd a501 903d
000001f0: f7ac bb3c b191 033e 8fe1 043e 0c0a 133e
00000200: decc ccbc 18c8 8e3c e499 bfbd d62e 7d3d
00000210: 6a14 403e d034 11be f89f 133e b8c4 713d
00000220: 8822 943c 542b 98bd 77f9 683d 300f 4bbe
00000230: 62af 9e3d 621e 273c 68d7 b2bc dad4 7bbd
00000240: 1f47 4bbe de9d 14be 27d8 d13d 81c3 eb3d
00000250: bfbc 793e fc52 013e b756 bdbc e58c 91bd
00000260: f77c 46bd e52e b03c 1f85 b73d 5c0a 3dbd
00000270: d2ff f43b 05b0 9cbd cf03 11be 9080 50bc
00000280: 0d0b d5bd 0ca6 6a3c 46c0 63bc 7105 f73d
00000290: 4ef4 5d3e b6d5 c2bd c38f 12be 75f4 38bd
000002a0: ca65 59bd 15de 4f3d 80c1 833d e9db 41bd
000002b0: b58d 3abd 2edb 013e f63e cb3d ebd6 64bd
000002c0: bc1a afbd 83e1 213e 3072 efbb 3f4e 313d
000002d0: cbc8 24be 3713 2fbd a383 afbb e470 04be
000002e0: cd91 4f3d 8304 863d b100 ae3c 02b1 d63d
000002f0: 64b8 0fbe 2f90 9e3d f2f0 8abd 9627 3dbd
00000300: d9e5 f6bd ce0a 683d 5341 bd3d 45ca 913c
00000310: eb6a acbd c6f6 52bb ebc6 d93c c128 24be
00000320: 05d7 bb3b dc94 a33c 6e91 c3bd 2d99 77bb
00000330: 3929 163e c9ab a1bd 2291 14be 5614 5f3e
00000340: dfbb 01bd 2efb 543e e9ca ca3b 17b8 533e
00000350: 1b68 913e 6b48 b83c fbc8 22be ce68 bc3d
00000360: 48b6 d7bd 58d4 8c3d 4aa9 bfbd c562 d63b
00000370: d673 dabd 91ac 45bd 460b 043d 2d29 50bd
00000380: b50c 343e 6cb4 f83d 3e66 1c3d 1298 003e
00000390: 91ff 783e 2844 fe3d b908 45be 98cc d53c
000003a0: af34 d6bc 9b24 cfbd afc6 57be 27d6 203e
000003b0: ed14 143d 7a4a 10be dde8 2e3c d6ba 153b
000003c0: ad7d 23bd 577a 3abe dad9 22bd 3b0a 5ebd
000003d0: 0365 57bb 2ced c2bd a1eb 9c3d d931 8ebc
000003e0: 8272 6cbc 5391 d6bc 47a0 123e 4f9c 833e
000003f0: aa36 bebd 2d56 e1bd ae13 8f3d 727a 233e
-0.079390325 -0.034630712 0.030042125 -0.01040192 -0.26217094 0.012513423 -0.04031055 0.05061475
0.12123638 0.017548334 0.18446246 -0.09563928 0.059747938 9.498242e-05 -0.007512773 -0.17442295
-0.20317626 0.009859918 0.02320387 -0.07896402 -0.102471896 -0.10381984 0.02333455 0.14855406
-0.013181616 0.092572466 0.11741482 -0.09399765 -0.111076996 -0.1877641 -0.11670357 0.015032296
-0.22572166 -0.09488922 -0.12464894 -0.075107545 0.030601379 0.11089248 0.005009974 0.0367281
0.12586771 -0.07588151 0.09696717 -0.11738509 -0.15004276 -0.21553686 0.18017787 0.06163209
0.2590138 -0.23537286 0.06557968 -0.15875135 -0.008764293 -0.060229804 0.12772748 -0.061617374
-0.068928204 0.022681205 -0.1866461 -0.019893765 -0.09063171 -0.17453647 -0.13620692 -0.18101634
0.2485861 -0.1308277 -0.039891653 -0.01649146 0.27645203 0.115966536 -0.10162544 0.2823289
-0.0691497 0.029030226 -0.07604551 0.31487912 0.00053888164 0.0021584958 -0.1049022 0.08638601
0.10735057 -0.23016502 -0.01637688 -0.05678868 0.10490956 0.0007023453 -0.13949206 0.17541449
0.032425694 0.12681995 0.01754502 0.0767481 -0.045759343 -0.27141517 -0.18388239 0.0443009
0.1718086 0.10412479 -0.040645912 -0.11222998 -0.009617848 -0.11095948 -0.17804511 0.1902077
-0.084532805 0.0870292 0.20506439 0.022765283 -0.021275705 0.038046718 -0.15724885 0.09505468
0.015614817 -0.011611445 -0.1112731 -0.18857597 0.16590153 -0.0009531544 0.27561712 0.13463157
0.08025162 0.06625431 -0.08560778 0.07031564 0.022909625 0.12848546 0.12976669 0.14359301
-0.025000032 0.017429397 -0.09355524 0.061812244 0.18757787 -0.14180303 0.14416492 0.059025496
0.018082872 -0.07430139 0.056878533 -0.19830012 0.07748295 0.010200115 -0.02183123 -0.061482288
-0.1985135 -0.14513347 0.10246306 0.11511899 0.24388407 0.12629312 -0.023112638 -0.071069516
-0.04845902 0.021506736 0.08960938 -0.046152458 0.007476785 -0.076507606 -0.14161609 -0.012725964
-0.104024984 0.014321815 -0.013900822 0.12061585 0.21675226 -0.095134184 -0.14312653 -0.045155007
-0.05307559 0.050748903 0.064333916 -0.047328863 -0.0455453 0.12681267 0.09924118 -0.055869024
-0.08550021 0.15808682 -0.0073073134 0.043287512 -0.16092221 -0.042742934 -0.0053562685 -0.1293369
0.050676156 0.06543829 0.021240564 0.1048298 -0.14035183 0.077423446 -0.06784238 -0.04618033
-0.12055559 0.05665093 0.09240975 0.017796645 -0.084188305 -0.0032190545 0.02658411 -0.16031171
0.0057324194 0.019968443 -0.09549223 -0.003778051 0.14664163 -0.078940935 -0.14508489 0.21785101
-0.03167331 0.20798942 0.0061887396 0.20675693 0.2839974 0.02249547 -0.1589698 0.091996774
-0.10532814 0.06876439 -0.09358461 0.006542536 -0.10666625 -0.048260275 0.032237314 -0.05082052
0.17582972 0.12143788 0.038183443 0.1255801 0.24316241 0.124153435 -0.19241609 0.026098534
-0.026148168 -0.10114404 -0.21071886 0.15706693 0.03615277 -0.1409091 0.010675636 0.0022846959
-0.039914776 -0.18210731 -0.03975854 -0.054208975 -0.0032866604 -0.09517893 0.0766213 -0.017357754
-0.014431598 -0.026192343 0.14318953 0.25705191 -0.0928777 -0.11002765 0.069861755 0.15964678

network_body.linear_encoder.seq_layers.2.bias f4 [128]
00000000: b51d 88bc 82ef cc3c de6d cebb 5196 a83c
00000010: 878f 25bc 6016 62bc d95b 073b 502f 87bc
00000020: 3f13 32bc 08f3 a7bc 3ea5 9dbb 1711 42bc
00000030: ec39 6a3c 7ce8 713c ead8 173b 8d30 34bc
00000040: 51e3 6abc 747e bb3c 46e8 5a3c a4af b33c
00000050: fe58 9dbc 8c71 99bc 3f5c 86bc ba76 abbc
00000060: 6140 b5bb f99b 9dbc f4f8 ac3c d4ea 8e3c
00000070: 3d86 62bc b948 b33c b2d4 1bbc 1772 b53c
00000080: 18eb bcbb 6f1f 923c 4ed5 763c 795e 9b3b
00000090: 422c d63a d64f 2ebc 7444 6abc e2ef 8b3c
000000a0: ff87 aa3c 5e94 953c b6f9 dc3b b213 09bc
000000b0: 2387 afba c1c7 3bbc 6bf4 afbc 63fd 273c
000000c0: 37da dc3b f8ef af3c d53f af3c 7734 89bc
000000d0: ce3b 5dbb e234 95bc 8cca 99bc 9e9c d4bb
000000e0: 0e8b 85bc 4ccf 953c 688b 58bc c7b5 813c
000000f0: 6ed9 3bbc b937 6dbc fc3d 9ebc 2194 34bc
00000100: 9b1e b1bc 200e 8dbc 8bdc fbbb 210f 98bc
00000110: 6c90 a4bc 7883 36bc a74a 22bb e228 89bc
00000120: dce3 e33b 2a13 ad3c f3d3 da3c 1849 5f3b
00000130: f0b8 51bc 262a 57bc 436e 5f3c 15e3 9f3c
00000140: 6768 af3c 7da3 cb3c def5 f8bb 0900 6fbc
00000150: 515b 94bc 3f51 bbbb ce58 723c c608 c23c
00000160: 5ffb 9ebc 8f44 073c 2f5f 2e3b 9d0a 8b3b
00000170: 1280 8bbc 2f27 50bc b5a4 99bc d24d 683c
00000180: e7c3 4abb 01f2 c6bb 2def 4eb9 683a 99bc
00000190: 513c fb3b ceab ed3b f99d 40bc ae3a 96bc
000001a0: 42e7 94bc 41cd 6d3c e267 a33a b546 cfbb
000001b0: e181 75bc 2cc4 543c 152f a1bc b118 823c
000001c0: 2d3f 9fbc 8968 22bb c82e 263c a376 9bbc
000001d0: f0db 3abc 050a b83c f183 a23b 8fdd 92bc
000001e0: e6c8 30bc 1968 adba 024b 20bc eebd 99bc
000001f0: f127 9cbc 56a1 de3b f23a b83b ee70 193c
-0.016615728 0.02501655 -0.0062997183 0.020579489 -0.01010502 -0.01379928 0.002065411 -0.016502053
-0.010868846 -0.020501629 -0.004810958 -0.011844895 0.014296036 0.014764901 0.0023170062 -0.0109979035
-0.014336423 0.022887446 0.013361042 0.021934338 -0.019207474 -0.018730901 -0.016401408 -0.020930637
-0.005531356 -0.019239413 0.021114804 0.01744596 -0.01382595 0.021885263 -0.00951116 0.022149129
-0.00576533 0.017837254 0.015065504 0.0047414866 0.0016340094 -0.010639152 -0.014298547 0.017082158
0.020816801 0.018259224 0.006743635 -0.008366512 -0.0013391714 -0.011461199 -0.021478852 0.010253283
0.0067398804 0.02147673 0.021392742 -0.01674865 -0.003375757 -0.018213693 -0.01877334 -0.006488397
-0.016301658 0.018287323 -0.013216831 0.015833749 -0.0114654135 -0.014478617 -0.019316666 -0.011021645
-0.02162104 -0.01721865 -0.007686203 -0.018561902 -0.020088397 -0.011139743 -0.0024763735 -0.016743127
0.006954653 0.021127302 0.026712393 0.0034070667 -0.01280044 -0.013132608 0.013637128 0.01951746
0.021412088 0.02485823 -0.007597669 -0.014587411 -0.01810995 -0.0057164724 0.0147916805 0.023685824
-0.019406972 0.008256092 0.0026607027 0.0042432086 -0.017028842 -0.012704655 -0.018755296 0.01417871
-0.003093952 -0.0060713296 -0.00019734791 -0.018704608 0.0076671024 0.0072531467 -0.011756414 -0.018338528
-0.018176679 0.014514268 0.0012466873 -0.0063255676 -0.014984579 0.012986224 -0.01967577 0.015880914
-0.019439304 -0.0024781546 0.010142989 -0.018977469 -0.011404976 0.022465715 0.0049595763 -0.017927913
-0.010790085 -0.0013229876 -0.009783508 -0.018767323 -0.019062014 0.006794135 0.005622261 0.009365303

network_body.linear_encoder.seq_layers.2.weight f4 [128, 128]
00000000: bfa6 ffbd 1414 23bd 6ee3 b4bc 581c 22be
00000010: d7bd be3c 5294 7f3d 2a73 35be 5dfa 97bb
00000020: f720 fdbd 64d4 3bbe 598d 10be 757d 2fbd
00000030: 4b2a 5c3e ffa8 70be 46ef fe3d 30c8 77bd
00000040: 7cd4 2e3d 8f9c fc3d dcfb 403d 9e05 6a3c
00000050: 8e19 e9bc 7161 6fbd 6186 003e 3404 a1bc
00000060: a43c 9e3d c74e c93b 882b 3ebd ad3a 6ebd
00000070: 4dd8 f13c b2b9 63bc f68b 2c3d d11c 64bd
00000080: 8a3e c63c f25b e23c c035 34be 4033 3ebd
00000090: 2d07 96bd efa2 c5bd 5426 95bd aeb1 633d
000000a0: dccd 31bc 156c 0c3c ce0b 23ba 0b9b efbc
000000b0: e008 f4bd 48b7 b13d a700 0e3c ff23 72be
000000c0: 3b16 31be fd43 4dbd 6440 983d 33b8 a23d
000000d0: c388 7abd 04bc f43d db98 2f3d f79b 613b
000000e0: 8d3c 0e3e 501b 0bbe 4c90 913d 90c4 0cbe
000000f0: 5e1f 493c ea0d a1bd 8943 abbd d336 0d3d
00000100: 9aa1 20bd 456c 9cba 5834 dbbd 416e 9fbd
00000110: acba bd3d f8a1 0f3e c8c3 443d 7392 a63d
00000120: a34c c8bd 2c4f f43d 92d3 1fbd 2905 c13b
00000130: 79d5 dcbd cf7c 2b3c 5c12 cf3c 68a6 debc
00000140: 679b 7dbd 904c ac3d d7e7 de3d c6ce aa3b
00000150: d51b 25bd 90d6 553b 1eb5 fabd 857d 08be
00000160: 99fa ca3c 9429 ccbc 1828 a03d 8568 823c
00000170: b73c 6e3c dd26 403d fca4 c8bc b8e1 be3d
00000180: 74f4 91bd 8afd 99bc 3d1e 343d 7274 66be
00000190: 52df a73c a021 27ba 09e6 94bd dd76 543d
000001a0: bb5b 2abd b8e8 933d bfc6 a83d ff59 4a3d
000001b0: 67c7 b63d e6cc 3f3d aa44 353d 2b33 143c
000001c0: 97cd 103e 4fa4 423d 901a 9339 3626 ee3d
000001d0: 4018 60bd 689d 6a3d 6c85 8e3d e0f2 e03d
000001e0: 1d5a 233d 2425 2c3d bdb3 f23b 8a7c a4b9
000001f0: 2785 17bc ddfb 933d e1be 6abe e447 693d
00000200: 195e 90bc d2a6 f03d 3ea7 3039 a3ec dd3d
00000210: 7c26 50bd 52f0 9abd 46a7 34bc 2601 f13c
00000220: 4d62 8b3d a4f7 d7bb ba8e aabc 9246 89bc
00000230: ea69 fcbd 01cf 07bd 57db e8bd a260 aabd
00000240: 2339 dfbc e1a3 87bd 3a2b 76bd ffbd 1dbc
00000250: 7ff5 85bd eda7 b13d 437e 573d a6df a8bd
00000260: 644b d1bd fe15 e8bd ba81 cdbc a938 2abe
00000270: 361e 283d 52d0 c7bc 9e77 813e 8cb7 04be
00000280: a0fa 033e c37a c73c a421 863c 161e e4bc
00000290: 8dc5 4abd 578c 803c 80ed 953d 8b05 c4bc
000002a0: a981 0f3e 37bb 2f3d 9691 bc3d cc14 11be
000002b0: bae1 2c3e b18e 913d 7a0d 32bc c189 fe3d
000002c0: 64b5 48bd d40c d9bd b5ba 33bd bdba 3fbd
000002d0: 8b21 2f3d d8cf 2ebe 1454 b0bd 16a2 2c3d
000002e0: 1595 b13d 8fbe 7ebc dd25 a2bd 29d5 f83d
000002f0: a8cd 1abd 501e 033e c983 cdbd ecf2 b43d
00000300: 75b3 30bd 5dae 87bc 6e35 50bd 4065 3e3c
00000310: f0fe 46be 4bc0 3cbe 3035 993d 0564 343d
00000320: 651b fbbd 46ed df3c b856 85bd c204 253e
00000330: 7598 153c 2016 df3d 0ec0 c03c c1f8 093e
00000340: 86d5 0c3d 3f07 cdbc 9899 273e 89db 783d
00000350: f981 b4bd 512a eabd 3c6a 8f3d 2339 48bc
00000360: 5d4c 123d bbf3 b7bd 564c 6f39 afa4 063d
00000370: f882 9fbb 9e96 5ebd 00c4 8dbc ac06 203e
00000380: 62ce 9c3c 93da 153e ad31 00bd cc88 943c
00000390: 00f4 673d c7f4 41be af74 e0bc cd35 043e
000003a0: 2e67 eebd a8fc 8b3c cd42 d9bd 07e9 613e
000003b0: 489c 133e 87e1 8dbd f8b2 d1bd 6992 b2bc
000003c0: 2167 80bd 0676 9cbc 9716 133e d149 f43a
000003d0: ac47 52bd dafa abbd cf85 e4bd 5a98 98bd
000003e0: e89d 8e3d bfea 3c3e 4e4d 6d3e 5c57 453d
000003f0: 34e2 073e bb01 fa3d 2cc5 38be e8ae de3d
-0.12482976 -0.03981407 -0.022081103 -0.15831125 0.023283882 0.06239731 -0.17719713 -0.004638
-0.12359803 -0.1834274 -0.1411642 -0.042844255 0.21500508 -0.23501967 0.124479815 -0.060493648
0.04268311 0.12334549 0.04711519 0.014283566 -0.028454568 -0.058442537 0.12551261 -0.019655325
0.0772641 0.006143424 -0.046428233 -0.058161426 0.029522086 -0.013899254 0.042125665 -0.055691544
0.024199743 0.027631734 -0.17598629 -0.046435595 -0.073255874 -0.09650218 -0.07282701 0.05558937
-0.010852303 0.008570691 -0.00062197156 -0.029248735 -0.11915755 0.08677536 0.008667148 -0.23646544
-0.17293637 -0.050113667 0.074341565 0.079452895 -0.061165582 0.11949924 0.042870384 0.0034425238
0.13890286 -0.13584638 0.071076006 -0.13746858 0.012275545 -0.07863982 -0.08362491 0.034476113
-0.039216615 -0.0011934122 -0.10703343 -0.07784701 0.092641205 0.1402663 0.048038274 0.08133402
-0.09780242 0.11929163 -0.03902013 0.0058905077 -0.10782904 0.010466768 0.02527731 -0.027178958
-0.06191578 0.08413041 0.10884064 0.0052126376 -0.040309746 0.003262911 -0.122415766 -0.13329132
0.024777697 -0.02492217 0.07820147 0.01591898 0.014540843 0.046912063 -0.024492733 0.09320396
-0.07126704 -0.018797655 0.04397415 -0.22505358 0.02049223 -0.0006375555 -0.07270438 0.05187117
-0.041591387 0.07222122 0.08241033 0.049402233 0.08924752 0.046826266 0.044254936 0.0090454025
0.14140926 0.047519978 0.00028057816 0.11628382 -0.054710627 0.05727902 0.06959042 0.10983825
0.03988086 0.042027608 0.0074066804 -0.00031373306 -0.009248055 0.072257735 -0.22924377 0.056953326
-0.017622994 0.117505684 0.0001684697 0.108361505 -0.05081795 -0.07565369 -0.011026209 0.029419493
0.06805859 -0.0065908004 -0.02082001 -0.016757283 -0.12324889 -0.0331564 -0.11369961 -0.083192125
-0.027248925 -0.06623054 -0.060099818 -0.009627818 -0.06540965 0.086746074 0.052610647 -0.082457826
-0.10219458 -0.1133232 -0.025086273 -0.16623177 0.041044436 -0.024391327 0.25286573 -0.12960643
0.12888575 0.02435053 0.016373463 -0.027846377 -0.049504805 0.01569192 0.0732069 -0.023928424
0.14014305 0.04290315 0.09207456 -0.1416809 0.16882983 0.07107294 -0.010867471 0.12428618
-0.049001113 -0.1059815 -0.04387923 -0.046808947 0.0427566 -0.17071474 -0.08609787 0.042146765
0.08671013 -0.015548362 -0.07917378 0.12150032 -0.037793785 0.12804532 -0.10034902 0.08835396
-0.043139894 -0.016562635 -0.050832205 0.01162082 -0.19433188 -0.18432729 0.07480848 0.0440407
-0.122610845 0.02733482 -0.06510681 0.16115096 0.009130587 0.10892892 0.023529079 0.13473798
0.03438332 -0.02502787 0.16367185 0.06075624 -0.08813853 -0.114338525 0.070026845 -0.012220654
0.035717357 -0.08982035 0.00022821254 0.0328719 -0.0048679076 -0.05434286 -0.017305374 0.15627545
0.01914138 0.1463416 -0.031297375 0.018131636 0.05662918 -0.18941031 -0.02739939 0.12911148
-0.11640774 0.01708825 -0.10608444 0.22061549 0.14415085 -0.069277816 -0.10239214 -0.02179833
-0.0626967 -0.019099247 0.14364086 0.0018637722 -0.051337883 -0.083974555 -0.111583345 -0.07450934
0.06963712 0.18448924 0.2317402 0.048179016 0.13269883 0.12207361 -0.18043965 0.108732045
