Assets/Brains/test5/KartAgent/KartAgent-1024.onnx (onnx, 108225 bytes, 7 tensors)

39 f4 [1, 2]
0.0 0.0
00000000: 0000 0000 0000 0000

distribution.mu.bias f4 [2]
0.0 0.0
00000000: 0000 0000 0000 0000

distribution.mu.weight f4 [2, 128]
0.011492979 0.008609234 0.018335985 -0.023638284 0.028329004 0.009361091 0.019909462 -0.024899457
0.0054526716 -0.004302535 0.010667844 0.019882316 -0.00069269584 -0.0029691344 0.0053213304 0.0021708396
0.01647844 0.0071624457 -0.019376507 0.015900163 -0.0143377725 0.020972567 0.010068858 0.006472127
-0.01258045 0.0017880214 0.0066929623 0.019092878 -0.022277066 -0.011870201 0.0097786505 0.008649414
-0.008198264 -0.022897188 -0.008162279 -0.03174979 0.0066902936 0.0015863397 0.021066723 -0.01302085
-0.012805261 -0.02042057 0.008880913 0.0026619365 -0.01808298 -0.017896699 -0.021612514 0.001906999
0.0236631 0.026425147 0.0093399435 0.013450215 -0.00010480823 -0.024075123 -0.036158454 0.008362087
0.026024038 -0.03497095 0.004066359 -0.009257208 0.019323474 0.014381847 -0.01183401 0.0043385597
0.006992771 -0.014870415 -0.0053447187 0.01123541 -0.025376309 -0.00025230934 -0.00829184 0.023898741
0.018098315 -0.004133384 -0.016496316 0.0036333657 0.014937256 -0.01292114 0.010165176 0.014165665
-0.00043466137 0.011133807 0.019449184 -0.017949587 0.002420181 0.007151366 -0.0200989 -0.017388673
0.017652726 -0.0017640764 -0.028153038 -0.017743064 -0.0017991051 -0.01069451 0.011695643 0.0042641964
-0.021110602 -0.0048054582 0.017159924 0.022760926 -0.018584834 0.0039650155 0.007636854 0.0018597514
-3.5134413e-05 0.0038224054 0.018251427 -0.009583528 0.0071817874 -0.017939022 -0.011857372 -0.039615378
-0.013841616 -0.004471477 -0.036514055 -0.025178025 -0.010012694 -0.03519917 -0.005521444 -0.002833242
0.010160457 0.019925367 -0.006957912 0.0116683785 -0.0010717046 0.005449472 -0.01749449 0.004277416
0.014620108 0.011556897 0.04482397 0.024865258 -0.02379129 0.014683455 -0.02008514 0.019968335
0.0012726445 0.022532998 -0.010018638 0.0014503936 0.019908225 -0.050391145 -0.019012721 -0.011189391
-0.00064041436 -0.006748795 -0.01642764 3.055466e-05 -0.008332311 0.0044542165 0.0029622812 -0.020840926
0.018228466 0.028921116 0.0067063733 -0.014779259 0.0004727384 -0.0122953495 -0.02018329 -0.0014886943
0.026618928 -0.029014727 -0.0339813 -0.002934837 0.014793758 0.0012042528 -0.0048810756 0.021131558
0.017913261 -0.014302589 0.0050858757 -0.041855294 -0.007525742 -0.0071894163 0.014534123 -0.0047862823
-0.012487116 0.0014962096 -0.0028712943 -0.03281978 0.031284206 -0.016304644 0.0029343166 0.006041689
-0.0059377044 -0.01105193 -0.013137467 0.01642934 -0.010215267 0.03658813 -0.0029562435 -0.026186198
-0.005090264 0.03807726 0.0010780393 0.020830486 0.014215483 -0.00911245 -0.02047319 -0.044945333
0.018331876 0.018483825 -0.02802447 0.0067687794 0.010118026 -0.023800917 0.026677316 0.01229989
-0.02639753 0.011878561 0.016097626 0.0073746066 -0.019405693 -0.0037531226 0.015545145 -0.017854037
-0.00627163 -0.023246555 -0.04052576 -0.018092856 0.018679287 -0.018696671 -0.014023595 0.014125447
-0.022359297 -0.011900281 -0.037977435 0.024059214 0.012063362 -0.0054034595 -0.020279756 -0.005824639
-0.012326396 0.024819465 -0.015419187 0.037896227 -0.0070435377 -0.004456363 0.0067349123 -0.004787521
-0.019975422 -0.029996535 0.034197997 0.0008236634 -0.01794072 0.012011024 0.0028288518 0.012978263
-0.016423097 0.007306794 -0.0010008015 0.0014195375 0.010497368 0.02596435 0.0094308965 -0.012025419
00000000: 0c4d 3c3c bf0d 0d3c 5935 963c 13a5 c1bc
00000010: 3a12 e83c 435f 193c 2b19 a33c f2f9 cbbc
00000020: 53ac b23b 48fc 8cbb 2ec8 2e3c 3de0 a23c
00000030: 0896 35ba cf95 42bb 8e5e ae3b a544 0e3b
00000040: cbfd 863c f3b2 ea3b 7bbb 9ebc 0f41 823c
00000050: fae8 6abc a9ce ab3c daf7 243c 2314 d43b
00000060: 3b1e 4ebc 0b5c ea3a a350 db3b ab68 9c3c
00000070: 657e b6bc 3b7b 42bc a236 203c 46b6 0d3c
00000080: 0352 06bc e292 bbbc 14bb 05bc 110c 02bd
00000090: 403a db3b baec cf3a 1f94 ac3c 6755 55bc
000000a0: 28cd 51bc 0a49 a7bc 4081 113c e273 2e3b
000000b0: c222 94bc 199c 92bc ba0c b1bc 45f4 f93a
000000c0: 1ed9 c13c 8d79 d83c 9006 193c 4a5e 5c3c
000000d0: 7dcc dbb8 3139 c5bc e31a 14bd 2301 093c
000000e0: 5d30 d53c b33d 0fbd 173f 853b 8bab 17bc
000000f0: 434c 9e3c d7a1 6b3c 6fe3 41bc 7a2a 8e3b
00000100: 9d23 e53b 0ba3 73bc c022 afbb ba14 383c
00000110: fae1 cfbc 6348 84b9 7fda 07bc 4bc7 c33c
00000120: eb42 943c 5771 87bb 4823 87bc c31d 6e3b
00000130: 65bb 743c 30b3 53bc d78b 263c 1b17 683c
00000140: 43e3 e3b9 926a 363c e553 9f3c 030b 93bc
00000150: e69b 1e3b 0256 ea3b 73a6 a4bc b172 8ebc
00000160: 739c 903c 9538 e7ba 33a1 e6bc e759 91bc
00000170: f3cf ebba 0738 2fbc 159f 3f3c acba 8b3b
00000180: 24f0 acbc 1b77 9dbb f892 8c3c 1f75 ba3c
00000190: 393f 98bc f6ec 813b 933e fa3b e7c2 f33a
000001a0: 4a5d 13b8 5281 7a3b 0484 953c 3b04 1dbc
000001b0: 3355 eb3b dbf4 92bc 6c45 42bc bc43 22bd
000001c0: f2c7 62bc 7885 92bb c38f 15bd 2542 cebc
000001d0: 480c 24bc 012d 10bd 3bed b4bb eaad 39bb
000001e0: 0c78 263c 863a a33c 32ff e3bb ba2c 3f3c
000001f0: 7078 8cba 7c91 b23b 9b50 8fbc 9129 8c3b
00000200: 2d89 6f3c 2459 3d3c 5799 373d 3ab2 cb3c
00000210: f4e5 c2bc e092 703c 9789 a4bc a294 a33c
00000220: ddce a63a 1f97 b83c 3725 24bc 221b be3a
00000230: 9316 a33c f266 4ebd 91c0 9bbc b553 37bc
00000240: 7be1 27ba ff24 ddbb 4293 86bc d127 0038
00000250: 3f84 08bc adf4 913b d522 423b 97ba aabc
00000260: dd53 953c faeb ec3c 23c1 db3b b524 72bc
00000270: e0d9 f739 6f72 49bc 6d57 a5bc 4b20 c3ba
00000280: f00f da3c 4bb0 edbc fa2f 0bbd 6556 40bb
00000290: 8561 723c 05d8 9d3a 6ef1 9fbb 171c ad3c
000002a0: d5be 923c 6855 6abc 6ba7 a63b 7570 2bbd
000002b0: 809a f6bb 3295 ebbb 8820 6e3c 3fd6 9cbb
000002c0: c396 4cbc 771c c43a 532c 3cbb 096e 06bd
000002d0: de23 003d 5191 85bc aa4d 403b 5cf9 c53b
000002e0: 1391 c2bb 2713 35bc 883e 57bc d396 863c
000002f0: ef5d 27bc 6fdd 153d 89bd 41bb 7084 d6bc
00000300: 3bcc a6bb e7f6 1b3d ff4c 8d3a b2a4 aa3c
00000310: 0fe8 683c 634c 15bc 64b7 a7bc 9918 38bd
00000320: bb2c 963c 646b 973c 9393 e5bc a3cc dd3b
00000330: 14c6 253c 24fa c2bc 638a da3c 7a85 493c
00000340: a23f d8bc 4c9e 423c 2bdf 833c afa6 f13b
00000350: b0f8 9ebc f3f6 75bb 10b1 7e3c a142 92bc
00000360: 3f82 cdbb 8f6f bebc 57fe 25bd 7837 94bc
00000370: 4e05 993c c329 99bc 38c3 65bc 6b6e 673c
00000380: d82a b7bc 65f9 42bc 3a8e 1bbd d417 c53c
00000390: 68a5 453c 810f b1bb bb21 a6bc 9ddc bebb
000003a0: a7f4 49bc 3152 cb3c c2a0 7cbc 1339 1b3d
000003b0: 7acd e6bb af06 92bb 8ab0 dc3b a3e0 9cbb
000003c0: 7fa3 a3bc 4bbb f5bc 3313 0c3d 1deb 573a
000003d0: 6bf8 92bc e3c9 443c 4264 393b c8a2 543c
000003e0: bb89 86bc d56d ef3b 532d 83ba c60f ba3a
000003f0: 27fd 2b3c 30b3 d43c 0c84 1a3c 4306 45bc

network_body.linear_encoder.seq_layers.0.bias f4 [128]
0.0 0.0 0.0 0.0 0.0 0.0 0.0 0.0
0.0 0.0 0.0 0.0 0.0 0.0 0.0 0.0
0.0 0.0 0.0 0.0 0.0 0.0 0.0 0.0
0.0 0.0 0.0 0.0 0.0 0.0 0.0 0.0
0.0 0.0 0.0 0.0 0.0 0.0 0.0 0.0
0.0 0.0 0.0 0.0 0.0 0.0 0.0 0.0
0.0 0.0 0.0 0.0 0.0 0.0 0.0 0.0
0.0 0.0 0.0 0.0 0.0 0.0 0.0 0.0
0.0 0.0 0.0 0.0 0.0 0.0 0.0 0.0
0.0 0.0 0.0 0.0 0.0 0.0 0.0 0.0
0.0 0.0 0.0 0.0 0.0 0.0 0.0 0.0
0.0 0.0 0.0 0.0 0.0 0.0 0.0 0.0
0.0 0.0 0.0 0.0 0.0 0.0 0.0 0.0
0.0 0.0 0.0 0.0 0.0 0.0 0.0 0.0
0.0 0.0 0.0 0.0 0.0 0.0 0.0 0.0
0.0 0.0 0.0 0.0 0.0 0.0 0.0 0.0
00000000: 0000 0000 0000 0000 0000 0000 0000 0000
00000010: 0000 0000 0000 0000 0000 0000 0000 0000
00000020: 0000 0000 0000 0000 0000 0000 0000 0000
00000030: 0000 0000 0000 0000 0000 0000 0000 0000
00000040: 0000 0000 0000 0000 0000 0000 0000 0000
00000050: 0000 0000 0000 0000 0000 0000 0000 0000
00000060: 0000 0000 0000 0000 0000 0000 0000 0000
00000070: 0000 0000 0000 0000 0000 0000 0000 0000
00000080: 0000 0000 0000 0000 0000 0000 0000 0000
00000090: 0000 0000 0000 0000 0000 0000 0000 0000
000000a0: 0000 0000 0000 0000 0000 0000 0000 0000
000000b0: 0000 0000 0000 0000 0000 0000 0000 0000
000000c0: 0000 0000 0000 0000 0000 0000 0000 0000
000000d0: 0000 0000 0000 0000 0000 0000 0000 0000
000000e0: 0000 0000 0000 0000 0000 0000 0000 0000
000000f0: 0000 0000 0000 0000 0000 0000 0000 0000
00000100: 0000 0000 0000 0000 0000 0000 0000 0000
00000110: 0000 0000 0000 0000 0000 0000 0000 0000
00000120: 0000 0000 0000 0000 0000 0000 0000 0000
00000130: 0000 0000 0000 0000 0000 0000 0000 0000
00000140: 0000 0000 0000 0000 0000 0000 0000 0000
00000150: 0000 0000 0000 0000 0000 0000 0000 0000
00000160: 0000 0000 0000 0000 0000 0000 0000 0000
00000170: 0000 0000 0000 0000 0000 0000 0000 0000
00000180: 0000 0000 0000 0000 0000 0000 0000 0000
00000190: 0000 0000 0000 0000 0000 0000 0000 0000
000001a0: 0000 0000 0000 0000 0000 0000 0000 0000
000001b0: 0000 0000 0000 0000 0000 0000 0000 0000
000001c0: 0000 0000 0000 0000 0000 0000 0000 0000
000001d0: 0000 0000 0000 0000 0000 0000 0000 0000
000001e0: 0000 0000 0000 0000 0000 0000 0000 0000
000001f0: 0000 0000 0000 0000 0000 0000 0000 0000

network_body.linear_encoder.seq_layers.0.weight f4 [128, 76]
0.109098844 -0.17399903 -0.14782947 0.1119887 0.0067212945 0.04112058 0.1025409 0.114993915
-0.36587998 0.025049804 0.04946222 -0.08009809 -0.12694252 0.16168717 -0.012838462 -0.05258892
0.1638492 -0.023285504 0.024057653 -0.049652837 -0.08752033 0.042878628 -0.14920741 -0.051118284
0.04321326 -0.2066907 0.08364596 -0.23074935 0.15876402 -0.1788597 0.11703364 -0.08424524
-0.25103682 0.12117537 -0.011347401 0.12653282 -0.061378043 0.15178226 0.020471865 -0.03340518
0.0059973337 0.0096665425 -0.35730618 -0.03510184 0.11033405 0.047782052 -0.050324354 0.045674663
-0.015884947 0.039484926 0.19970217 0.043250386 -0.12865877 -0.23948921 0.06817944 0.11486985
-0.051929794 -0.09405255 0.049390532 0.076932184 0.12458629 0.08153018 0.105816655 -0.06804701
-0.1484212 -0.08226585 0.09478411 0.012994927 0.02352196 0.009423983 0.1556282 -0.022355033
-0.095593065 -0.09882571 -0.08048453 -0.17981714 0.03334314 -0.10015931 -0.3136702 -0.03348362
0.008429525 -0.009330515 -0.09253867 0.05314477 0.006223296 0.15972918 -0.17132998 -0.1871609
0.16399984 -0.0043717735 0.1440084 -0.17104027 0.11361122 0.03806372 -0.06640502 -0.16738339
0.12142423 0.089162596 -0.08932055 0.0008860727 -0.10356886 0.23344372 -0.09107349 0.07916838
-0.006088822 -0.0056853727 -0.08188628 0.026287647 -0.15172969 -0.1239372 -0.042029575 -0.008222193
-0.036552772 -0.08588057 -0.18571001 0.123780206 0.008287342 0.044237744 -0.01641835 -0.19507064
-0.015203252 0.06416032 0.17885527 -0.109629005 0.09351406 0.09299587 -0.08895157 -0.13884963
-0.028160458 -0.05641518 0.07810839 -0.06764338 -0.22313148 -0.0483707 0.003119915 -0.11961304
-0.033907693 -0.24141903 0.07853531 -0.16019177 -0.04311972 0.033374712 -0.03659781 -0.097558856
0.24373277 -0.019849265 -0.12062619 0.07550578 0.014635901 -0.021743022 -0.12412317 0.22049579
0.14752495 -0.04784481 0.039047405 -0.18756355 0.08441365 0.1294788 -0.077169836 0.08165565
0.08647152 0.076989144 -0.16486922 -0.20270145 0.04817229 -0.08625375 0.13708395 0.07670399
0.03164985 0.22440693 -0.0039876406 -0.097910576 0.055953298 -0.046207044 0.1298321 0.20002352
0.20317006 -0.038997002 -0.0041110613 -0.10592177 0.23755778 0.12197243 -0.108744286 0.11343792
0.014610134 0.02059118 0.06333487 0.10196846 -0.072754905 0.08171369 0.1326097 -0.005520604
-0.10228855 -0.024184253 -0.06574961 0.08377051 0.022815844 -0.03998076 -0.095677726 -0.20576304
0.08825836 0.09496303 0.12458306 0.13085383 0.028862892 0.05379631 -0.06610387 0.008129812
-0.06171099 -0.13054042 0.15755445 0.108290635 0.048068043 -0.033731356 -0.07856039 0.009873848
-0.12695387 0.06315436 -0.055018585 -0.1372779 -0.105120316 -0.15814653 -0.245917 -0.0081190765
-0.06932019 -0.22077237 0.035863463 0.10867769 0.19959995 0.0076715946 -0.06579359 0.14031051
-0.02301342 0.2084593 0.01535228 0.28026727 -0.013405606 -0.1772611 0.07673412 -0.10536769
-0.053063717 0.28421932 0.117675394 -0.07041853 0.04799076 -0.121852204 -0.016913563 0.1897356
0.0061439346 0.009497055 -0.01766117 -0.10802195 0.06988322 0.14355181 0.13935077 -0.19335416
00000000: 376f df3d cd2c 32be 9c60 17be 555a e53d
00000010: 4e3e dc3b 0e6e 283d f700 d23d ee81 eb3d
00000020: 9f54 bbbe 3f35 cd3c e698 4a3d 780a a4bd
00000030: 38fd 01be 5291 253e 6a58 52bc 7b67 57bd
00000040: 16c8 273e 3ec1 bebc 8e14 c53c c660 4bbd
00000050: dc3d b3bd 80a1 2f3d d4c9 18be 6861 51bd
00000060: 6300 313d baa6 53be 934e ab3d 8f49 6cbe
00000070: 0993 223e ff26 37be 55af ef3d c588 acbd
00000080: e687 80be cb2a f83d 73ea 39bc d291 013e
00000090: 8b67 7bbd cf6c 1b3e 9db4 a73c dfd3 08bd
000000a0: 4885 c43b 6b60 1e3c d6f0 b6be f2c6 0fbd
000000b0: d2f6 e13d 1db7 433d e920 4ebd 5b15 3b3d
000000c0: 2621 82bc f2ba 213d ba7e 4c3e 5127 313d
000000d0: 20bf 03be a93c 75be aaa1 8b3d e240 eb3d
000000e0: 56b4 54bd a09e c0bd ba4d 4a3d 9f8e 9d3d
000000f0: 1927 ff3d 4cf9 a63d 67b6 d83d 3b5c 8bbd
00000100: bafb 17be ff7a a8bd 2c1e c23d ade8 543c
00000110: 20b1 c03c 0d67 1a3c 005d 1f3e e721 b7bc
00000120: 4cc6 c3bd 2265 cabd 13d5 a4bd fc21 38be
00000130: d192 083d 5320 cdbd 6199 a0be 1f26 09bd
00000140: fe1b 0a3c 04df 18bc ea84 bdbd 55ae 593d
00000150: caec cb3b 0c90 233e 2071 2fbe 1ba7 3fbe
00000160: 93ef 273e 1841 8fbb f076 133e 2e25 2fbe
00000170: 00ad e83d b4e8 1b3d 5bff 87bd 8d66 2bbe
00000180: 44ad f83d e19a b63d b1ed b6bd 5547 683a
00000190: e91b d4bd df0b 6f3e bd84 babd 0823 a23d
000001a0: be84 c7bb 5d4c babb feb3 a7bd 3159 d73c
000001b0: 075f 1bbe c9d2 fdbd 3427 2cbd 61b6 06bc
000001c0: 5cb8 15bd 27e2 afbd c42a 3ebe 7a80 fd3d
000001d0: a2c7 073c a332 353d c77f 86bc 99c0 47be
000001e0: 1017 79bc 7c66 833d d625 373e 2c85 e0bd
000001f0: 4d84 bf3d 9e74 be3d 3e2c b6bd 992e 0ebe
00000200: c3b0 e6bc 9b13 67bd 4bf7 9f3d 9d88 8abd
00000210: 947c 64be 5b20 46bd 7d77 4c3b aef7 f4bd
00000220: cbe2 0abd 8d36 77be 1fd7 a03d 5009 24be
00000230: 4e9e 30bd ecb3 083d 96e7 15bd f0cc c7bd
00000240: 1595 793e ed9a a2bc dd0a f7bd c6a2 9a3d
00000250: 6bcb 6f3c 6c1e b2bc 4a34 febd a6c9 613e
00000260: c810 173e ebf8 43bd 2cf0 1f3d a910 40be
00000270: 10e1 ac3d 1796 043e 380b 9ebd 143b a73d
00000280: fb17 b13d 7cac 9d3d 7ad3 28be f890 4fbe
00000290: 4f50 453d cea5 b0bd bc5f 0c3e fb16 9d3d
000002a0: 46a3 013d eeca 653e c1aa 82bb 5785 c8bd
000002b0: 492f 653d 9943 3dbd b5f2 043e f7d2 4c3e
000002c0: d00b 503e 52bb 1fbd 15b6 86bb 83ed d8bd
000002d0: 5942 733e aecc f93d 53b5 debd 2452 e83d
000002e0: 585f 6f3c d6ae a83c b6b5 813d d7d4 d03d
000002f0: 8600 95bd 8259 a73d d6ca 073e 2fe6 b4bb
00000300: a97c d1bd 0e1e c6bc bba7 86bd e08f ab3d
00000310: 4be8 ba3c dec2 23bd aff2 c3bd 8cb3 52be
00000320: cdc0 b43d fa7b c23d 6725 ff3d 8cfe 053e
00000330: df71 ec3c 8559 5c3d 7761 87bd e732 053c
00000340: aac4 7cbd 63ac 05be f455 213e 7bc7 dd3d
00000350: ffe2 443d e429 0abd 45e4 a0bd ecc5 213c
00000360: 3200 02be 1357 813d 2b5b 61bd 9492 0cbe
00000370: 5249 d7bd 2af1 21be abd1 7bbe e005 05bc
00000380: bef7 8dbd 2712 62be 91e5 123d 6992 de3d
00000390: ee63 4c3e 0062 fb3b cabe 86bd 8fad 0f3e
000003a0: a486 bcbc 5b76 553e 2188 7b3c 317f 8f3e
000003b0: 30a3 5bbc ef83 35be c726 9d3d 04cb d7bd
000003c0: 5759 59bd 3285 913e ccff f03d 9737 90bd
000003d0: f691 443d a68d f9bd 508e 8abc 0d4a 423e
000003e0: 0f53 c93b 8999 1b3c 28ae 90bc 9d3a ddbd
000003f0: ef1e 8f3d 3fff 123e f8b1 0e3e a2fe 45be

network_body.linear_encoder.seq_layers.2.bias f4 [128]
0.0 0.0 0.0 0.0 0.0 0.0 0.0 0.0
0.0 0.0 0.0 0.0 0.0 0.0 0.0 0.0
0.0 0.0 0.0 0.0 0.0 0.0 0.0 0.0
0.0 0.0 0.0 0.0 0.0 0.0 0.0 0.0
0.0 0.0 0.0 0.0 0.0 0.0 0.0 0.0
0.0 0.0 0.0 0.0 0.0 0.0 0.0 0.0
0.0 0.0 0.0 0.0 0.0 0.0 0.0 0.0
0.0 0.0 0.0 0.0 0.0 0.0 0.0 0.0
0.0 0.0 0.0 0.0 0.0 0.0 0.0 0.0
0.0 0.0 0.0 0.0 0.0 0.0 0.0 0.0
0.0 0.0 0.0 0.0 0.0 0.0 0.0 0.0
0.0 0.0 0.0 0.0 0.0 0.0 0.0 0.0
0.0 0.0 0.0 0.0 0.0 0.0 0.0 0.0
0.0 0.0 0.0 0.0 0.0 0.0 0.0 0.0
0.0 0.0 0.0 0.0 0.0 0.0 0.0 0.0
0.0 0.0 0.0 0.0 0.0 0.0 0.0 0.0
00000000: 0000 0000 0000 0000 0000 0000 0000 0000
00000010: 0000 0000 0000 0000 0000 0000 0000 0000
00000020: 0000 0000 0000 0000 0000 0000 0000 0000
00000030: 0000 0000 0000 0000 0000 0000 0000 0000
00000040: 0000 0000 0000 0000 0000 0000 0000 0000
00000050: 0000 0000 0000 0000 0000 0000 0000 0000
00000060: 0000 0000 0000 0000 0000 0000 0000 0000
00000070: 0000 0000 0000 0000 0000 0000 0000 0000
00000080: 0000 0000 0000 0000 0000 0000 0000 0000
00000090: 0000 0000 0000 0000 0000 0000 0000 0000
000000a0: 0000 0000 0000 0000 0000 0000 0000 0000
000000b0: 0000 0000 0000 0000 0000 0000 0000 0000
000000c0: 0000 0000 0000 0000 0000 0000 0000 0000
000000d0: 0000 0000 0000 0000 0000 0000 0000 0000
000000e0: 0000 0000 0000 0000 0000 0000 0000 0000
000000f0: 0000 0000 0000 0000 0000 0000 0000 0000
00000100: 0000 0000 0000 0000 0000 0000 0000 0000
00000110: 0000 0000 0000 0000 0000 0000 0000 0000
00000120: 0000 0000 0000 0000 0000 0000 0000 0000
00000130: 0000 0000 0000 0000 0000 0000 0000 0000
00000140: 0000 0000 0000 0000 0000 0000 0000 0000
00000150: 0000 0000 0000 0000 0000 0000 0000 0000
00000160: 0000 0000 0000 0000 0000 0000 0000 0000
00000170: 0000 0000 0000 0000 0000 0000 0000 0000
00000180: 0000 0000 0000 0000 0000 0000 0000 0000
00000190: 0000 0000 0000 0000 0000 0000 0000 0000
000001a0: 0000 0000 0000 0000 0000 0000 0000 0000
000001b0: 0000 0000 0000 0000 0000 0000 0000 0000
000001c0: 0000 0000 0000 0000 0000 0000 0000 0000
000001d0: 0000 0000 0000 0000 0000 0000 0000 0000
000001e0: 0000 0000 0000 0000 0000 0000 0000 0000
000001f0: 0000 0000 0000 0000 0000 0000 0000 0000

network_body.linear_encoder.seq_layers.2.weight f4 [128, 128]
0.12627314 0.07068706 -0.13957496 -0.08436332 -0.0818833 -0.023091542 -0.0069960016 0.09850557
0.0923429 0.011987973 0.15923026 0.050413683 0.0363414 -0.08334526 0.043253675 0.03396844
0.0019555928 0.026647592 0.16660602 -0.028722262 0.031387206 0.04524425 0.06536553 0.23134135
-0.07591106 0.09818854 -0.17164372 0.07994248 0.23166141 -0.14073959 -0.03793754 -0.02884574
-0.04610921 0.14929983 0.1314638 -0.12689294 -0.12141286 -0.049268484 0.12787913 0.031872522
-0.08313085 0.0075927177 0.04453409 -0.021797258 0.0723972 0.004716678 -0.10767933 -0.112466894
-0.027070064 -0.009799898 0.11798833 0.12436659 -0.057377096 -0.06934813 -0.15222345 -0.118256286
0.019498076 0.044575106 -0.036873978 0.12579446 -0.09090566 -0.11647252 -0.072721094 -0.01953953
0.077225655 0.04907943 -0.062788785 -0.07072648 -0.061022993 -0.042069815 0.16976653 0.047181737
0.05641266 -0.0019147561 0.11184683 -0.017767651 -0.07469328 0.21825846 -0.00075755484 0.054755256
0.03857857 0.13705298 -0.047238335 0.061678145 0.035410665 -0.051392455 0.12493423 -0.09136952
0.14258997 -0.026076576 -0.023817608 -0.112789735 -0.19494371 -0.0884207 -0.026684176 -0.124601275
0.05535352 -0.040772438 0.06519952 -0.08525324 -0.029722603 0.0018945218 0.11483972 0.06781426
-0.0129582705 -0.051552143 -0.007897969 -0.14305875 -0.02277619 0.2042719 0.021909023 0.04448686
-0.075715214 -0.029906077 0.09472934 0.09411645 0.05873907 0.0048697293 -0.00018587738 0.05092604
0.020280017 0.04622738 0.05875854 0.027656846 -0.094550475 0.042592447 -0.10914224 -0.07102733
-0.027875934 0.04118769 -0.02226903 -0.025132539 0.16895066 -0.016212223 -0.11853737 0.017973876
-0.030706339 0.014928588 -0.04543188 0.03858477 0.00018728845 0.1301554 -0.045717824 0.0066004135
0.012419702 -0.029034993 0.08964421 0.087584704 -0.0073715276 -0.010289366 0.14627157 0.035096433
-0.0034068604 -0.07894229 0.0073254197 -0.032303333 0.094300136 -0.21366064 -0.045588553 0.12422386
0.16925101 -0.027539328 0.05048137 0.062313 0.019306486 -0.048315894 0.05731424 -0.113445036
0.14373961 0.029669719 0.071572915 -0.17826863 0.0012297236 -0.060335178 -0.11629745 -0.054495737
0.054689944 -0.035386026 0.15052204 0.06200675 0.041008692 0.07069043 -0.057506844 -0.014301154
-0.110426575 0.087340444 0.15769808 -0.15496258 -0.040835816 0.057613797 -0.008863038 -0.18369463
0.14096913 0.026240984 -0.15450521 0.23984228 0.111935526 0.024305679 0.010948693 0.12674287
0.08133132 0.059783135 -0.049161702 -0.11055942 -0.035945162 -0.17687581 -0.13760656 0.009661212
-0.09923716 0.03451364 0.043112997 -0.13393855 0.013975416 -0.0010841081 0.081719 -0.16413194
-0.07734895 0.092459075 0.14142658 0.051872797 0.069283605 0.1213158 0.0925204 0.018370558
-0.10121633 -0.07859963 0.019290375 -0.14475523 0.037462108 0.022037402 -0.078440376 0.12907375
-0.07281807 0.030380106 0.07259302 -0.079019286 0.21284972 -0.06721362 0.052457158 0.058255903
-0.012842205 -0.025910607 -0.0050552334 -0.054012466 -0.0406108 0.04238106 0.20256144 -0.057275154
-0.010034017 0.051932745 -0.21746503 0.080355115 -0.054881506 0.019060276 -0.049547587 -0.08686863
00000000: bf4d 013e 61c4 903d bdec 0ebe adc6 acbd
00000010: 6eb2 a7bd 792a bdbc b73e e5bb 4abd c93d
00000020: 461e bd3d 3469 443c 420d 233e 947e 4e3d
00000030: b8da 143d ebb0 aabd c42a 313d 7e22 0b3d
00000040: 6729 003b 0d4c da3c c59a 2a3e f34a ebbc
00000050: df8f 003d 0952 393d 5dde 853d bfe4 6c3e
00000060: 4277 9bbd 1317 c93d 5fc3 2fbe e2b8 a33d
00000070: a638 6d3e 0a1e 10be 6564 1bbd e74d ecbc
00000080: 03dd 3cbd 0ee2 183e 729e 063e 39f0 01be
00000090: 4ea7 f8bd c0cd 49bd bff2 023e c38c 023d
000000a0: 8240 aabd 55cc f83b 6169 363d 2a90 b2bc
000000b0: fc44 943d 5d8e 9a3b fb86 dcbd 0b55 e6bd
000000c0: 0ac2 ddbc c08f 20bc dea3 f13d e9b3 fe3d
000000d0: 3f04 6bbd 6406 8ebd 77e0 1bbe 5a30 f2bd
000000e0: 6eba 9f3c 6394 363d 2b09 17bd 43d0 003e
000000f0: bf2c babd 2589 eebd ccee 94bd 5d11 a0bc
00000100: 7c28 9e3d 8307 493d 6897 80bd 0bd9 90bd
00000110: 3ff3 79bd 6651 2cbd 47d7 2d3e a341 413d
00000120: f610 673d 8ef8 faba f30f e53d 778d 91bc
00000130: caf8 98bd 257f 5f3e a596 46ba 0c47 603d
00000140: 9004 1e3d 9e57 0c3e fc7c 41bd 39a2 7c3d
00000150: c60a 113d e580 52bd 85dd ff3d f11f bbbd
00000160: 1b03 123e 8b9e d5bc 251d c3bc 4efe e6bd
00000170: 539f 47be e915 b5bd c698 dabc f42e ffbd
00000180: 5fba 623d 0001 27bd 5387 853d 4099 aebd
00000190: d17c f3bc 9a51 f83a 1631 eb3d 34e2 8a3d
000001a0: ed4e 54bc 5728 53bd 7c66 01bc fe7d 12be
000001b0: 2295 babc a72c 513e 8d7a b33c db37 363d
000001c0: 9410 9bbd 97fd f4bc 7501 c23d 20c0 c03d
000001d0: 6198 703d 4092 9f3b 14e8 42b9 d397 503d
000001e0: 4722 a63c ec58 3d3d cbac 703d 9c90 e23c
000001f0: aea3 c1bd 6b75 2e3d f785 dfbd c776 91bd
00000200: 125c e4bc 6cb4 283d 8a6d b6bc c1e2 cdbc
00000210: 6701 2d3e 7fcf 84bc b8c3 f2bd f33d 933c
00000220: dc8b fbbc 0997 743c c716 3abd 100b 1e3d
00000230: dc62 4439 7547 053e 9d42 3bbd 4848 d83b
00000240: 017c 4b3c cbda edbc 6297 b73d 9c5f b33d
00000250: db8c f1bb bb94 28bc 37c8 153e 47c1 0f3d
00000260: a245 5fbb 7fac a1bd 130a f03b 8050 04bd
00000270: 6e20 c13d dbc9 5abe 10bb 3abd 1469 fe3d
00000280: 2350 2d3e 289a e1bc 8ec5 4e3d eb3b 7f3d
00000290: a328 9e3c e3e6 45bd 56c2 6a3d df55 e8bd
000002a0: 7a30 133e e90d f33c d294 923d 0d8c 36be
000002b0: ad2e a13a 0522 77bd 5c2d eebd ec36 5fbd
000002c0: 9002 603d f0f0 10bd 7322 1a3e cafa 7d3d
000002d0: bbf8 273d 25c6 903d 4c8c 6bbd 634f 6abc
000002e0: 5427 e2bd 8cdf b23d 9b7b 213e 83ae 1ebe
000002f0: 7543 27bd 72fc 6b3d 4736 11bc 721a 3cbe
00000300: 365a 103e 55f7 d63c 9d36 1ebe 3799 753e
00000310: 743e e53d b41c c73c 2662 333c e2c8 013e
00000320: 0991 a63d 29df 743d c85d 49bd fa6c e2bd
00000330: 3c3b 13bd ef1e 35be bce8 0cbe 0f4a 1e3c
00000340: da3c cbbd 2d5e 0d3d 4197 303d 3027 09be
00000350: 25f9 643c a218 8eba 4b5c a73d 3412 28be
00000360: 2069 9ebd 2f5b bd3d 21d2 103e 9278 543d
00000370: 90e4 8d3d 6b74 f83d 567b bd3d da7d 963c
00000380: 824a cfbd d8f8 a0bd d906 9e3c b73a 14be
00000390: de71 193d c887 b43c 59a5 a0bd e92b 043e
000003a0: a421 95bd b3df f83c a6ab 943d ddd4 a1bd
000003b0: 47f5 593e 4ba7 89bd 51dd 563d be9d 6e3d
000003c0: 1d68 52bc 7b42 d4bc 5fa6 a5bb 2d3c 5dbd
000003d0: 8357 26bd c397 2d3d 446c 4f3e 5a99 6abd
000003e0: b865 24bc 6eb7 543d 27af 5ebe 3991 a43d
000003f0: 6ecb 60bd 4c24 9c3c 69f2 4abd 2ee8 b1bd
