Assets/Brains/test5/KartAgent/KartAgent-5888.onnx (onnx, 108737 bytes, 7 tensors)

39 f4 [1, 2]
0.0 0.0
00000000: 0000 0000 0000 0000

distribution.mu.bias f4 [2]
0.0 0.0
00000000: 0000 0000 0000 0000

distribution.mu.weight f4 [2, 128]
0.006522193 -0.03585328 -0.03881551 0.010216406 0.0011907261 0.0069039366 0.023873473 0.0039838715
-0.015607438 0.036787942 -0.017808152 0.026926015 -0.00837487 0.009546412 0.02741305 0.026275901
0.009774669 0.0006205063 0.009561733 0.022085804 -0.013770376 0.0038529306 -0.002866402 -0.0073427754
-0.021167487 0.027714536 -0.024216603 -0.0063079796 0.006529952 -0.011273906 -0.016808048 -0.015690245
-0.014325338 0.004740332 0.028782984 0.005371678 -0.028067276 0.014150311 0.00033151472 -0.0055264696
0.016990883 -0.037993744 -0.01675286 0.017048629 0.002377182 -0.031294502 -0.021496529 0.004955606
-0.008830949 -0.033188865 0.0024488433 0.003537784 -0.0018473568 -0.010301396 -0.053445794 -0.009329024
0.0010440827 0.027498364 0.027193228 -0.015953101 0.0026929118 -0.023305815 -0.02849322 0.017638847
0.0030578559 -0.00053071976 0.0012126731 -0.020215977 0.008447391 0.017199835 0.01536361 0.014483297
0.0034351242 0.013179011 0.02062959 -0.012838813 0.0024135087 -0.0127828 -0.015770454 -0.00470053
-0.01095331 -0.0064743953 0.0046185497 -0.026063109 -0.014116292 -0.020857047 0.0017481534 0.0024123162
-0.028924441 -0.011237202 -0.012387653 0.0012182267 0.0027223525 0.028153425 0.009828496 -0.0068414207
-0.017181933 0.015460742 -0.03325038 -0.03205271 -0.023139812 -0.017557494 -0.00894715 0.017784577
-0.0037120096 -0.017219307 -0.036769655 0.009398001 0.010422595 -0.016196454 0.025150357 -0.022373466
0.0100919735 0.008678547 -0.0052311183 0.0026488053 -0.0067465953 0.0036871086 0.015390485 -0.0040244525
0.009342816 0.0086623505 -0.00791707 0.01626655 0.0064935684 -0.01147667 -0.02922523 0.025053544
-0.011079533 0.029600862 -0.013030049 -0.026644563 0.014544732 0.004693731 0.02304959 -0.018498247
0.004216697 -0.017211372 0.004574805 -0.012546318 -0.003003099 0.004751822 0.03457907 0.025238449
0.006157043 -0.014552076 -0.018980743 0.03042665 -0.032761347 -0.02208971 0.017122434 0.02057246
0.0004296336 -0.003848172 0.011744867 -0.016144121 -0.01565238 0.0025546318 -0.03546149 0.0030468334
0.0013022484 -0.00036798834 0.026927734 0.027689386 0.022526672 0.010059718 0.0098086465 -0.016195549
-0.0064138207 0.014363143 -0.017016772 -0.0006726925 0.02512133 -0.009974742 -0.011021006 -0.017068619
0.023026785 -0.011334919 0.0061871125 -0.01442813 -0.01779709 -0.014048844 -0.010927132 0.021155164
-0.009446544 -0.00092651293 -0.024306668 0.0013393741 0.011382762 -0.022556495 -0.019154796 0.0023663773
-0.025147771 -0.003242517 -0.024238864 -0.0025130128 0.0052791904 0.0017643452 -0.02066218 0.008775688
-0.00091126416 0.021552753 -0.016344132 0.01688603 0.0043724077 -0.00601951 0.008300234 -0.014610364
0.020436494 -0.00607495 0.010185154 -0.015294132 0.020837622 0.001976161 0.034159508 -0.012381387
-0.0019471608 0.00045845422 -0.0055033527 0.009685046 0.00523259 -0.02646619 0.019659152 -0.014140541
-0.021502068 0.0056659053 0.010550301 0.006876264 0.01766032 0.00647385 0.0041984734 -0.027357137
-0.017389715 -0.016985623 0.001373024 -0.017248362 0.008468001 -0.0021029643 -0.032268714 -0.009778353
-0.004343796 0.00090522197 0.027984215 -0.015223661 0.0052846125 -0.019002963 -0.010392676 0.00014853188
0.010309215 0.005955146 -0.0034967174 -0.016657602 0.011738506 0.01742358 -0.017377537 0.016002873
00000000: 1fb8 d53b e4da 12bd 03fd 1ebd b662 273c
00000010: 2312 9c3a 6b3a e23b 4d92 c33c 238b 823b
00000020: 57b6 7fbc f4ae 163d 67e2 91bc f293 dc3c
00000030: c036 09bc 8e68 1c3c 5591 e03c 8f40 d73c
00000040: ef25 203c 79a9 223a d1a8 1c3c 4aed b43c
00000050: 259d 61bc 7381 7c3b 3fda 3bbb aa9b f0bb
00000060: 7067 adbc 9809 e33c e661 c6bc 2bb3 cebb
00000070: 35f9 d53b 30b6 38bc 08b1 89bc d488 80bc
00000080: d3b4 6abc c954 9b3b 4bca eb3c e704 b03b
00000090: 58ed e5bc b5d6 673c 27cf ad39 6317 b5bb
000000a0: 7730 8b3c 549f 1bbd 4b3d 89bc 91a9 8b3c
000000b0: 7fca 1b3b aa2e 00bd 7d19 b0bc a362 a23b
000000c0: afaf 10bc 0cf1 07bd c67c 203b 2bda 673b
000000d0: 0223 f2ba 30c7 28bc fae9 5abd c3d8 18bc
000000e0: 9ad9 883a 4044 e13c 55c4 de3c 14b0 82bc
000000f0: 907b 303b d6eb bebc 9d6a e9bc 587f 903c
00000100: 4f66 483b 0020 0bba 8ff2 9e3a fa9b a5bc
00000110: ed66 0a3c abe6 8c3c a7b7 7b3c 5a4b 6d3c
00000120: d21f 613b c7ec 573c 63ff a83c e259 52bc
00000130: f52b 1e3b f36e 51bc 0a31 81bc e706 9abb
00000140: 8375 33bc 2a27 d4bb 3457 973b 4d82 d5bc
00000150: 0548 67bc 66dc aabc 4b22 e53a f317 1e3b
00000160: f3f2 ecbc 3e1c 38bc 95f5 4abc e8ac 9f3a
00000170: 7f69 323b 03a2 e63c b307 213c ff2d e0bb
00000180: 20c1 8cbc 0d4f 7d3c 8d31 08bd b449 03bd
00000190: b48f bdbc bcd4 8fbc 1197 12bc f6b0 913c
000001a0: 3045 73bb 810f 8dbc c79b 16bd 13fa 193c
000001b0: 88c3 2a3c 6dae 84bc 1f08 ce3c 8f48 b7bc
000001c0: ce58 253c 7730 0e3c cd69 abbb 9497 2d3b
000001d0: 8b12 ddbb 6ba3 713b 5f28 7c3c 8edf 83bb
000001e0: 9c12 193c 88ec 0d3c 99b6 01bc 6e41 853c
000001f0: 00c8 d43b a508 3cbc c069 efbc 173d cd3c
00000200: ee86 35bc 827d f23c fd7b 55bc b345 dabc
00000210: 074d 6e3c dfcd 993b 7ed2 bc3c a389 97bc
00000220: 382c 8a3b ddfe 8cbc 3fe8 953b 128f 4dbc
00000230: a4cf 44bb 2cb5 9b3b c8a2 0d3d ddc0 ce3c
00000240: 05c1 c93b d56b 6ebc 817d 9bbc 4f41 f93c
00000250: c330 06bd 7bf5 b4bc 5944 8c3c 9387 a83c
00000260: 7240 e139 9d31 7cbb 8b6d 403c ad40 84bc
00000270: 6c39 80bc 9c6b 273b 1140 11bd 62ad 473b
00000280: 35b0 aa3a 8fee c0b9 8d97 dc3c dad4 e23c
00000290: db89 b83c 84d1 243c 72b4 203c 87ac 84bc
000002a0: 072b d2bb 6353 6b3c c266 8bbc a157 30ba
000002b0: 3fcb cd3c 1a6d 23bc 7391 34bc 7dd3 8bbc
000002c0: aba2 bc3c 19b6 39bc 43bd ca3b f763 6cbc
000002d0: 34cb 91bc 1f2d 66bc b707 33bc 984d ad3c
000002e0: adc5 1abc 3be1 72ba c71e c7bc f08d af3a
000002f0: c47e 3a3c 66c8 b8bc 85ea 9cbc 3915 1b3b
00000300: b302 cebc 6880 54bb 9590 c6bc 5cb1 24bb
00000310: 0ffd ac3b 9a41 e73a bb43 a9bc e7c7 0f3c
00000320: e7e1 6eba 668f b03c 21e4 85bc 9254 8a3c
00000330: 6a46 8f3b 4f3f c5bb b4fd 073c 4f60 6fbc
00000340: 6f6a a73c 6010 c7bb a2df 263c 3d94 7abc
00000350: a9b3 aa3c 7b82 013b d7ea 0b3d 4ddb 4abc
00000360: e037 ffba af5c f039 7855 b4bb 07ae 1e3c
00000370: 2576 ab3b a0cf d8bc 3b0c a13c baad 67bc
00000380: 1b25 b0bc 0fa9 b93b 2bdb 2c3c 4852 e13b
00000390: 60ac 903c 9722 d43b 5993 893b 131c e0bc
000003a0: e074 8ebc 6f25 8bbc 0af7 b33a 704c 8dbc
000003b0: 5fbd 0a3c e3d1 09bb 332c 04bd 6335 20bc
000003c0: 6756 8ebb 6b4c 6d3a 273f e53c aa6c 79bc
000003d0: 8b2a ad3b 1aac 9bbc 0b46 2abc 39bf 1b39
000003e0: fbe7 283c 6323 c33b 2f29 65bb 8675 88bc
000003f0: dd52 403c e5bb 8e3c 565b 8ebc 7518 833c

network_body.linear_encoder.seq_layers.0.bias f4 [128]
0.0 0.0 0.0 0.0 0.0 0.0 0.0 0.0
0.0 0.0 0.0 0.0 0.0 0.0 0.0 0.0
0.0 0.0 0.0 0.0 0.0 0.0 0.0 0.0
0.0 0.0 0.0 0.0 0.0 0.0 0.0 0.0
0.0 0.0 0.0 0.0 0.0 0.0 0.0 0.0
0.0 0.0 0.0 0.0 0.0 0.0 0.0 0.0
0.0 0.0 0.0 0.0 0.0 0.0 0.0 0.0
0.0 0.0 0.0 0.0 0.0 0.0 0.0 0.0
0.0 0.0 0.0 0.0 0.0 0.0 0.0 0.0
0.0 0.0 0.0 0.0 0.0 0.0 0.0 0.0
0.0 0.0 0.0 0.0 0.0 0.0 0.0 0.0
0.0 0.0 0.0 0.0 0.0 0.0 0.0 0.0
0.0 0.0 0.0 0.0 0.0 0.0 0.0 0.0
0.0 0.0 0.0 0.0 0.0 0.0 0.0 0.0
0.0 0.0 0.0 0.0 0.0 0.0 0.0 0.0
0.0 0.0 0.0 0.0 0.0 0.0 0.0 0.0
00000000: 0000 0000 0000 0000 0000 0000 0000 0000
00000010: 0000 0000 0000 0000 0000 0000 0000 0000
00000020: 0000 0000 0000 0000 0000 0000 0000 0000
00000030: 0000 0000 0000 0000 0000 0000 0000 0000
00000040: 0000 0000 0000 0000 0000 0000 0000 0000
00000050: 0000 0000 0000 0000 0000 0000 0000 0000
00000060: 0000 0000 0000 0000 0000 0000 0000 0000
00000070: 0000 0000 0000 0000 0000 0000 0000 0000
00000080: 0000 0000 0000 0000 0000 0000 0000 0000
00000090: 0000 0000 0000 0000 0000 0000 0000 0000
000000a0: 0000 0000 0000 0000 0000 0000 0000 0000
000000b0: 0000 0000 0000 0000 0000 0000 0000 0000
000000c0: 0000 0000 0000 0000 0000 0000 0000 0000
000000d0: 0000 0000 0000 0000 0000 0000 0000 0000
000000e0: 0000 0000 0000 0000 0000 0000 0000 0000
000000f0: 0000 0000 0000 0000 0000 0000 0000 0000
00000100: 0000 0000 0000 0000 0000 0000 0000 0000
00000110: 0000 0000 0000 0000 0000 0000 0000 0000
00000120: 0000 0000 0000 0000 0000 0000 0000 0000
00000130: 0000 0000 0000 0000 0000 0000 0000 0000
00000140: 0000 0000 0000 0000 0000 0000 0000 0000
00000150: 0000 0000 0000 0000 0000 0000 0000 0000
00000160: 0000 0000 0000 0000 0000 0000 0000 0000
00000170: 0000 0000 0000 0000 0000 0000 0000 0000
00000180: 0000 0000 0000 0000 0000 0000 0000 0000
00000190: 0000 0000 0000 0000 0000 0000 0000 0000
000001a0: 0000 0000 0000 0000 0000 0000 0000 0000
000001b0: 0000 0000 0000 0000 0000 0000 0000 0000
000001c0: 0000 0000 0000 0000 0000 0000 0000 0000
000001d0: 0000 0000 0000 0000 0000 0000 0000 0000
000001e0: 0000 0000 0000 0000 0000 0000 0000 0000
000001f0: 0000 0000 0000 0000 0000 0000 0000 0000

network_body.linear_encoder.seq_layers.0.weight f4 [128, 77]
0.10910945 0.03837525 -0.0458549 -0.0022640657 -0.08503537 0.049203567 0.07106251 -0.012022404
0.0055847554 -0.13597494 -0.046489656 -0.050467208 0.084258534 -0.0477932 -0.16878101 0.024701597
0.13203706 0.014044373 -0.026368098 -0.1639144 -0.051383115 -0.08820389 0.1335995 -0.1412556
0.038117062 0.087016895 -0.12082679 -0.04581712 -0.040957052 0.13495488 -0.15287955 -0.031266555
-0.19829902 0.08204282 0.12204476 -0.02264669 0.0006965976 0.11323634 -0.16358362 0.07526742
0.08567208 0.13643041 0.08653154 0.09749418 0.02798036 0.06849272 -0.14428255 -0.06666209
-0.07462758 0.173694 -0.049759064 -0.10002381 0.014328931 0.09080303 -0.24133074 0.19776295
0.16036482 0.020475803 -0.039465237 -0.024477558 -0.0051896544 0.14965363 0.051517524 -0.084478
0.1588791 -0.031861003 -0.14131704 0.09182012 -0.071003236 0.004525727 0.07299479 -0.07379186
-0.070095584 0.082701705 0.10961809 0.010585155 0.18290369 0.04310224 -0.3076057 0.072597794
0.100027956 0.13268054 0.12920243 0.016710902 -0.24945155 -0.15729499 0.20690604 -0.11354041
-0.018075569 0.014850809 -0.1586622 -0.25254363 0.011440851 0.07301352 0.08939194 0.1257667
-0.019765029 0.042160872 0.081579596 0.071122214 0.13687666 -0.21979323 0.07980029 0.03432436
0.2026803 -0.16122158 0.101539955 -0.03128007 -0.0396229 -0.27780652 0.16702843 0.14293005
0.08537529 0.35423958 -0.042464837 0.07988258 0.018289478 0.014297215 -0.0956961 -0.107543804
0.06965669 -0.17316763 0.20900825 -0.16477446 -0.027406113 -0.1072739 0.21294974 0.056625873
0.14428985 -0.03659431 0.00717323 -0.18613072 -0.16050884 0.1463035 -0.051987015 -0.048053812
0.16081105 -0.10205067 -0.04024994 0.13225451 -0.036718905 0.16368662 -0.01677302 -0.19838649
0.30427355 -0.06945468 -0.003933233 -0.10886388 -0.2444377 -0.19133358 -0.2543572 -0.001539512
-0.09220776 0.005369393 -0.11842105 -0.06634354 -0.14735176 0.03568566 0.047149986 0.031901374
-0.13397312 -0.0832673 -0.100865394 -0.04811979 0.21544921 -0.03710245 0.0048002363 0.26517552
0.13841979 -0.033964835 -0.1690119 0.000331343 -0.10094704 0.037016243 0.097975284 0.11686396
0.26653016 -0.09924593 -0.0413507 0.12958498 0.009173439 -0.11504488 0.083558515 0.05206829
-0.023674395 0.16342717 0.03006335 0.07868308 0.032878615 -0.114732206 0.10558847 -0.007862936
0.09699066 -0.15949841 0.2093406 -0.020878527 -0.05265525 -0.088694036 0.102228366 0.07409956
0.02640087 -0.040809795 0.06665306 -0.03299972 -0.036110014 0.13908042 0.07145265 0.07133479
0.115121484 0.14761013 0.14181568 -0.14453241 -0.2936763 -0.10323393 0.17111228 0.12811346
0.029313993 0.0043314276 0.06771074 -0.1076726 -0.037139818 0.047359962 0.16742809 -0.096939184
-0.029569395 -0.105121605 0.033622008 -0.23724395 0.01814276 0.09048963 -0.1560901 -0.079793505
0.111995354 0.044524018 0.04691366 0.13326268 0.019875236 0.2770751 -0.098923095 0.08501317
0.27496526 0.03947584 -0.09419851 -0.068031125 0.13743444 0.084540725 0.0054400726 -0.019111602
0.10254493 -0.01787053 -0.14515236 -0.08330607 -0.0013939074 -0.17538792 -0.16278896 0.0823627
00000000: c674 df3d 5e2f 1d3d 59d2 3bbd b860 14bb
00000010: 0627 aebd ae89 493d 3989 913d 9ef9 44bc
00000020: 5300 b73b 043d 0bbe f06b 3ebd b4b6 4ebd
00000030: bd8f ac3d cdc2 43bd eed4 2cbe 015b ca3c
00000040: b934 073e 5f1a 663c e901 d8bc 2dd9 27be
00000050: 1a77 52bd 3ea4 b4bd 4fce 083e 4fa5 10be
00000060: a320 1c3d ea35 b23d 0974 f7bd bbaa 3bbd
00000070: 95c2 27bd 9d31 0a3e 758c 1cbe 5c11 00bd
00000080: e60e 4bbe 1106 a83d 9af2 f93d 8d85 b9bc
00000090: e09b 363a 74e8 e73d 7782 27be ce25 9a3d
000000a0: d874 af3d 6ab4 0b3e 7337 b13d 07ab c73d
000000b0: 1137 e53c e945 8c3d cebe 13be 2286 88bd
000000c0: 58d6 98bd d7dc 313e 29d0 4bbd 49d9 ccbd
000000d0: e5c3 6a3c f0f6 b93d 681f 77be 5f82 4a3e
000000e0: ad36 243e dfbc a73c 4da6 21bd 2985 c8bc
000000f0: fa0d aabb cd3e 193e 0a04 533d cd02 adbd
00000100: 34b1 223e af80 02bd 6ab5 10be 300c bc3d
00000110: 256a 91bd 8d4c 943b 4b7e 953d 3020 97bd
00000120: 468e 8fbd 835f a93d 737f e03d 5c6d 2d3c
00000130: 1b4b 3b3e f98b 303d 7f7e 9dbe 27ae 943d
00000140: 75db cc3d 68dd 073e a44d 043e 4de5 883c
00000150: 3a70 7fbe f011 21be 2ddf 533e e087 e8bd
00000160: 3713 94bc cf50 733c 5878 22be 664d 81be
00000170: 6872 3b3c 1d88 953d 1f13 b73d fcc8 003e
00000180: 45ea a1bc e1b0 2c3d 3413 a73d 86a8 913d
00000190: 6529 0c3e 7a11 61be 566e a33d b397 0c3d
000001a0: 6d8b 4f3e 4517 25be 2ef4 cf3d 881f 00bd
000001b0: 9f4b 22bd a83c 8ebe 8009 2b3e 415c 123e
000001c0: 3dd9 ae3d e45e b53e 9cef 2dbd 7a99 a33d
000001d0: d1d3 953c de3e 6a3c 51fc c3bd ed3f dcbd
000001e0: 2ba8 8e3d db52 31be 4206 563e a3ba 28be
000001f0: c982 e0bc 6bb2 dbbd 7f0f 5a3e 88f0 673d
00000200: b8c0 133e eae3 15bd 6a0d eb3b 0d99 3ebe
00000210: 6e5c 24be 96d0 153e 56f0 54bd 13d4 44bd
00000220: a7ab 243e f1ff d0bd 1fdd 24bd ba6d 073e
00000230: 9066 16bd 779d 273e 9367 89bc d425 4bbe
00000240: bec9 9b3e 413e 8ebd 5ae2 80bb 07f4 debd
00000250: e04d 7abe f3ec 43be 1b3b 82be 73c9 c9ba
00000260: 6cd7 bcbd bcf1 af3b bc86 f2bd 1fdf 87bd
00000270: 61e3 16be 202b 123d 5820 413d 04ab 023d
00000280: 4030 09be 0c88 aabd 8492 cebd 4219 45bd
00000290: b89e 5c3e bdf8 17bd 4d4b 9d3b 16c5 873e
000002a0: ebbd 0d3e b61e 0bbd 7511 2dbe 1bb8 ad39
000002b0: 52bd cebd 589e 173d 44a7 c83d 5f56 ef3d
000002c0: a476 883e 7341 cbbd 5a5f 29bd edb1 043e
000002d0: 314c 163c a69c ebbd ba20 ab3d 8f45 553d
000002e0: cef0 c1bc 7459 273e 6a47 f63c 9824 a13d
000002f0: baab 063d b8f8 eabd c53e d83d 8bd3 00bc
00000300: 0aa3 c63d 8d53 23be 625d 563e 7209 abbc
00000310: 08ad 57bd 38a5 b5bd 1b5d d13d 83c1 973d
00000320: a346 d83c 2c28 27bd 6681 883d b72a 07bd
00000330: 18e8 13bd 196b 0e3e c455 923d f917 923d
00000340: d0c4 eb3d 1c27 173e 2138 113e 4e00 14be
00000350: bd5c 96be 506c d3bd 0f38 2f3e 2d30 033e
00000360: e623 f03c a6ee 8d3b eeab 8a3d 7483 dcbd
00000370: ec1f 18bd 85fc 413d 4572 2b3e 0d88 c6bd
00000380: 843b f2bc ff49 d7bd 3bb7 093d 14f0 72be
00000390: 20a0 943c a152 b93d 15d6 1fbe c76a a3bd
000003a0: d25d e53d d15e 363d 8a28 403d 0376 083e
000003b0: 64d1 a23c cadc 8d3e 3198 cabd 631b ae3d
000003c0: 3fc8 8c3e 6bb1 213d 26eb c0bd e753 8bbd
000003d0: 9dbb 0c3e b023 ad3d a342 b23b ef8f 9cbc
000003e0: 1403 d23d 3865 92bc d2a2 14be 5f9c aabd
000003f0: c5b3 b6ba e498 33be 26b2 26be c6ad a83d

network_body.linear_encoder.seq_layers.2.bias f4 [128]
0.0 0.0 0.0 0.0 0.0 0.0 0.0 0.0
0.0 0.0 0.0 0.0 0.0 0.0 0.0 0.0
0.0 0.0 0.0 0.0 0.0 0.0 0.0 0.0
0.0 0.0 0.0 0.0 0.0 0.0 0.0 0.0
0.0 0.0 0.0 0.0 0.0 0.0 0.0 0.0
0.0 0.0 0.0 0.0 0.0 0.0 0.0 0.0
0.0 0.0 0.0 0.0 0.0 0.0 0.0 0.0
0.0 0.0 0.0 0.0 0.0 0.0 0.0 0.0
0.0 0.0 0.0 0.0 0.0 0.0 0.0 0.0
0.0 0.0 0.0 0.0 0.0 0.0 0.0 0.0
0.0 0.0 0.0 0.0 0.0 0.0 0.0 0.0
0.0 0.0 0.0 0.0 0.0 0.0 0.0 0.0
0.0 0.0 0.0 0.0 0.0 0.0 0.0 0.0
0.0 0.0 0.0 0.0 0.0 0.0 0.0 0.0
0.0 0.0 0.0 0.0 0.0 0.0 0.0 0.0
0.0 0.0 0.0 0.0 0.0 0.0 0.0 0.0
00000000: 0000 0000 0000 0000 0000 0000 0000 0000
00000010: 0000 0000 0000 0000 0000 0000 0000 0000
00000020: 0000 0000 0000 0000 0000 0000 0000 0000
00000030: 0000 0000 0000 0000 0000 0000 0000 0000
00000040: 0000 0000 0000 0000 0000 0000 0000 0000
00000050: 0000 0000 0000 0000 0000 0000 0000 0000
00000060: 0000 0000 0000 0000 0000 0000 0000 0000
00000070: 0000 0000 0000 0000 0000 0000 0000 0000
00000080: 0000 0000 0000 0000 0000 0000 0000 0000
00000090: 0000 0000 0000 0000 0000 0000 0000 0000
000000a0: 0000 0000 0000 0000 0000 0000 0000 0000
000000b0: 0000 0000 0000 0000 0000 0000 0000 0000
000000c0: 0000 0000 0000 0000 0000 0000 0000 0000
000000d0: 0000 0000 0000 0000 0000 0000 0000 0000
000000e0: 0000 0000 0000 0000 0000 0000 0000 0000
000000f0: 0000 0000 0000 0000 0000 0000 0000 0000
00000100: 0000 0000 0000 0000 0000 0000 0000 0000
00000110: 0000 0000 0000 0000 0000 0000 0000 0000
00000120: 0000 0000 0000 0000 0000 0000 0000 0000
00000130: 0000 0000 0000 0000 0000 0000 0000 0000
00000140: 0000 0000 0000 0000 0000 0000 0000 0000
00000150: 0000 0000 0000 0000 0000 0000 0000 0000
00000160: 0000 0000 0000 0000 0000 0000 0000 0000
00000170: 0000 0000 0000 0000 0000 0000 0000 0000
00000180: 0000 0000 0000 0000 0000 0000 0000 0000
00000190: 0000 0000 0000 0000 0000 0000 0000 0000
000001a0: 0000 0000 0000 0000 0000 0000 0000 0000
000001b0: 0000 0000 0000 0000 0000 0000 0000 0000
000001c0: 0000 0000 0000 0000 0000 0000 0000 0000
000001d0: 0000 0000 0000 0000 0000 0000 0000 0000
000001e0: 0000 0000 0000 0000 0000 0000 0000 0000
000001f0: 0000 0000 0000 0000 0000 0000 0000 0000

network_body.linear_encoder.seq_layers.2.weight f4 [128, 128]
0.08133377 0.024937905 -0.10663972 0.18379578 0.0064518447 0.0424295 -0.052801494 -0.05933593
-0.027210876 -0.0015237705 0.027300041 0.04977424 0.10485383 0.047790285 -0.03073484 0.0063230395
-0.0015355779 -0.1961737 -0.027415847 0.031622734 0.049703423 -0.10190186 -0.0020142354 -0.050922826
-0.09408511 -0.040551614 0.12851113 0.049390193 0.05123502 0.13252626 -0.05931002 -0.07019458
0.034691054 0.051259607 0.12075881 -0.041542593 -0.17068163 -0.1469732 0.09402337 0.0071897255
-0.04958674 -0.0022995938 -0.024076572 0.042389728 -0.05059208 -0.07813339 -0.15010616 -0.032815125
0.16371062 -0.12613408 -0.096908614 -0.0061646705 -0.10312713 0.0752148 0.047185518 -0.031896017
0.016212054 -0.030466005 -0.044312373 -0.008777828 -0.08160296 -0.0089867925 -0.07375739 -0.06743023
0.11846817 -0.06729215 0.11896904 -0.06229936 0.08386903 -0.020074211 -0.047215726 0.080876194
0.04010243 -0.011878498 0.026348561 0.022879854 -0.101496056 -0.048478026 -0.081912875 -0.041151725
0.1302501 0.059176054 -0.055620775 0.0028343014 -0.063993655 0.039663307 0.1935559 -0.14514303
0.03767492 -0.121152885 0.1767535 0.064347796 -0.026249012 -0.08648597 -0.11409678 0.058600824
0.053183563 0.0629315 -0.050790254 -0.074129075 -0.025062723 -0.06657991 0.20033813 -0.024197899
0.12560669 0.0905128 0.07335321 0.1082075 -0.13309641 0.043217976 -0.060405765 0.08075322
0.024631213 -0.037484184 -0.014235165 0.0068958164 0.08024397 -0.0021269703 0.058203015 0.1216379
-0.13380751 0.013054211 0.18829383 0.058553666 0.07525042 -0.05443064 -0.0003528388 0.1393194
0.016750868 -0.17661697 0.13159415 -0.03450616 0.068701036 -0.027088659 -0.0093083605 0.0446091
0.16241516 -0.13794346 0.037752435 0.15923244 0.01754051 -0.033822887 -0.0658776 0.099839814
0.08084369 0.08616163 0.0623372 -0.045903496 -0.07543507 0.06235832 0.049042024 0.021504367
-0.13086995 -0.07206223 -0.011370033 -0.027512822 -0.007315111 -0.16757117 -0.08985088 -0.010533346
-0.014054562 -0.02075316 0.01419016 0.11119318 -0.0186461 0.055619452 0.15064216 0.0036762233
0.0410497 0.065060005 -0.0046872008 0.16210854 0.09511621 -0.18833376 -0.040094297 0.14401653
-0.019612556 0.1369055 -0.11468779 -0.030979985 -0.055176415 -0.17465106 0.0074265017 -0.027324304
-0.041358404 0.08134406 -0.059528306 -0.08953715 0.03785719 -0.059883796 0.049645267 -0.11219158
-0.11601029 -0.08551391 -0.038496144 -0.10852355 0.026618809 0.14597769 0.02950994 -0.040066753
0.026639622 -0.046205167 0.033767726 0.057730336 -0.106099166 0.013890384 0.04876545 -0.027274847
-0.06552478 0.035766922 0.12760642 -0.09615779 -0.034623273 0.025629913 0.1358309 0.0019447771
-0.067294456 -0.0920067 0.015779804 0.08079864 0.08931004 -0.13062495 -0.1212478 -0.028355394
0.056394342 0.057057835 0.066333055 -0.048564438 0.079545215 0.01714451 -0.05435248 -0.043154214
0.032206874 0.01610569 0.019613473 0.056291852 0.08181022 -0.086271346 0.061940916 0.16148716
0.07831511 -0.1298115 0.0020911393 0.06723784 0.0019692527 0.05474866 -0.028046912 0.089365005
0.0069817565 -0.120290086 -0.07016051 -0.07109352 0.05363525 0.03940646 -0.037748482 0.04964617
00000000: 5292 a63d 944a cc3c ed65 dabd f634 3c3e
00000010: ff69 d33b 8eca 2d3d 6146 58bd 3b0a 73bd
00000020: 58e9 debc 41b9 c7ba 56a4 df3c 13e0 4b3d
00000030: 9bbd d63d bfbf 433d a2c7 fbbc 8031 cf3b
00000040: 7245 c9ba c2e1 48be 3397 e0bc d786 013d
00000050: d195 4b3d ecb1 d0bd 4301 04bb 7494 50bd
00000060: b2af c0bd 7319 26bd 6c98 033e 5f4d 4a3d
00000070: d0db 513d f7b4 073e 10ef 72bd 2dc2 8fbd
00000080: 3518 0e3d 98f5 513d 6550 f73d 9128 2abd
00000090: 2ac7 2ebe 2480 16be 538f c03d ca97 eb3b
000000a0: 771b 4bbd c8b4 16bb 3b3c c5bc daa0 2d3d
000000b0: a439 4fbd 6604 a0bd 6eb5 19be 2769 06bd
000000c0: c2a3 273e 4b29 01be 0678 c6bd 0101 cabb
000000d0: 5134 d3bd 380a 9a3d 9a45 413d 66a5 02bd
000000e0: 24cf 843c d893 f9bc e480 35bd e1d0 0fbc
000000f0: 741f a7bd 573d 13bc 1d0e 97bd dc18 8abd
00000100: 719f f23d 77d0 89bd 0aa6 f33d 9d2d 7fbd
00000110: 87c3 ab3d ac72 a4bc 4765 41bd 6ba2 a53d
00000120: 7242 243d 089e 42bc f0d8 d73c 886e bb3c
00000130: 2add cfbd e590 46bd f0c1 a7bd b68e 28bd
00000140: 4860 053e 9762 723d 9cd2 63bd b0bf 393b
00000150: 1b0f 83bd fe75 223d 8533 463e 60a0 14be
00000160: 0451 1a3d 011f f8bd dffe 343e c7c8 833d
00000170: 2b08 d7bc 8e1f b1bd 93ab e9bd 6b07 703d
00000180: 02d7 593d 3be2 803d 7109 50bd fcd0 97bd
00000190: 5750 cdbc 0c5b 88bd 7025 4d3e ac3a c6bc
000001a0: 0a9f 003e c65e b93d 353a 963d e59b dd3d
000001b0: 6d4a 08be 5505 313d 096c 77bd f261 a53d
000001c0: 66c7 c93c 0489 19bd 9c3a 69bc 4df6 e13b
000001d0: f356 a43d a464 0bbb 4966 6e3d 4b1d f93d
000001e0: d604 09be 54e1 553c 19d0 403e f8d5 6f3d
000001f0: e41c 9a3d aaf2 5ebd 39fd b8b9 bfa9 0e3e
00000200: 1e39 893c 14db 34be 9ec0 063e 5556 0dbd
00000210: 21b3 8c3d 09e9 ddbc 1882 18bc 08b8 363d
00000220: 2950 263e 0d41 0dbe 4ca2 1a3d d40d 233e
00000230: 1eb1 8f3c de89 0abd d6ea 86bd d178 cc3d
00000240: 6091 a53d 8275 b03d 4b55 7f3d 4e05 3cbd
00000250: b47d 9abd 706b 7f3d 4ae0 483d ed29 b03c
00000260: c602 06be 5d95 93bd 6049 3abc 9262 e1bc
00000270: 99b3 efbb c797 2bbe bd03 b8bd 0e94 2cbc
00000280: 1b45 66bc 8802 aabc d87d 683c 40b9 e33d
00000290: b5bf 98bc 39d1 633d f041 1a3e cbec 703b
000002a0: bb23 283d 2e3e 853d 1797 99bb c8ff 253e
000002b0: 4acc c23d 91da 40be eb39 24bd 1279 133e
000002c0: 83aa a0bc f530 0c3e 6fe1 eabd bdc9 fdbc
000002d0: aa00 62bd bad7 32be 035a f33b 38d7 dfbc
000002e0: 6e67 29bd b797 a63d f4d3 73bd 415f b7bd
000002f0: 2410 1b3d b648 75bd d658 4b3d b3c4 e5bd
00000300: ce96 edbd eb21 afbd 22ae 1dbd 9841 debd
00000310: b00f da3c 2d7b 153e d4be f13c 091d 24bd
00000320: 563b da3c a141 3dbd 0750 0a3d a576 6c3d
00000330: 854a d9bd 7e94 633c 48be 473d 806f dfbc
00000340: db31 86bd 5680 123d 42ab 023e 60ee c4bd
00000350: 22d1 0dbd d3f5 d13c 4117 0b3e e4e7 fe3a
00000360: add1 89bd 026e bcbd a644 813c c279 a53d
00000370: 2fe8 b63d 8cc2 05be c450 f8bd 9249 e8bc
00000380: c1fd 663d 7ab5 693d a0d9 873d 81eb 46bd
00000390: 9ae8 a23d a572 8c3c b5a0 5ebd 79c2 30bd
000003a0: 5beb 033d 14f0 833c 6fac a03c 4992 663d
000003b0: 1e8c a73d 08af b0bd c2b5 7d3d e45c 253e
000003c0: ac63 a03d 4eed 04be 7f0b 093b feb3 893d
000003d0: 940e 013b 2240 603d a3c2 e5bc 0005 b73d
000003e0: 38c7 e43b a65a f6bd 50b0 8fbd 7b99 91bd
000003f0: a3b0 5b3d ab68 213d 279e 1abd c859 4b3d
