Assets/Brains/test5/KartAgent/KartAgent-10048.onnx (onnx, 108737 bytes, 7 tensors)

39 f4 [1, 2]
00000000: 0000 0000 0000 0000
0.0 0.0

distribution.mu.bias f4 [2]
00000000: 0000 0000 0000 0000
0.0 0.0

distribution.mu.weight f4 [2, 128]
00000000: 5f7d 683c 611d adbc 4082 4d3c 0ac8 dabc
00000010: f610 3d3d 7eca 04bb ef62 113c 8fc4 dabc
00000020: 409b d03c 7a51 423b 1351 753c a2fa 7c3c
00000030: df73 09bc 82a4 dc3a bb7d 3fbd 2959 1cbc
00000040: 889c 0dbd 94b8 4c3c 4d5b 25bb 0426 193c
00000050: 2af6 4a3b 289f 513c e90a a63b c86a fa3c
00000060: 95cb e1bc 209f e5bb c393 a83c cb66 d03c
00000070: 6d81 debc 4de2 88bb f865 0a3b 94a7 b5bc
00000080: 99c9 a53c ecc2 9c3c df21 cc3b 2f1c 3abc
00000090: 7893 6cbc 9fe9 423b 003b b5bc c489 a4bb
000000a0: 1a62 533c 9832 80bc 35ea 71bc 6395 6dbc
000000b0: a59a 413b 1206 573c a788 cfbb 7023 fb3c
000000c0: 405c ff3c ffe5 d53c 9cfb 1f3c 8fd8 07bd
000000d0: d37b a239 9d8b 3cbc aaf1 d63b 6397 adbb
000000e0: 4678 b63c 5a03 953c 1040 bcbc 9b7a 4a3b
000000f0: 0844 72bc 0394 18bc 47d2 f6bb 1165 a2bb
00000100: f8ac 55bc 9747 dabc 2bee 233c a367 d63c
00000110: d36f e2bb 0700 413d 4bb3 4e3c 6d1b a23b
00000120: 026c f33b a19c 0f3c 7366 4abb a8f2 7dbc
00000130: 2316 24bd b0fc 6fbc d790 a6bc a6f9 89ba
00000140: 5afa 663b a841 77b9 502a dc3b e779 723c
00000150: 2f92 b7bc 0334 df3b 7a2a 79ba 7793 a63c
00000160: e4af 92bb 6863 93bc c28c 81bc ff55 a8bc
00000170: f398 b0bc 271e 02bc 516d 2dbc b8a7 d2bb
00000180: 45d5 dcbb 85e4 d2bc 4004 efbb ac20 bfbc
00000190: 9ca8 003d db10 243c 0d7b 033c fff0 d0bb
000001a0: a93e 1ebc afb5 64bc 5d45 dfbb 6fee 2e3b
000001b0: c382 8e3c 7bc7 dc3b 7dc7 08bc e3a0 dd3c
000001c0: fac5 573c 3030 b1bb 2c8b 09bc 1fda bc3c
000001d0: cb83 c6bc dcb1 bfbc bc24 aabc d595 ff3b
000001e0: a333 8b3c cde5 cebb 9f62 fd3b e2e6 26bc
000001f0: eca1 4a3b 07f9 8f3c afcf 963b 57d5 52bc
00000200: a317 afba 830f 983b 2771 30bc 7ba0 3f3c
00000210: 4ab3 563c 039b b23c 2039 f0bc ec36 bebc
00000220: 559b 5bbc 3b76 47bc 4a6f f3bb b711 f93c
00000230: b57a 133a 96fa a1bb f8e0 3ab9 f725 10bd
00000240: 4a01 d63c 2fd7 c3bc 0fcd 923c 9d5b c1bc
00000250: 6db9 dfbc 4926 11bc 069e 0d3a 3535 ecbb
00000260: 1c69 37bc 3acc 91bc b7cc e7bb a820 60bc
00000270: 8832 833c 9995 00bb 4297 533c 5225 b43c
00000280: f5cf c5bc 0ac5 643c 1b28 2b3c 7a56 02bc
00000290: dcaf 473c 0e89 a33b 52b2 10bd e758 9bbc
000002a0: 27a1 80bb 90e2 8abb 650c e93c 73c4 2f3c
000002b0: 38a4 03bd 5b5c a8bc 4336 823c d020 de3b
000002c0: f664 1cba 8f5a 103c c497 363c c64b af3b
000002d0: 22cf e93b 0027 9d3c 6f05 b43a 6010 3ebc
000002e0: 0835 353c 2202 0a3b d3cc c8bb a1ff 1a3c
000002f0: c248 cd3b b327 d43c 6420 a93c 9958 2abc
00000300: 2aab d93b 03b8 19bc db1b 553c e899 14bd
00000310: 5a71 153c 7b19 d83b bbf1 883c 24bc 83bb
00000320: 2832 f7bb 2aa4 eebb 9d1e 6eba 6fe7 103d
00000330: 1b0e e13a 88a2 a7bc ab17 e2bc 605b f83b
00000340: ad01 a6bc 6f04 2d3c 8cdb 0dbc e534 de3b
00000350: 0fc0 95bc d2f4 89bb e616 8abc 7dd9 31bb
00000360: 99f3 16bc e35e 7f3c 6040 d33b 7040 5cbc
00000370: 6134 b9bc f3a3 8f3c 2794 d93a 8dcb 7bbc
00000380: 9373 a13b 5bfb 553c 98d5 6b3b b026 843c
00000390: 92c8 0eba c2d3 55bb 63ad 1f3c 5d71 93ba
000003a0: 7237 d6bb e3ff 96bb 0ace 663c b763 30bc
000003b0: b0c0 5dbc 74d9 943b 2e59 aa3c 3752 5a3c
000003c0: 108c 413b 39d8 17bc 85b7 00bd 2371 ed3b
000003d0: 2c28 853b 45fc 783c 08a6 95bc 329f 923c
000003e0: 076a 2b3b 8002 853c bbb0 b03c 6634 873c
000003f0: 9ecc 87bb 1354 b03c 739c 843c 2f40 29bc
0.014190047 -0.021132173 0.012543261 -0.026706714 0.046158753 -0.0020262296 0.008873685 -0.026705055
0.025464654 0.0029650615 0.014972943 0.015440615 -0.008389442 0.0016833695 -0.046750765 -0.009542742
-0.034573108 0.012495179 -0.0025231421 0.009347443 0.003096948 0.012794293 0.0050672186 0.030568495
-0.027562896 -0.0070074946 0.02057827 0.02543964 -0.027161324 -0.004177368 0.0021117907 -0.022174634
0.02023773 0.019135915 0.0062296237 -0.011359259 -0.014439456 0.00297413 -0.02212286 -0.0050213058
0.012901807 -0.015649125 -0.014765312 -0.014500949 0.0029541638 0.013124006 -0.006333429 0.030656546
0.031171918 0.026110647 0.009764578 -0.03316551 0.00030991304 -0.011507896 0.0065595703 -0.0052975877
0.022274148 0.018190075 -0.022979766 0.0030895832 -0.014786728 -0.0093126325 -0.007532391 -0.0049558957
-0.013041727 -0.026645465 0.010005514 0.026172465 -0.006910303 0.047119167 0.012615989 0.004947117
0.007428647 0.008765371 -0.0030883818 -0.015499748 -0.040060174 -0.014647648 -0.020332737 -0.0010526672
0.0035244436 -0.00023580214 0.006718911 0.014799572 -0.022408573 0.00681162 -0.00095049257 0.020333989
-0.004476534 -0.017991737 -0.015814189 -0.020548819 -0.021557307 -0.007941759 -0.010585145 -0.006428685
-0.006739291 -0.025743732 -0.007294208 -0.023331009 0.0314108 0.010013784 0.008024943 -0.006376385
-0.009658494 -0.013959332 -0.0068136887 0.002669241 0.017396336 0.006737647 -0.008348343 0.027054256
0.01316976 -0.0054073557 -0.008394998 0.023053227 -0.024232766 -0.02340024 -0.02076947 0.007799844
0.016992396 -0.0063140155 0.007732704 -0.010186883 0.0030919267 0.0175748 0.0046023945 -0.012868247
-0.0013358485 0.004640521 -0.010769165 0.011695976 0.013104269 0.021802431 -0.029324114 -0.023219548
-0.013403733 -0.012174184 -0.007429038 0.030403955 0.000562589 -0.0049432022 -0.0001782215 -0.035192456
0.026123662 -0.023906318 0.017920045 -0.023603255 -0.027310098 -0.008859226 0.00054022705 -0.007208491
-0.011194494 -0.017797578 -0.0070739645 -0.013679661 0.016015306 -0.0019620417 0.012914481 0.021990452
-0.024147013 0.013962993 0.010446574 -0.007955188 0.012187924 0.0049907034 -0.03532631 -0.01896329
-0.003925461 -0.004238434 0.028448293 0.0107279895 -0.032139033 -0.020551851 0.015895015 0.006778814
-0.0005965972 0.008810653 0.011144582 0.005349609 0.007135288 0.019183636 0.001373453 -0.011600584
0.011060007 0.00210584 -0.0061279326 0.009460361 0.006264777 0.025897836 0.020645328 -0.0103971
0.006642719 -0.009382251 0.01300713 -0.03627959 0.009121263 0.0065948344 0.016716829 -0.004020231
-0.007543821 -0.0072827535 -0.0009083541 0.035376962 0.0017170341 -0.020463243 -0.027599176 0.007579252
-0.020264471 0.010560139 -0.008658301 0.006781208 -0.018280057 -0.004210093 -0.016856622 -0.002713769
-0.009213352 0.015586588 0.006446883 -0.0134430975 -0.022607984 0.017534232 0.0016599939 -0.0153683545
0.0049271076 0.013060416 0.0035985466 0.016131729 -0.00054467574 -0.0032627438 0.009745928 -0.0011248995
-0.0065373713 -0.004608141 0.0140872095 -0.010765961 -0.01353471 0.004542524 0.020794477 0.013325266
0.0029532947 -0.00926786 -0.031425018 0.007246153 0.0040636268 0.0151968645 -0.018267646 0.017898176
0.0026155727 0.016236544 0.021568647 0.016504478 -0.0041442653 0.021524465 0.016187882 -0.010330244

network_body.linear_encoder.seq_layers.0.bias f4 [128]
00000000: 0000 0000 0000 0000 0000 0000 0000 0000
00000010: 0000 0000 0000 0000 0000 0000 0000 0000
00000020: 0000 0000 0000 0000 0000 0000 0000 0000
00000030: 0000 0000 0000 0000 0000 0000 0000 0000
00000040: 0000 0000 0000 0000 0000 0000 0000 0000
00000050: 0000 0000 0000 0000 0000 0000 0000 0000
00000060: 0000 0000 0000 0000 0000 0000 0000 0000
00000070: 0000 0000 0000 0000 0000 0000 0000 0000
00000080: 0000 0000 0000 0000 0000 0000 0000 0000
00000090: 0000 0000 0000 0000 0000 0000 0000 0000
000000a0: 0000 0000 0000 0000 0000 0000 0000 0000
000000b0: 0000 0000 0000 0000 0000 0000 0000 0000
000000c0: 0000 0000 0000 0000 0000 0000 0000 0000
000000d0: 0000 0000 0000 0000 0000 0000 0000 0000
000000e0: 0000 0000 0000 0000 0000 0000 0000 0000
000000f0: 0000 0000 0000 0000 0000 0000 0000 0000
00000100: 0000 0000 0000 0000 0000 0000 0000 0000
00000110: 0000 0000 0000 0000 0000 0000 0000 0000
00000120: 0000 0000 0000 0000 0000 0000 0000 0000
00000130: 0000 0000 0000 0000 0000 0000 0000 0000
00000140: 0000 0000 0000 0000 0000 0000 0000 0000
00000150: 0000 0000 0000 0000 0000 0000 0000 0000
00000160: 0000 0000 0000 0000 0000 0000 0000 0000
00000170: 0000 0000 0000 0000 0000 0000 0000 0000
00000180: 0000 0000 0000 0000 0000 0000 0000 0000
00000190: 0000 0000 0000 0000 0000 0000 0000 0000
000001a0: 0000 0000 0000 0000 0000 0000 0000 0000
000001b0: 0000 0000 0000 0000 0000 0000 0000 0000
000001c0: 0000 0000 0000 0000 0000 0000 0000 0000
000001d0: 0000 0000 0000 0000 0000 0000 0000 0000
000001e0: 0000 0000 0000 0000 0000 0000 0000 0000
000001f0: 0000 0000 0000 0000 0000 0000 0000 0000
0.0 0.0 0.0 0.0 0.0 0.0 0.0 0.0
0.0 0.0 0.0 0.0 0.0 0.0 0.0 0.0
0.0 0.0 0.0 0.0 0.0 0.0 0.0 0.0
0.0 0.0 0.0 0.0 0.0 0.0 0.0 0.0
0.0 0.0 0.0 0.0 0.0 0.0 0.0 0.0
0.0 0.0 0.0 0.0 0.0 0.0 0.0 0.0
0.0 0.0 0.0 0.0 0.0 0.0 0.0 0.0
0.0 0.0 0.0 0.0 0.0 0.0 0.0 0.0
0.0 0.0 0.0 0.0 0.0 0.0 0.0 0.0
0.0 0.0 0.0 0.0 0.0 0.0 0.0 0.0
0.0 0.0 0.0 0.0 0.0 0.0 0.0 0.0
0.0 0.0 0.0 0.0 0.0 0.0 0.0 0.0
0.0 0.0 0.0 0.0 0.0 0.0 0.0 0.0
0.0 0.0 0.0 0.0 0.0 0.0 0.0 0.0
0.0 0.0 0.0 0.0 0.0 0.0 0.0 0.0
0.0 0.0 0.0 0.0 0.0 0.0 0.0 0.0

network_body.linear_encoder.seq_layers.0.weight f4 [128, 77]
00000000: da99 6bbd 5ae2 1a3d 34ab 4fbd c6d2 1ebd
00000010: 9ed9 15be 2bef 25bc 9a0b 6ebd 81b7 4b3d
00000020: d90e c43c 3356 22be 774b a4bd 7fa2 dd3d
00000030: 8b71 b0bd 59d7 b1bd 766d ef3c 608a 9fb9
00000040: 7efb c83d 6855 ba3d 72f3 c63c 039d a8ba
00000050: 1549 0d3e 9855 0ebe 7993 b53d 8078 353e
00000060: 4634 9e3e e7c6 9b3d 4b55 cdbd 101b 333d
00000070: 6297 093e 4063 fbbd aa10 6abc 4a21 c3bd
00000080: 48e0 4f3c 1cea 8ebd e887 f53d 9d96 603d
00000090: 9a78 47bd b693 093e e13b 05bd 7805 d2bd
000000a0: 10e6 2d3e d45f 843d a5de a3bd 5242 5abd
000000b0: 6b68 da3d a214 98be 37d0 d6bd ab58 a43e
000000c0: c630 1cbe 343c 243d c5af 39bc cdb0 ce3b
000000d0: 8399 db3d 84dc 4b3b 9d62 dcbd e428 013d
000000e0: 264e 71bd 5e6f fe3d e14b 783d a985 a83d
000000f0: b383 323e 7d9e a93d 668f 31bd 4a3a 233d
00000100: 7b5c 6f3d 0ad6 6d3e 60c1 a03c e71a 263e
00000110: 77cf 4abd 4e8d 833d 09f3 13bd 719c a0bd
00000120: 210b e43d 08b5 793d ce5a 293d 7999 563d
00000130: af2a 16be 8556 cdbc 6655 56bc 0504 113e
00000140: de7a 6b3d eee6 d1bc bb2d 25bd b196 333d
00000150: 256d 1abd 9fbe 0f3e 2d10 80bd 8789 2e3b
00000160: cd6b ff3d 53af cd3d 3880 1cbe 2293 e63d
00000170: 6b69 6b3d 879f 973c b062 353e 2595 6ebe
00000180: d868 99bc dd18 903d 20a9 f9bd adf2 983c
00000190: a21f 633d 3d30 8a3c 44a3 89be e343 1a3d
000001a0: b142 31be 9ddb e23c 7544 dd3c f662 4bbc
000001b0: cc20 173e 5576 02bd 95b9 aebd 300f 323e
000001c0: 4c7d 323d 666a 1abe 4d23 9ebd 840e 64bd
000001d0: 5115 433e 2fd1 6f3d cc55 91bc 12f9 dcbd
000001e0: 9964 2f3e 5ba8 37be bf7c 0b3e a969 28be
000001f0: 8322 29bd 565b 863d eab7 ad3d 0cdb 17bc
00000200: 51fa 4a3c 82bf 42be b801 8f3c b488 da3c
00000210: 6c50 a0bd 65dd b0bb 7632 3ebe fd37 16bd
00000220: 4506 0ebe 6dc1 96bd 1675 363d ac60 46bd
00000230: f101 f33d d1be b43e 4a4b 84bc 471f 0b3d
00000240: 3d80 d5bd d3c2 1f3d 09ac 963d a107 95bd
00000250: 7bda 81bd 6659 0cbc 7504 92bc c112 113e
00000260: e9c9 89be c13f f9bc 6ddf d1bc 4fbc 183e
00000270: 492c 763c 6d42 c13c 4661 7fbd 6a21 b03c
00000280: 3bea 4ebc 8901 fb3c 7721 213d 999c 18be
00000290: bb88 e4bd 56f7 a23d 6a8b bebd 2585 0f3e
000002a0: 25bb 633d 9d67 efbd d42f d63d 2cfc 2ebe
000002b0: 4169 67bd eebd c4bd 5532 903c fd66 a43c
000002c0: 4c13 4abc f94e e4bc ec92 82be 95ba 243e
000002d0: 8ceb a4bd 94f2 63bd 1709 623d 853b 453e
000002e0: e10e 6dbe 8925 6abc 0371 2e3c fa1c 5bbe
000002f0: db61 713b aaa2 f5bd 5bdb 1dbe 9ed0 233d
00000300: cff4 32bd 362b 59bd 355b 5fbd 763f 83bc
00000310: 6d77 803a bfff 3b3e 78c7 0bbe fd6e 243d
00000320: ea91 013d aae2 643c 62e1 383e 4d2a 9bbd
00000330: ebbd 16be d41a 9d3d cac1 413d 2f26 053d
00000340: e69e 9ebd 8019 bf3d e75a 1d3e 8e90 c6bd
00000350: 9194 d6bd ba2a b6bc 5cd8 723e 547b d9bd
00000360: 95c3 e1bd 51e0 c7bb 41db 133d dd25 40be
00000370: 4e9d 83bc ea16 693d e4e1 023d 7cc1 c33d
00000380: 5489 fa3d b81e 7e3d 3f1b 843d aeef 05be
00000390: 17ba 91be 9b76 a33c 8dd7 963d b35c d53c
000003a0: 67f0 6b3a 47ad 683d d5f4 08be ebea 8bbd
000003b0: ce9e e53d fe80 81bb 170a 6abc fe2c de3c
000003c0: df6c 8b3d 7825 a13d beb5 253d a8c1 ffbd
000003d0: c2ed 4dbc e742 09be f2b5 f4bc 9a20 053d
000003e0: b905 4c3e 6019 ad3d e54e 8c3e 2106 583e
000003f0: e3b3 d53c 91b8 78bd 018e b03d 2147 f4bd
-0.05751977 0.037813522 -0.05070038 -0.038775228 -0.14633796 -0.010127823 -0.058116533 0.04973555
0.023932861 -0.15853195 -0.08022206 0.10822009 -0.086154066 -0.086836524 0.029227 -0.0003042994
0.09813593 0.09098321 0.024286006 -0.0012864176 0.1379741 -0.13899839 0.08866019 0.17721748
0.30899256 0.07606297 -0.10026034 0.04372698 0.13436654 -0.1227479 -0.0142862 -0.09527834
0.01268775 -0.069782466 0.11988813 0.054831136 -0.048699 0.13435254 -0.032527808 -0.10254949
0.16982293 0.0646359 -0.080014504 -0.053285904 0.106644474 -0.29703242 -0.104889326 0.32098898
-0.1525298 0.040096477 -0.011333411 0.0063076974 0.107226394 0.003110678 -0.107609965 0.031533137
-0.05891242 0.12423585 0.06061924 0.08228619 0.17433052 0.08282182 -0.043349646 0.03985051
0.058437806 0.2322618 0.019623458 0.162212 -0.04951426 0.06423436 -0.03612045 -0.07842339
0.11134935 0.06096366 0.041346364 0.052392457 -0.1466472 -0.02506567 -0.013081884 0.1416169
0.057490222 -0.025622811 -0.040326815 0.043844882 -0.037701745 0.1403756 -0.06253085 0.0026632266
0.12471733 0.10043206 -0.15283287 0.11258532 0.05747358 0.018508686 0.17713428 -0.23299082
-0.018726751 0.07035992 -0.12190461 0.018670404 0.05545009 0.016868705 -0.26882374 0.037662398
-0.17310597 0.02769261 0.027010182 -0.012413731 0.14758605 -0.03185113 -0.08531491 0.17388606
0.043576524 -0.1507965 -0.07721577 -0.055677906 0.190511 0.058549102 -0.017741106 -0.10789694
0.17128219 -0.17935316 0.13621806 -0.16446556 -0.04129268 0.0656039 0.084823444 -0.009268533
0.012388782 -0.19018367 0.017456874 0.026676513 -0.07827839 -0.005397486 -0.18573937 -0.03667449
-0.13869579 -0.07361112 0.044545256 -0.048432037 0.11865605 0.3530183 -0.016149182 0.033965375
-0.1042485 0.03900416 0.07357032 -0.07276846 -0.063405 -0.008566236 -0.01782439 0.1416731
-0.26911858 -0.030425908 -0.025619233 0.14915584 0.015025207 0.023591245 -0.062348627 0.021500308
-0.012629087 0.03064038 0.039338555 -0.14903487 -0.11158892 0.07957332 -0.09303935 0.14015634
0.055598397 -0.116896845 0.10458341 -0.17088383 -0.056496862 -0.09606539 0.017602125 0.02006864
-0.012333702 -0.027869688 -0.25502717 0.160868 -0.080527395 -0.055651262 0.05518445 0.19260986
-0.23150207 -0.014291176 0.010647061 -0.21397772 0.0036832008 -0.11993916 -0.15415709 0.039993875
-0.0436905 -0.053019725 -0.05453034 -0.016021471 0.0009801217 0.18359278 -0.1365031 0.04014491
0.031633295 0.013970057 0.18054727 -0.075764276 -0.14720885 0.07671133 0.047303952 0.032507118
-0.07745151 0.093310356 0.15366708 -0.0969554 -0.104775555 -0.02223717 0.23715347 -0.10619226
-0.110236324 -0.0060997386 0.03609777 -0.18764444 -0.01606622 0.05690662 0.031953707 0.095583886
0.122332245 0.062041014 0.06450509 -0.13079712 -0.28462288 0.019954016 0.07365332 0.026045179
0.00090003613 0.056805875 -0.13374646 -0.068319164 0.1121193 -0.0039521446 -0.014284632 0.027121063
0.06807875 0.07868475 0.040456526 -0.12488109 -0.012568893 -0.13404427 -0.029871915 0.032501794
0.19924058 0.084521055 0.27403942 0.21096088 0.026086753 -0.06072289 0.08620835 -0.11927629

network_body.linear_encoder.seq_layers.2.bias f4 [128]
00000000: 0000 0000 0000 0000 0000 0000 0000 0000
00000010: 0000 0000 0000 0000 0000 0000 0000 0000
00000020: 0000 0000 0000 0000 0000 0000 0000 0000
00000030: 0000 0000 0000 0000 0000 0000 0000 0000
00000040: 0000 0000 0000 0000 0000 0000 0000 0000
00000050: 0000 0000 0000 0000 0000 0000 0000 0000
00000060: 0000 0000 0000 0000 0000 0000 0000 0000
00000070: 0000 0000 0000 0000 0000 0000 0000 0000
00000080: 0000 0000 0000 0000 0000 0000 0000 0000
00000090: 0000 0000 0000 0000 0000 0000 0000 0000
000000a0: 0000 0000 0000 0000 0000 0000 0000 0000
000000b0: 0000 0000 0000 0000 0000 0000 0000 0000
000000c0: 0000 0000 0000 0000 0000 0000 0000 0000
000000d0: 0000 0000 0000 0000 0000 0000 0000 0000
000000e0: 0000 0000 0000 0000 0000 0000 0000 0000
000000f0: 0000 0000 0000 0000 0000 0000 0000 0000
00000100: 0000 0000 0000 0000 0000 0000 0000 0000
00000110: 0000 0000 0000 0000 0000 0000 0000 0000
00000120: 0000 0000 0000 0000 0000 0000 0000 0000
00000130: 0000 0000 0000 0000 0000 0000 0000 0000
00000140: 0000 0000 0000 0000 0000 0000 0000 0000
00000150: 0000 0000 0000 0000 0000 0000 0000 0000
00000160: 0000 0000 0000 0000 0000 0000 0000 0000
00000170: 0000 0000 0000 0000 0000 0000 0000 0000
00000180: 0000 0000 0000 0000 0000 0000 0000 0000
00000190: 0000 0000 0000 0000 0000 0000 0000 0000
000001a0: 0000 0000 0000 0000 0000 0000 0000 0000
000001b0: 0000 0000 0000 0000 0000 0000 0000 0000
000001c0: 0000 0000 0000 0000 0000 0000 0000 0000
000001d0: 0000 0000 0000 0000 0000 0000 0000 0000
000001e0: 0000 0000 0000 0000 0000 0000 0000 0000
000001f0: 0000 0000 0000 0000 0000 0000 0000 0000
0.0 0.0 0.0 0.0 0.0 0.0 0.0 0.0
0.0 0.0 0.0 0.0 0.0 0.0 0.0 0.0
0.0 0.0 0.0 0.0 0.0 0.0 0.0 0.0
0.0 0.0 0.0 0.0 0.0 0.0 0.0 0.0
0.0 0.0 0.0 0.0 0.0 0.0 0.0 0.0
0.0 0.0 0.0 0.0 0.0 0.0 0.0 0.0
0.0 0.0 0.0 0.0 0.0 0.0 0.0 0.0
0.0 0.0 0.0 0.0 0.0 0.0 0.0 0.0
0.0 0.0 0.0 0.0 0.0 0.0 0.0 0.0
0.0 0.0 0.0 0.0 0.0 0.0 0.0 0.0
0.0 0.0 0.0 0.0 0.0 0.0 0.0 0.0
0.0 0.0 0.0 0.0 0.0 0.0 0.0 0.0
0.0 0.0 0.0 0.0 0.0 0.0 0.0 0.0
0.0 0.0 0.0 0.0 0.0 0.0 0.0 0.0
0.0 0.0 0.0 0.0 0.0 0.0 0.0 0.0
0.0 0.0 0.0 0.0 0.0 0.0 0.0 0.0

network_body.linear_encoder.seq_layers.2.weight f4 [128, 128]
00000000: 2bfe 42be 861d e6bd bca1 153e b1c7 843d
00000010: ad24 f4bd f7dd 943d 02c1 22bc c8e4 15bd
00000020: f3f9 54bd 66d0 ba3d c70a aabd 6860 4fbe
00000030: 34f6 8a3d 6f8b 16bd 74a2 2a3d cfc3 77bd
00000040: 0e73 02be 753b 1b3d e3d0 083e 4e7b 1c3e
00000050: 1595 6ebd 7659 a23b 0e67 623d c47f 763d
00000060: 7604 d63d f69a 6c3d 9b8c b73c 6a60 b63c
00000070: f143 a73d ac41 a1bd 1126 d93d d54a 2bbd
00000080: 260b b9bd 6980 98bc a871 0fbd e2fa 88bb
00000090: 5a46 5d3e cefa 873d ebe0 f8bc b9a5 033e
000000a0: 9665 e6bd d326 49bb 1765 54bd 82a7 963c
000000b0: 875a 19bd 985b 04be cbc1 d7bd f658 25bd
000000c0: 62c2 393d 034f 0dbd 1a67 99bd 5f00 2d3d
000000d0: cc1e eb3d a5bc 99bd 7cf7 13bd aa92 47be
000000e0: 12ae d1bd 39d1 f53c 14b7 ee3c 7bb7 643d
000000f0: 029c 10be 0b09 9dbc 82ac 0f3e e30a 6ebb
00000100: dbf5 1a3d 7bbc 083e 0a06 d6bd 73a9 e63d
00000110: 0e93 7e3d 3dff 353d 68c9 b439 e1c6 02be
00000120: 1dff 78bd 2cd9 18be e570 14be 1959 253e
00000130: 4a10 fb3d 900e 343e ed37 0abe 2027 33bd
00000140: 2003 463c 0fec 163d 3de2 eabc d3aa 9fbd
00000150: a6a0 26be 6ae4 acbd 3a2c 19be 7629 39be
00000160: 77ab 01bc 5825 1a3c e4b2 da3d 68fc ae3b
00000170: 4725 afbd e732 2d3e 2976 e5bd a7e4 13be
00000180: 0812 f43b 3230 a23b a418 e2bd 014e a73d
00000190: 4d6a a0bd 1644 20be 3265 14bd 41aa c33d
000001a0: aec6 2b3d e15a 04be 8a6c 523d 6128 aa3c
000001b0: a5fd ac3c 5ea7 963c 0ec8 b5bd ad9c 4cbd
000001c0: cc2e 95bd d483 423d 02bb e3bd 7c7b 3db7
000001d0: 0637 053e 3232 a73a dde1 0cbe 81cd 18be
000001e0: c984 6c3d 6864 b4bd d65b d43b e817 15bd
000001f0: 4b95 12bd fa03 113e 6e85 9dbb 746e 9e3d
00000200: 00d1 b43d 0718 413e c30e bfbd 4bd1 30bc
00000210: 1c00 5cbd 4e7a bdbd fe5d 3b3d 07f4 153e
00000220: 4d2a 9e3d 8d99 37bd d6e4 6fbc 7421 01be
00000230: 4894 413e 3f65 9e3d 9ea9 65be 6c6e 093d
00000240: c1dc 72bc 8425 ccbd f5e0 8c3e 9f49 0d3e
00000250: 2152 583d 3d79 b33d 895f 03be ed58 ce3d
00000260: 0fb2 9f3d 8030 6ebd 371d c7bd ab6d 5c3d
00000270: 2e45 883d f90e 023e b38e 22bd cb26 f7bb
00000280: 7d12 fc3d 9f6e 163e b98c 1c3e 9ba9 aebb
00000290: 4a74 d5bc 2939 d2bd 10b9 babc a817 4a3e
000002a0: 40ae 473e 5d82 a93d 6b5f 78bc ac2d 403d
000002b0: 1617 c8bd 8ce3 803d 351f cb3d 294c d23d
000002c0: d1a5 2e3d c85f 023d 2833 b03c f139 81bd
000002d0: 2024 44bc a1b5 8fbc 05f9 213d ed87 2bbc
000002e0: cf1f cdbd c82b 033d 31a9 b7bd 9f1c f4bd
000002f0: 064b e7bd 25b5 5bbc 46aa f0bc fc56 e0bc
00000300: 778d cdbd 3490 293e 5c9d 0fbe 274e 01bd
00000310: 197a b4bd 7cc4 c43b 4bf5 62bd 243c 21bd
00000320: a87d 1e3c 9f7f 35bd 3130 bf3c 027a 42bd
00000330: c570 87bd 4ba0 29be d01b c13d 70da 343e
00000340: a100 6cbc 2655 6f3c 4a15 5fbd e5a3 4ebd
00000350: b740 58be 47ec fd3c bfcf 943d a312 e93c
00000360: 358c 4a3d 25bb 933d 1f56 18be b4ab 48bc
00000370: 5065 42bd 0dba 97bd 6d3e 3d3d df3e 303a
00000380: 16b0 b63c 796a ae3b a6f7 b63d db8b 00be
00000390: 08f9 7ebd fe06 5dbd 19a6 c33d d9b5 943d
000003a0: b2eb eabc e1ba 6abe e510 c2bc fdda 1ebe
000003b0: 35dd 223d 7f0d 5fbe b254 5c3c 3ca1 febd
000003c0: af10 92bc 9fef 0c3d 8c25 d8bd 03cf 1a3c
000003d0: 6eef 513c 8863 95bc fcf0 57bc f597 863c
000003e0: cf67 4dbd c657 82bd e46b 05be 7a36 0cbd
000003f0: 92e9 b83b 430c 70bd adce 653d 72ed 1ebe
-0.1904227 -0.112361 0.14612478 0.064834006 -0.11921058 0.07268899 -0.009933712 -0.036595136
-0.051996183 0.0912178 -0.08302837 -0.2025162 0.06785241 -0.036754068 0.041658834 -0.060489472
-0.12739202 0.0378985 0.13360934 0.15281412 -0.058247644 0.004954512 0.05527406 0.06018044
0.104500696 0.05776497 0.022405913 0.02226277 0.08167256 -0.07873854 0.10602964 -0.041819412
-0.090353295 -0.018615918 -0.0350205 -0.004180298 0.21608868 0.06639634 -0.030380687 0.12856187
-0.11249845 -0.0030693307 -0.05185422 0.01839042 -0.03743985 -0.12925565 -0.1053501 -0.040368043
0.045351394 -0.03449918 -0.07490368 0.042236682 0.114804834 -0.07506684 -0.03612469 -0.19489542
-0.102382794 0.030006992 0.029140033 0.055839043 -0.14122012 -0.019169351 0.1403065 -0.0036322407
0.037832122 0.1335315 -0.104503706 0.112627886 0.06215196 0.044432867 0.00034482335 -0.12771179
-0.06079017 -0.14926594 -0.14496191 0.1614727 0.12258966 0.1758368 -0.13497896 -0.043738484
0.012085706 0.036846217 -0.028672332 -0.07796254 -0.1627222 -0.08442004 -0.14958277 -0.18082222
-0.007914416 0.0094083175 0.10678652 0.0053401478 -0.08552032 0.16913949 -0.11204178 -0.14442693
0.0074484386 0.004949593 -0.11039856 0.08169175 -0.07832775 -0.15650973 -0.03622932 0.09553958
0.041937523 -0.12925293 0.051373042 0.020771207 0.02111704 0.018390354 -0.08876048 -0.049954105
-0.072843164 0.047489002 -0.11119653 -1.1294029e-05 0.13009271 0.0012756048 -0.13758035 -0.14922144
0.05774382 -0.088082135 0.0064806743 -0.036399752 -0.035786908 0.14161673 -0.004807166 0.07735911
0.08828926 0.18856822 -0.093289874 -0.010792087 -0.05371104 -0.092518434 0.045743935 0.1464387
0.07722912 -0.04482417 -0.014641961 -0.12610418 0.18904221 0.07734155 -0.22427985 0.033552572
-0.01482314 -0.09968093 0.2751538 0.13797615 0.0528127 0.08763359 -0.12829413 0.10075555
0.07797634 -0.058151722 -0.09722369 0.053815525 0.0665382 0.12701024 -0.03968687 -0.0075424663
0.12308214 0.14690636 0.15288056 -0.005330277 -0.026056428 -0.10264809 -0.022793323 0.19735587
0.19500065 0.08276818 -0.015159468 0.046918556 -0.09770028 0.06293401 0.09918062 0.10268433
0.042638604 0.031829625 0.021508768 -0.063098796 -0.0119715035 -0.017542662 0.039544124 -0.010469419
-0.10015833 0.032024175 -0.089678176 -0.119195215 -0.112936065 -0.013409887 -0.029378068 -0.027385227
-0.10036748 0.16558915 -0.14024872 -0.031568673 -0.08812351 0.006004868 -0.05540971 -0.039363995
0.0096735135 -0.044311162 0.02333841 -0.047479637 -0.06613306 -0.16565053 0.09429133 0.17661452
-0.014404447 0.014607703 -0.054463662 -0.05044927 -0.21118437 0.030996455 0.07266187 0.02845127
0.049450118 0.07213429 -0.14876603 -0.012247968 -0.0474599 -0.07408533 0.046202112 0.0006723236
0.022300761 0.005322751 0.08933954 -0.1255335 -0.062249213 -0.053961746 0.09553165 0.07261247
-0.028676841 -0.22922851 -0.023689697 -0.15513225 0.03976174 -0.21782492 0.013447927 -0.12433097
-0.017830221 0.034408208 -0.105540365 0.0094487695 0.012813432 -0.018235937 -0.013180014 0.01642988
-0.050147828 -0.06364398 -0.13029438 -0.03423164 0.005643078 -0.058605444 0.056105305 -0.15520266
