Learning/results/test5/KartAgent/KartAgent-128.onnx (onnx, 109057 bytes, 6 tensors)

distribution.branches.0.bias f4 [2]
0.0 0.0
00000000: 0000 0000 0000 0000

distribution.branches.0.weight f4 [2, 128]
0.012438541 -0.004992236 0.0076534636 0.0065167695 0.0062609348 7.8220335e-05 0.0030780993 -0.0047303587
-0.008319039 0.015687777 6.926183e-05 -5.0933315e-05 -0.018270647 -0.0050808657 -0.007847847 -0.014230653
-0.0001617762 0.0037194618 0.012478549 0.012618008 -0.0053792316 -0.008489371 -0.00088754436 -0.0017639606
-0.007524612 0.020292057 0.0069898157 -0.010407499 0.005242831 0.0036029485 -0.0032464084 -0.00824676
0.00037825186 -0.0059955153 -0.009547491 0.013082432 0.0019550656 0.0182304 -0.0003253764 -0.0028725814
-0.0007599591 -0.00034257132 -0.015383007 0.0019726572 0.016752051 0.005058297 0.0050930935 0.0031673112
0.0148816025 -0.0047825887 -0.0030674255 0.0047297864 0.0133944545 -0.013785288 -0.0034592245 -0.0011075789
-0.007997337 0.00048357193 0.0020434118 0.00094337 0.0027187066 -0.0022466006 -0.012249286 -0.007602621
-0.00541377 -0.008809282 -0.00037500315 0.003413748 0.0003621867 0.004948206 0.0057507693 0.013915214
-0.0027595547 0.00016004952 -0.013484075 0.002966088 0.0030490437 -0.007809805 0.0050193085 -0.0151108075
0.0015313238 -0.005435988 0.008985072 -0.006410181 -0.02037203 0.008753494 -0.002260087 0.0041795536
0.0038614124 -0.00855071 -0.007830701 0.0042192657 0.0057657305 -0.007997075 -0.0043033687 0.0040177265
-0.00071174715 -0.0065256865 0.00025543373 -0.011143814 -0.019661652 -0.009836694 5.6462886e-05 -0.0055217217
0.0013522521 -0.005207554 -0.0063118446 0.014547634 -0.0045180297 -0.007430049 -0.0021942426 0.0067460113
0.005667785 -0.012316501 -0.010487645 0.008642042 0.00578606 -0.006294016 0.0023182805 -0.009050834
0.012160684 -0.0077932267 -0.0047033383 -0.0024354614 -0.012468104 0.014148787 0.003563381 0.0010770971
0.008039656 0.0042848317 0.0094672935 -0.0069694505 -0.0034120956 -0.00036856372 -0.0038190756 -0.0043825037
-0.0049729585 -0.004149555 -0.0072518475 -0.0012504528 0.0105902115 0.003959748 0.026988477 0.0077861436
-0.0110920025 0.011553129 -0.013391614 -0.009809168 -0.01092749 0.0031126454 0.0074591944 0.0070731277
0.0019879304 -0.008162948 -0.016116535 -0.0028691848 0.0042401045 0.0017608302 0.00966578 -0.011727593
-0.011581485 0.006228631 -0.023367401 -0.009570255 0.006112519 -0.005925344 -0.000965725 0.011841725
-0.0148647055 0.003063442 0.003501001 0.010786552 -0.0051746974 -0.00719209 -0.0003829718 -0.006089358
0.0037051297 -0.0036680084 -0.013892526 0.010929548 0.00328485 -0.011441534 0.00037765794 -0.0108609265
0.0068773367 -0.0003378483 -0.0023469732 0.0046068183 -0.010134831 -0.00537583 0.005937146 0.018360559
-0.005666689 -0.0039484906 0.007182432 -0.005675136 -0.0013502615 -0.00058182765 -0.0066510327 0.009901764
-0.007066972 -0.007845359 -0.0019343699 -0.008432308 0.00638197 0.0007213022 -0.0032384198 0.007400293
0.00036369625 -0.0052813566 0.003316392 -0.0052269716 -0.004541037 -0.004306884 0.0038309582 0.0035962127
0.008421225 0.0012375483 -0.0017050589 0.0058628707 -0.004510803 0.01265269 0.004901789 -0.004658913
0.020681582 0.011707819 0.0141891185 0.0030863073 -0.010810776 -0.012285573 0.009912753 0.007928873
0.009005275 0.0042007216 -0.005354163 0.004484178 -0.005509845 -0.00916693 -0.01136678 0.004526555
0.017515492 -0.004395284 0.0005968323 0.00019023207 -0.015618076 0.0020909475 0.0071778945 0.0076558203
-0.0216763 -0.0050058854 -0.0041249003 -0.0014104623 -0.0011277645 -0.0016841533 -0.011662671 0.008499298
00000000: 06cb 4b3c e995 a3bb e8c9 fa3b a08a d53b
00000010: 8728 cd3b 390a a438 f0b9 493b 2001 9bbb
00000020: 944c 08bc a783 803c a940 9138 3ba1 55b8
00000030: 53ac 95bc 647d a6bb 4294 00bc af27 69bc
00000040: 78a2 29b9 37c2 733b d472 4c3c c3bb 4e3c
00000050: 4444 b0bb 0117 0bbc 18aa 68ba b234 e7ba
00000060: 0591 f6bb 873b a63c d30a e53b 3784 2abc
00000070: 0ecc ab3b 721f 6c3b b2c1 54bb 6b1d 07bc
00000080: 1b50 c639 0776 c4bb 146d 1cbc b257 563c
00000090: 8f20 003b eb57 953c 4897 aab9 eb41 3cbb
000000a0: fe37 47ba 259b b3b9 0209 7cbc b247 013b
000000b0: 993b 893c 12c0 a53b f7e3 a63b aa92 4f3b
000000c0: f7d1 733c 43b7 9cbb dc06 49bb 53fc 9a3b
000000d0: 6a74 5b3c b0db 61bc 28b4 62bb 2e2c 91ba
000000e0: 4307 03bc ed87 fd39 c3ea 053b 7d4c 773a
000000f0: 542c 323b b43b 13bb 3bb1 48bc 681f f9bb
00000100: ff65 b1bb cf54 10bc 129c c4b9 30b9 5f3b
00000110: e0e3 bd39 8f24 a23b f370 bc3b a3fc 633c
00000120: a5d9 34bb f7d2 2739 4fec 5cbc b362 423b
00000130: 77d2 473b 65e9 ffbb 0379 a43b 5293 77bc
00000140: b3b6 c83a 5f20 b2bb 2036 133c 7f0c d2bb
00000150: 3ee3 a6bc d16a 0f3c f81d 14bb a3f4 883b
00000160: c00f 7d3b 4718 0cbc 574c 00bc c441 8a3b
00000170: 74ee bc3b 2a06 03bc 4603 8dbb 22a7 833b
00000180: 8b94 3aba 6dd5 d5bb bceb 8539 8b94 36bc
00000190: 7911 a1bc 162a 21bc 90d2 6c38 8fef b4bb
000001a0: 0d3e b13a 21a4 aabb 97d3 cebb 3359 6e3c
000001b0: fb0b 94bb c577 f3bb 48cd 0fbb a50d dd3b
000001c0: d4b8 b93b 26cb 49bc 5fd4 2bbc 5a97 0d3c
000001d0: fd98 bd3b 083e cebb 4bee 173b f349 14bc
000001e0: 9b3d 473c 535e ffbb 761e 9abb 439c 1fbb
000001f0: 0547 4cbc 50d0 673c 9d87 693b 622d 8d3a
00000200: c3b8 033c c667 8c3b b51c 1b3c fd5f e4bb
00000210: 779d 5fbb c93b c1b9 7549 7abb 1b9b 8fbb
00000220: 33f4 a2bb fef8 87bb e8a0 edbb 3ce6 a3ba
00000230: 9182 2d3c c6c0 813b f016 dd3c e822 ff3b
00000240: 3bbb 35bc 5649 3d3c 8068 5bbc a2b6 20bc
00000250: 3709 33bc 86fd 4b3b 426c f43b b2c5 e73b
00000260: f047 023b e3bd 05bc d306 84bc ef08 3cbb
00000270: 93f0 8a3b a8cb e63a 385d 1e3c 1725 40bc
00000280: 45c0 3dbc 8b19 cc3b fe6c bfbc 8fcc 1cbc
00000290: 874b c83b 6329 c2bb b528 7dba cb03 423c
000002a0: 188b 73bc 07c4 483b 0d71 653b 14ba 303c
000002b0: 8290 a9bb a0ab ebbb 9bc9 c8b9 3d89 c7bb
000002c0: c3d1 723b f862 70bb 7a9d 63bc d911 333c
000002d0: a346 573b 4675 3bbc 6400 c639 07f2 31bc
000002e0: 485b e13b 3b21 b1b9 adcf 19bb cbf4 963b
000002f0: 900c 26bc bb27 b0bb 648c c23b e268 963c
00000300: a2af b9bb 5762 81bb 9b5a eb3b 7ef6 b9bb
00000310: 42fb b0ba cb85 18ba e8f0 d9bb 023b 223c
00000320: 0f92 e7bb d289 00bc af8a fdba aa27 0abc
00000330: d81f d13b c515 3d3a ab3b 54bb 287e f23b
00000340: 7cae be39 3b0f adbb d357 593b 0447 abbb
00000350: fbcc 94bb c320 8dbb d010 7b3b 70ae 6b3b
00000360: 2df9 093c 3b35 a23a 487c dfba 531d c03b
00000370: 5ccf 93bb 3a4d 4f3c 309f a03b cba9 98bb
00000380: 6c6c a93c 27d2 3f3c 7a79 683c a543 4a3b
00000390: ae1f 31bc 6e49 49bc 1969 223c 1be8 013c
000003a0: dc8a 133c 35a6 893b f971 afbb 03f0 923b
000003b0: ee8b b4bb e430 16bc bb3b 3abc 7f53 943b
000003c0: a67c 8f3c 5106 90bb bd74 1c3a 0879 4739
000003d0: f5e2 7fbc 4708 093b 8b34 eb3b addd fa3b
000003e0: 7f92 b1bc 6908 a4bb 2c2a 87bb 43df b8ba
000003f0: 7fd1 93ba cfbe dcba ca14 3fbc a440 0b3c

network_body.linear_encoder.seq_layers.0.bias f4 [128]
0.0 0.0 0.0 0.0 0.0 0.0 0.0 0.0
0.0 0.0 0.0 0.0 0.0 0.0 0.0 0.0
0.0 0.0 0.0 0.0 0.0 0.0 0.0 0.0
0.0 0.0 0.0 0.0 0.0 0.0 0.0 0.0
0.0 0.0 0.0 0.0 0.0 0.0 0.0 0.0
0.0 0.0 0.0 0.0 0.0 0.0 0.0 0.0
0.0 0.0 0.0 0.0 0.0 0.0 0.0 0.0
0.0 0.0 0.0 0.0 0.0 0.0 0.0 0.0
0.0 0.0 0.0 0.0 0.0 0.0 0.0 0.0
0.0 0.0 0.0 0.0 0.0 0.0 0.0 0.0
0.0 0.0 0.0 0.0 0.0 0.0 0.0 0.0
0.0 0.0 0.0 0.0 0.0 0.0 0.0 0.0
0.0 0.0 0.0 0.0 0.0 0.0 0.0 0.0
0.0 0.0 0.0 0.0 0.0 0.0 0.0 0.0
0.0 0.0 0.0 0.0 0.0 0.0 0.0 0.0
0.0 0.0 0.0 0.0 0.0 0.0 0.0 0.0
00000000: 0000 0000 0000 0000 0000 0000 0000 0000
00000010: 0000 0000 0000 0000 0000 0000 0000 0000
00000020: 0000 0000 0000 0000 0000 0000 0000 0000
00000030: 0000 0000 0000 0000 0000 0000 0000 0000
00000040: 0000 0000 0000 0000 0000 0000 0000 0000
00000050: 0000 0000 0000 0000 0000 0000 0000 0000
00000060: 0000 0000 0000 0000 0000 0000 0000 0000
00000070: 0000 0000 0000 0000 0000 0000 0000 0000
00000080: 0000 0000 0000 0000 0000 0000 0000 0000
00000090: 0000 0000 0000 0000 0000 0000 0000 0000
000000a0: 0000 0000 0000 0000 0000 0000 0000 0000
000000b0: 0000 0000 0000 0000 0000 0000 0000 0000
000000c0: 0000 0000 0000 0000 0000 0000 0000 0000
000000d0: 0000 0000 0000 0000 0000 0000 0000 0000
000000e0: 0000 0000 0000 0000 0000 0000 0000 0000
000000f0: 0000 0000 0000 0000 0000 0000 0000 0000
00000100: 0000 0000 0000 0000 0000 0000 0000 0000
00000110: 0000 0000 0000 0000 0000 0000 0000 0000
00000120: 0000 0000 0000 0000 0000 0000 0000 0000
00000130: 0000 0000 0000 0000 0000 0000 0000 0000
00000140: 0000 0000 0000 0000 0000 0000 0000 0000
00000150: 0000 0000 0000 0000 0000 0000 0000 0000
00000160: 0000 0000 0000 0000 0000 0000 0000 0000
00000170: 0000 0000 0000 0000 0000 0000 0000 0000
00000180: 0000 0000 0000 0000 0000 0000 0000 0000
00000190: 0000 0000 0000 0000 0000 0000 0000 0000
000001a0: 0000 0000 0000 0000 0000 0000 0000 0000
000001b0: 0000 0000 0000 0000 0000 0000 0000 0000
000001c0: 0000 0000 0000 0000 0000 0000 0000 0000
000001d0: 0000 0000 0000 0000 0000 0000 0000 0000
000001e0: 0000 0000 0000 0000 0000 0000 0000 0000
000001f0: 0000 0000 0000 0000 0000 0000 0000 0000

network_body.linear_encoder.seq_layers.0.weight f4 [128, 77]
0.07790345 0.0066098003 0.046407595 0.09586149 -0.23476987 0.12954907 0.070048325 -0.19272864
-0.16931401 0.07739959 -0.013153227 0.15070641 0.22296955 -0.12777726 -0.123379685 -0.09582769
0.03982343 -0.1383361 0.18314967 -0.07388368 -0.09482633 -0.05443909 0.04104642 -0.10603393
-0.07664079 -0.02665461 0.0057726796 0.09381388 0.23148234 -0.042919848 0.11053818 -0.02235032
-0.11119114 0.18651527 0.11836176 -0.019218734 -0.09174745 -0.14502223 -0.033347193 -0.013268381
0.10281527 -0.051503826 0.3364037 0.17912161 -0.1050432 -0.08818547 -0.18905404 0.1257474
0.020058466 -0.112773776 0.008217609 0.12860002 0.040303767 -0.029583564 -0.26254025 0.19726142
-0.05543436 0.07120504 0.121160336 0.06129129 0.019446095 -0.025583813 -0.06292571 -0.05997807
-0.04172849 -0.10146126 -0.050937664 -0.0062164594 -0.11393266 -0.119586095 0.12591602 -0.001445572
-0.11501689 -0.06758214 0.051680055 -0.0560641 0.04605961 0.24816301 0.09674748 0.031305175
-0.19544919 -0.13733676 0.08935094 0.1539353 -0.15133882 -0.058621608 0.049785 0.043493837
-0.038537323 0.018789027 0.25191268 0.21288607 -0.26774624 0.119495876 0.13219799 0.15381455
-0.0381642 -0.15487437 0.021643085 -0.17160954 0.120157 0.18858665 -0.052446686 0.06563325
-0.049519178 -0.12919897 -0.05892906 -0.046036858 -0.29407713 -0.105851635 -0.067586035 0.20982827
0.052894205 -0.14662004 0.025520898 0.14107995 0.038643036 -0.1720196 -0.08130206 -0.22320174
0.10352148 -0.05358795 -0.06561718 0.25398722 0.090538315 0.004262732 0.11626242 0.00010346608
-0.009981818 0.12549372 -0.1161987 0.092137575 0.111653976 8.2716426e-05 0.15667523 -0.0088339755
0.15660952 -0.09972186 0.015801901 -0.08216268 -0.165255 0.003432454 0.06930534 0.08293608
0.079870105 0.1271245 -0.13455066 -0.014827468 -0.035829894 -0.057431094 0.026392883 -0.0449933
0.09267654 -0.13598652 0.18919119 0.042444218 0.06775014 0.12224143 0.057469662 -0.045295384
0.09436001 0.025373597 0.09391178 -0.07968895 -0.102566525 -0.018612944 -0.013816823 -0.19130245
0.13992433 0.07294111 -0.20838283 -0.062291455 -0.098649 0.070362456 0.05013364 -0.05053822
-0.07111331 0.06810832 -0.076498 0.048834767 -0.012754457 0.11148656 0.14403033 0.07731543
0.12635453 -0.04791604 0.13465078 -0.23589201 -0.056528386 -0.027018128 -0.101612896 -0.0395836
0.12364461 0.2317503 0.06881141 0.033936 0.06341036 0.17717141 0.11580642 0.31868896
0.070868544 0.14256088 0.008601273 0.084401526 0.01745676 0.1849442 0.00717152 -0.030487968
0.033665434 0.26565042 0.048178643 0.13619152 -0.09397749 -0.01288529 0.24877277 0.021940397
-0.14490667 -0.026047166 0.0027868836 -0.037821475 -0.07088827 -0.069120795 -0.01071655 0.068741396
0.047222834 0.051980983 0.11712804 0.13756627 -0.0039476994 -0.12983364 0.0024710747 -0.016477738
-0.055900358 0.048797067 0.08288617 0.03990881 -0.08888889 0.117878 -0.08060212 -0.008815376
-0.13137485 -0.047178306 -0.14332874 0.08148643 -0.055648334 -0.122334525 0.0379041 0.010000449
-0.104934245 0.20440331 -0.008887782 -0.039299574 -0.019484242 -0.0026882018 0.00016755961 -0.09610454
00000000: d88b 9f3d 0697 d83b e415 3e3d 0753 c43d
00000010: 8367 70be 83a8 043e 7f75 8f3d a85a 45be
00000020: a760 2dbe ad83 9e3d a280 57bc c852 1a3e
00000030: 2152 643e 0bd8 02be 7dae fcbd 4f41 c4bd
00000040: e51d 233d fba7 0dbe 968b 3b3e 5450 97bd
00000050: 4f34 c2bd 86fb 5ebd 4a20 283d 5128 d9bd
00000060: d9f5 9cbd c55a dabc bf28 bd3b 7e21 c03d
00000070: b509 6d3e b9cc 2fbd d761 e23d 0518 b7bc
00000080: 2eb8 e3bd dcfd 3e3e a767 f23d 9b70 9dbc
00000090: 16e6 bbbd b580 14be 1197 08bd a063 59bc
000000a0: d090 d23d adf5 52bd 1b3d ac3e a86b 373e
000000b0: e420 d7bd 959a b4bd 6297 41be edc3 003e
000000c0: a751 a43c f0f5 e6bd 26a3 063c b9af 033e
000000d0: 9015 253d 3b59 f2bc ad6b 86be e6fe 493e
000000e0: 240f 63bd f3d3 913d e922 f83d 930c 7b3d
000000f0: 6b4d 9f3c 2595 d1bc 32df 80bd 91ab 75bd
00000100: 7eeb 2abd ecca cfbd 03a4 50bd 71b3 cbbb
00000110: 8755 e9bd 8ee9 f4bd 21f0 003e 5979 bdba
00000120: fa8d ebbd 8168 8abd 77ae 533d 78a3 65bd
00000130: 00a9 3c3d 721e 7e3e 8b23 c63d db39 003d
00000140: d523 48be 02a2 0cbe a0fd b63d 37a1 1d3e
00000150: 90f8 1abe 361d 70bd 5beb 4b3d 9826 323d
00000160: 50d9 1dbd 72eb 993c b3fa 803e cefe 593e
00000170: 0916 89be 41ba f43d e95e 073e 9081 1d3e
00000180: 1052 1cbd 6397 1ebe d74c b13c 69ba 2fbe
00000190: e014 f63d dc1c 413e 56d2 56bd ba6a 863d
000001a0: 9fd4 4abd bc4c 04be 995f 71bd 2591 3cbd
000001b0: 4791 96be bec8 d8bd 8c6a 8abd 39dd 563e
000001c0: 98a7 583d 9023 16be 3411 d13c 4377 103e
000001d0: 2948 1e3d e825 30be b281 a6bd ff8e 64be
000001e0: 1203 d43d 0a7f 5bbd 4d62 86bd 9d0a 823e
000001f0: 276c b93d 63ae 8b3b fe1a ee3d eefb d838
00000200: c78a 23bc 6d81 003e 96f9 edbd a0b2 bc3d
00000210: d7aa e43d 0b78 ad38 796f 203e 61bc 10bc
00000220: 3f5e 203e f93a ccbd fd72 813c e844 a8bd
00000230: 9b38 29be 06f3 603b f5ef 8d3d 64da a93d
00000240: f092 a33d ed2c 023e a6c7 09be e9ee 72bc
00000250: 5ec2 12bd de3c 6bbd e335 d83c e54a 38bd
00000260: 33cd bd3d 0d40 0bbe 56bb 413e fdd9 2d3d
00000270: 96c0 8a3d b759 fa3d 4f65 6b3d a787 39bd
00000280: d23f c13d 4adc cf3c d254 c03d f633 a3bd
00000290: 660e d2bd 2c7a 98bc f55f 62bc cae4 43be
000002a0: 5348 0f3e 2662 953d 4f62 55be 5325 7fbd
000002b0: 7d08 cabd 311a 903d ef58 4d3d 2a01 4fbd
000002c0: dba3 91bd 607c 8b3d fcaa 9cbd f706 483d
000002d0: 12f8 50bc 1153 e43d b07c 133e 8d57 9e3d
000002e0: 1563 013e 9c43 44bd e5e1 093e ad8d 71be
000002f0: 4f8a 67bd 1f55 ddbc 6c1a d0bd 6a22 22bd
00000300: 6339 fd3d f34f 6d3e ffec 8c3d 7a00 0b3d
00000310: 4add 813d 6c6c 353e eb2b ed3d 332b a33e
00000320: 8723 913d 7bfb 113e 5bec 0c3c b5da ac3d
00000330: 7b01 8f3c 0362 3d3e 12ff ea3b e7c1 f9bc
00000340: c4e4 093d 5503 883e f856 453d ca75 0b3e
00000350: 4577 c0bd d31c 53bc 4abe 7e3e 59bc b33c
00000360: 6a62 14be de60 d5bc 26a4 363b b1ea 1abd
00000370: df2d 91bd 348f 8dbd 7894 2fbc 4ac8 8c3d
00000380: bb6c 413d 03ea 543d d3e0 ef3d 2cde 0c3e
00000390: b45b 81bb 1cf3 04be c1f1 213b 52fc 86bc
000003a0: c6f7 64bd 6fdf 473d 39c0 a93d 6c77 233d
000003b0: 610b b6bd 056a f13d b912 a5bd 5e6e 10bc
000003c0: 2187 06be 0a3e 41bd c5c4 12be 5be2 a63d
000003d0: 82ef 63bd 868a fabd 5441 1b3d ecd8 233c
000003e0: c4e7 d6bd 1a4f 513e 0f9e 11bc 97f8 20bd
000003f0: 6b9d 9fbc 8b2c 30bb f1b2 2f39 75d2 c4bd

network_body.linear_encoder.seq_layers.2.bias f4 [128]
0.0 0.0 0.0 0.0 0.0 0.0 0.0 0.0
0.0 0.0 0.0 0.0 0.0 0.0 0.0 0.0
0.0 0.0 0.0 0.0 0.0 0.0 0.0 0.0
0.0 0.0 0.0 0.0 0.0 0.0 0.0 0.0
0.0 0.0 0.0 0.0 0.0 0.0 0.0 0.0
0.0 0.0 0.0 0.0 0.0 0.0 0.0 0.0
0.0 0.0 0.0 0.0 0.0 0.0 0.0 0.0
0.0 0.0 0.0 0.0 0.0 0.0 0.0 0.0
0.0 0.0 0.0 0.0 0.0 0.0 0.0 0.0
0.0 0.0 0.0 0.0 0.0 0.0 0.0 0.0
0.0 0.0 0.0 0.0 0.0 0.0 0.0 0.0
0.0 0.0 0.0 0.0 0.0 0.0 0.0 0.0
0.0 0.0 0.0 0.0 0.0 0.0 0.0 0.0
0.0 0.0 0.0 0.0 0.0 0.0 0.0 0.0
0.0 0.0 0.0 0.0 0.0 0.0 0.0 0.0
0.0 0.0 0.0 0.0 0.0 0.0 0.0 0.0
00000000: 0000 0000 0000 0000 0000 0000 0000 0000
00000010: 0000 0000 0000 0000 0000 0000 0000 0000
00000020: 0000 0000 0000 0000 0000 0000 0000 0000
00000030: 0000 0000 0000 0000 0000 0000 0000 0000
00000040: 0000 0000 0000 0000 0000 0000 0000 0000
00000050: 0000 0000 0000 0000 0000 0000 0000 0000
00000060: 0000 0000 0000 0000 0000 0000 0000 0000
00000070: 0000 0000 0000 0000 0000 0000 0000 0000
00000080: 0000 0000 0000 0000 0000 0000 0000 0000
00000090: 0000 0000 0000 0000 0000 0000 0000 0000
000000a0: 0000 0000 0000 0000 0000 0000 0000 0000
000000b0: 0000 0000 0000 0000 0000 0000 0000 0000
000000c0: 0000 0000 0000 0000 0000 0000 0000 0000
000000d0: 0000 0000 0000 0000 0000 0000 0000 0000
000000e0: 0000 0000 0000 0000 0000 0000 0000 0000
000000f0: 0000 0000 0000 0000 0000 0000 0000 0000
00000100: 0000 0000 0000 0000 0000 0000 0000 0000
00000110: 0000 0000 0000 0000 0000 0000 0000 0000
00000120: 0000 0000 0000 0000 0000 0000 0000 0000
00000130: 0000 0000 0000 0000 0000 0000 0000 0000
00000140: 0000 0000 0000 0000 0000 0000 0000 0000
00000150: 0000 0000 0000 0000 0000 0000 0000 0000
00000160: 0000 0000 0000 0000 0000 0000 0000 0000
00000170: 0000 0000 0000 0000 0000 0000 0000 0000
00000180: 0000 0000 0000 0000 0000 0000 0000 0000
00000190: 0000 0000 0000 0000 0000 0000 0000 0000
000001a0: 0000 0000 0000 0000 0000 0000 0000 0000
000001b0: 0000 0000 0000 0000 0000 0000 0000 0000
000001c0: 0000 0000 0000 0000 0000 0000 0000 0000
000001d0: 0000 0000 0000 0000 0000 0000 0000 0000
000001e0: 0000 0000 0000 0000 0000 0000 0000 0000
000001f0: 0000 0000 0000 0000 0000 0000 0000 0000

network_body.linear_encoder.seq_layers.2.weight f4 [128, 128]
0.034298964 0.106520005 0.06099968 0.004233058 -0.011231849 0.2128938 -0.10128046 0.04936662
0.03795202 -0.14113887 0.15644595 0.047635965 -0.023386203 0.013507241 -0.0138379205 0.078000456
0.09758898 -0.013756794 0.055854015 -0.06436222 -0.07488486 -0.025342802 -0.026229836 0.009206739
0.21265514 -0.107598186 -0.06354165 -0.063075945 0.1567767 0.09914136 -0.06937779 0.09665305
-0.0023974504 -0.0019249812 -0.022649534 -0.029628094 -0.060879078 -0.16003332 0.023374455 -0.0022043246
0.016223762 0.10197786 0.1246752 -0.041601814 -0.017467136 0.06786744 -0.05029594 0.019687923
-0.00094773766 -0.051298752 -0.084631495 0.047858406 0.04380949 0.13166296 -0.058727566 0.06211995
-0.07538714 0.061871756 0.090119086 0.08454081 -0.018814199 0.047769453 0.09957986 0.13762291
-0.1262377 0.14493409 0.064993486 0.041046128 0.048261456 0.04203002 -0.101644255 0.024720868
0.19030567 0.014166733 -0.029912287 0.121481515 0.029076528 -0.009901423 0.0014302442 0.037843052
0.13605483 0.04302753 -0.058940906 -0.06417754 -0.10988729 -0.040356174 -0.06916864 -0.009793625
-0.05584393 0.045517858 0.04033294 -0.080052376 -0.021055283 -0.054567445 -0.035343144 -0.13607542
-0.12969849 -0.07222877 -0.15221271 0.03574643 -0.020919155 -0.008287322 0.1417539 -0.042412326
-0.068882 -0.087211035 -0.015265071 0.10291138 0.053997178 -0.06716255 -0.08373168 0.13272661
0.04398951 0.061798416 -0.11830543 -0.00011090231 0.006677707 -0.19774207 -0.062138405 0.07259825
0.12331368 0.1054636 0.043990057 -0.0864065 0.003003116 -0.12680955 -0.029991312 -0.1385093
-0.059171446 -0.21931894 0.044912536 0.102692775 0.04908762 -0.016707048 0.22833331 -0.07902734
-0.037699107 0.12036314 0.16405782 0.059364304 -0.15631066 0.026325649 0.11327722 0.04812467
0.17425337 -0.052523077 0.08136379 -0.10009473 0.03892553 -0.074543394 0.18121688 0.054659724
0.15724282 -0.018284123 0.067428306 -0.00082997105 -0.09506101 0.017621936 -0.04091366 -0.12885214
-0.06579737 0.07714688 -0.022260187 0.09294856 -0.047866423 -0.112207346 -0.057338893 0.03367793
0.06862882 -0.06235288 -0.108407825 -0.020853527 0.11784597 -0.03587524 -0.0772947 0.1527756
0.024259336 0.044425707 -0.07639558 -0.07996635 0.022326771 0.0838967 -0.061844572 0.03433116
0.01058539 0.067572095 -0.040251262 -0.045538027 0.011375508 0.12431514 -0.22095567 -0.0061063236
-0.04215815 -0.08247841 0.13186802 -0.03426147 0.034225978 -0.12771548 0.001153227 -0.09954303
0.018192135 0.07368329 0.055380505 -0.08637552 0.13799511 -0.15503243 0.059369642 0.025707942
-0.11452031 0.14505592 -0.101570666 0.11900053 -0.08446877 0.19268571 -0.20865242 0.17056909
0.017855654 -0.18353641 0.022073602 0.05890799 0.061232574 0.091755 -0.10304834 0.012829382
0.033864446 0.051874977 0.15529163 -0.008524385 -0.12141765 -0.03522058 -0.06486165 -0.065924436
-0.1656999 0.004318927 -0.02069845 0.122516766 -0.0018893309 0.11013308 0.037477117 0.03909011
-0.048384987 -0.03462457 -0.06125843 0.023522884 -0.0285221 -0.026026098 -0.0026255646 -0.07276987
0.051690705 0.028551478 -0.18024015 -0.12139117 -0.07190049 -0.09973076 -0.017549938 0.019292554
00000000: 127d 0c3d 2927 da3d cdda 793d 77b5 8a3b
00000010: ca05 38bc d500 5a3e 216c cfbd a734 4a3d
00000020: 9473 1b3d b586 10be 5e33 203e ee1d 433d
00000030: 6c94 bfbc 7a4d 5d3c 72b8 62bc b4be 9f3d
00000040: bbdc c73d 2d64 61bc 2ec7 643d 57d0 83bd
00000050: 3c5d 99bd b59b cfbc f4df d6bc ddd7 163c
00000060: 45c2 593e 705c dcbd 2022 82bd f62d 81bd
00000070: 128a 203e a00a cb3d f115 8ebd 09f2 c53d
00000080: 8b1e 1dbb a74f fcba 848b b9bc 9eb6 f2bc
00000090: 575c 79bd c6df 23be c97b bf3c 6e76 10bb
000000a0: b2e7 843c c5d9 d03d b655 ff3d aa66 2abd
000000b0: 3d17 8fbc 16fe 8a3d 1e03 4ebd 9148 a13c
000000c0: 9971 78ba a41e 52bd 4753 adbd 2d07 443d
000000d0: 9471 333d a8d2 063e 518c 70bd 7d71 7e3d
000000e0: 9364 9abd 3d6d 7d3d 5b90 b83d bb23 ad3d
000000f0: 3c20 9abc e7a9 433d 87f0 cb3d 05ed 0c3e
00000100: 7544 01be 9a69 143e 4e1b 853d fc1f 283d
00000110: cead 453d ac27 2c3d dd2a d0bd 6b83 ca3c
00000120: 7ddf 423e 961b 683c 9d0a f5bc 4dcb f83d
00000130: e631 ee3c 9439 22bc 0877 bb3a 5101 1b3d
00000140: f551 0b3e a33d 303d 056c 71bd 846f 83bd
00000150: 960c e1bd 844c 25bd 4aa8 8dbd 7175 20bc
00000160: 9bbc 64bd ef70 3a3d 2734 253d 80f2 a3bd
00000170: 217c acbc 1d82 5fbd f9c3 10bd 5b57 0bbe
00000180: aecf 04be adec 93bd a6dd 1bbe d96a 123d
00000190: a65e abbc 8cc7 07bc ef27 113e 8cb8 2dbd
000001a0: 0212 8dbd b39b b2bd 591a 7abc 34c3 d23d
000001b0: 252c 5d3d 858c 89bd 847b abbd 7ce9 073e
000001c0: 582e 343d 5620 7d3d 1e4a f2bd 3994 e8b8
000001d0: abd0 da3b e67c 4abe d784 7ebd 64ae 943d
000001e0: e28b fc3d 4dfd d73d eb2e 343d e4f5 b0bd
000001f0: edcf 443b 5dda 01be 57b0 f5bc 62d5 0dbe
00000200: c25d 72bd 2595 60be 35f6 373d 9750 d23d
00000210: 1a10 493d 38dd 88bc 35d0 693e 16d9 a1bd
00000220: 616a 1abd f380 f63d c6fe 273e fc27 733d
00000230: e70f 20be e3a8 d73c e3fd e73d 601e 453d
00000240: 7a6f 323e 7022 57bd 0fa2 a63d 77fe ccbd
00000250: 6070 1f3d 35aa 98bd eb90 393e e0e2 5f3d
00000260: 4304 213e 96c8 95bc da17 8a3d 6a92 59ba
00000270: 59af c2bd e15b 903c 1595 27bd d1f1 03be
00000280: c6c0 86bd 2fff 9d3d ff5a b6bc d15b be3d
00000290: 950f 44bd f7cc e5bd 30dc 6abd def1 093d
000002a0: 448d 8c3d bc65 7fbd ec04 debd 04d5 aabc
000002b0: 3a59 f13d eaf1 12bd af4c 9ebd 3571 1c3e
000002c0: 84bb c63c bbf7 353d 4975 9cbd 66c5 a3bd
000002d0: a2e6 b63c 08d2 ab3d bc50 7dbd d59e 0c3d
000002e0: 586e 2d3c 3d63 8a3d 82de 24bd 1586 3abd
000002f0: 5760 3a3c f098 fe3d 3442 62be 8e17 c8bb
00000300: 06ae 2cbd 71ea a8bd 6908 073e c155 0cbd
00000310: 8a30 0c3d d9c7 02be e027 973a 37dd cbbd
00000320: ac07 953c 44e7 963d abd6 623d a6e5 b0bd
00000330: 974e 0d3e d2c0 1ebe 952d 733d 7699 d23c
00000340: a089 eabd 8a89 143e 4804 d0bd 8db6 f33d
00000350: f6fd acbd 674f 453e fba8 55be aaa9 2e3e
00000360: 0546 923c f8f0 3bbe b3d3 b43c 8149 713d
00000370: 02cf 7a3d 0cea bb3d 020b d3bd 5432 523c
00000380: 72b5 0a3d db7a 543d c504 1f3e dda9 0bbc
00000390: d1a9 f8bd 7443 10bd 2fd6 84bd 6403 87bd
000003a0: 3cad 29be c985 8d3b cc8f a9bc 12ea fa3d
000003b0: 6da3 f7ba 748d e13d 9b81 193d f41c 203d
000003c0: 562f 46bd 7ed2 0dbd 1fea 7abd 10b3 c03c
000003d0: 2ea7 e9bc af34 d5bc aa11 2cbb 5f08 95bd
000003e0: a2b9 533d cae4 e93c e090 38be ef9b f8bd
000003f0: 9040 93bd a43f ccbd e3c4 8fbc 6b0b 9e3c
