Learning/results/test5/KartAgent/KartAgent-289600.onnx (onnx, 108737 bytes, 7 tensors)

39 f4 [1, 2]
000000 10 21 15 bf 63 6b 7d bf
       -0.58253574 -0.98991984

distribution.mu.bias f4 [2]
000000 cb 1b af 3c 21 16 1f 3e
       0.021375557 0.15535785

distribution.mu.weight f4 [2, 128]
000000 ec 53 01 3c dc dc 84 3d bf 2d 1e ba 3a 62 ca bb
       0.007893544 0.06487438 -0.00060340384 -0.0061762603
000010 09 c7 8e bd 18 77 e3 bb df 62 c4 bb 3a a5 82 ba
       -0.06971557 -0.0069416873 -0.0059932317 -0.0009967454
000020 0d fc e1 3d d6 75 6b bb d9 f7 25 bc 12 fb 5c 3a
       0.11034403 -0.003592839 -0.010129892 0.00084297464
000030 0c de d1 3c cc 7e 61 bc 62 79 71 bb eb ec 04 3e
       0.025618576 -0.013763141 -0.0036846031 0.12981002
000040 49 fe 4b 3b c6 a4 03 3e 03 e8 83 bd 7c 03 98 3d
       0.0031126908 0.12855825 -0.06440737 0.074225396
000050 4b ea e0 3b 1c 28 88 bb 65 2b a1 3d da 7c 0f 3b
       0.0068638674 -0.004155172 0.07869605 0.0021894486
000060 a5 c7 ac 3b 52 c2 55 3d 0f 2e 23 be 82 c5 3c be
       0.005272823 0.05218727 -0.15935539 -0.18434718
000070 f6 d1 ca 3b 6e 30 9c bd ac 68 ed bb ab cc c9 bd
       0.00618958 -0.07626425 -0.007245144 -0.098534904
000080 3c ea 52 3c 1d da 0d 3b 23 e4 04 3b 17 b0 09 bd
       0.012873229 0.0021644898 0.0020277582 -0.033615198
000090 b5 ff 6f 39 e9 0d 1a be b6 26 73 3d 60 23 a5 bc
       0.00022888074 -0.15044369 0.05936309 -0.02015847
0000a0 13 af 7e bd db 24 f0 bd 30 7d 04 3e 0a 56 83 bb
       -0.062178683 -0.117257796 0.1293838 -0.0040080594
0000b0 20 e0 59 3b e8 be ba bd 4a 72 c5 bb 58 82 b8 3b
       0.0033245161 -0.09118444 -0.006025587 0.0056307726
0000c0 62 51 92 ba c9 6b 21 3a 88 03 6f 3a 41 c0 89 3b
       -0.001116317 0.0006157724 0.00091176527 0.0042038267
0000d0 ba 55 91 ba 6d a7 68 bc 73 df 9e ba 88 4b a2 ba
       -0.001108817 -0.014200074 -0.0012121036 -0.0012382129
0000e0 16 fe 28 3e ad b0 8d 3c 30 cb f7 3c 70 ed dd bb
       0.16503176 0.01729616 0.030248255 -0.0067726895
0000f0 3d 27 d4 3d d4 41 37 3e 41 d1 66 bc be a5 2d bb
       0.103590466 0.17896205 -0.014087976 -0.0026496495
000100 b3 7a b3 bb 5a 8f 0e bc 44 01 ec 3b ab 8b ab 3b
       -0.0054772734 -0.00870117 0.0072022993 0.0052351556
000110 f0 fb 0b ba 31 94 35 bb 69 bf fb 39 8a c4 58 bc
       -0.0005339971 -0.0027706737 0.00048017062 -0.013230452
000120 bb 52 be bb 13 9b 84 b9 01 43 c1 b9 ef ff 09 bd
       -0.005808202 -0.0002529254 -0.0003686175 -0.033691343
000130 88 1b 1b 3c 95 77 a4 bb ae c7 97 bd c8 19 1b bc
       0.009467013 -0.005019138 -0.07411133 -0.009466596
000140 ba 8d 80 bc 41 50 cc 3d 32 f6 29 bb e7 3b b5 3d
       -0.01569258 0.09976245 -0.0025934097 0.08849316
000150 59 76 9e 3c a2 c3 78 bc b9 a0 82 3c 33 ed b9 bb
       0.019343542 -0.015183361 0.01594578 -0.0056740283
000160 ac 2c 02 be a7 0b af bc d2 f5 1f 3b b1 9b 49 3d
       -0.12712353 -0.021367861 0.0024407995 0.049220745
000170 2d 7f 04 3b e8 da 0a bc 2a f0 bf 3b 00 49 5c b9
       0.0020217404 -0.008475043 0.005857487 -0.0002100803
000180 2f 2e b6 39 ca 27 c3 bb b7 69 2c bc f3 28 32 3c
       0.00034748155 -0.005955671 -0.010523251 0.010874021
000190 36 00 20 bb ba eb 3f bc 48 c9 89 3d e3 ef 15 3e
       -0.0024414188 -0.011713916 0.067278445 0.14642291
0001a0 2e 3b e1 3b 5c 47 dc bb 81 88 b8 3b bf cc 8d bc
       0.00687351 -0.006722374 0.005631507 -0.017309545
0001b0 28 13 3a b8 16 e2 25 3c 00 cb 2a bc 24 e0 a2 39
       -4.4363696e-05 0.010124704 -0.0104243755 0.00031066046
0001c0 b7 cf 3e 3d 59 df 91 3a da 56 5f bc 71 04 a1 3d
       0.04658481 0.0011129185 -0.013631547 0.07862175
0001d0 1f 6d 1a bc 17 29 49 3b 6e 07 4d 3c 09 46 92 3b
       -0.009425431 0.0030694657 0.012513978 0.0044639152
0001e0 12 34 2e bd a0 24 11 be 53 2e 3c bc 93 76 25 bd
       -0.042530127 -0.14174128 -0.011485654 -0.040396284
0001f0 5a 92 5d bb c8 2d 8d bd 6d 82 ed bb 3e d3 91 bc
       -0.0033809156 -0.06893498 -0.007248214 -0.017800923
000200 1d d6 b9 ba f8 bb c7 3b a7 76 02 be 50 c0 d6 bd
       -0.0014178191 0.0060954057 -0.12740575 -0.104858994
000210 d3 66 1d 3c 72 b6 07 3b 15 dc 38 3c 3c e0 db ba
       0.009607035 0.002070811 0.01128294 -0.0016775201
000220 4e a2 13 3c 34 33 5d 3c 98 a8 91 b8 7b e9 d6 bb
       0.009010864 0.013500977 -6.945542e-05 -0.0065585948
000230 fd 88 ca bd c7 81 fa 3a d9 62 29 be 17 fc 0e 3d
       -0.0988941 0.0019112163 -0.16541614 0.03490838
000240 6a d5 6a 3b 29 7f b1 3c c5 e7 08 bc 15 22 d9 3b
       0.003583277 0.02166708 -0.008356039 0.0066263773
000250 bc 69 a2 38 74 87 17 bb ca b2 54 3c 4c ac 11 bc
       7.7444565e-05 -0.0023121508 0.01298208 -0.008891176
000260 17 e6 0b be f0 ee 07 be 09 75 e7 3c 73 16 99 3c
       -0.13661991 -0.13274741 0.028254049 0.018687462
000270 91 7d 01 be e2 62 8e 3b 55 db b4 3b c9 59 3a 39
       -0.12645556 0.004345284 0.0055193105 0.0001777179
000280 74 0c 26 bb 70 1d d8 bb 63 69 b2 ba ea 2c 29 be
       -0.0025337012 -0.006595306 -0.001361173 -0.1652104
000290 e5 02 a8 ba 77 f7 b2 3c a3 29 51 3c 1b d1 cc ba
       -0.0012818245 0.021846516 0.012766275 -0.0015626283
0002a0 98 05 a5 bc b7 fa 59 3c 3d 00 72 3c c4 4a cc 3b
       -0.020144269 0.013304404 0.014770565 0.0062344987
0002b0 e3 0f e9 bd 42 65 53 3c 97 b9 73 3b 7d 46 20 bc
       -0.11379983 0.01290256 0.0037189478 -0.009782431
0002c0 0a 36 02 bc c2 f8 b6 bb 79 f5 04 be 47 35 69 bb
       -0.007947454 -0.0055838535 -0.12984265 -0.0035584734
0002d0 53 16 26 be da d7 f8 bd 6b 54 16 be 5c 85 85 3b
       -0.16219454 -0.121505454 -0.1468064 0.0040747356
0002e0 e5 4e b2 3c dd 7e 02 bc 47 ff e1 3a b5 67 e1 bd
       0.021766135 -0.007964817 0.0017242216 -0.11006109
0002f0 50 1a 0c 3c 44 3b 44 3d 11 d2 54 3c 24 12 15 bc
       0.008551195 0.047908083 0.012989537 -0.009098563
000300 9c 25 01 be 8f 6b 50 3c d8 08 bd bb a9 5c ca bb
       -0.12612003 0.0127209565 -0.0057688765 -0.0061755967
000310 c2 17 38 bb d1 4a 9c bb 12 7d 11 bb df bb 0e 3c
       -0.0028090333 -0.004769661 -0.0022199792 0.008711784
000320 ce 93 8e 3b 4c 8d dd b9 c6 ab 84 3b dd 23 10 be
       0.004351116 -0.0004225768 0.0040487973 -0.14076181
000330 a8 1f 4e 3b 93 e6 1f bc 6e 79 06 bc d0 19 f5 3b
       0.0031451974 -0.009759563 -0.008207662 0.0074798837
000340 04 ed 00 be c0 00 8c 3c f6 5f ab 3a 2e 40 a9 3b
       -0.12590414 0.017090201 0.0013074863 0.0051651215
000350 34 81 2a be d6 e3 ee bd 83 2e d7 bd c8 b5 17 3b
       -0.1665085 -0.1166455 -0.10506918 0.0023149122
000360 5c 42 ad 3c 36 8d 00 be 3d 6a f0 3b f0 f0 38 bc
       0.021149807 -0.12553868 0.0073368833 -0.011287913
000370 67 8a 04 be 7d 08 fa bd 16 bf 4f bc 17 4f 60 bc
       -0.12943421 -0.1220865 -0.012679836 -0.0136907315
000380 6e 32 3f bb 47 67 91 bb 9b 95 17 3b 2e 85 2d bc
       -0.0029174346 -0.0044373604 0.0023129943 -0.010590835
000390 b0 ec 1b 3c ea 72 0b be 37 52 87 3c d2 3b 80 3c
       0.00951688 -0.13618055 0.016518695 0.015653525
0003a0 9f f0 b6 ba a3 36 6c 3b 5d fe ec bb 1d 8d fc bd
       -0.0013957209 0.0036043308 -0.007232471 -0.12331603
0003b0 3c 25 fb 3a 8c 43 fa bd d3 4e 1f be a4 49 03 bc
       0.0019160877 -0.12219915 -0.15557413 -0.008013163
0003c0 c0 08 54 bb 6b 3b 89 3b 18 66 f3 3b 8e f1 45 3c
       -0.0032353848 0.0041879914 0.007427942 0.012081517
0003d0 24 31 ed bd c7 8a be bb ce 7f 41 bb 63 70 f2 bd
       -0.115816385 -0.0058148834 -0.002952564 -0.11837842
0003e0 b8 6f 0c be 9f 98 cb 3c 0f 29 ff bd 89 10 07 bb
       -0.13714492 0.024853049 -0.12459003 -0.002060922
0003f0 29 1e c3 3b e5 68 58 bb 51 9c 1a 3c 2c f7 1a be
       0.005954523 -0.0033021506 0.009436683 -0.15133351

network_body.linear_encoder.seq_layers.0.bias f4 [128]
000000 27 5c 26 bd 5b b3 a4 bc d3 c6 54 bb 45 95 9d 3b
       -0.040615227 -0.020105055 -0.0032467141 0.004809054
000010 c5 9e 25 bd 25 03 0b bd b2 40 84 bd 9a 45 db ba
       -0.040434618 -0.033938546 -0.06457652 -0.0016729117
000020 19 8a 6a bc 85 a6 f1 3c ab 35 55 bc 6b 01 82 bb
       -0.014315152 0.029498348 -0.013013284 -0.003967454
000030 15 aa 3c 3c 48 fb 0b bd 46 d2 5a 3d 1a d0 bb 3a
       0.01151516 -0.034175187 0.05342319 0.0014328987
000040 6d ce e6 3b 2f 99 06 bd 91 a3 e5 bc 63 92 de bc
       0.007043651 -0.03286093 -0.028032096 -0.027169412
000050 24 c8 8f bc 13 bf 6d bd 4a a3 d6 bc f5 6a 48 3c
       -0.01755149 -0.05804355 -0.02620091 0.012232532
000060 3f 0e e5 bb 5b ee b3 bc a4 aa 18 bd 15 d1 ba 3c
       -0.0069902237 -0.021964243 -0.03727211 0.022804776
000070 88 65 83 bc 08 16 90 3c ab 24 d1 bc af 52 33 3c
       -0.016039625 0.01758863 -0.02553018 0.010945006
000080 48 f1 23 3d 9f af b6 bc 99 6d 4e bb 40 3b 89 bd
       0.040025026 -0.02230054 -0.003149843 -0.06700754
000090 fb 2b 13 bb 40 b0 33 3c ed 23 48 bc c2 74 21 bc
       -0.0022456634 0.010967314 -0.012215597 -0.009854497
0000a0 f5 e4 89 bd b9 2c 2f bd db 5a 92 bc 52 9b fb ba
       -0.06733123 -0.04276726 -0.017865589 -0.0019196069
0000b0 27 f2 cc bc 23 88 2d bd 43 ab 7a 3c a5 df 66 bc
       -0.025017811 -0.04236616 0.015299621 -0.014091407
0000c0 f8 cb cd 3c f5 68 23 3b e8 cb ec 3b f6 af f1 3c
       0.025121674 0.0024934385 0.007226456 0.02950285
0000d0 99 cc e2 bc 74 cb be 39 59 ac 81 3c d0 48 37 3d
       -0.02768545 0.00036391208 0.015829252 0.044747174
0000e0 4a 2b 11 bd 60 cb 46 bd 0f 1b 24 3c c9 77 ae bd
       -0.035441674 -0.048533797 0.010016217 -0.08518941
0000f0 3d 52 8d bb ca 77 b5 3c 1b 35 bd 3c 35 57 6c ba
       -0.004312782 0.022151846 0.023096612 -0.00090156804
000100 83 ef a0 bc bb cd aa bc bb 79 2b bd f5 10 ce bb
       -0.019645458 -0.020850053 -0.041864138 -0.0062886425
000110 b6 3f 7a 3b 03 83 7b bd 8b 1b 2e 3d 27 8c 2e bd
       0.0038184947 -0.06140424 0.042506736 -0.04261413
000120 b9 34 d1 bc 3f 29 d1 bc 7f df d8 bc b2 80 a9 bc
       -0.025537835 -0.025532363 -0.026473759 -0.02069125
000130 b9 c6 2e 3d cc 4e 04 bd fc 50 1a bc 44 97 7d bc
       0.042669985 -0.03230171 -0.009418722 -0.015477959
000140 53 cb 0f 3d 17 c3 c3 bc d3 6d dd ba be 80 7d bd
       0.035106014 -0.023896737 -0.0016893692 -0.061890356
000150 02 6e 86 3b b4 40 80 3c 1a c5 11 bd 42 d9 55 bd
       0.0041024694 0.015655853 -0.03558836 -0.052209146
000160 43 05 4e bc 65 56 63 bc ec 3b 33 bd 3e e1 07 bc
       -0.012574497 -0.0138755785 -0.043758318 -0.008293448
000170 64 a2 1e bd 8c 65 ec bc f9 62 90 bd 36 ae f6 bc
       -0.038729087 -0.028857015 -0.070501275 -0.030112367
000180 17 70 92 bd 6e b0 40 bd c8 65 b0 39 fb 0d c3 bc
       -0.07150286 -0.047043256 0.0003364517 -0.023810377
000190 a1 91 41 bd 04 00 fc bc 5e a1 3d 3c 3f 35 c0 3c
       -0.047258023 -0.030761726 0.0115741175 0.02346289
0001a0 f4 77 99 3c 03 ea 00 3d 56 49 a9 3c d5 7c 19 bd
       0.018733956 0.03147317 0.020664852 -0.037472565
0001b0 d8 be b2 bb ed 1c f1 bc 36 22 69 3d a4 0b 68 bd
       -0.0054548793 -0.029432738 0.05691739 -0.056651726
0001c0 d7 69 62 bd d0 44 b0 bc 07 ad 6a bd d2 5f 96 bd
       -0.055276718 -0.021517187 -0.057293918 -0.07342495
0001d0 51 5f c8 3c 1b 3d 03 3d bc 57 93 bc e8 c8 86 ba
       0.024459513 0.032040697 -0.017986171 -0.0010283263
0001e0 69 fa 02 3c 47 47 5c 3c 37 f8 d0 3c 34 13 17 bd
       0.007994273 0.013444728 0.025508983 -0.036883548
0001f0 ba e2 83 bd 89 e7 50 bd 5d f6 b7 bc 0c 05 c7 bc
       -0.06439729 -0.05100206 -0.022456342 -0.024294399

network_body.linear_encoder.seq_layers.0.weight f4 [128, 77]
000000 2a 3f 38 be cd b2 3f 3c aa 10 97 bc 8c 8e dc bc
       -0.17992845 0.011700344 -0.018440563 -0.02692344
000010 4d 1f 86 bd 6a 02 ad 3c 53 64 25 bd 60 a9 eb bd
       -0.06548939 0.021119315 -0.04037888 -0.11506915
000020 21 e1 a7 bd 99 54 3c 3d 32 3e 57 3d be 73 4f bd
       -0.08197237 0.045979116 0.05254955 -0.05064749
000030 9e d6 51 3d 4e 05 36 bd e1 56 bf 3c d6 da 53 be
       0.051230066 -0.044438653 0.023356857 -0.20688948
000040 e3 2d 7e 3d d5 9e 3c bd a3 19 90 3c 5d b0 2e 3e
       0.06205548 -0.04604991 0.01759035 0.17059465
000050 56 81 6d bd 0c 0c 6b 3d 13 f9 71 3d ee 5d 00 be
       -0.057984672 0.057384536 0.059075426 -0.12535831
000060 84 3f f4 bc ed 55 8a bd 84 4e a5 bd ff ea 1e 3d
       -0.029815443 -0.0675467 -0.08071616 0.03879833
000070 04 60 38 3e 56 f7 e3 3d 1a 42 e6 3b e6 69 cf bd
       0.18005377 0.1113116 0.007026923 -0.101276204
000080 c9 0b ff 3b bd c7 d2 3d 20 36 23 3e be 80 50 3b
       0.0077833873 0.10292003 0.15938616 0.0031815018
000090 0f 02 9f be a2 d3 bb 3d 8c 66 02 3b 2e 41 2a be
       -0.31056258 0.09171225 0.0019897548 -0.16626427
0000a0 54 1a 5f 3d f6 6c a7 bb f3 7e 95 3d 1b 38 60 be
       0.054468468 -0.0051094247 0.07299604 -0.21896403
0000b0 8b c0 15 be 12 7d b7 bd 5a cc 8d be 28 30 dd bd
       -0.1462423 -0.08959402 -0.2769497 -0.10800201
0000c0 ee de 3f be 38 e0 a1 bd f8 05 b9 bd 71 33 e6 bc
       -0.18737385 -0.079040945 -0.090343416 -0.028100701
0000d0 2e 8b 11 bd aa f5 81 bd 32 35 35 3d d4 97 93 bd
       -0.035533123 -0.06345685 0.044240184 -0.07206693
0000e0 7a 74 87 3e 05 84 fb 3d 73 64 81 be cd 39 03 3d
       0.26456052 0.1228104 -0.2527195 0.032037545
0000f0 02 47 e3 3d 6f ae 45 be d5 ce 5e bd 70 d9 6a be
       0.11097528 -0.19304822 -0.05439647 -0.22934508
000100 78 ff 81 3e be 84 00 be 29 81 44 3d 57 73 9b bd
       0.2539022 -0.12550637 0.04797474 -0.07590359
000110 12 33 91 be b0 64 e0 3e ff f5 00 bd d9 3a 3c bd
       -0.28359276 0.43826818 -0.0314846 -0.04595456
000120 0d c1 55 be 6c 17 d3 3e 78 51 2a be 7c be ed bd
       -0.20874424 0.41228807 -0.1663264 -0.11608598
000130 7f 7b 6e bd e1 8b d1 bd db 84 9f bd af d5 58 bc
       -0.058223244 -0.10231758 -0.07789012 -0.01323454
000140 3a bb be bd 04 96 b2 3d e6 6f 34 3c 03 15 74 3d
       -0.093130544 0.087200195 0.011013007 0.05959035
000150 8b c6 a8 3e 9e 0a 81 be 79 74 e7 bd 52 23 11 bd
       0.32963976 -0.25203413 -0.11301512 -0.035434075
000160 53 0c d4 bd 94 d9 1b be 1e c2 41 3d 18 be 3d bb
       -0.10353913 -0.15219718 0.047304265 -0.0028952416
000170 26 96 9a 3d ac 79 b5 bd 03 53 11 be 52 db 3a bc
       0.0754817 -0.08861098 -0.14191823 -0.011404829
000180 e8 96 28 3d 7a 05 ea bd d1 f4 a6 3d 22 1d e1 3d
       0.04115954 -0.11426826 0.08152164 0.10991885
000190 e0 81 14 3c 3a cb 9f bd 9e b5 90 bc dc 3e ca 3d
       0.009064168 -0.07802434 -0.017664727 0.09875271
0001a0 11 3c 9e bd 83 da db bd 42 b8 d4 3c 70 c1 95 3d
       -0.077263005 -0.10735037 0.025966767 0.07312286
0001b0 7e ae 0a be 5a 78 7b bd 35 51 1e be be f0 22 3d
       -0.13543126 -0.061394073 -0.15460666 0.03978037
0001c0 00 fe bc bd 06 a5 a7 3d b4 42 6b bd 40 9d 9a bc
       -0.09228134 0.081857726 -0.05743666 -0.01887381
0001d0 e2 4a b2 3c bc d9 1e 3e 1f 03 fe 3d 4e 84 f2 bb
       0.021764223 0.15512747 0.12402939 -0.007401026
0001e0 31 a6 2d be 80 e7 26 3e 00 b0 77 bd 7a 8d 9a bd
       -0.16957928 0.16299248 -0.06047058 -0.07546516
0001f0 5c 63 10 be 8c 7b e5 be 59 28 1d bd 61 2a db 3d
       -0.14100403 -0.4482082 -0.038368557 0.107014425
000200 98 2d 90 3d 1f 58 76 3d 9c 72 18 be 2c 96 75 bb
       0.07039946 0.060142633 -0.1488747 -0.0037473543
000210 c3 58 5a bd 40 2e e1 bd 98 cd 24 3d 70 c1 45 3e
       -0.053307306 -0.109951496 0.040235132 0.19312072
000220 02 ea b7 bc c6 28 4e 3e 07 1d bb 3c 46 1f 81 3e
       -0.02245045 0.20132741 0.02284099 0.25219172
000230 82 cc 05 3d b5 3a 47 bd e5 c0 0a 3e 30 65 a5 3c
       0.032665737 -0.04863997 0.13550146 0.020189852
000240 48 c0 77 bd 00 6f 52 3e 0c 94 a5 be 21 cd 38 3e
       -0.060486108 0.20550156 -0.32339513 0.18047
000250 c1 f5 1c be 41 bb 2c 3e 02 b2 ac be e8 3d e4 3d
       -0.15328123 0.16868307 -0.3372956 0.1114462
000260 46 49 65 be f2 68 15 be eb 45 22 be 23 c8 83 3e
       -0.22391233 -0.14590815 -0.15846984 0.2573863
000270 c4 4d 88 bd 14 3b ce bd 1a 88 13 bd 2d 63 3a 3d
       -0.066554576 -0.10069862 -0.03601847 0.045504738
000280 ca 29 8f bd 9f 8f cf bd ef 03 fc 3d bf ed da bd
       -0.069903925 -0.101348154 0.12305438 -0.10689878
000290 a2 68 05 be 2e 73 d0 3c ae 81 4c 3e 80 0a a0 bc
       -0.13028196 0.025445547 0.19971344 -0.019536257
0002a0 0f dc b1 3b 58 e6 17 3e c1 82 c0 3d a6 f7 09 3e
       0.0054278444 0.14833963 0.09399939 0.13473377
0002b0 6d af a3 3c b4 62 2b bd 7c 71 a2 bd 6a 3f 8a 3d
       0.01998111 -0.041842178 -0.07931802 0.067503765
0002c0 87 9c de 3d 24 16 3c bd b9 c3 85 bb 74 76 28 bd
       0.10869699 -0.045919552 -0.00408217 -0.04112859
0002d0 88 63 4e bd 9d 39 49 bc da 34 f4 3c 00 34 e5 bd
       -0.05038789 -0.0122818025 0.029810358 -0.11191559
0002e0 ba aa 7a bd bc e9 b4 bd 1b db 24 3d 8b a6 0e ba
       -0.061197974 -0.08833644 0.040248018 -0.0005441687
0002f0 ee c1 19 3d 7d b2 0b be d7 62 cc bd 37 80 8c bd
       0.03753846 -0.13642307 -0.0997979 -0.068603925
000300 e6 89 c1 3e 1e 7b 79 bd 7e 04 c4 3c 79 d4 93 bd
       0.3780052 -0.06090843 0.023927923 -0.0721826
000310 32 5d a7 3d 47 ba 19 3e 52 97 88 bc 5c 25 a9 3b
       0.081720725 0.15012465 -0.016673718 0.0051619243
000320 3e 17 9e bc 26 39 88 3c 7b ec 23 bd a5 76 3b bd
       -0.019298192 0.016628813 -0.040020447 -0.045767445
000330 11 f4 c4 bd c9 ea 54 3c a4 75 c8 3d b9 1f 4d bd
       -0.096168645 0.01299543 0.09788063 -0.05007908
000340 f0 a9 d6 3d 41 38 5e 3e 93 a8 cf 3d bd ab fe 3d
       0.10481632 0.21701147 0.10139575 0.124351
000350 55 7f 44 be e5 d7 0d be 2d f2 02 be d5 57 b2 be
       -0.19189198 -0.13851888 -0.12787695 -0.34832636
000360 70 3a d9 bd 85 23 fb 3d 33 2b f5 3d c2 92 8a ba
       -0.10606849 0.12262634 0.1197113 -0.0010572302
000370 88 3b 0c 3e 4a f9 15 be ea f7 30 3e f7 b1 7b be
       0.13694584 -0.14645877 0.17282072 -0.24579607
000380 c1 a0 0e 3c 0e f9 01 be e9 50 00 3e 7c c7 7c be
       0.008705319 -0.12692663 0.12530865 -0.24685472
000390 24 e4 bc bb 40 3f 04 3e 38 34 2b bd ee 3c d8 3c
       -0.005764501 0.12914753 -0.041797847 0.026396241
0003a0 a2 03 1e bc 18 3f 50 bd 29 59 a5 3d 96 e2 46 bb
       -0.009644421 -0.05084142 0.080736466 -0.0030347458
0003b0 30 40 38 be f6 62 17 3e 34 dc 82 3d 09 cc a6 bd
       -0.17993236 0.14783844 0.06389657 -0.08144385
0003c0 57 85 10 3d 90 07 1f 3e 32 09 e0 3d fc e3 4e 3e
       0.035283413 0.15530229 0.10939254 0.20204157
0003d0 c6 6e 23 3d 78 94 96 3d b7 fc f3 bc 54 4e 39 39
       0.039900564 0.07352537 -0.02978359 0.00017672154
0003e0 76 db 2f 3e bd f0 59 3d fe 54 c9 3d da 2e 8a be
       0.17173561 0.0532081 0.09830664 -0.2698887
0003f0 f6 1d d2 3c b4 f8 ad 3d cb d4 13 3e 2a 8a 33 3e
       0.025649052 0.08494702 0.14436643 0.17533174

network_body.linear_encoder.seq_layers.2.bias f4 [128]
000000 d0 c8 29 bd 53 a1 63 bc 0b 50 0a be 21 7f 23 be
       -0.041451275 -0.013893443 -0.13507096 -0.15966465
000010 45 c8 9a bc a3 ec 9d bc d7 33 19 bd 28 74 8a 3c
       -0.018894324 -0.019277876 -0.037402954 0.01690109
000020 63 46 30 3d 6a 44 a1 3c fa 49 44 3a e7 0c 82 bc
       0.043035876 0.019685943 0.000748783 -0.015875293
000030 69 52 1c be df f4 ef 3c a5 f6 e5 bd a4 42 79 3d
       -0.15265812 0.029291568 -0.11228684 0.06085457
000040 86 7a 87 3b b7 27 97 3d 2f 49 b1 bd 00 c1 67 bb
       0.004134479 0.07380622 -0.08656537 -0.003536284
000050 17 fb b3 bb 7d 9e 24 bd 21 33 b2 3a f6 86 e3 bc
       -0.0054925787 -0.04019021 0.001359556 -0.027774315
000060 04 9b 07 be 1e d4 08 be 51 63 44 3d 7f 5e 80 3d
       -0.13242728 -0.13362166 0.047946278 0.06268024
000070 05 cd ca bd 23 be 06 bd e8 a1 13 bc 51 81 76 bd
       -0.099023856 -0.032896172 -0.009010769 -0.06018192
000080 35 ee 00 3b 0b 17 d8 bc b3 3d 85 3c 6e ef 2c be
       0.0019673232 -0.026378175 0.016264772 -0.1688821
000090 a2 c5 cf bc d2 49 44 3d 14 43 46 bc 19 79 09 bd
       -0.025362793 0.047921963 -0.012100954 -0.033562753
0000a0 32 12 84 bd c0 93 0a 3c ab 20 88 3d 29 18 0c 3c
       -0.06448783 0.008458078 0.06646856 0.008550682
0000b0 33 e9 23 be b1 c3 bb bb c3 ad 13 bd 09 76 99 b9
       -0.16006927 -0.0057301153 -0.036054384 -0.00029270377
0000c0 38 b6 80 bc 52 e4 a7 3c 48 4f 2e be e2 f0 02 bc
       -0.015711889 0.020494614 -0.17022431 -0.007992001
0000d0 55 91 12 be 28 45 16 be 20 99 17 be f5 69 b8 3b
       -0.14313252 -0.14674819 -0.14804506 0.0056278654
0000e0 98 c5 f3 3d ed b2 fa bc b8 b2 17 bc f4 6a 3f be
       0.119029224 -0.030602897 -0.009258918 -0.18693143
0000f0 09 6a 08 3d 23 76 07 3e ff ff 3f 3c d8 d1 17 3d
       0.033304248 0.1322866 0.011718749 0.037065357
000100 6b f9 28 be 2a d9 a4 3b e4 48 88 bc dc bd b0 bb
       -0.16501395 0.005030771 -0.01663632 -0.0053937268
000110 28 57 ce bc 29 4a a4 3c 24 81 59 bd 9e b7 ae 3c
       -0.025188044 0.020054894 -0.053101674 0.02132779
000120 c6 ce fc bc d5 12 0c bc a9 cc d5 3b a3 ec 2a be
       -0.030860316 -0.008549412 0.0065246415 -0.16691832
000130 18 fd 21 bc 83 17 78 39 4f 8a 89 bd 0c 8b b8 3b
       -0.009887002 0.00023659882 -0.067158334 0.00563181
000140 39 cb 25 be 4a 59 ec 3c 00 4f c3 3c 3a 52 eb 3b
       -0.16190805 0.02885117 0.023841381 0.007181433
000150 eb 63 0f be 0e b1 1c be c7 43 00 be 17 6d 3c 3c
       -0.1400296 -0.15301916 -0.12525855 0.011500618
000160 8d 00 b2 3c 05 ac 1b be 4c df 35 3c b7 23 31 bd
       0.021728778 -0.15202339 0.011100601 -0.04324695
000170 c1 77 04 be ac 39 37 be ec 9b 37 bc 69 ee f1 bb
       -0.12936307 -0.17893094 -0.011206608 -0.007383157
000180 96 fa aa bc 6f 1f 74 bc 09 49 85 3c 0d 6f 9f bc
       -0.020871442 -0.0149000725 0.016270177 -0.019462133
000190 72 e2 93 bc 4d 5c 3b be 8f ee 51 3c a4 aa aa 3d
       -0.018052313 -0.18296929 0.012813224 0.08333328
0001a0 68 a0 0e bc 39 b3 80 ba 99 12 da ba 04 a7 17 be
       -0.008705236 -0.0009819038 -0.0016637623 -0.14809805
0001b0 d8 86 e4 bb d1 3a d7 bd 03 c9 07 be 0b 71 af 3c
       -0.0069740824 -0.10509265 -0.13260274 0.021416208
0001c0 fb c5 1c bd b9 bf 07 3d 04 51 da 3c cf 1e ca 3a
       -0.038274746 0.033141825 0.02664996 0.0015420559
0001d0 2b 44 0c be 6a 4b ab bc 44 c5 52 bc 03 69 3a be
       -0.13697879 -0.020909984 -0.012864415 -0.18204121
0001e0 d2 1a 1f be f1 4f 27 3d d6 5b 22 be 76 f1 48 bc
       -0.15537575 0.040847722 -0.15855345 -0.0122646
0001f0 cb cd 82 3c 4c 97 9f bd 49 f3 48 bb 5b 82 18 be
       0.01596727 -0.077925295 -0.0030662587 -0.14893477

network_body.linear_encoder.seq_layers.2.weight f4 [128, 128]
000000 5b 27 81 bc ab b5 85 bd 37 5d e0 bd c9 24 aa 3c
       -0.015765836 -0.06528791 -0.10955279 0.020769494
000010 42 1b 34 bd 91 49 6c 3d bf 37 43 3d 99 10 52 3d
       -0.043971308 0.057687346 0.047660585 0.05128536
000020 a5 f9 64 3d 09 a3 ed bc d4 20 7f bd 8f 48 fd 3c
       0.055902142 -0.029008405 -0.062287167 0.030918388
000030 c5 ea a9 bd 04 8e 83 bc b8 a2 10 3d f7 d0 50 bd
       -0.08296732 -0.01605893 0.03531143 -0.050980534
000040 96 30 98 3d 24 8d 31 bd 54 b4 dd bd cd 0d b1 3d
       0.07431142 -0.043347493 -0.108254105 0.086452104
000050 cb 8f 20 bd 2d 2f 02 3e 05 47 3d 3c 3c c7 07 bd
       -0.03919963 0.12713309 0.011552577 -0.03314899
000060 d5 07 ed bd b8 4c 01 be b9 10 c7 bb 9c df 0f b9
       -0.115737595 -0.12626922 -0.0060749915 -0.00013720844
000070 6a 9a 0b bd b2 57 0a be df 25 c1 bc 97 f8 84 bd
       -0.034082808 -0.13510016 -0.023577629 -0.06492727
000080 4f 87 34 3c f6 c3 80 3d 55 83 45 bd 33 9b ed bc
       0.011018588 0.062873766 -0.04822095 -0.029004669
000090 a6 b5 84 bd 2c ca 15 3c 24 30 d0 bd 3a c4 26 bc
       -0.06479959 0.00914244 -0.10165432 -0.01017862
0000a0 5c 0d 4b bd 5c 2f 8c 3d 60 c9 03 3d 37 3d ad 3d
       -0.049573287 0.068449706 0.032174468 0.084589414
0000b0 e9 3a 62 bc df 4f a8 bd fb f6 cc 3c f5 f6 97 3c
       -0.013807991 -0.08218359 0.025020113 0.018550375
0000c0 cc 11 36 bd 36 54 ba bc 19 99 eb 3d 7c cc bf bb
       -0.044450566 -0.022745233 0.115038104 -0.005853234
0000d0 01 1a 05 be 63 f7 37 3d 61 ee bc 3c 2b e4 e0 bd
       -0.12998201 0.04491366 0.023062887 -0.109810196
0000e0 f2 64 1c 3e af 4e 86 3d 05 12 38 3d 6e 0a 53 be
       0.15272883 0.065579765 0.04493906 -0.20609447
0000f0 9e a6 eb 3c 39 a7 86 3c 45 8e 20 bd 26 ad c3 3c
       0.028765973 0.01643716 -0.03919818 0.023886275
000100 d2 d8 07 3e 29 63 38 be 9e c0 38 3d a2 df be 3a
       0.13266304 -0.18006577 0.04510557 0.0014562497
000110 65 4a a1 bd 09 a7 30 be 9d 3a 80 3d 56 d9 10 be
       -0.07875518 -0.17251219 0.062611796 -0.14145407
000120 04 ca 19 bd 1f e7 e5 3d b9 0d eb 3d 24 75 78 38
       -0.037546173 0.112257235 0.11477227 5.9236903e-05
000130 e5 6e dc 3d 9c 07 fd bd b9 dc 00 3e 13 dc 81 3c
       0.10763339 -0.12354967 0.12584199 0.01585201
000140 0b 13 7f 3c 50 c6 c0 bc 11 c5 44 3b d4 29 ea bd
       0.015568505 -0.023532063 0.0030024687 -0.11433759
000150 e7 3a a8 bd 2e dd 10 bd 6e ac 4c 3d de 85 f2 3c
       -0.0821436 -0.035367183 0.04996913 0.029604848
000160 0c 2f 93 bc 58 bd 09 3e 62 39 b7 bd 17 a4 64 3d
       -0.01796677 0.13451135 -0.08946492 0.05582055
000170 91 15 0d be 8b ff 83 3e 3c 50 02 bd 9e 1f 1e bd
       -0.13777758 0.257809 -0.0318148 -0.03860437
000180 e1 c0 12 bc d2 47 58 bd af f0 4d 3d 3e f8 99 bd
       -0.008957119 -0.05280287 0.050278362 -0.075180516
000190 89 fa 12 be e9 ad 17 3d f7 86 a6 bd 35 aa b5 3c
       -0.14353384 0.037031088 -0.08131211 0.022175888
0001a0 02 dd 12 3d 8e af b1 3c bf 33 94 bd d3 78 6e bc
       0.0358553 0.021690156 -0.07236432 -0.014555174
0001b0 d6 4a 03 be f5 7d 49 bd 00 55 fc 3c a7 53 b2 bc
       -0.12821516 -0.049192388 0.03080225 -0.021768404
0001c0 16 e4 25 3d 46 48 99 bc d5 ba 06 3c a0 5d 10 3d
       0.040500723 -0.01871122 0.008223255 0.035245538
0001d0 17 48 7e 3d b8 57 d0 bc 48 1e de 3d c3 ea 75 3d
       0.06208047 -0.025432453 0.108456194 0.06003834
0001e0 6b 85 45 3d 3f df 08 3d dc 3b 73 3d 2a eb 1f 3e
       0.04822294 0.03341603 0.05938326 0.15617052
0001f0 6d be 15 3d 7f 1e 07 3c 3b 89 e7 3d 9a 9d ab 3c
       0.036558557 0.008247017 0.113054715 0.020949174
000200 9d ad 89 bd db 46 0e bd 43 7e 65 3d 4c 8c 07 bd
       -0.06722567 -0.03473554 0.056028616 -0.033092782
000210 ae d3 20 be 26 1b 03 be 8b aa 69 3d 4c 7e ad bd
       -0.1570575 -0.12803325 0.057047408 -0.08471355
000220 96 31 76 be 1f e8 cf 3c c4 9a 9b bc 30 de b0 bc
       -0.24042353 0.025379239 -0.018994696 -0.021590322
000230 f8 36 fe bc c2 66 b7 bd 9e 86 99 bd 4e 6c 27 be
       -0.03103207 -0.08955146 -0.07496379 -0.16349909
000240 63 13 66 be 96 44 27 be ef 4d cf 3d 39 ae ec bd
       -0.22468333 -0.16334757 0.101222865 -0.11556668
000250 64 06 76 bd 12 52 02 bd 5e 81 9f 3d 5e 59 8c bd
       -0.06006469 -0.03181655 0.07788347 -0.06852983
000260 07 4b fa 3c 53 c2 86 be d9 4e 19 3e d9 42 37 3d
       0.030553354 -0.26320133 0.14971484 0.044741485
000270 a4 d7 2a 3d 5e 9c 0d bc 6b e9 10 be cd 9a e9 bb
       0.041709557 -0.008643238 -0.14151542 -0.0071290494
000280 39 32 01 3e 2f f6 94 3d da 02 a9 3d 53 0e 1a 3e
       0.12616815 0.07273518 0.08252497 0.15044527
000290 b9 5f 0c 3e 6d cd ed 3d 64 03 b9 3b d1 14 bd bd
       0.1370839 0.116114475 0.005646156 -0.09232486
0002a0 8f fa cb 3c 64 cb 19 bc a6 03 74 3d 2b 68 7f be
       0.02489975 -0.009386871 0.059573792 -0.2494208
0002b0 ae 4a 0e 3e a4 80 ac bb 65 4b 32 3d 4e e1 1d 3d
       0.13895676 -0.0052643586 0.043528933 0.038544945
0002c0 a2 70 a0 bd e8 9a dc 3d 1e f0 09 bd 6f 90 f5 bd
       -0.07833983 0.107717335 -0.03367626 -0.11990439
0002d0 f9 72 83 3e c5 fa e5 3d f6 9d 8d 3d d3 5d b0 bd
       0.25673655 0.11229471 0.06914894 -0.086116455
0002e0 19 be 57 3d fc 68 dc 3d 25 69 47 bc 60 e9 90 bd
       0.052671526 0.10762212 -0.0121710645 -0.07075763
0002f0 bd cb 42 bd d1 a3 00 3d bf 72 d9 bd c2 fb 50 bd
       -0.04755758 0.031406227 -0.10617589 -0.051021345
000300 27 90 62 3c ca 31 0a bd 92 33 b4 bb cb 33 d2 3d
       0.013828314 -0.03373889 -0.0054993117 0.10263785
000310 64 a4 b5 3d 36 8f 15 3e d7 3f 8c 3d 76 cc e4 bd
       0.08869246 0.14605412 0.06848114 -0.1117181
000320 f9 12 92 3d 63 59 d5 ba 2f 1a 37 bd 84 e5 da bd
       0.07132525 -0.001627725 -0.044702705 -0.10688308
000330 e0 c5 51 be d5 51 5a 3c 02 82 30 bb 58 b9 7f bd
       -0.2048564 0.013325174 -0.002693296 -0.062432617
000340 dd aa 2a 3e 89 0d e1 bd f6 49 c7 3d c0 46 07 3d
       0.16666742 -0.1098891 0.09730904 0.033026457
000350 99 83 72 bb 21 43 54 3c 13 c6 36 bd 38 1d 31 3c
       -0.0037004708 0.012955458 -0.044622492 0.010810189
000360 85 b7 48 bd 3d 7f dc 3d 57 3e bd bc b2 0f 94 be
       -0.049003143 0.10766456 -0.023101015 -0.28918225
000370 78 10 ec bd d6 d1 82 3d b4 dd 7f ba 0a 48 74 3d
       -0.11526579 0.06387679 -0.00097605144 0.059639014
000380 5a f0 e3 3d aa 86 6e 3d 92 ee 02 be 3e 5d 83 bd
       0.11129828 0.058233894 -0.1278632 -0.06414269
000390 f0 cf b1 3d 0c 4d a8 bd f7 a7 26 bd 9e f9 5c bd
       0.08682239 -0.082178205 -0.040687528 -0.05394899
0003a0 a6 b2 18 be bb a7 76 3d f2 3c 99 3d 72 be c3 3d
       -0.14911899 0.060218554 0.074823275 0.09557809
0003b0 f2 7d c6 3d 52 20 cb bc 34 ca 9f bc 0b 70 c4 bc
       0.09691991 -0.024795685 -0.019505598 -0.023979208
0003c0 00 da 8b bd f4 0f 42 be a2 dc 6d 3b 14 bf 6f bc
       -0.068286896 -0.18951398 0.0036294837 -0.014632959
0003d0 72 92 19 be 35 9e 99 bd 44 c3 e2 bd bd 8e b4 bd
       -0.1499727 -0.07500879 -0.110724 -0.08816288
0003e0 7b 1e 0c 3e b3 60 f0 bd 2e ab af 3a 0d fa ee bd
       0.13683502 -0.11737194 0.0013402456 -0.11668787
0003f0 37 97 41 bd ad 6a a3 bd 90 69 f7 bb 0f 57 c2 bd
       -0.04726335 -0.07979331 -0.007550426 -0.09489261
