Learning/results/test5/KartAgent/KartAgent-272616.onnx (onnx, 108737 bytes, 7 tensors)

39 f4 [1, 2]
000000 60 de 14 bf 53 be 7d bf
       -0.5815182 -0.99118537

distribution.mu.bias f4 [2]
000000 2a 84 b2 3c 50 e2 1f 3e
       0.021791536 0.15613675

distribution.mu.weight f4 [2, 128]
000000 47 bb 00 3c 7e 82 84 3d a8 de 6b ba 7f 02 d5 bb
       0.00785715 0.06470202 -0.0008997717 -0.0065005417
000010 0e 81 8d bd 2d 17 df bb 5a 0e c4 bb 8b cc d6 ba
       -0.06909381 -0.0068081827 -0.005983156 -0.0016387863
000020 de 76 e1 3d 76 17 5a bb e2 80 18 bc b0 27 fe 39
       0.11009 -0.0033278144 -0.009308072 0.00048476225
000030 44 e5 ce 3c 66 3e 58 bc 0b 2b 85 bb bc f3 04 3e
       0.025255807 -0.013198471 -0.004063969 0.12983602
000040 1e ec 49 3b 2f bd 03 3e e0 3f 83 bd c7 2f 98 3d
       0.0030810903 0.12865137 -0.064086676 0.07430988
000050 ad c7 d6 3b 77 a5 74 bb 15 0c a0 3d c5 2f 66 3b
       0.006554565 -0.003733007 0.078148045 0.0035123688
000060 9c 35 a0 3b 91 2d 54 3d b4 bf 22 be 8a 5f 3c be
       0.0048892032 0.051801268 -0.15893441 -0.1839582
000070 49 81 be 3b 4f d9 9a bd 0a 8f e3 bb 06 ea c8 bd
       0.005813752 -0.075609796 -0.006944542 -0.098102614
000080 ec 8c 3f 3c 92 31 e0 3a 2e 66 9b 3a aa 9c 0b bd
       0.011691313 0.0017104617 0.0011856013 -0.034084953
000090 7a ba 7e ba 81 af 19 be b3 cd 71 3d fb 14 a8 bc
       -0.0009717118 -0.15008356 0.05903406 -0.020517817
0000a0 91 44 7e bd 11 57 ef bd ac 82 04 3e 09 4a 7c bb
       -0.06207711 -0.116865285 0.12940472 -0.0038496277
0000b0 fc 94 42 3b d9 da b9 bd 97 31 c4 bb f5 f2 aa 3b
       0.0029690852 -0.09074945 -0.005987357 0.005216951
0000c0 1b 10 cb ba f8 11 8d 3a 19 8b 0d 3a 22 b1 b7 3b
       -0.0015492471 0.0010762801 0.00053994503 0.0056058327
0000d0 b9 53 b6 ba ae d6 6d bc 17 67 ce ba b8 68 03 ba
       -0.0013910449 -0.014516516 -0.0015747276 -0.0005012858
0000e0 4b 21 29 3e 1f bf 8c 3c 97 ec f0 3c 50 4e e8 bb
       0.16516607 0.017180977 0.02940969 -0.0070894137
0000f0 2b f8 d3 3d 34 69 37 3e 23 f9 5c bc 91 bb cb ba
       0.10350069 0.17911226 -0.013487133 -0.001554357
000100 e1 ec c1 bb f0 89 12 bc a2 85 f5 3b 0d 40 89 3b
       -0.0059181307 -0.00894402 0.007492737 0.0041885437
000110 86 26 e1 b9 84 ef 45 bb bf b1 31 3a f7 19 5f bc
       -0.00042944046 -0.0030202577 0.00067785004 -0.01361703
000120 fd 6f ca bb 2b 5d 89 3a 40 0f 96 b8 9d 3c 0b bd
       -0.006177901 0.0010480037 -7.155398e-05 -0.033993352
000130 79 4c 1c 3c 6f f6 9b bb 2c ac 97 bd d0 10 16 bc
       0.009539717 -0.004759602 -0.07405886 -0.009159282
000140 33 cf 83 bc 43 6d cc 3d ed 35 41 bb 0b 35 b4 3d
       -0.016090011 0.099817775 -0.0029481605 0.0879918
000150 db 99 9b 3c 6c 1b 7e bc 10 cd 7d 3c 73 8b a6 bb
       0.018994262 -0.015509468 0.015490785 -0.0050825416
000160 00 b8 01 be ed c3 b1 bc 30 00 16 3b e9 c0 48 3d
       -0.12667847 -0.02169987 0.0022888295 0.0490121
000170 ad 21 da 3a ee d6 0f bc 80 3c b7 3b e3 0f 2c 39
       0.0016642116 -0.008779271 0.005591929 0.00016409117
000180 44 09 a2 b9 9c c5 9d bb 91 0d 2c bc c2 1b 26 3c
       -0.0003090595 -0.0048148166 -0.010501281 0.010138454
000190 42 25 46 bb 61 90 46 bc 17 cb 89 3d f5 1d 16 3e
       -0.003023461 -0.012119384 0.067281894 0.14659865
0001a0 11 c2 c5 3b 4b 4a cf bb 07 ac a7 3b f2 bd 90 bc
       0.0060350974 -0.006325995 0.005116943 -0.017668698
0001b0 9c fb 2d ba 0c db 1f 3c a3 8d 31 bc 86 86 b0 b8
       -0.0006636919 0.009756815 -0.0108369915 -8.417391e-05
0001c0 df 85 3f 3d 29 d7 98 3a f2 70 4d bc 17 9f a0 3d
       0.04675853 0.0011660802 -0.012539135 0.07842844
0001d0 b2 3c 1e bc 89 da 0b 3b ed 29 41 3c 21 8a 85 3b
       -0.009658026 0.0021339974 0.011789781 0.004075304
0001e0 6a ba 2f bd b3 b4 10 be 45 22 42 bc 64 fe 22 bd
       -0.042902388 -0.14131431 -0.011848991 -0.039793387
0001f0 99 26 43 bb c1 c4 8c bd 21 f4 dc bb c1 34 95 bc
       -0.0029777645 -0.06873465 -0.0067429696 -0.018213632
000200 eb e7 cb ba 3f a6 cd 3b ef 66 03 be 11 8f d8 bd
       -0.0015556788 0.0062759216 -0.12832235 -0.10574163
000210 91 da 1d 3c 78 96 16 3b c7 86 5b 3c 8c a8 26 bb
       0.00963463 0.002297787 0.013398833 -0.0025430052
000220 5b ea 11 3c e9 3f 6f 3c 72 72 9b 37 c5 a1 db bb
       0.008905972 0.01460264 1.8530733e-05 -0.006702634
000230 88 3c cc bd 2b 01 24 3b a5 3f 2a be 8b 50 10 3d
       -0.09972483 0.002502511 -0.16625841 0.03523306
000240 4f 3c ae 3b 00 5f b5 3c 08 38 0d bc ea 75 cb 3b
       0.005317248 0.022140026 -0.008619316 0.006209125
000250 4c 93 32 ba 4b 8b 0a bb ef 75 5e 3c d4 7e 07 bc
       -0.000681211 -0.0021140154 0.013577922 -0.008269984
000260 53 b0 0c be 9f bb 08 be d9 b6 ea 3c 01 78 9d 3c
       -0.13739137 -0.13352822 0.028651642 0.019222261
000270 51 5a 02 be e6 c9 86 3b 67 c1 cc 3b 5b 86 b3 b9
       -0.12729765 0.0041134236 0.0062486413 -0.00034241643
000280 64 c7 80 bb 9d 4b cb bb 61 bf 39 bb 1f f5 29 be
       -0.003930019 -0.006204082 -0.002834283 -0.16597413
000290 7e e0 4f bb fd 44 b7 3c f4 e6 49 3c d5 e7 ea ba
       -0.00317195 0.022371763 0.01232313 -0.0017921875
0002a0 3a 64 ae bc be 9b 5d 3c 69 b4 73 3c bd 5e 01 3c
       -0.021288026 0.013525901 0.014874556 0.0078961225
0002b0 43 b4 ea bd 32 a4 51 3c 4a 3f 9c 3b 3b f0 34 bc
       -0.114601634 0.012795495 0.004768287 -0.0110436035
0002c0 1c c2 0e bc 66 49 f7 bb 38 f5 05 be c5 42 19 bb
       -0.0087132715 -0.0075465916 -0.13081825 -0.0023385745
0002d0 ae fe 26 be b7 ae fa bd 34 28 17 be d6 b9 61 3b
       -0.1630809 -0.122403555 -0.1476143 0.0034443042
0002e0 d2 7b b5 3c 56 49 e9 bb 03 77 8b 39 93 27 e3 bd
       0.022153769 -0.007119338 0.00026600817 -0.110915326
0002f0 2e cf 10 3c 82 f8 45 3d c8 a9 75 3c 2e b3 12 bc
       0.008838458 0.0483327 0.014994092 -0.008953853
000300 d5 f6 01 be b2 86 5d 3c 68 20 9e bb f0 b0 f2 bb
       -0.12691815 0.013520883 -0.0048256405 -0.0074063465
000310 29 f1 b3 bb 0a cd c0 bb 26 df 16 bb 38 d9 1b 3c
       -0.005491395 -0.0058838176 -0.002302119 0.009512238
000320 e0 f2 8d 3b 84 5a 5b 39 89 83 bf 3b d4 0b 11 be
       0.0043319315 0.00020919187 0.0058445376 -0.14164668
000330 6e 6c 7e 3b 73 74 42 bc bb b8 12 bc 33 f5 10 3c
       0.0038821953 -0.011868584 -0.008955176 0.008847523
000340 92 d7 01 be 50 b8 8f 3c 9b 1d 79 3a 46 c7 a9 3b
       -0.1267989 0.017543942 0.0009503008 0.005181226
000350 f9 4d 2b be 8f de f0 bd 7b 19 d9 bd 9a c7 2d 3b
       -0.16728963 -0.117612 -0.10600563 0.0026516677
000360 bd f7 af 3c 57 77 01 be 98 00 1f 3c 7d 63 43 bc
       0.021480436 -0.12643181 0.009704731 -0.011925575
000370 7a 68 05 be ae fb fb bd 2c c9 6d bc ec 00 77 bc
       -0.13028136 -0.123038635 -0.014513295 -0.015075903
000380 6e c3 96 bb 1d 04 b4 bb 35 82 a5 3a e5 4b 34 bc
       -0.0046009338 -0.0054936544 0.0012627306 -0.011004423
000390 bd 3e 1b 3c a5 52 0c be be 7f 8a 3c 91 95 82 3c
       0.009475407 -0.13703401 0.016906615 0.01594046
0003a0 0e 8e 25 bb f3 10 9e 3b 0f c3 01 bc fb 3f fe bd
       -0.0025261673 0.004823798 -0.007920041 -0.12414547
0003b0 16 61 b8 3a 50 fe fb bd 13 27 20 be 42 36 1c bc
       0.001406702 -0.12304366 -0.15639906 -0.00953442
0003c0 b5 d0 83 bb 3e 99 ca 3b d8 c3 f4 3b c6 1e 4e 3c
       -0.0040226826 0.0061828187 0.0074696355 0.012580579
0003d0 29 4a ef bd 33 a7 e6 bb 14 a4 4b bb 08 0f f4 bd
       -0.11684067 -0.0070389747 -0.003107314 -0.119169295
0003e0 52 5a 0d be 02 0e ce 3c 4f 92 00 be 1e 4a 15 bb
       -0.13803986 0.025153164 -0.12555812 -0.0022779773
0003f0 6c 6e c4 3b 7c e2 84 bb cf f7 2e 3c 71 c8 1b be
       0.0059946086 -0.0040553194 0.010679199 -0.15213181

network_body.linear_encoder.seq_layers.0.bias f4 [128]
000000 a1 43 23 bd 3c 9e a7 bc 4e 5b 89 bb da 53 9c 3b
       -0.039859418 -0.020461194 -0.0041917926 0.004770738
000010 eb 71 27 bd 2c b8 0b bd e6 0b 84 bd 1c b1 c6 ba
       -0.040880125 -0.034111187 -0.06447582 -0.0015158984
000020 e8 36 6f bc 50 c0 eb 3c 79 fc 51 bc e8 9e 8f bb
       -0.014600493 0.028778225 -0.012816542 -0.004382957
000030 42 e1 32 3c 38 01 0a bd 9f 94 5b 3d d8 64 72 3a
       0.010917963 -0.03369257 0.053608533 0.0009246594
000040 91 c7 dd 3b 9d f3 03 bd a8 74 e3 bc a3 00 d9 bc
       0.006768175 -0.03221475 -0.027765587 -0.026489561
000050 cd 88 95 bc f4 13 71 bd ca 00 d2 bc 40 46 4f 3c
       -0.018253708 -0.05885692 -0.025635142 0.012651026
000060 a4 22 d7 bb a2 56 b9 bc 5e d2 18 bd e6 66 b9 3c
       -0.006565409 -0.022624318 -0.037309997 0.022632074
000070 56 f6 80 bc 33 44 91 3c 99 93 cd bc 90 31 33 3c
       -0.015742462 0.017732715 -0.025094794 0.01093711
000080 12 e5 21 3d 10 a9 ba bc 01 d3 65 bb cc 07 89 bd
       0.0395251 -0.022785693 -0.0035068395 -0.0669094
000090 7a 6d e4 ba c8 a5 2c 3c 51 a8 50 bc 7d 48 25 bc
       -0.0017427646 0.010537572 -0.012735442 -0.010088083
0000a0 c2 a7 89 bd a4 b7 2e bd 99 ce 91 bc 06 83 18 bb
       -0.067214504 -0.042655602 -0.017798709 -0.0023271455
0000b0 a2 ec be bc 91 dd 2b bd e9 a8 80 3c 09 6b 66 bc
       -0.023306195 -0.04195935 0.015705543 -0.014063605
0000c0 e6 a7 cf 3c 13 ad 28 3b 22 2c 04 3c 80 c1 eb 3c
       0.025348615 0.0025737926 0.008067163 0.028778791
0000d0 ca 5a e0 bc c9 ab 32 3a a4 f1 73 3c 08 2b 38 3d
       -0.027387042 0.0006815759 0.014889155 0.044962913
0000e0 d7 71 0f bd af bd 43 bd b8 05 2a 3c 42 f1 ae bd
       -0.035020676 -0.04778832 0.01037734 -0.0854211
0000f0 b1 03 7f bb e0 7c b2 3c 1c aa bc 3c 4a a4 93 ba
       -0.0038912112 0.02178806 0.023030333 -0.0011264172
000100 62 fb 9f bc 15 26 ab bc 71 5f 2a bd 47 83 d0 bb
       -0.019529048 -0.020892182 -0.041594926 -0.0063633057
000110 3f ba 87 3b 18 f1 7b bd 01 f3 2c 3d 4b 2c 2c bd
       0.0041420753 -0.06150922 0.042223934 -0.04203443
000120 70 0c d0 bc 5d 5a d0 bc a8 63 d8 bc a5 35 a5 bc
       -0.025396556 -0.025433714 -0.026414707 -0.020167181
000130 e6 3e 2c 3d 78 02 03 bd 6e 34 1a bc 1c 11 77 bc
       0.042052172 -0.031984776 -0.009411914 -0.015079763
000140 a6 3c 10 3d f1 3f be bc 54 7e d1 ba 17 f4 7e bd
       0.03521409 -0.023223849 -0.0015983083 -0.0622445
000150 fb 61 81 3b 6f bc 80 3c 17 b3 10 bd 70 fa 54 bd
       0.0039484478 0.015714852 -0.035327043 -0.05199665
000160 68 eb 51 bc dd 62 59 bc c1 aa 34 bd 71 ea 0b bc
       -0.012812473 -0.0132682 -0.044108156 -0.008539782
000170 fb 94 20 bd 95 df e9 bc 80 91 90 bd 94 ec fa bc
       -0.03920458 -0.028548995 -0.07059002 -0.030630387
000180 f4 6d 91 bd e5 97 3f bd 60 19 19 36 91 85 c4 bc
       -0.0710105 -0.046775717 2.2813547e-06 -0.02398947
000190 eb 88 42 bd 10 db fe bc 35 9f 3a 3c f1 99 bc 3c
       -0.047493856 -0.031110317 0.011390497 0.023022624
0001a0 bf bd 96 3c ed e2 fd 3c dd 15 ab 3c e5 8d 15 bd
       0.018401025 0.030991996 0.020884449 -0.036512274
0001b0 32 92 df bb 5f c9 f5 bc 03 52 6b 3d 20 be 67 bd
       -0.0068228478 -0.030003248 0.05745126 -0.0565778
0001c0 6b 17 65 bd 75 db b1 bc ee ef 6c bd dd 59 97 bd
       -0.055930536 -0.02171109 -0.057846002 -0.07390187
0001d0 32 9e ca 3c 79 8b 01 3d 74 3b 97 bc 4e bb 9c ba
       0.024733637 0.031627152 -0.018460967 -0.0011957677
0001e0 d5 63 03 3c e0 25 58 3c dd 9b d0 3c 0d ec 17 bd
       0.008019407 0.013192624 0.025464946 -0.03709035
0001f0 dc 8d 82 bd 93 cf 50 bd dd db b1 bc 8b f7 c4 bc
       -0.06374714 -0.05097921 -0.021711284 -0.024043819

network_body.linear_encoder.seq_layers.0.weight f4 [128, 77]
000000 6b 73 37 be 22 bc 46 3c aa 10 97 bc 99 2e d4 bc
       -0.17915122 0.012129815 -0.018440563 -0.025901126
000010 95 f6 83 bd af 46 ae 3c 53 64 25 bd bd be e9 bd
       -0.06443516 0.021273939 -0.04037888 -0.114133336
000020 12 b4 a7 bd e9 95 3f 3d 32 3e 57 3d e6 72 4c bd
       -0.081886426 0.046773825 0.05254955 -0.049914263
000030 4c 45 54 3d a5 07 34 bd e1 56 bf 3c 8c e0 52 be
       0.0518239 -0.043952603 0.023356857 -0.2059347
000040 a2 26 7f 3d ec 6f 39 bd a3 19 90 3c 82 83 2f 3e
       0.062292702 -0.045272753 0.01759035 0.1714001
000050 97 d8 6a bd 7c c1 6c 3d 13 f9 71 3d 62 29 ff bd
       -0.057335462 0.05780171 0.059075426 -0.12459065
000060 b9 e7 f2 bc 0f 7d 88 bd 84 4e a5 bd 08 f8 22 3d
       -0.02965151 -0.06664478 -0.08071616 0.039787322
000070 07 53 39 3e 92 fb e3 3d 1a 42 e6 3b ca 78 cd bd
       0.18098079 0.111319676 0.007026923 -0.10032804
000080 2e 80 08 3c 87 de d3 3d 20 36 23 3e d0 d2 8a 3b
       0.008331342 0.10345178 0.15938616 0.0042365566
000090 8e b3 9e be be d0 bc 3d 8c 66 02 3b 0b 50 29 be
       -0.30996364 0.09219502 0.0019897548 -0.1653444
0000a0 29 42 62 3d 60 9d a2 bb f3 7e 95 3d 19 4e 5f be
       0.055238876 -0.004962608 0.07299604 -0.21807136
0000b0 b9 0a 15 be 79 d2 b6 bd 5a cc 8d be 17 fb db bd
       -0.14554872 -0.08926863 -0.2769497 -0.10741251
0000c0 94 66 3f be ae 2f a0 bd f8 05 b9 bd 73 bb e1 bc
       -0.18691474 -0.07821594 -0.090343416 -0.027555203
0000d0 50 3e 12 bd 6a b7 7e bd 32 35 35 3d ee 58 92 bd
       -0.035703957 -0.062186636 0.044240184 -0.07145868
0000e0 f3 bd 87 3e 42 e2 fc 3d 73 64 81 be 40 43 06 3d
       0.26512107 0.12347843 -0.2527195 0.03277898
0000f0 89 00 e3 3d 9f cd 44 be d5 ce 5e bd 02 83 6a be
       0.110840864 -0.19219063 -0.05439647 -0.22901538
000100 d5 52 82 3e ff 09 00 be 29 81 44 3d 34 48 9a bd
       0.2545382 -0.12503813 0.04797474 -0.07533303
000110 29 eb 90 be 04 a9 e0 3e ff f5 00 bd 20 eb 3a bd
       -0.28304413 0.4387895 -0.0314846 -0.04563439
000120 3d 31 55 be c0 5b d3 3e 78 51 2a be 9e 16 ed bd
       -0.20819564 0.41280937 -0.1663264 -0.115765795
000130 7f 7b 6e bd b5 82 d3 bd 78 25 9f bd af d5 58 bc
       -0.058223244 -0.10327665 -0.077708185 -0.01323454
000140 64 69 be bd fc 58 b1 3d 60 42 34 3c 03 15 74 3d
       -0.092974454 0.086595505 0.011002153 0.05959035
000150 17 aa a8 3e 0a e1 80 be bf 79 e8 bd 52 23 11 bd
       0.32942268 -0.2517169 -0.11351346 -0.035434075
000160 b6 c2 d2 bd ad 20 1c be 44 c0 40 3d 18 be 3d bb
       -0.102910444 -0.1524684 0.04705836 -0.0028952416
000170 e9 96 99 3d 0e 41 b6 bd 7c 94 11 be 52 db 3a bc
       0.07499487 -0.08899127 -0.14216799 -0.011404829
000180 7e 62 2b 3d ec e1 ea bd dc cf a6 3d 22 1d e1 3d
       0.041841976 -0.114688724 0.08145115 0.10991885
000190 8b ff 0d 3c bf 75 9d bd ff 1f 9a bc dc 3e ca 3d
       0.008666883 -0.07688474 -0.018814085 0.09875271
0001a0 10 d3 9c bd 8a db dc bd a1 a0 d5 3c 70 c1 95 3d
       -0.076574445 -0.10784061 0.02607757 0.07312286
0001b0 25 e7 0a be b7 94 7a bd ea 1c 1f be be f0 22 3d
       -0.13564737 -0.06117698 -0.15538374 0.03978037
0001c0 c5 2c bc bd 1f cf a6 3d 10 00 6b bd 40 9d 9a bc
       -0.091882266 0.08144974 -0.057373106 -0.01887381
0001d0 0b ca ae 3c 45 1a 1f 3e c7 ed fb 3d 4e 84 f2 bb
       0.021336576 0.15537365 0.12301212 -0.007401026
0001e0 7a 7e 2d be bb 7a 26 3e 69 13 77 bd 7a 8d 9a bd
       -0.16942778 0.16257755 -0.060321245 -0.07546516
0001f0 86 cf 10 be 68 7b e5 be 77 32 20 bd 61 2a db 3d
       -0.14141664 -0.44820714 -0.039110627 0.107014425
000200 50 ea 8f 3d 69 aa 73 3d df 1f 18 be 2c 96 75 bb
       0.070271134 0.059488688 -0.14855908 -0.0037473543
000210 1c b8 5b bd 3a 86 e2 bd 59 a1 27 3d 70 c1 45 3e
       -0.053642377 -0.11060758 0.040925357 0.19312072
000220 01 68 bc bc 4c 41 4e 3e d3 b4 b7 3c 46 1f 81 3e
       -0.022998812 0.20142096 0.02242509 0.25219172
000230 d9 28 03 3d f4 15 4a bd 0c 6b 0b 3e 30 65 a5 3c
       0.032021377 -0.049337342 0.13615054 0.020189852
000240 7a c8 7a bd 6f be 51 3e d5 5c a5 be 21 cd 38 3e
       -0.061226346 0.20482801 -0.32297388 0.18047
000250 8c b5 1d be b0 0a 2c 3e cb 7a ac be e8 3d e4 3d
       -0.15401286 0.16800952 -0.33687434 0.1114462
000260 11 09 66 be f2 68 15 be 7f 05 22 be 9d 23 83 3e
       -0.22464396 -0.14590815 -0.15822409 0.25613108
000270 c4 4d 88 bd ca 87 d0 bd 30 90 17 bd 37 b4 38 3d
       -0.066554576 -0.1018215 -0.037002742 0.04509374
000280 ca 29 8f bd 61 04 d1 bd cb d3 fb 3d ed f4 dc bd
       -0.069903925 -0.10205913 0.12296256 -0.107889034
000290 a2 68 05 be 23 6d c5 3c 5c 10 4b 3e de 03 9f bc
       -0.13028196 0.024099892 0.1983046 -0.019411024
0002a0 0f dc b1 3b fd 90 17 3e d7 65 be 3d 53 69 09 3e
       0.0054278444 0.14801402 0.09296768 0.13419084
0002b0 6d af a3 3c e3 f3 30 bd b9 e7 a3 bd 0e f7 88 3d
       0.01998111 -0.04320134 -0.08003182 0.06687747
0002c0 87 9c de 3d e6 7b 3d bd 4d 31 9f bb a3 dc 2a bd
       0.10869699 -0.046260737 -0.004858172 -0.04171432
0002d0 88 63 4e bd a9 91 59 bc f0 99 ee 3c 01 b5 e6 bd
       -0.05038789 -0.013279357 0.029126137 -0.112649925
0002e0 ba aa 7a bd a1 c2 b5 bd 18 40 23 3d cc e2 c0 ba
       -0.061197974 -0.08875013 0.039856046 -0.0014716028
0002f0 ee c1 19 3d 52 dd 0c be 22 d1 cc bd ab 68 90 bd
       0.03753846 -0.13756302 -0.100008264 -0.07051214
000300 e6 89 c1 3e d2 2c 7b bd 32 31 bc 3c 37 5e 94 bd
       0.3780052 -0.06132204 0.022972677 -0.072445326
000310 32 5d a7 3d 7d 95 18 3e 36 1a 90 bc 11 0b a0 3b
       0.081720725 0.14900775 -0.017590623 0.0048841317
000320 3e 17 9e bc 28 91 84 3c 52 06 27 bd 3e 19 3e bd
       -0.019298192 0.016182497 -0.040777512 -0.04641079
000330 11 f4 c4 bd 9c 2f 46 3c 85 fd c7 3d 03 a9 51 bd
       -0.096168645 0.012096312 0.09765152 -0.051186573
000340 f0 a9 d6 3d fc 70 5d 3e d0 c2 cd 3d 24 37 fe 3d
       0.10481632 0.21625131 0.10046923 0.12412861
000350 55 7f 44 be 0d ba 0e be ec 09 02 be 1f fb b2 be
       -0.19189198 -0.1393816 -0.12699097 -0.34957215
000360 70 3a d9 bd a5 35 fa 3d 0c bd f3 3d b3 da eb ba
       -0.10606849 0.12217263 0.11901292 -0.0017994255
000370 88 3b 0c 3e 72 d7 16 be 87 b9 30 3e 09 ff 7c be
       0.13694584 -0.14730623 0.17258273 -0.24706663
000380 c1 a0 0e 3c 3d 5c 02 be 86 12 00 3e 8e 14 7e be
       0.008705319 -0.12730499 0.12507066 -0.24812528
000390 24 e4 bc bb 11 dc 03 3e 38 34 2b bd 07 ed dd 3c
       -0.005764501 0.12876917 -0.041797847 0.027090563
0003a0 b4 1d 2a bc 18 3f 50 bd 37 31 a5 3d fb 39 49 bb
       -0.010383058 -0.05084142 0.080660276 -0.0030704725
0003b0 04 45 38 be f6 62 17 3e 26 f3 83 3d 27 a6 a4 bd
       -0.17995077 0.14783844 0.06442861 -0.080395035
0003c0 0b 04 0e 3d 90 07 1f 3e 29 a1 de 3d 92 71 4e 3e
       0.034671824 0.15530229 0.108705826 0.20160511
0003d0 18 cf 25 3d 78 94 96 3d b8 ff ec bc ec 03 c4 b9
       0.040480703 0.07352537 -0.02893053 -0.00037386955
0003e0 41 1a 30 3e bd f0 59 3d 99 93 c8 3d 51 1d 8a be
       0.17197515 0.0532081 0.09793777 -0.26975492
0003f0 cb b1 cf 3c b4 f8 ad 3d a9 8a 14 3e 08 19 33 3e
       0.025353333 0.08494702 0.1450602 0.17490017

network_body.linear_encoder.seq_layers.2.bias f4 [128]
000000 26 00 29 bd e2 a2 5d bc 3b 56 0a be e4 67 23 be
       -0.041259907 -0.013527604 -0.13509457 -0.159576
000010 0d bf 9d bc 44 a6 9d bc 2f ba 13 bd 99 41 88 3c
       -0.01925614 -0.01924432 -0.03606623 0.016632842
000020 10 54 31 3d b5 d3 ab 3c 55 cb a7 39 03 4c 89 bc
       0.04329306 0.020974973 0.00032004216 -0.016759878
000030 af 4a 1c be 3d 2e ed 3c a2 9b e4 bd 19 02 7b 3d
       -0.15262865 0.028952712 -0.11162497 0.061281297
000040 11 44 b6 3b 29 f1 97 3d 12 75 b2 bd e6 24 4c bb
       0.0055623134 0.074190445 -0.08713736 -0.0031149923
000050 19 a6 ad bb db 31 27 bd be da d7 3a 5d 91 e8 bc
       -0.0052993414 -0.04081903 0.0016468388 -0.028389627
000060 93 cf 05 be 02 5c 07 be 09 5c 43 3d ce 5c 7f 3d
       -0.13067465 -0.13218692 0.047695193 0.062344365
000070 ee fc c9 bd 4a 92 08 bd 73 0f 05 bc 17 be 78 bd
       -0.09862696 -0.033342637 -0.008121359 -0.06072816
000080 d1 54 f2 3a 07 4a e7 bc 3e 0e 7f 3c 39 04 2c be
       0.0018488412 -0.028233541 0.01556736 -0.16798486
000090 eb 20 d7 bc 90 2c 43 3d ac cf 41 bc 31 08 0b bd
       -0.026260814 0.04764992 -0.011829298 -0.03394336
0000a0 f9 1e 85 bd 9c 7f 05 3c 1d cc 88 3d 9b fc 25 3c
       -0.06500048 0.0081481 0.066795565 0.010131027
0000b0 d4 89 22 be 7b 04 c6 bb 30 aa 11 bd 94 e0 9b ba
       -0.1587289 -0.0060430146 -0.035562694 -0.0011892491
0000c0 7e b6 89 bc c9 a4 a2 3c bc 8f 2d be 29 32 02 bc
       -0.016810652 0.019853966 -0.16949362 -0.007946529
0000d0 5c 5d 12 be e8 5d 16 be 77 d8 16 be 0d da ca 3b
       -0.14293426 -0.1468426 -0.14731012 0.0061905445
0000e0 c2 65 f4 3d 81 32 fc bc d7 44 16 bc 8e 6d 3f be
       0.11933471 -0.0307858 -0.009171686 -0.18694136
0000f0 1e c5 09 3d 95 e1 07 3e 6d a7 50 3c 9a 6f 10 3d
       0.03363525 0.13269646 0.01273523 0.03526268
000100 cd e0 28 be a8 6b bd 3b a6 27 8a bc 13 cb d0 bb
       -0.16492005 0.005780656 -0.016864609 -0.0063718646
000110 79 7d d4 bc 0d 85 9b 3c ee 9c 5c bd fe f8 b3 3c
       -0.025938736 0.018984342 -0.053860597 0.021969315
000120 7b 3d f9 bc 54 ce 05 bc 63 53 fd 3b 8f 9c 2a be
       -0.030424824 -0.008166868 0.0077308877 -0.16661285
000130 4d 95 0c bc 33 6b 35 ba b5 a1 8a bd 94 95 d2 3b
       -0.008580518 -0.0006920576 -0.067691244 0.0064265225
000140 73 c5 25 be 91 93 ef 3c 33 c4 c2 3c cd 63 f0 3b
       -0.16188602 0.02924517 0.023775196 0.007336116
000150 b5 c4 0d be d8 a5 1c be 30 40 00 be 1d e4 42 3c
       -0.13844569 -0.1529764 -0.12524486 0.011895207
000160 da f6 af 3c d0 c3 1b be 33 ee 4c 3c 61 ee 30 bd
       0.021480013 -0.15211415 0.012507963 -0.043196086
000170 5f 97 04 be 74 f5 36 be 7c 80 41 bc 6a ac 08 bc
       -0.12948368 -0.1786707 -0.011810418 -0.008341888
000180 1b 00 b4 bc a5 42 80 bc 4f 49 81 3c 94 71 a6 bc
       -0.021972707 -0.015656779 0.015782027 -0.02031783
000190 85 a4 8e bc f3 27 3b be 48 c6 5a 3c fa 3c ab 3d
       -0.017412433 -0.18276958 0.013352938 0.0836124
0001a0 fb 49 12 bc f7 f1 ce b9 e3 3a 21 bb 96 a9 16 be
       -0.008928771 -0.0003947166 -0.002460175 -0.1471313
0001b0 59 bd d4 bb 7e 4a d7 bd 5a 41 07 be d9 9a a7 3c
       -0.0064922986 -0.10512255 -0.13208523 0.02045958
0001c0 56 9a 1b bd a8 26 0d 3d d3 52 dc 3c 64 7d 01 3b
       -0.037988983 0.034460694 0.026894962 0.0019758577
0001d0 6e 18 0c be e1 a3 b2 bc 66 9e 52 bc 33 94 39 be
       -0.13681194 -0.02180666 -0.012855148 -0.1812294
0001e0 ba 30 1f be 61 39 26 3d 50 0c 22 be a0 7a 52 bc
       -0.15545931 0.040582065 -0.1582501 -0.012846619
0001f0 08 d9 8e 3c 57 9e a0 bd aa e8 02 bb 00 33 17 be
       0.017437473 -0.07842701 -0.0019975104 -0.14765549

network_body.linear_encoder.seq_layers.2.weight f4 [128, 128]
000000 ed fb 7c bc 69 e5 85 bd a2 69 e0 bd 39 c9 ae 3c
       -0.015440923 -0.06537897 -0.10957648 0.021336185
000010 c6 3d 32 bd d6 3d 6b 3d 7d 70 3e 3d a0 a5 53 3d
       -0.043515943 0.05743202 0.046493996 0.051671624
000020 f1 cc 63 3d 8a b5 e6 bc 99 ab 7e bd 8f 47 f9 3c
       0.05561537 -0.028162736 -0.062175367 0.03042963
000030 e3 91 a9 bd a7 1a 82 bc d1 8d 10 3d e6 49 4d bd
       -0.08279779 -0.01588185 0.035291497 -0.050119303
000040 bd 46 98 3d 82 e5 31 bd c1 64 de bd 54 41 b0 3d
       0.07435367 -0.043431766 -0.10859061 0.0860621
000050 73 97 20 bd 44 f2 02 3e 27 d5 40 3c c0 b5 09 bd
       -0.039206933 0.1278773 0.0117695695 -0.033620596
000060 cb ac ed bd 71 64 00 be 5a 04 bd bb 47 e7 35 39
       -0.11605223 -0.12538315 -0.005768341 0.00017347663
000070 56 93 0c bd eb ca 0a be 18 64 c0 bc fd 27 85 bd
       -0.034320198 -0.1355397 -0.023485228 -0.06501768
000080 dd 13 3a 3c 60 f7 80 3d 0c e8 44 bd df c1 ee bc
       0.011357275 0.06297183 -0.04807286 -0.02914518
000090 6e b8 83 bd 34 73 0c 3c 5b ef cf bd e8 76 1d bc
       -0.064316615 0.008572388 -0.10153075 -0.009610869
0000a0 a3 ea 4b bd 48 b4 8b 3d a4 73 00 3d e5 ef ad 3d
       -0.049784314 0.06821495 0.031360283 0.08493022
0000b0 0f ae 67 bc 77 a4 a7 bd 08 dc cc 3c e9 ed 9c 3c
       -0.01414062 -0.08185666 0.025007263 0.019156413
0000c0 ea 51 36 bd 04 3f bb bc 51 fa ea 3d df 4a bf bb
       -0.044511713 -0.022857197 0.11473525 -0.0058377828
0000d0 69 4b 05 be 2b d1 3a 3d 4d ba c5 3c 9d ff df bd
       -0.13017048 0.045609634 0.024136687 -0.10937426
0000e0 fe db 1c 3e 67 e8 86 3d 5a cd 36 3d d9 31 53 be
       0.15318295 0.06587296 0.044629432 -0.20624484
0000f0 8a c4 e5 3c 83 ce 90 3c 5b d9 1d bd 7d f6 c2 3c
       0.028047819 0.017676597 -0.038537364 0.023799175
000100 29 a6 07 3e 74 3f 38 be e8 d4 37 3d 62 88 a5 3a
       0.13246979 -0.17992955 0.044880778 0.0012629146
000110 ab ab a2 bd 24 18 31 be d9 b3 80 3d bc fc 10 be
       -0.07942899 -0.17294365 0.06284303 -0.1415891
000120 f9 73 1a bd 98 c0 e7 3d f8 f7 ea 3d 61 d6 46 3a
       -0.037708256 0.11316031 0.114730775 0.00075850455
000130 42 38 dd 3d 81 a9 fc bd e0 8c 01 3e a2 94 80 3c
       0.10801746 -0.12337018 0.12651396 0.015695874
000140 bf 06 7d 3c 42 4a c2 bc 7b 6f 65 3b 82 b9 e9 bd
       0.015443503 -0.02371705 0.0035009074 -0.11412336
000150 23 74 a7 bd fe 23 12 bd 7f 0b 4c 3d 0c 05 f2 3c
       -0.08176448 -0.035678856 0.04981565 0.029543422
000160 f1 53 94 bc 1e 6d 09 3e 20 85 b6 bd ca cd 65 3d
       -0.018106433 0.13420531 -0.0891211 0.05610446
000170 b0 7a 0d be 73 fe 83 3e 50 f0 04 bd f9 7e 1d bd
       -0.13816333 0.25780067 -0.032455742 -0.03845117
000180 f1 e0 0c bc e7 b0 59 bd d1 41 4f 3d 25 13 9a bd
       -0.008598552 -0.053147223 0.050599877 -0.07523183
000190 86 75 12 be 5e 34 17 3d 0a f2 a5 bd c0 d1 bf 3c
       -0.14302644 0.036915176 -0.08102806 0.023415446
0001a0 1c e4 16 3d 51 5a b0 3c 65 f1 93 bd a7 f8 63 bc
       0.036838636 0.021527441 -0.07223777 -0.013914264
0001b0 09 da 02 be f8 42 49 bd 7d e8 f8 3c ef 31 b4 bc
       -0.12778486 -0.049136132 0.030384297 -0.021996466
0001c0 e4 f7 26 3d 9f 5a 96 bc 8d 4f 06 3c 54 b9 13 3d
       0.04076375 -0.018353758 0.008197677 0.036065415
0001d0 34 45 7e 3d 8d 5a d1 bc b8 5f de 3d d9 2c 74 3d
       0.062077716 -0.025555873 0.10858101 0.059613083
0001e0 fc e2 42 3d 98 4e 07 3d a5 83 72 3d 0c 05 20 3e
       0.04757975 0.033033937 0.059207577 0.15626925
0001f0 63 82 15 3d cb c6 0f 3c 99 e5 e6 3d 43 17 b7 3c
       0.0365013 0.008775423 0.11274261 0.02234996
000200 db 9a 87 bd 1f 6e 0f bd 44 79 65 3d 96 af 04 bd
       -0.06621333 -0.03501713 0.05602385 -0.032394014
000210 aa 3e 21 be 06 8d 03 be 68 52 67 3d 37 a7 ab bd
       -0.1574656 -0.12846765 0.056475073 -0.08381503
000220 d7 c5 76 be 4c 1a dc 3c a1 24 94 bc 1d 68 b9 bc
       -0.24098907 0.026868008 -0.018083872 -0.022632653
000230 b2 04 fa bc 6e d4 b5 bd e5 69 98 bd 04 d1 26 be
       -0.030519817 -0.08878408 -0.07442073 -0.1629067
000240 19 37 66 be 6e 6e 27 be 1a aa d0 3d da ee ec bd
       -0.22481956 -0.1635072 0.10188694 -0.11568995
000250 30 6d 74 bd ea a3 02 bd b5 0d a1 3d 75 e7 8c bd
       -0.05967444 -0.031894602 0.078639425 -0.068800844
000260 49 04 f8 3c 7b b9 86 be 11 6b 19 3e f5 15 3a 3d
       0.03027548 -0.26313385 0.14982249 0.045431096
000270 88 52 2c 3d d5 c5 09 bc 02 2a 10 be 7f 50 d4 bb
       0.042070895 -0.008408983 -0.14078525 -0.0064793224
000280 ed be 02 3e 0a 4c 95 3d 58 61 aa 3d 25 bb 19 3e
       0.12768145 0.07289894 0.08319348 0.15012796
000290 05 30 0d 3e 2f 04 ee 3d 91 7b a9 3b 3c c4 bd bd
       0.13787849 0.11621892 0.005172201 -0.09265944
0002a0 e1 5f c9 3c 36 63 21 bc cd 00 71 3d be 97 7f be
       0.024581851 -0.009850314 0.058838654 -0.24960229
0002b0 a5 74 0d 3e bb 09 ad bb 5e 19 32 3d ac 0d 22 3d
       0.13814028 -0.005280701 0.043481223 0.03956382
0002c0 56 60 a1 bd a4 05 db 3d 03 f9 09 bd ec ff f4 bd
       -0.07879703 0.10694435 -0.03368474 -0.11962876
0002d0 1d 00 83 3e e8 86 e5 3d d1 94 8f 3d 6f de ae bd
       0.25586024 0.11207372 0.07010806 -0.085385196
0002e0 67 b3 5a 3d 76 4a dd 3d 2d c5 42 bc 4b d9 91 bd
       0.053393748 0.10805218 -0.011887831 -0.071215235
0002f0 f7 14 45 bd 9f 5d 05 3d 31 f1 d8 bd 1d 65 52 bd
       -0.048115697 0.032559987 -0.105928786 -0.05136596
000300 f8 45 65 3c f7 31 0a bd ed 87 bd bb e1 95 d2 3d
       0.013993733 -0.033739056 -0.005784026 0.102824934
000310 b9 3f b7 3d cb c4 14 3e 89 c5 8b 3d 8a 9e e4 bd
       0.08947701 0.14528196 0.06824786 -0.111630514
000320 14 f8 91 3d aa 0f ea ba 45 65 35 bd ff cf d8 bd
       0.07127395 -0.0017857451 -0.04428603 -0.10586547
000330 38 9f 51 be 99 84 59 3c 8e 0a 40 bb b0 f1 7e bd
       -0.20470893 0.013276243 -0.0029303166 -0.06224221
000340 62 bf 2a 3e 2a ad e0 bd c1 1a c7 3d 86 7c 05 3d
       0.16674569 -0.109705284 0.097219 0.032589458
000350 3a ba 80 bb 9e 2d 55 3c 09 b1 3a bd 93 62 1f 3c
       -0.00392845 0.013011364 -0.04557899 0.009728092
000360 eb 33 4a bd 37 6c dd 3d 4a d7 ba bc e1 2f 94 be
       -0.04936592 0.10811656 -0.022807736 -0.2894278
000370 82 f2 ec bd c4 5e 82 3d fd c4 02 ba a9 f2 74 3d
       -0.11569692 0.06365731 -0.000498846 0.05980173
000380 5e d5 e2 3d 98 66 6c 3d 75 1d 03 be 53 dd 83 bd
       0.11075853 0.05771503 -0.12804206 -0.064386986
000390 fc 30 b2 3d b2 17 a8 bd cd b2 23 bd b4 09 5a bd
       0.08700749 -0.082076445 -0.03996544 -0.05323191
0003a0 4e 19 17 be a7 9d 78 3d 48 2a 9a 3d 71 46 c6 3d
       -0.14755747 0.060697224 0.07527596 0.096814044
0003b0 18 35 c8 3d 6f e6 c8 bc 79 b0 a2 bc d4 ea c6 bc
       0.09775752 -0.024523942 -0.01985954 -0.024281897
0003c0 f7 26 8c bd 0f 5f 42 be b1 b9 52 3b f0 d4 70 bc
       -0.068433695 -0.18981574 0.0032154138 -0.014699206
0003d0 fe 46 1a be 3b ea 99 bd b3 41 e0 bd 5b f1 b5 bd
       -0.15066144 -0.07515379 -0.10950031 -0.088839255
0003e0 c1 fe 0b 3e 0a c6 f1 bd 4b 0a ba 3a ac 35 ef bd
       0.136714 -0.11805351 0.0014193741 -0.11680159
0003f0 72 5f 43 bd 12 e4 a3 bd e4 a3 01 bc 44 5a c0 bd
       -0.047698446 -0.08002485 -0.00791261 -0.09392217
