Learning/results/test5/KartAgent/KartAgent-12096.pt (torch, 656007 bytes, 36 tensors)

network_body.linear_encoder.seq_layers.0.weight f4 [128, 77]
-0.041351613 0.06684483 0.070464596 0.17016037 -0.06104323 -0.1334268 -0.005367736 -0.11551603
-0.13068262 -0.09408753 -0.14523849 0.072572686 0.03742881 0.096473575 -0.21548694 0.1081299
0.2086951 0.047080483 0.024384912 0.0021819666 -0.04254859 0.11235209 0.13839361 0.09218816
-0.036412477 -0.082118526 -0.012440655 0.22462687 -0.03443465 -0.06205631 -0.051166326 0.191996
-0.019913143 -0.15099593 0.12564525 -0.2100196 -0.09514847 -0.038584672 0.04750848 0.055107538
0.12640649 -0.008573931 -0.1329052 0.14868031 -0.05552346 0.076545395 -0.0625971 -0.235143
-0.12550889 -0.01825522 -0.17311652 0.10174105 -0.088950135 -0.064646624 0.0810147 0.028151477
-0.08116761 0.08785069 -0.011167547 0.14856054 -0.09823542 0.15609618 0.058051106 0.21328992
-0.13035671 -0.015502834 0.0301351 -0.08771844 -0.008878857 -0.10358338 -0.069383666 -0.1220985
0.036883563 -0.061348077 -0.1081361 -0.05596116 0.050588615 -0.013921559 -0.085101396 -0.04334163
0.11274125 -0.07317238 0.07123745 0.10693606 0.00495684 -0.029381497 -0.15026629 0.044753637
-0.090114504 -0.09179448 0.059192754 0.03682559 -0.094856314 -0.095032796 -0.27415836 0.07603748
0.048368644 -0.026527552 0.055290062 -0.09922368 -0.009918394 -0.14048733 0.11975524 -0.15116398
0.035802934 -0.05790195 -0.06272274 -0.050064214 0.02382318 0.009647579 0.012596486 0.07700589
-0.034090653 -0.10476879 -0.07448605 -0.0019388678 -0.0015557882 -0.002774693 0.15035988 -0.025753906
0.08716989 0.0042848387 0.10843686 0.044356566 0.013363256 0.008328283 0.13918896 -0.23771973
-0.07165287 0.15498072 -0.25585964 0.0042466354 -0.090711854 0.09825187 -0.032400317 -0.084224544
-0.18096861 -0.008065955 0.10135603 -0.23023874 0.12916899 -0.19403094 -0.001127717 -0.025019346
0.031200377 0.048897717 0.008460069 -0.056312483 -0.01056833 0.17951474 -0.07323704 -0.010335337
-0.04573905 -0.117481835 0.09135768 -0.11590229 -0.022140881 0.11744143 0.17813413 0.010062554
-0.048514996 0.018561764 -0.08810617 0.005481597 0.036727414 -0.028209878 -0.07856243 -0.12208476
-0.062699094 0.04740864 -0.013318153 0.035893723 -0.08263443 -0.058080863 0.04360603 -0.24017844
0.07598798 -0.059451133 0.13215382 -0.049252078 0.07276296 0.07701094 -0.03573251 0.111960165
0.07671931 0.22866286 -0.081624694 0.0054059667 0.040646575 -0.046753716 -0.13663052 -0.24541645
0.17513297 -0.025369922 -0.17633772 0.123250775 -0.10487626 0.030858707 0.019385226 0.050618134
0.080282934 0.16633831 0.033874765 0.021375189 -0.34629536 -0.21540967 0.04374074 0.049610518
-0.0075024012 0.039131764 -0.10205376 -0.07690071 -0.17456016 -0.116202526 -0.0016298085 -0.08053593
-0.1586154 -0.13588691 0.14198132 0.11139412 0.015516328 0.080839634 0.04565127 -0.06614419
-0.20095147 -0.072167926 0.0854661 0.13592361 -0.044459384 0.04244861 -0.14505546 0.12375421
0.01094018 0.09319748 -0.13680217 0.08668934 0.13949047 -0.07419711 -0.051573277 0.04499805
0.16385596 0.22264002 -0.028462902 0.0048807566 0.011905377 -0.07965322 -0.13291107 0.034687277
0.12537181 -0.024278764 -0.08139883 -0.12670472 -0.07544544 0.11394542 0.07881428 0.15561388
00000000: 4f60 29bd f1e5 883d be4f 903d 853e 2e3e
00000010: 7708 7abd 09a1 08be d5e3 afbb ab93 ecbd
00000020: aad1 05be f7b0 c0bd 66b9 14be fda0 943d
00000030: f44e 193d f093 c53d 9ca8 5cbe 3673 dd3d
00000040: 2bb4 553e 77d7 403d dec2 c73c 53ff 0e3b
00000050: 6e47 2ebd da18 e63d 0eb7 0d3e 25cd bc3d
00000060: 4025 15bd c22d a8bd e4d3 4bbc 9604 663e
00000070: 590b 0dbd c22e 7ebd c893 51bd 999a 443e
00000080: e320 a3bc ad9e 1abe 26a9 003e 610f 57be
00000090: 33dd c2bd f60a 1ebd 4098 423d 71b8 613d
000000a0: b470 013e ac79 0cbc 4d18 08be a73f 183e
000000b0: 916c 63bd d5c3 9c3d e932 80bd 54c9 70be
000000c0: 6785 00be f98b 95bc 7545 31be 9d5d d03d
000000d0: 7d2b b6bd 7365 84bd 09eb a53d ed9d e63c
000000e0: 343b a6bd 10eb b33d 16f8 36bc 4120 183e
000000f0: a72f c9bd add7 1f3e ffc6 6d3d ac68 5a3e
00000100: 3b7c 05be 99ff 7dbc e3dd f63c baa5 b3bd
00000110: a078 11bc 8623 d4bd 0619 8ebd c70e fabd
00000120: 3813 173d 1f48 7bbd 7676 ddbd 8837 65bd
00000130: 0236 4f3d 4017 64bc a449 aebd fe86 31bd
00000140: e2e4 e63d 67db 95bd f1e4 913d 4b01 db3d
00000150: fd6c a23b 77b1 f0bc 68df 19be 974f 373d
00000160: f48d b8bd bffe bbbd 1a74 723d 6ed6 163d
00000170: 0744 c2bd 8ea0 c2bd 7c5e 8cbe 8ab9 9b3d
00000180: 331e 463d 4f50 d9bc d577 623d c935 cbbd
00000190: c280 22bc e9db 0fbe 3c42 f53d bbca 1abe
000001a0: 19a6 123d 982a 6dbd c874 80bd 2210 4dbd
000001b0: d428 c33c e110 1e3c 7e61 4e3c 44b5 9d3d
000001c0: a4a2 0bbd 0591 d6bd 248c 98bd 9c21 feba
000001d0: 97eb cbba a0d7 35bb f1f7 193e dbf9 d2bc
000001e0: 2186 b23d d567 8c3b 2514 de3d 3baf 353d
000001f0: 8ff1 5a3c 5a73 083c 8d87 0e3e cd6c 73be
00000200: bdbe 92bd 44b3 1e3e 0900 83be 5c27 8b3b
00000210: 23c7 b9bd 4738 c93d 32b6 04bd eb7d acbd
00000220: d64f 39be 1127 04bc c093 cf3d b4c3 6bbe
00000230: e044 043e 0cb0 46be e7cf 93ba 5ff5 ccbc
00000240: ef97 ff3c f948 483d 1a9c 0a3c eba7 66bd
00000250: ca26 2dbc b6d2 373e 4dfd 95bd 8c55 29bc
00000260: df58 3bbd 519a f0bd bc19 bb3d 2e5e edbd
00000270: cb60 b5bc 2285 f03d cb68 363e 69dd 243c
00000280: a9b7 46bd d70e 983c 0271 b4bd f89e b33b
00000290: 7c6f 163d 6718 e7bc 57e5 a0bd 9307 fabd
000002a0: 6268 80bd 902f 423d 6234 5abc 4c05 133d
000002b0: 3d3c a9bd 33e6 6dbd 3d9c 323d 56f1 75be
000002c0: 969f 9b3d 0883 73bd 5553 073e 8cbc 49bd
000002d0: bf04 953d e9b7 9d3d 415c 12bd 5f4b e53d
000002e0: 031f 9d3d 9926 6a3e d92a a7bd 8924 b13b
000002f0: 067d 263d d380 3fbd dfe8 0bbe 734e 7bbe
00000300: 0f56 333e 95d4 cfbc e091 34be e76a fc3d
00000310: 5dc9 d6bd 66cb fc3c c4cd 9e3c f654 4f3d
00000320: 616b a43d 9754 2a3e 44c0 0a3d 051b af3c
00000330: a04d b1be 5a94 5cbe 7d29 333d 6634 4b3d
00000340: b4d6 f5bb a148 203d 9001 d1bd 1f7e 9dbd
00000350: e6bf 32be 97fb edbd 4c9f d5ba 06f0 a4bd
00000360: 136c 22be f025 0bbe 8d63 113e 9a22 e43d
00000370: 3238 7e3c 408f a53d d3fc 3a3d 9b76 87bd
00000380: 39c6 4dbe c7cc 93bd da08 af3d 8f2f 0b3e
00000390: 0b1b 36bd 98de 2d3d 6b89 14be d972 fd3d
000003a0: 713e 333c 52de be3d de15 0cbe 2e8a b13d
000003b0: 97d6 0e3e a8f4 97bd 803e 53bd e04f 383d
000003c0: dbc9 273e bffb 633e 082b e9bc c1ee 9f3b
000003d0: c50e 433c 3a21 a3bd d719 08be 3f14 0e3d
000003e0: 7861 003e 42e4 c6bc 6eb4 a6bd e2be 01be
000003f0: 2483 9abd 375c e93d 6269 a13d 3f59 1f3e

network_body.linear_encoder.seq_layers.0.bias f4 [128]
-0.003034072 0.0034187722 -0.0010400804 -0.0024598036 0.002233541 0.00232931 0.001603551 0.003248185
-0.0036940419 0.0031899996 0.0030362876 0.0016316965 0.0031289975 0.0015473354 -0.002689412 0.0018215982
-0.0011236854 0.003663412 0.0031520159 0.002815842 0.0017651316 0.0027907384 -0.0002530754 -0.0027822265
-0.00014439545 -0.00242037 0.0014748038 -0.0015165427 0.0004058192 0.0012379744 -0.0029500672 0.0033721067
0.00037417383 -0.0020873887 0.003062769 -0.0018517623 0.0005347437 0.0018819772 -0.0029350768 -0.0022688266
0.002560376 -0.001424034 -0.0032297904 0.0008232545 -0.0021360095 -0.0015844139 0.0024491136 0.0029446296
0.0009739245 -0.0012404612 0.0003420411 -0.002676287 0.0019448525 0.00021946277 -0.0020016166 -0.0030632815
0.0032858935 -0.0021787551 -0.0010628697 0.0010039347 0.0019933716 0.0026076518 -0.0026912855 -0.00091868936
-0.0012974392 0.0003137108 0.0009522352 0.0024953643 -0.00027687347 -0.003043199 0.0027192112 -0.0022631017
-0.0029569059 0.0031390558 -0.0019544775 -0.0017974637 0.0031767231 0.0012827864 0.0009189969 -0.0008141987
0.002450484 0.0033509498 -0.0022411246 0.003226071 4.5463432e-05 -0.0025908789 -0.002844777 -0.0016530869
0.003667472 -0.0032665897 0.0027655764 0.001290156 0.0025259936 0.0034438155 0.0007677114 0.0032019243
-0.0012406684 0.0012910025 0.002956738 0.0022954422 -0.0029647173 0.0022302163 -0.00422777 0.0020631726
-0.0018908554 0.00093765976 0.0018155575 0.0022037043 -0.002707199 -0.0023199182 -0.0034660825 0.0022721682
-0.00046545794 0.0018584555 -0.0010919281 0.0026238544 0.0007213856 0.002927362 0.0026331223 -0.003537741
-0.0027264848 0.0013797611 0.0010788952 -0.0020822245 0.0029180497 0.0025014374 0.0008798074 -9.986874e-05
00000000: 48d7 46bb 7b0d 603b 4f53 88ba a834 21bb
00000010: 9a60 123b 56a7 183b 3e2e d23a 80df 543b
00000020: bd17 72bb 500f 513b 74fc 463b a6de d53a
00000030: de0f 4d3b f6cf ca3a d940 30bb b1c2 ee3a
00000040: a048 93ba db15 703b 0d92 4e3b fd89 383b
00000050: fd5b e73a d2e4 363b 35af 84b9 0456 36bb
00000060: dc68 17b9 129f 1ebb 344e c13a bbc6 c6ba
00000070: 22c4 d439 8743 a23a ea55 41bb 90fe 5c3b
00000080: c32c c439 92cc 08bb bdb8 483b d5b6 f2ba
00000090: 0b2e 0c3a adac f63a 6b5a 40bb 98b0 14bb
000000a0: fbcb 273b a7a6 baba e4aa 53bb adcf 573a
000000b0: 4bfc 0bbb 1cac cfba 4f81 203b b0fa 403b
000000c0: f84e 7f3a f996 a2ba fb53 b339 a564 2fbb
000000d0: 6cea fe3a 971f 6639 8e2d 03bb 56c1 48bb
000000e0: 2558 573b 72c9 0ebb fd4f 8bba 7596 833a
000000f0: 3aa3 023b 23e5 2a3b 4760 30bb 33d4 70ba
00000100: d60e aaba 8d79 a439 6c9f 793a 4489 233b
00000110: 5429 91b9 6870 47bb cb34 323b 8c50 14bb
00000120: a6c8 41bb 9eb8 4d3b b116 00bb e098 ebba
00000130: 9230 503b 2b23 a83a d7e8 703a f36f 55ba
00000140: 4d98 203b 9c9b 5b3b d5df 12bb 7d6c 533b
00000150: fdaf 3e38 bccb 29bb 706f 3abb 64ac d8ba
00000160: f859 703b 4814 56bb ac3e 353b 741a a93a
00000170: 248b 253b a3b1 613b 3d40 493a 60d7 513b
00000180: ec9d a2ba db36 a93a d5c5 413b 216f 163b
00000190: b44b 42bb d228 123b 1b89 8abb 4b36 073b
000001a0: 94d6 f7ba 48cd 753a 00f8 ed3a 066c 103b
000001b0: 436b 31bb c509 18bb 3727 63bb a8e8 143b
000001c0: b508 f4b9 6b97 f33a 071f 8fba f9f4 2b3b
000001d0: 5e1b 3d3a fcd8 3f3b 7690 2c3b 72d9 67bb
000001e0: d3ae 32bb 1ad9 b43a b769 8d3a ee75 08bb
000001f0: c03c 3f3b 28ef 233b e0a2 663a 9f70 d1b8

network_body.linear_encoder.seq_layers.2.weight f4 [128, 128]
0.004129616 -0.10510036 -0.16720532 0.043865543 0.17422414 0.07872465 0.06908203 0.062364314
-0.064322375 -0.016083086 0.026812058 0.19950515 0.007466463 0.035029568 0.05368596 -0.10725449
0.066292346 0.0018417549 -0.042199958 -0.002958455 0.026261093 -0.04896362 0.03702614 0.03260881
0.056863077 -0.008192324 -0.2093449 -0.09719842 -0.17457613 -0.09655547 -0.117344454 -0.07331636
0.023541778 -0.097384 -0.029676013 -0.0025535272 -0.049521208 0.01979561 -0.16832852 0.21183124
0.1497306 -0.08402599 -0.0072385375 -0.004502598 0.05919303 0.10397808 0.02032089 -0.057016023
-0.08815001 -0.06171144 -0.06404192 -0.04986917 0.14401333 -0.05294668 0.0004226481 0.033788737
0.084138796 -0.14904448 0.034383263 0.025613649 0.0796671 0.20191897 0.19387154 -0.13587531
-0.07077936 0.019653995 0.027357815 0.14542143 -0.19788094 -0.0027674322 -0.10077451 -0.024132155
-0.14130019 0.03831807 0.16294564 -0.017531188 0.008289942 -0.026413709 0.0028827672 -0.017577186
-0.22395757 0.057320587 0.16221265 -0.015463345 0.027604766 -0.085447915 -0.038939487 -0.029711286
-0.022918655 -0.016453957 -0.043900263 -0.008658957 -0.045479912 -0.06980606 -0.030948691 -0.013259014
0.021758644 0.07299616 -0.08179098 -0.043825537 0.07044853 0.01589134 -0.17235883 -0.14558475
0.19219512 -0.08950958 -0.114585735 0.056945354 0.2389951 0.13625626 -0.02423452 -0.026940476
0.17716286 0.19323243 0.058113772 -0.007044854 -0.06997686 0.0945614 -0.0128699485 -0.037831526
0.13585512 0.018691441 0.07025617 0.14890675 0.14097778 0.09585446 0.075553976 0.043442335
0.026879475 -0.076188974 -0.05607621 -0.01582815 -0.047383018 0.1355628 -0.17039052 0.04343357
-0.10156003 0.08222841 -0.044757586 0.005317395 -0.1992897 0.086560935 0.05196848 -0.04449229
-0.04210441 0.023732653 0.01081075 0.010670379 0.0060796672 -0.010548229 -0.014325326 0.024628982
-0.07363458 0.070428416 -0.08579739 -0.012602514 -0.10562304 -0.09995319 0.014540102 0.0018411666
0.08564455 -0.08490024 0.060559105 -0.11811998 0.10471638 0.022493819 0.05547643 0.13628756
-0.115410134 0.08820981 -0.01539017 0.17371172 -0.116270274 0.04581904 0.07524944 -0.0061405953
-0.043803956 0.011903356 -0.08854308 -0.10450557 0.053951632 0.056688692 -0.07946708 -0.098304324
-0.005353247 0.012813132 0.074680805 0.04191466 0.1213044 0.03410317 -0.029981539 -0.091718175
0.041031998 0.061908968 0.054395765 -0.051262036 -0.012421222 0.004563318 0.22674446 -0.017618183
0.10775194 0.004138838 -0.07006504 0.102375716 0.094252564 -0.049886137 0.04528646 -0.03173069
0.054405913 -0.03492834 -0.012480397 -0.13311818 0.043668862 -0.16806613 0.1477084 0.053658698
0.11826474 0.094346 -0.092092216 -0.04010132 -0.028949225 0.00066865113 -0.13145144 -0.04035289
0.0046374616 -0.0027216151 0.08762412 -0.0665692 -0.075416036 -0.009398259 -0.20552723 -0.18083759
-0.0054595517 0.067359366 0.041956604 -0.032526854 0.045892287 0.010284513 -0.054471977 0.12493937
-0.008001089 -0.02015594 -0.16606544 0.01609146 0.043299556 0.10147598 0.017871521 -0.16667014
-0.062036924 -0.038345672 -0.06703114 0.099400364 -0.17335983 -0.035824794 -0.13006698 0.022513976
00000000: bb51 873b dc3e d7bd df37 2bbe 5bac 333d
00000010: d067 323e 643a a13d e17a 8d3d b971 7f3d
00000020: 73bb 83bd adc0 83bc f6a4 db3c 144b 4c3e
00000030: 3ba9 f43b 2a7b 0f3d cfe5 5b3d 3ea8 dbbd
00000040: 48c4 873d 0a67 f13a ddd9 2cbd a3e2 41bb
00000050: 8121 d73c 148e 48bd b9a8 173d d190 053d
00000060: 42e9 683d 1939 06bc 825e 56be f70f c7bd
00000070: 16c4 32be e0be c5bd 4a52 f0bd e326 96bd
00000080: b0da c03c 4371 c7bd 1c1b f3bc 1459 27bb
00000090: c0d6 4abd 672a a23c 505e 2cbe 4aea 583e
000000a0: fa52 193e d115 acbd 4131 edbb 888a 93bb
000000b0: 6474 723d 76f2 d43d ff77 a63c a289 69bd
000000c0: fe87 b4bd 23c5 7cbd 6928 83bd 9d43 4cbd
000000d0: 3b78 133e 9ede 58bd de96 dd39 0f66 0a3d
000000e0: f650 ac3d 1e9f 18be 77d5 0c3d b7d3 d13c
000000f0: 8128 a33d d9c3 4e3e 4386 463e e622 0bbe
00000100: c5f4 90bd 6a01 a13c 7f1d e03c 5be9 143e
00000110: 4da1 4abe cf5d 35bb de62 cebd ccb0 c5bc
00000120: ffb0 10be 69f3 1c3d 39db 263e 919d 8fbc
00000130: 89d2 073c 9061 d8bc cfec 3c3b 08fe 8fbc
00000140: 2255 65be fec8 6a3d 131b 263e f859 7dbc
00000150: 6423 e23c 51ff aebd 037f 1fbd 1565 f3bc
00000160: e7bf bbbc 73ca 86bc c3d0 33bd 4cde 0dbc
00000170: 2549 3abd 7bf6 8ebd 1c88 fdbc 563c 59bc
00000180: 2f3f b23c 037f 953d 0882 a7bd 6882 33bd
00000190: 5247 903d 8e2e 823c d57e 30be 2b14 15be
000001a0: ccce 443e cc50 b7bd edab eabd 883f 693d
000001b0: 22bb 743e c386 0b3e 7987 c6bc 46b2 dcbc
000001c0: 2e6a 353e b9de 453e b508 6e3d 85d8 e6bb
000001d0: 0750 8fbd 68a9 c13d 7adc 52bc 3bf5 1abd
000001e0: 9b1d 0b3e cb1e 993c 78e2 8f3d 037b 183e
000001f0: 7b5c 103e 584f c43d 0bbc 9a3d 97f0 313d
00000200: 5832 dc3c f708 9cbd 2bb0 65bd 09aa 81bc
00000210: b214 42bd fad0 0a3e da7a 2ebe 66e7 313d
00000220: b4fe cfbd 5e67 a83d bb53 37bd 8b3d ae3b
00000230: 9912 4cbe dc46 b13d e7dc 543d 8c3d 36bd
00000240: ac75 2cbd fb6a c23c 921f 313c d0d2 2e3c
00000250: f237 c73b 7bd2 2cbc c6b4 6abc b8c2 c93c
00000260: bacd 96bd c63c 903d 8bb6 afbd c67a 4ebc
00000270: e450 d8bd 42b4 ccbd 9c39 6e3c 4d53 f13a
00000280: 6966 af3d 2de0 adbd d30c 783d e3e8 f1bd
00000290: 8b75 d63d f544 b83c 413b 633d f78e 0b3e
000002a0: 265c ecbd 58a7 b43d 0d27 7cbc 7ce1 313e
000002b0: 1c1f eebd bfac 3b3d 611c 9a3d 0c37 c9bb
000002c0: c76b 33bd 4b06 433c 1356 b5bd 0407 d6bd
000002d0: 63fc 5c3d 6732 683d a3bf a2bd c753 c9bd
000002e0: 4a6a afbb 2cee 513c 40f2 983d b5ae 2b3d
000002f0: 716e f83d c4af 0b3d d89b f5bc bdd6 bbbd
00000300: 2b11 283d 4294 7d3d 18ce 5e3d 24f8 51bd
00000310: 6282 4bbc e387 953b b32f 683e 0254 90bc
00000320: 0dad dc3d 179f 873b 427e 8fbd 5caa d13d
00000330: 7d07 c13d 6855 4cbd 4c7e 393d 0af8 01bd
00000340: bcd8 5e3d 0511 0fbd 947a 4cbc 2250 08be
00000350: 1fde 323d 8719 2cbe df40 173e 39c9 5b3d
00000360: c934 f23d 7a38 c13d d89a bcbd 4841 24bd
00000370: ed26 edbc 6b48 2f3a 359b 06be 1249 25bd
00000380: d9f5 973b 205d 32bb 4674 b33d 6f55 88bd
00000390: b973 9abd 28fb 19bc bb75 52be 7d2d 39be
000003a0: 0ae6 b2bb b5f3 893d b0da 2b3d e13a 05bd
000003b0: 8df9 3b3d 6080 283c 021e 5fbd 36e0 ff3d
000003c0: 0017 03bc 121e a5bc 0f0d 2abe 3dd2 833c
000003d0: e05a 313d a3d2 cf3d 4c67 923c 94ab 2abe
000003e0: 6e1a 7ebd 5a10 1dbd 9f47 89bd 6b92 cb3d
000003f0: 3d85 31be 05bd 12bd 4730 05be 3b6f b83c

network_body.linear_encoder.seq_layers.2.bias f4 [128]
0.0029644733 0.0023163229 -0.0023822258 0.0012943326 0.0015878582 0.0012933193 0.0027311377 -0.0024974076
-0.002485812 -0.0021726484 -0.0023562792 0.0024824569 0.0027611798 0.0010187792 0.0020286175 -0.0021211589
-0.0026382909 0.0025946265 -0.0024388973 0.0029729444 0.002056023 0.002482029 -0.0028737749 -0.0027394304
-0.0021326265 0.002856845 -0.001935397 -0.0013236987 -0.0023447312 -0.0027006671 0.001638326 -0.0019442952
0.0016017222 -0.0029362678 -0.0023415762 0.0027693207 0.0027637128 0.0023753445 0.0029685793 -0.00030268467
-0.002324337 0.0017703846 -0.0025939888 -0.0010069202 -0.0015592484 0.0025363406 -0.002686666 0.000639248
0.0024216368 -0.0024079047 0.00034693268 0.0027362197 -0.0025299615 -0.0022343884 0.0020653768 0.0026876954
0.0018993178 0.0026069393 -0.0026393794 -0.0025829386 -0.0021077718 -0.00090630935 -0.00129176 0.002115481
0.0025368272 -0.002615199 -0.0024952933 -0.0023515734 0.002118791 -0.002564035 -0.0024699783 -0.0024185325
-0.0021517677 -0.002349091 0.0025153114 0.0023305079 -0.0016953947 -0.0025964524 -0.0023878147 -0.002678431
-0.0027808466 -0.0028209786 -0.002014504 0.0025027858 0.0025495237 -0.0023169867 -0.0026236651 0.002719992
0.0028474724 0.001509082 -0.0003402545 -0.0028982337 0.0018270061 0.0027632818 -0.0028756799 -0.0018225743
0.002471776 -0.0024227933 -0.0021438345 0.0024060963 0.0025645553 -0.0022397628 -0.0028382575 -0.0026409808
-0.0020119767 -0.0027406646 -0.002078713 -0.0023247297 0.0012255516 0.001968871 0.00074933853 -0.0019107974
-0.002243189 -0.002648357 -0.0005316778 -0.0019684928 -0.001955295 -0.002844625 0.0015279171 -0.002560743
-0.0013943089 0.00256314 -0.00268671 0.0027495737 -0.0030176686 -0.0016499135 0.0023595954 -0.00034788053
00000000: 9c47 423b 73cd 173b 1e1f 1cbb 98a6 a93a
00000010: ae1f d03a 9884 a93a e3fc 323b 8cab 23bb
00000020: 01e9 22bb fe62 0ebb ce6b 1abb b7b0 223b
00000030: e9f4 343b 8f88 853a 8ef2 043b 2403 0bbb
00000040: 2de7 2cbb 9c0a 2a3b e8d5 1fbb bbd5 423b
00000050: 58be 063b 89a9 223b f155 3cbb 0488 33bb
00000060: 89c3 0bbb e839 3b3b 26ad fdba f57f adba
00000070: 10aa 19bb adfd 30bb 19bd d63a b9d7 feba
00000080: e1f0 d13a 666e 40bb 2175 19bb 7e7d 353b
00000090: 681f 353b abab 1b3b 7f8c 423b a6b1 9eb9
000000a0: e753 18bb 400c e83a e9ff 29bb a3fa 83ba
000000b0: b25f ccba bc38 263b c712 30bb 3593 273a
000000c0: 53b4 1e3b f0cd 1dbb 84e4 b539 2652 333b
000000d0: b6cd 25bb d16e 12bb 465b 073b 0c24 303b
000000e0: 88f2 f83a 2fd9 2a3b 70f9 2cbb 8546 29bb
000000f0: 8b22 0abb 6495 6dba 4650 a9ba e2a3 0a3b
00000100: e640 263b c263 2bbb 1388 23bb db1c 1abb
00000110: 6adb 0a3b 5e09 28bb 5cdf 21bb 3e80 1ebb
00000120: ac04 0dbb 35f3 19bb ecd7 243b 6fbb 183b
00000130: 0238 deba 3e29 2abb e27c 1cbb 9e88 2fbb
00000140: dd3e 36bb 2be0 38bb c505 04bb c705 243b
00000150: e915 273b 96d8 17bb ccf1 2bbb e541 323b
00000160: a99c 3a3b 64cc c53a 3064 b2b9 4bf0 3dbb
00000170: 2778 ef3a 2d18 353b e775 3cbb 72e3 eeba
00000180: 85fd 213b bac7 1ebb 937f 0cbb 99af 1d3b
00000190: 1912 283b fcc8 12bb 0f02 3abb 4e14 2dbb
000001a0: 5edb 03bb b99c 33bb 043b 08bb 7e5a 18bb
000001b0: b0a2 a03a 2d08 013b 426f 443a b973 faba
000001c0: 7702 13bb 0f90 2dbb 4b60 0bba d401 01bb
000001d0: 6824 00bb e36c 3abb 6444 c83a 23d2 27bb
000001e0: 3ec1 b6ba 5afa 273b 8413 30bb 3132 343b
000001f0: 14c4 45bb e941 d8ba 71a3 1a3b bc63 b6b9

distribution.log_sigma f4 [1, 2]
-0.0027854946 -0.0029560027
00000000: d88c 36bb 7fb9 41bb

distribution.mu.weight f4 [2, 128]
-0.00062518666 0.012038412 0.01722841 -0.03768763 0.02410873 0.0137301115 -0.00061031623 0.004412997
-0.002984073 0.017263228 0.0068907244 0.002652506 0.014744836 -0.02060881 -0.03830491 -0.017216181
-0.0018721868 0.006238004 -0.015692715 -0.024367023 -0.04079374 0.006128947 -0.008764217 0.007734003
0.018514467 0.0060731866 0.031259477 0.014247109 -0.003397058 -0.0065725897 -0.009304947 -0.012402601
-0.018920211 -0.011518235 -0.007178219 0.008317492 -0.0074481475 -0.036448292 0.00811722 -0.005083003
0.019590927 -0.011657219 -0.008798407 -0.042160757 0.019765291 0.0045658643 0.0052699954 0.04544141
0.0029061742 0.005081853 -0.027753023 -0.0035553616 -0.0004231523 0.0020731622 0.034770496 0.0121636735
-0.005419422 0.005709643 0.016569035 -0.01220969 -0.033338923 -0.029216915 0.0305114 -0.022048973
-0.006491509 0.00031727782 0.010995961 0.021673448 -0.0016957923 -0.00015131714 0.0037478632 -0.0013828124
-0.025265088 -0.0020597973 0.009096794 0.0010632601 -0.03121244 0.0038796242 0.01633693 0.0061818543
-0.018720716 -0.0035624239 -0.030373428 0.008938179 -0.010673537 0.023856211 -0.0012781615 0.008653766
-0.0099613 0.0021057224 0.015746303 0.018509831 0.013100803 -0.010488911 -0.0002275233 0.022639956
-0.0071646506 0.011260679 -0.00688892 0.016914321 0.0020597172 0.017157642 -0.005564027 0.0025782473
0.01100336 -0.0008844412 0.017775232 0.012081861 0.031979386 -0.019588042 -0.011217818 0.01998364
-0.02652618 0.010808895 -0.0114205135 0.016865268 -0.025738304 -0.010783906 0.00916111 0.012237267
0.008365826 0.021049213 0.0339615 0.004469042 -0.0133758625 -0.009019241 -0.01320795 0.018716475
-0.0019575984 0.0042042574 -0.010331083 0.0076044193 0.017192325 0.004984355 0.007029157 -0.021793254
-0.03317454 -0.016247548 -0.008156919 0.026691772 0.020342637 0.0013073769 0.0077010286 -0.01605612
-0.016350992 0.022209765 -0.018045744 0.05463561 0.014948548 0.0109911235 -0.0099804215 -0.012400847
-0.0030706315 0.025153978 -0.0018312371 -0.008074369 -0.01021922 -0.019266203 0.0020069962 -0.008391214
0.007485724 -0.023162078 -0.009474154 0.026850909 0.03419451 0.010890338 0.005450339 -0.0037600407
-0.017482873 0.008631242 -0.012129095 -0.01757045 -0.00879475 0.009040666 -0.009014477 0.0091152545
0.026739044 -0.016805135 -0.0036509046 0.02061087 -0.0012457785 -0.013638764 0.017302806 0.01794395
0.003000557 0.02713316 -0.020432785 -0.012586732 -0.018568112 -0.0069737337 -0.0032950826 0.0036418475
-0.0016922122 -0.009943323 -0.032072164 -0.012811024 0.02421689 -0.01728598 -0.031287175 -0.0074415584
-0.01491081 -0.016341424 0.013869157 0.004665301 -0.01784748 -0.018338125 -0.008751991 -0.006875653
-0.0172093 -0.010057402 -0.01702371 0.016816156 0.011491573 -0.021490829 -0.0005559579 0.0037473247
0.038772985 0.0014884054 -0.0014534575 -0.023903182 0.007513362 0.019092644 -0.016313525 -0.0037948703
0.010663737 -0.0118738655 -0.026394606 0.014118732 0.006041362 -0.0174482 -0.02681283 -0.029893119
-0.0055859582 -0.03915444 -0.009151014 -0.00894994 0.0034928895 0.009317387 -0.002500334 -0.012887591
-0.016165782 -0.015401647 0.00020214847 -0.008204297 -0.010963269 -0.019316327 0.0067576463 -0.022466648
-3.1947937e-05 0.011388376 -0.01427385 0.02192893 -0.0159118 -0.0033272705 0.0069609606 -0.004701934
00000000: 91e3 23ba c23c 453c 9822 8d3c 585e 1abd
00000010: ac7f c53c 43f4 603c a1fd 1fba e79a 903b
00000020: 7090 43bb 9d6b 8d3c 96cb e13b abd5 2d3b
00000030: 5394 713c cfd3 a8bc 9ce5 1cbd f308 8dbc
00000040: 2a64 f5ba 2c68 cc3b 028e 80bc 5a9d c7bc
00000050: 5617 27bd 55d5 c83b ca97 0fbc 856d fd3b
00000060: a7ab 973c 9501 c73b f009 003d b56c 693c
00000070: 2da1 5ebb e15e d7bb c773 18bc 4734 4bbc
00000080: 8ffe 9abc fbb6 3cbc 4437 ebbb 1746 083c
00000090: 970f f4bb ce4a 15bd 17fe 043c 528f a6bb
000000a0: 277d a03c ecfd 3ebc 3227 10bc c2b0 2cbd
000000b0: d2ea a13c 3f9d 953b edaf ac3b c620 3a3d
000000c0: 8375 3e3b ac85 a63b 4f5a e3bc 1201 69bb
000000d0: 8ada ddb9 e4dd 073b 826b 0e3d 254a 473c
000000e0: 6895 b1bb f517 bb3b c9bb 873c 270b 48bc
000000f0: 658e 08bd 5058 efbc 0bf3 f93c 0ca0 b4bc
00000100: b9b6 d4bb 4f58 a639 6728 343c 848c b13c
00000110: 5945 deba e3aa 1eb9 b69e 753b 7c3f b5ba
00000120: bbf8 cebc aafd 06bb b80a 153c 175d 8b3a
00000130: 3bb1 ffbc 4b41 7e3b 07d5 853c 2791 ca3b
00000140: 305c 99bc 8e77 69bb b2d1 f8bc 7171 123c
00000150: 0fe0 2ebc 1a6e c33c fc87 a7ba 86c8 0d3c
00000160: b834 23bc 2900 0a3b 64fe 803c eea1 973c
00000170: c0a4 563c aed9 2bbc 5293 6eb9 6e77 b93c
00000180: 72c5 eabb b67e 383c 73bc e1bb e78f 8a3c
00000190: 52fc 063b 2f8e 8c3c 7152 b6bb d0f7 283b
000001a0: 7047 343c d8d9 67ba 5d9d 913c fff2 453c
000001b0: d1fc 023d 1a77 a0bc f0ca 37bc bbb4 a33c
000001c0: 6e4d d9bc cb17 313c 1b1d 3bbc 0829 8a3c
000001d0: 23d9 d2bc fbae 30bc 7b18 163c d17e 483c
000001e0: d110 093c 666f ac3c 371b 0b3d 0b71 923b
000001f0: 6f26 5bbc 70c5 13bc 2866 58bc 4b53 993c
00000200: 0d4b 00bb dec3 893b b443 29bc 7e2e f93b
00000210: ebd6 8c3c cd53 a33b d854 e63b c487 b2bc
00000220: 07e2 07bd 9419 85bc 99a4 05bc b4a8 da3c
00000230: 9aa5 a63c 4a5c ab3a e958 fc3b 2088 83bc
00000240: 84f2 85bc 41f1 b53c abd4 93bc 97c9 5f3d
00000250: c1ea 743c 1d14 343c ec84 23bc ec2c 4bbc
00000260: a63c 49bb b70f ce3c 1f06 f0ba 5c4a 04bc
00000270: 846e 27bc 28d4 9dbc cf87 033b 4d7b 09bc
00000280: ce4a f53b 66be bdbc 7b39 1bbc 70f6 db3c
00000290: 8b0f 0c3d 636d 323c c298 b23b 046b 76bb
000002a0: 3e38 8fbc 0e6a 0d3c 1db9 46bc e8ef 8fbc
000002b0: db17 10bc 4d1f 143c 75b1 13bc 2658 153c
000002c0: d70b db3c ecaa 89bc 0444 6fbb 21d8 a83c
000002d0: 6449 a3ba 1f75 5fbc 9dbe 8d3c 31ff 923c
000002e0: fea4 443b 5c46 de3c a862 a7bc 9538 4ebc
000002f0: 271c 98bc eb83 e4bb 50f2 57bb 10ac 6e3b
00000300: 38cd ddba 52e9 22bc 1a5e 03bd 54e5 51bc
00000310: 8062 c63c 549b 8dbc fb26 00bd 51d8 f3bb
00000320: 784c 74bc 73de 85bc 763b 633c 62df 983b
00000330: e134 92bc d639 96bc 8364 0fbc 284d e1bb
00000340: 85fa 8cbc cdc7 24bc 4f75 8bbc 09c2 893c
00000350: 2747 3c3c 890d b0bc b4bd 11ba ad95 753b
00000360: 6cd0 1e3d 9916 c33a f181 beba 9bd0 c3bc
00000370: a632 f63b 2d68 9c3c f1a3 85bc 5cb3 78bb
00000380: f4b6 2e3c 9a8a 42bc 8039 d8bc 4152 673c
00000390: 9ef6 c53b 87ef 8ebc 94a6 dbbc 6ae2 f4bc
000003a0: 6a0a b7bb 6860 20bd 22ee 15bc c5a2 12bc
000003b0: f6e8 643b f4a7 183c a5dc 23bb 7926 53bc
000003c0: 1a6e 84bc 3157 7cbc d1f7 5339 516b 06bc
000003d0: 489f 33bc 463d 9ebc 3f6f dd3b fa0b b8bc
000003e0: d6ff 05b8 5096 3a3c dedc 69bc 4da4 b33c
000003f0: 7759 82bc 560e 5abb c518 e43b ae12 9abb

distribution.mu.bias f4 [2]
-0.0009005275 0.0026817706
00000000: 6111 6cba a5c0 2f3b

critic.network_body.linear_encoder.seq_layers.0.weight f4 [128, 77]
0.100974254 0.041391674 -0.09068894 -0.06508377 -0.09657379 0.0911067 -0.037128102 -0.017045895
-0.025534753 0.2364186 -0.018668057 0.09261203 0.2624497 0.20050229 -0.008655901 -0.1943667
-0.11673641 0.10045638 -0.07469226 -0.06743647 -0.19569999 -0.15940319 -0.12709306 -0.22886424
0.053153966 0.014653559 -0.020268928 0.13314131 -0.05653876 0.007926885 0.058193404 -0.030121768
-0.150422 -0.0016009983 0.2732956 0.22878306 -0.025005618 -0.24356326 0.07424871 0.060604133
0.02691042 0.046275042 0.11449938 0.21707666 -0.055596266 0.12875612 -0.26927245 -0.121030435
-0.054652732 -0.20621075 0.045856807 -0.11775976 0.021121603 -0.014644234 0.069910675 -0.010043136
0.061189305 0.0068666153 -0.018286541 -0.073912874 -0.051110152 0.013140833 0.07092666 0.2585948
-0.2589595 0.059315015 -0.18246624 0.0008641069 0.035741974 0.18243419 -0.04839441 -0.09126282
0.056052484 -0.05286117 -0.051551387 -0.13883784 0.077889845 0.1296405 -0.024215901 0.08605157
0.036048368 -0.098574586 -0.039437518 0.03923189 -0.09084814 -0.14525801 -0.016086038 0.12053498
0.08202361 -0.05789207 -0.037223577 -0.011777461 -0.21158877 -0.20855352 0.09447057 0.0893394
0.014966746 -0.021469122 -0.17430483 -0.03159601 -0.34702903 0.12051978 0.09218417 0.17248954
-0.028937332 0.04745503 0.020823108 -0.11470535 0.13392933 -0.025643108 -0.05532324 0.0107175885
0.1608135 -0.1790659 0.14287534 0.066708386 0.027573869 -0.045298655 -0.015153424 -0.08911446
-0.16746391 0.07854776 0.05179281 -0.09836279 0.009746281 0.14027303 0.0062360917 0.020826748
0.10224126 -0.14734234 -0.10970442 0.14819483 0.17609368 0.19578467 0.15631473 -0.08529488
0.056671146 0.30507433 0.0023327998 -0.009051818 -0.22827144 0.13453567 -0.08064172 0.013319874
0.09418056 0.17924505 -0.058646552 0.19129315 -0.29516342 -0.209131 0.054864448 0.0044896128
-0.20577627 -0.19191204 -0.1470506 -0.015518249 0.03517804 -0.031603333 0.045682296 -0.1787476
0.03228258 0.016711997 0.11083837 -0.04733541 -0.1304989 -0.038913097 -0.067125775 0.12444052
-0.03648295 -0.08438091 0.12805638 -0.14418842 -0.18109499 -0.14936754 -0.093497336 -0.03024054
-0.12867504 -0.061926458 -0.17575194 0.33729377 -0.08411977 0.0633936 -0.047493543 -0.11064522
-0.02667061 -0.0542426 0.040111464 -0.16304089 0.02828274 0.02677818 0.18488581 0.010049924
-0.110025376 0.083046086 -0.16888139 0.09523822 0.06726676 0.1390729 0.05186709 -0.0018353919
-0.018662827 0.006515662 -0.04576056 0.18560877 -0.018666854 -0.011678505 -0.119651504 -0.06779557
0.09377721 -0.0051619047 0.041623298 -0.08635559 -0.2132306 -0.0831324 -0.113218606 -0.18125816
-0.050190557 -0.052448444 0.09874818 -0.00018215286 -0.040750872 0.061351947 -0.2770723 0.05557432
0.08918777 0.032402735 -0.16187268 0.06887405 0.15025909 0.01769793 -0.22455582 -0.0989444
0.08652024 -0.048597515 -0.18951784 -0.1624197 0.048324734 -0.024570193 0.15500285 0.20448917
-0.34451813 0.07682496 0.14936097 0.028731903 0.18005311 0.013380667 0.07412317 0.17088887
0.048668522 -0.23663318 -0.018937204 0.12904368 0.12494969 0.034662087 -0.09491279 0.16446763
00000000: 97cb ce3d 518a 293d 1fbb b9bd a44a 85bd
00000010: 7bc8 c5bd 2696 ba3d a313 18bd d5a3 8bbc
00000020: 422e d1bc b817 723e c1ed 98bc 60ab bd3d
00000030: cf5f 863e 7950 4d3e 7bd1 0dbc 1008 47be
00000040: 8013 efbd 13bc cd3d 41f8 98bd 221c 8abd
00000050: 9465 48be 973a 23be af24 02be 635b 6abe
00000060: f9b7 593d 7b15 703c 060b a6bc 3256 083e
00000070: 3095 67bd c4df 013c 355c 6e3d edc1 f6bc
00000080: 3a08 1abe 97d8 d1ba 67ed 8b3e 1b46 6a3e
00000090: 95d8 ccbc a668 79be b50f 983d 0a3c 783d
000000a0: 3e73 dc3c e68a 3d3d a77e ea3d 5849 5e3e
000000b0: e9b8 63bd a5d8 033e 14de 89be cede f7bd
000000c0: 8bdb 5fbd e928 53be 59d4 3b3d 072c f1bd
000000d0: 3607 ad3c 5fee 6fbc 542d 8f3d f78b 24bc
000000e0: a3a1 7a3d 5801 e13b a8cd 95bc a25f 97bd
000000f0: e158 51bd a64c 573c ff41 913d 8a66 843e
00000100: 5796 84be 4df4 723d 6ed8 3abe 3c85 623a
00000110: 2d66 123d 07d0 3a3e 3839 46bd 00e8 babd
00000120: 4a97 653d f484 58bd 8c27 53bd 822b 0ebe
00000130: b684 9f3d 7bc0 043e 6d60 c6bc ce3b b03d
00000140: 74a7 133d 79e1 c9bd 3c89 21bd 9eb1 203d
00000150: 970e babd 84be 14be dec6 83bc 0bdb f63d
00000160: fffb a73d 3c20 6dbd c077 18bd 40f6 40bc
00000170: baaa 58be 0e8f 55be c979 c13d 93f7 b63d
00000180: 1537 753c 03e0 afbc f77c 32be d16a 01bd
00000190: caad b1be 13d3 f63d 0ecb bc3d 19a1 303e
000001a0: fc0d edbc 3560 423d 3995 aa3c a3ea eabd
000001b0: c524 093e 7f11 d2bc 9f9a 62bd d398 2f3c
000001c0: 4bac 243e 0d5d 37be ea4d 123e 689e 883d
000001d0: 98e2 e13c 158b 39bd 1146 78bc a481 b6bd
000001e0: a97b 2bbe a6dd a03d b324 543d 6e72 c9bd
000001f0: deae 1f3c bca3 0f3e 2158 cc3b db9c aa3c
00000200: de63 d13d e9e0 16be b6ac e0bd 63c0 173e
00000210: e751 343e c77b 483e f810 203e 15af aebd
00000220: 0120 683d b432 9c3e e3e1 183b 144e 14bc
00000230: fdbf 69be b8c3 093e 7c27 a5bd 9a3b 5a3c
00000240: bde1 c03d 048c 373e 5e37 70bd 5ae2 433e
00000250: a91f 97be 7026 56be 8bb9 603d 9a1d 933b
00000260: 04b7 52be 9784 44be 6f94 16be 4140 7ebc
00000270: d916 103d 7f72 01bd 5c1d 3b3d 9c09 37be
00000280: bd3a 043d 99e7 883c 3aff e23d c6e2 41bd
00000290: 81a1 05be 5763 1fbd 3d79 89bd acda fe3d
000002a0: 256f 15bd e6cf acbd 3621 033e 21a6 13be
000002b0: f770 39be cef3 18be 887b bfbd 02bb f7bc
000002c0: 64c3 03be 99a6 7dbd 51f8 33be c5b1 ac3e
000002d0: fc46 acbd 81d4 813d 9788 42bd f699 e2bd
000002e0: 537c dabc 7d2d 5ebd eb4b 243d 31f4 26be
000002f0: 34b1 e73c ea5d db3c b552 3d3e 70a8 243c
00000300: fc54 e1bd 1114 aa3d 3eef 2cbe 420c c33d
00000310: 28c3 893d 2069 0e3e 9672 543d 8891 f0ba
00000320: c9e2 98bc 5681 d53b 6d6f 3bbd 3a10 3e3e
00000330: 3beb 98bc 3357 3fbc d90b f5bd 67d8 8abd
00000340: 440e c03d 3225 a9bb 317d 2a3d 33db b0bd
00000350: 1f59 5abe 5241 aabd 28df e7bd bd9b 39be
00000360: 9d94 4dbd 2ed4 56bd 7c3c ca3d 4900 3fb9
00000370: 63ea 26bd 2e4c 7b3d 6cdc 8dbe e6a1 633d
00000380: 14a8 b63d bbb8 043d f4c1 25be d70d 8d3d
00000390: 85dd 193e 40fb 903c f6f1 65be 5da3 cabd
000003a0: 8631 b13d 300e 47bd f710 42be 5a51 26be
000003b0: 28f0 453d 6e47 c9bc 11b9 1e3e 9c65 513e
000003c0: ae64 b0be 6856 9d3d 15f2 183e 2b5f eb3c
000003d0: d85f 383e 963a 5b3c e3cd 973d 7efd 2e3e
000003e0: a558 473d f84f 72be 3222 9bbc 0724 043e
000003f0: a0e5 ff3d d5f9 0d3d a361 c2bd 346a 283e

critic.network_body.linear_encoder.seq_layers.0.bias f4 [128]
0.00055685 -0.00065483415 -0.00077233976 0.0001323573 2.4855151e-05 -0.00026769578 0.00041074847 -6.6578665e-05
-0.0013256314 0.00031835964 -0.00077186566 -0.00055564306 -0.0004661537 4.4320645e-05 -0.00054430944 -0.0009990624
-6.6619027e-06 0.0007809713 4.8771453e-06 -0.00028409337 -0.00021854618 -0.00063118 -0.0006377234 0.00019519948
0.0003322845 -0.0019124267 -5.2781244e-05 -0.00038320132 -0.00017997525 -0.00047281955 0.00057347177 -0.0008949175
0.0012047768 0.00015695853 -0.00040835055 -0.0003496549 -0.0005538334 0.0005099523 -0.0005191267 -0.00017868185
4.467745e-05 -0.00015110066 0.00029320575 -0.00076414587 0.0004941228 -0.00016273602 -0.00036867268 -0.00010550623
-0.00025883855 -0.0004384216 0.0010098713 -0.0035474405 -0.00040791326 -0.0007772415 -6.562491e-05 0.0003669026
0.00017123883 7.086425e-05 -2.4282273e-05 -0.00019822612 -0.0004629436 -7.119048e-05 0.00013258266 -0.00041069544
-0.00027147264 0.00037079418 -0.0004202564 0.00015819067 -0.0001594322 0.00024168714 -0.0008434382 9.1639726e-05
0.00081353664 -0.00030330112 6.6933753e-06 0.00022746467 -4.883223e-05 6.1671612e-06 0.0018825599 8.6243854e-05
0.00014887824 -0.0007363038 2.7521914e-05 -0.00017954843 -0.00013713124 0.0005301256 0.00010866483 0.0010316563
-0.0005235248 -0.00013467978 -0.00015578514 0.00058100297 0.0001568533 -0.00039482556 0.00019184864 -0.00020112378
0.00034982854 -5.594196e-05 -0.00043707993 0.00043986636 -9.7417105e-05 -0.0003915733 -0.00036992034 -6.324014e-05
0.00028207435 -0.002039481 3.3909644e-05 -0.000116742965 -0.00013458711 -0.00014479848 0.0003933774 -3.956354e-05
0.000591654 -0.00019313424 -0.00010932869 -0.00046305268 0.0002795381 0.0017199467 -0.00037940906 0.0011764967
0.00011294586 -2.5434738e-05 -0.0003252982 0.0007715499 0.0003522175 -0.0007524446 0.00033002938 0.00014897673
00000000: 92f9 113a 2da9 2bba d876 4aba 64c9 0a39
00000010: 0880 d037 8559 8cb9 ba59 d739 26a0 8bb8
00000020: cfc0 adba 82e9 a639 0757 4aba 93a8 11ba
00000030: 1766 f4b9 eee4 3938 fdaf 0eba f9f2 82ba
00000040: 4f89 dfb6 19ba 4c3a 5ca6 a336 5ef2 94b9
00000050: 8b29 65b9 c675 25ba e52c 27ba 76ae 4c39
00000060: 7836 ae39 64aa faba 6e61 5db8 69e8 c8b9
00000070: bdb7 3cb9 c4e4 f7b9 0a55 163a e698 6aba
00000080: 9ae9 9d3a 3c95 2439 e217 d6b9 e351 b7b9
00000090: 212f 11ba 52ae 053a 0116 08ba 8b5c 3bb9
000000a0: 0c64 3b38 c670 1eb9 69b9 9939 f650 48ba
000000b0: 0588 013a 1ea4 2ab9 694a c1b9 3a43 ddb8
000000c0: b9b4 87b9 f3db e5b9 a85d 843a 2d7c 68bb
000000d0: 31dd d5b9 cbbf 4bba 1ba0 89b8 d55c c039
000000e0: 938e 3339 f49c 9438 c9b1 cbb7 ebda 4fb9
000000f0: 3db7 f2b9 194c 95b8 e305 0b39 9c52 d7b9
00000100: 7154 8eb9 2767 c239 dc55 dcb9 fcdf 2539
00000110: 412d 27b9 666d 7d39 2e1a 5dba b42e c038
00000120: 8543 553a 6304 9fb9 a897 e036 9583 6e39
00000130: 35d1 4cb8 83ef ce36 3ac0 f63a d1dd b438
00000140: 331c 1c39 8304 41ba dcde e637 2a45 3cb9
00000150: e3ca 0fb9 20f8 0a3a fde2 e338 a438 873a
00000160: 283d 09ba d438 0db9 415a 23b9 734e 183a
00000170: fd78 2439 9700 cfb9 fa2a 4939 c1e4 52b9
00000180: 3169 b739 39a3 6ab8 e027 e5b9 dd9d e639
00000190: 694c ccb8 144c cdb9 def1 c1b9 cb9f 84b8
000001a0: 61e3 9339 d0a8 05bb 343a 0e38 e7d3 f4b8
000001b0: f41f 0db9 0cd5 17b9 393e ce39 07f1 25b8
000001c0: 3a19 1b3a 1484 4ab9 6547 e5b8 e1c5 f2b9
000001d0: f88e 9239 d66f e13a 6ceb c6b9 ae34 9a3a
000001e0: 59dd ec38 af5c d5b7 c98c aab9 d641 4a3a
000001f0: d5a9 b839 b43f 45ba cb07 ad39 a336 1c39

critic.network_body.linear_encoder.seq_layers.2.weight f4 [128, 128]
0.06679062 -0.16461083 0.07602835 0.12239313 -0.020700084 0.13145278 0.103279926 -0.09837537
0.0059784823 0.008150038 -0.18453188 0.016887335 0.058507513 -0.01627697 -0.014913264 0.13062312
-0.043513756 -0.030310638 0.06788069 0.016225606 0.067987874 -0.08855972 -0.021575788 -0.06976922
-0.048898797 -0.041444987 -0.034405254 -0.111826025 0.09904431 0.025676118 0.19425052 -0.094065435
0.035617586 0.04812832 0.040687524 0.045757882 -0.014655035 -0.007346416 -0.0747007 0.096487366
-0.045345224 0.012158871 0.07086616 -0.07382742 0.026596446 -0.04293103 -0.02502068 -0.020246044
-0.12059248 0.069273785 -0.06746925 0.037482474 0.06485542 -0.088645756 0.026516983 0.055265486
-0.09479732 0.025219142 0.037602928 0.106473595 -0.1351075 0.17490011 -0.0052365526 -0.05460005
0.043841165 -0.092926465 0.13077083 0.01737115 -0.05980631 0.084614545 -0.010899321 0.021892598
-0.041434094 0.12769817 -0.044637647 -0.04976833 0.033040714 -0.10964017 0.08837075 0.031347677
0.1296776 -0.123466454 0.04709948 -0.046445146 -0.04033486 -0.12437148 -0.12741937 0.15151908
-0.027647574 0.032960866 -0.06800446 -0.070046775 -0.0058182166 4.710159e-05 0.03010774 0.06316413
0.19473335 0.16648896 -0.0014738231 0.011658713 0.13313662 -0.058367465 -0.094991185 0.0019490808
0.07338098 0.08787592 -0.07755589 -0.004614012 0.083372496 0.007049586 0.14959027 -0.06576352
-0.055363625 -0.0574895 0.07924492 0.08055572 -0.19560888 -0.099466056 0.11484905 0.10728442
-0.08564644 -0.027761059 0.021794071 0.12111549 0.10694175 0.03280646 -0.0443498 0.0973712
-0.050489217 0.015139341 0.099764 0.020723095 0.037843656 -0.007165008 0.15591787 -0.07718753
0.04635582 0.05216984 -0.04119359 0.024382656 -0.043373864 0.029599091 -0.010678006 0.2931636
-0.1048582 0.013053484 0.034784514 0.011929803 0.04184575 0.015060984 0.022931883 0.010970472
-0.010586865 -0.029353742 -0.022010867 -0.07778042 0.09800882 -0.0049288296 -0.015092704 0.05648719
0.011496804 0.18966986 0.034821354 0.10829585 0.12591296 -0.07398201 -0.019561836 -0.19532658
0.10579926 0.018661257 0.019600466 -0.08634334 0.03774298 0.1298064 -0.1208581 0.03735619
0.03362119 0.015534107 0.02804161 0.19060618 -0.062537014 -0.02213606 -0.06815659 -0.11079409
-0.027034499 -0.027172687 -0.002044113 -0.014080736 -0.14704607 -0.0009880178 -0.056695975 -0.0026910633
0.059189588 -0.011101467 0.060846716 -0.08505761 0.037469804 0.03961353 0.07796817 0.12470854
0.087861866 0.085205525 0.055361297 0.06580801 0.23827243 0.083877854 0.1422883 0.07995567
0.0589995 0.09536764 -0.093610995 -0.052022528 0.073016785 -0.076781645 0.21516564 0.07410625
0.026264355 -0.025626402 0.03741538 -0.08247915 0.05940664 -0.07652523 0.09303474 -0.04022536
-0.043513842 -0.029012477 0.04610228 0.045642298 0.022951711 -0.0066016954 0.10184629 0.079609536
0.0006303096 0.07763517 -0.047152124 0.047737513 0.07326151 -0.11835687 -0.07162466 0.12162306
-0.0740307 0.19638985 0.060083576 -0.05446314 -0.023747642 0.08495568 0.01257435 0.1052102
0.066285826 0.014160288 -0.033626437 0.17850669 0.107981205 -0.059119333 0.113476604 -0.018078879
00000000: 85c9 883d be8f 28be c0b4 9b3d 40a9 fa3d
00000010: 3993 a9bc 8f9b 063e 6d84 d33d 0779 c9bd
00000020: 25e7 c33b bd87 053c edf5 3cbe 4f57 8a3c
00000030: 93a5 6f3d 4857 85bc c356 74bc 11c2 053e
00000040: 7b3b 32bd 044e f8bc 0805 8b3d 90eb 843c
00000050: 3a3d 8b3d cc5e b5bd b5bf b0bc 2ae3 8ebd
00000060: 1b4a 48bd 38c2 29bd 86ec 0cbd 0b05 e5bd
00000070: bed7 ca3d b956 d23c 9ce9 463e 61a5 c0bd
00000080: bfe3 113d 3422 453d f6a7 263d 9e6c 3b3d
00000090: ac1b 70bc 34ba f0bb aefc 98bd 2b9b c53d
000000a0: eabb 39bd 0036 473c 4722 913d d532 97bd
000000b0: cae0 d93c 73d8 2fbd 2bf8 ccbc 08db a5bc
000000c0: 31f9 f6bd 6adf 8d3d 512d 8abd 3987 193d
000000d0: ebd2 843d e88b b5bd 253a d93c 105e 623d
000000e0: 1925 c2bd 6098 ce3c 8705 1a3d d40e da3d
000000f0: 9f59 0abe 0419 333e 6397 abbb 4da4 5fbd
00000100: cb92 333d 3b50 bebd cae8 053e f14d 8e3c
00000110: 76f7 74bd 644a ad3d 1193 32bc 1b58 b33c
00000120: ccb6 29bd 4fc3 023e f7d5 36bd e0d9 4bbd
00000130: b355 073d 078b e0bd b9fb b43d 6c66 003d
00000140: 34ca 043e fbdb fcbd 62eb 403d 443d 3ebd
00000150: 2b36 25bd 79b6 febd 397a 02be d127 1b3e
00000160: 2a7d e2bc f901 073d ec45 8bbd af74 8fbd
00000170: bda6 bebb f28e 4538 82a4 f63c 325c 813d
00000180: 2e68 473e 157c 2a3e 4c2d c1ba 3004 3f3c
00000190: f754 083e b912 6fbd bd8a c2bd 4d78 ff3a
000001a0: c448 963d 4af8 b33d 9fd5 9ebd 2331 97bb
000001b0: 33bf aa3d 3700 e73b 312e 193e 06af 86bd
000001c0: f8c4 62bd 1c7a 6bbd 294b a23d 66fa a43d
000001d0: b24d 48be dcb4 cbbd fb35 eb3d efb7 db3d
000001e0: 6767 afbd 296b e3bc 7b89 b23c 660b f83d
000001f0: 4704 db3d 1160 063d 23a8 35bd 8d6a c73d
00000200: c8cd 4ebd 000b 783c 1151 cc3d 7bc3 a93c
00000210: f301 1b3d 72c8 eabb efa8 1f3e 7f14 9ebd
00000220: 9adf 3d3d 0bb0 553d 9cba 28bd 23be c73c
00000230: cba8 31bd cb79 f23c cef2 2ebc 8a19 963e
00000240: e5bf d6bd 48de 553c 357a 0e3d 3875 433c
00000250: 7366 2b3d 58c2 763c a5db bb3c 7fbd 333c
00000260: 8874 2dbc 4277 f0bc 2250 b4bc 574b 9fbd
00000270: d9b8 c83d 0582 a1bb 6447 77bc 1d5f 673d
00000280: 175d 3c3c d138 423e d6a0 0e3d 37ca dd3d
00000290: 54ef 003e e183 97bd 2540 a0bc b103 48be
000002a0: 48ad d83d 7edf 983c 2891 a03c c7d4 b0bd
000002b0: 6298 1a3d f8eb 043e 7484 f7bd ce02 193d
000002c0: 5fb6 093d c482 7e3c 85b7 e53c 442e 433e
000002d0: 6813 80bd af56 b5bc af95 8bbd 03e8 e2bd
000002e0: 7477 ddbc 4199 debc 86f6 05bb e3b2 66bc
000002f0: 3f93 16be 6080 81ba 0a3a 68bd 8d5c 30bb
00000300: c870 723d ede2 35bc 683a 793d af32 aebd
00000310: f079 193d cc41 223d c7ad 9f3d 3167 ff3d
00000320: ecf0 b33d 3c80 ae3d 87c2 623d 5ac6 863d
00000330: b0fd 733e 27c8 ab3d 06b4 113e ccbf a33d
00000340: 76a9 713d 1c50 c33d 1fb7 bfbd 9315 55bd
00000350: d389 953d b23f 9dbd 6254 5c3e 05c5 973d
00000360: 5828 d73c 76ee d1bc df40 193d d4ea a8bd
00000370: 6054 733d 43b9 9cbd ff88 be3d 59c3 24bd
00000380: 923b 32bd 93ab edbc bfd5 3c3d 6bf3 3a3d
00000390: 3a05 bc3c 0953 d8bb ca94 d03d 530a a33d
000003a0: 5c3b 253a 30ff 9e3d 9622 41bd 6988 433d
000003b0: 210a 963d 1665 f2bd f3af 92bd 8315 f93d
000003c0: 689d 97bd 6c1a 493e 321a 763d be14 5fbd
000003d0: 6a8a c2bc 3efd ad3d a604 4e3c 7278 d73d
000003e0: ddc0 873d 8d00 683c e0bb 09bd 75ca 363e
000003f0: 4025 dd3d 1d27 72bd 6c66 e83d 281a 94bc

critic.network_body.linear_encoder.seq_layers.2.bias f4 [128]
0.0002091758 -0.00014194049 -9.828347e-05 0.00057059986 7.821188e-05 -0.00039235366 0.00067758514 -0.00038315603
-0.002970497 -0.00056082103 -0.00020294324 -0.00012761063 0.00010211334 -0.00023380158 -8.151623e-05 -0.00045405442
-0.0001492264 0.00021079677 0.00038740414 -0.0002446894 -0.00037544384 -0.00021370045 -9.084489e-05 -0.0005128171
3.947303e-05 0.00021449987 -0.0003937867 1.5235528e-05 -0.00017700449 -0.00040035349 0.00047718475 -0.0003283359
-0.00028929708 -0.00019301708 0.00029419118 0.00024926482 0.00041906154 -0.0002956545 -0.00017140112 8.236825e-05
0.00020502771 -0.00028252823 -0.00025995678 0.00028619418 -0.00039788455 0.0003886637 -0.00032153365 0.00023017412
-0.00022350569 0.00012442828 -0.00028775138 0.0006626536 -0.00035751532 -0.00024976864 0.0002841976 -0.0006334185
9.685647e-05 -0.00031123278 0.00011313436 -0.00012361728 -0.00025163466 0.0003144016 -0.00034163642 0.00026749785
0.00013618988 0.0001415618 -0.00065202586 -0.00036543875 -0.0004843197 0.00020128794 0.00036452344 0.00036089704
-0.00024669289 -0.00023305595 6.142634e-05 1.7703816e-05 0.00020648439 -0.0003824392 -0.0003474797 0.00046605695
-0.0005433902 -0.00013898042 8.046713e-05 -0.0003136798 -0.0002775862 0.00015962096 -0.00033384358 0.0004387937
-0.00028790548 -0.0003230301 -0.00025381398 -0.00019925539 -6.0552604e-05 0.0005386412 0.00011002035 0.000346459
0.00046181097 -0.000400668 0.00019013349 -0.00021564406 -0.00017034936 5.5670254e-05 6.407101e-05 8.52636e-05
0.00010196312 9.60972e-05 -0.00025357783 -0.00029394377 0.00071239163 0.00023813086 -0.00035709035 0.00025513786
-0.0003956345 -0.0003467302 5.159571e-05 9.4097966e-05 -0.00018881194 0.00036643646 -0.00026541905 0.000121727964
0.00031167903 0.0003384864 -0.0002862819 0.0001890271 0.00022329683 -0.00037242033 -0.00023554904 -0.00031454413
00000000: 3456 5b39 dcd5 14b9 891d ceb8 4f94 153a
00000010: af05 a438 d1b4 cdb9 f89f 313a 55e2 c8b9
00000020: abac 42bb 1004 13ba 29cd 54b9 38cf 05b9
00000030: af25 d638 a228 75b9 b1f3 aab8 270e eeb9
00000040: a879 1cb9 5409 5d39 811c cb39 a849 80b9
00000050: 38d7 c4b9 c714 60b9 fb83 beb8 936e 06ba
00000060: d88f 2538 5feb 6039 2875 ceb9 189c 7f37
00000070: 489a 39b9 89e6 d1b9 a72e fa39 8024 acb9
00000080: ccac 97b9 a164 4ab9 ac3d 9a39 c2af 8239
00000090: 7db5 db39 1302 9bb9 23ba 33b9 1ebd ac38
000000a0: b5fc 5639 4c20 94b9 cf4a 88b9 550c 9639
000000b0: 299b d0b9 8fc5 cb39 8493 a8b9 e55a 7139
000000c0: da5c 6ab9 f678 0239 56dd 96b9 eeb5 2d3a
000000d0: e570 bbb9 61f3 82b9 5b00 9539 ff0b 26ba
000000e0: 6c1f cb38 f52c a3b9 8c42 ed38 439f 01b9
000000f0: d5ed 83b9 45d6 a439 aa1d b3b9 f43e 8c39
00000100: 31ce 0e39 3570 1439 b7ec 2aba 5c98 bfb9
00000110: 4aec fdb9 d210 5339 821d bf39 c836 bd39
00000120: 8f56 81b9 7b60 74b9 04d2 8038 a882 9437
00000130: bb83 5839 1f82 c8b9 f02d b6b9 1b59 f439
00000140: 4d72 0eba 46bb 11b9 76c0 a838 6475 a4b9
00000150: fd88 91b9 ed5f 2739 ba07 afb9 e50d e639
00000160: 05f2 96b9 5e5c a9b9 5612 85b9 36ef 50b9
00000170: ddf9 7db8 9933 0d3a baba e638 f1a4 b539
00000180: 381f f239 c010 d2b9 925e 4739 831e 62b9
00000190: cf9f 32b9 7b7f 6938 dd5d 8638 8ccf b238
000001a0: 09d5 d538 cb87 c938 a4f2 84b9 771c 9ab9
000001b0: cbbf 3a3a c4b2 7939 db37 bbb9 06c4 8539
000001c0: 2a6d cfb9 57c9 b5b9 7968 5838 7656 c538
000001d0: d2fb 45b9 451e c039 f127 8bb9 3448 ff38
000001e0: da68 a339 e076 b139 1b18 96b9 9335 4639
000001f0: c924 6a39 6941 c3b9 b7fd 76b9 66e9 a4b9

critic.value_heads.value_heads.extrinsic.weight f4 [1, 128]
0.07695635 -0.1284004 0.13891867 0.06712523 0.0671631 -0.050902188 0.15387532 -0.1970466
-0.0003121698 -0.101436056 -0.028742928 -0.022320537 0.04388035 -0.15291192 -0.14225431 -0.186475
-0.052189384 0.18097582 0.0067511345 -0.18773153 -0.078434914 -0.19496039 -0.029987017 -0.041863885
0.10479552 0.031159408 -0.20600905 0.07290495 -0.062079944 -0.10809601 0.08319292 -0.119452395
-0.17855617 -0.0917718 0.20230849 0.09299383 0.07121317 -0.15935096 -0.19808613 0.082521565
0.16724074 -0.09187555 -0.093256414 0.15158167 -0.021572206 0.07769442 -0.08684966 0.2124478
-0.15853018 0.16510075 -0.007633672 0.0484137 -0.0386809 -0.054566067 0.19749762 -0.14505069
0.18054757 -0.20805846 0.15273745 -0.032848414 -0.04471678 0.12675929 -0.16571996 0.11685718
0.05192653 0.0153454095 -0.13777742 -0.12898718 -0.03869718 0.09213408 0.18397902 0.15731119
-0.14400032 -0.08218734 0.004019072 0.13151364 0.044025294 -0.015956007 -0.028131824 0.19457628
-0.20530067 -0.20223641 0.20480092 -0.16880564 -0.08608975 0.15073946 -0.07441871 0.17734067
-0.07740168 -0.059595626 -0.061118677 -0.21190216 -0.05362822 0.05748222 -0.00054539996 0.09467051
0.119706005 -0.09848585 0.09928437 -0.19882166 -0.047618877 0.07425121 0.13724147 0.011204203
0.15427747 0.13259448 -0.01934316 -0.19691071 0.10290241 0.19747584 -0.11260075 0.10088127
-0.012216744 -0.13063042 0.19148777 0.19699188 -0.11625313 0.15670176 -0.14348502 0.040163103
0.16641684 0.0668805 -0.027232211 0.19885834 0.0074543618 -0.20767842 -0.07143534 -0.2089286
00000000: 4a9b 9d3d 657b 03be b240 0e3e f478 893d
00000010: cf8c 893d d07e 50bd 7e91 1d3e 95c6 49be
00000020: b9aa a3b9 b5bd cfbd 4a76 ebbc 8fd9 b6bc
00000030: e2bb 333d f194 1cbe 1dab 11be 4df3 3ebe
00000040: 89c4 55bd ba51 393e 9f38 dd3b b23c 40be
00000050: 7ca2 a0bd b2a3 47be 55a7 f5bc 7779 2bbd
00000060: 099f d63d 0442 ff3c 09f4 52be 314f 953d
00000070: 8a47 7ebd 7161 ddbd 0d61 aa3d 75a3 f4bd
00000080: 6ed7 36be daf2 bbbd f529 4f3e 8d73 be3d
00000090: 36d8 913d e62c 23be 17d7 4abe 1101 a93d
000000a0: 2841 2b3e 4029 bcbd 38fd bebd 3a38 1b3e
000000b0: 32b8 b0bc 411e 9f3d 3cde b1bd eb8b 593e
000000c0: bc55 22be 2c10 293e e223 fabb 724d 463d
000000d0: dd6f 1ebd ab80 5fbd d13c 4a3e 2b88 14be
000000e0: 76e1 383e 470d 55be 3567 1c3e 0f8c 06bd
000000f0: f128 37bd 30cd 013e 7eb2 29be d152 ef3d
00000100: eab0 543d 506b 7b3c 8615 0dbe 3715 04be
00000110: ef80 1ebd cbb0 bc3d ff64 3c3e 2f16 213e
00000120: d274 13be d651 a8bd 6bb2 833b 83ab 063e
00000130: de53 343d 2cb6 82bc b674 e6bc 013f 473e
00000140: 573a 52be 1017 4fbe 55b7 513e 63db 2cbe
00000150: d34f b0bd 725b 1a3e d668 98bd cb98 353e
00000160: c684 9ebd 8b1a 74bd 9457 7abd e1fc 58be
00000170: 44a9 5bbd 7a72 6b3d 2cf9 0eba 9de2 c13d
00000180: 6c28 f53d f3b2 c9bd 9b55 cb3d e897 4bbe
00000190: 030c 43bd 0511 983d 0789 0c3e d591 373c
000001a0: eafa 1d3e d9c6 073e 8c75 9ebc f6a2 49be
000001b0: 80be d23d 1b37 4a3e 399b e6bd d79a ce3d
000001c0: bd28 48bc fbc3 05be 5f15 443e 3db8 493e
000001d0: 1f16 eebd 6d76 203e bded 12be 1182 243d
000001e0: 2d69 2a3e a5f8 883d 1616 dfbc 85a1 4b3e
000001f0: b843 f43b a7a9 54be b14c 92bd 61f1 55be
