Learning/results/test5/KartAgent/KartAgent-261016.pt (torch, 656007 bytes, 36 tensors)

network_body.linear_encoder.seq_layers.0.weight f4 [128, 77]
00000000: 0fe3 37be dd7f 503c aa10 97bc 0474 d0bc
00000010: 808c 83bd 0444 b03c 5364 25bd a7be e8bd
00000020: 64a4 a6bd b51c 403d 323e 573d 5a45 4dbd
00000030: b0d8 563d 76a2 34bd e156 bf3c 57b2 52be
00000040: 0fd8 7d3d caee 36bd a319 903c 2adf 2e3e
00000050: a6f4 69bd 2cb5 6d3d 13f9 713d 3309 ffbd
00000060: 09dd f2bc ed96 87bd 844e a5bd 8826 223d
00000070: d4d9 393e d4a3 e33d 1a42 e63b a158 cdbd
00000080: 0886 0b3c c46e d43d 2036 233e 7f43 903b
00000090: a4c5 9ebe 2757 be3d 8c66 023b af62 29be
000000a0: 129f 633d 441b a1bb f37e 953d cff7 5ebe
000000b0: 025b 15be 9846 b4bd 5acc 8dbe 2a0e dcbd
000000c0: 1969 3fbe f086 9ebd f805 b9bd afd2 e1bc
000000d0: c4d5 12bd f837 7cbd 3235 353d 81bd 91bd
000000e0: 04e9 873e 11f8 fc3d 7364 81be 747c 073d
000000f0: daa5 e23d f063 44be d5ce 5ebd 3d87 6abe
00000100: 3979 823e 45cd ffbd 2981 443d 73e1 99bd
00000110: 15b3 90be 8bae e03e fff5 00bd 8467 3abd
00000120: 11c1 54be 4761 d33e 7851 2abe d1d4 ecbd
00000130: 7f7b 6ebd 63c2 d5bd 8aba 9dbd afd5 58bc
00000140: 6d41 bebd 24d4 ae3d ea80 423c 0315 743d
00000150: d5ee a83e ca91 81be d66e e7bd 5223 11bd
00000160: 2328 d2bd 8631 1dbe b644 443d 18be 3dbb
00000170: d111 9c3d dcf0 b9bd defd 10be 52db 3abc
00000180: 11d6 2c3d 3097 ebbd 1c95 a73d 221d e13d
00000190: 6a4f 1d3c 9e0e 9cbd 6191 9dbc dc3e ca3d
000001a0: 518e 9cbd 04d8 dcbd 9fc7 d53c 70c1 953d
000001b0: 62f9 09be c424 78bd 4ac5 1fbe bef0 223d
000001c0: 6696 bcbd 779b a63d 80c4 69bd 409d 9abc
000001d0: 633d b53c 5a94 1f3e 4c8c fa3d 4e84 f2bb
000001e0: 0820 2ebe 0747 263e aa1e 74bd 7a8d 9abd
000001f0: 3a20 10be 404a e5be ecd9 22bd 612a db3d
00000200: 7bfe 8e3d 3ef2 733d 7232 18be 2c96 75bb
00000210: e2dd 59bd 84b5 e2bd 44bf 283d 70c1 453e
00000220: ef76 c0bc 7831 4e3e 4606 b83c 461f 813e
00000230: 7d98 043d 1fed 4abd dde9 0b3e 3065 a53c
00000240: af03 7cbd ae5c 523e bbdd a5be 21cd 383e
00000250: 6982 1dbe efa8 2c3e b1fb acbe e83d e43d
00000260: eed5 65be f268 15be 0c86 21be 5c79 823e
00000270: c44d 88bd 22ec d1bd 4584 16bd 8c6a 333d
00000280: ca29 8fbd 9175 d2bd 1168 fc3d 282b dfbd
00000290: a268 05be db72 ba3c 7c11 4b3e 4206 a9bc
000002a0: 0fdc b13b 8f31 163e e9e2 be3d e056 083e
000002b0: 6daf a33c f4d2 35bd 35d7 a3bd 25e3 853d
000002c0: 879c de3d e506 42bd 977d cfbb 50e4 2abd
000002d0: 8863 4ebd b7fc 6bbc f54c ec3c 407d e9bd
000002e0: baaa 7abd b139 b8bd d14d 1b3d 4eb3 3eba
000002f0: eec1 193d 39ab 0dbe b126 cdbd 8517 94bd
00000300: e689 c13e 1d7d 7fbd 293d ae3c 4b3e 92bd
00000310: 325d a73d c91d 183e bce1 93bc 03da 7b3b
00000320: 3e17 9ebc 5ecd 793c 07e7 29bd b54f 40bd
00000330: 11f4 c4bd 9ccd 433c a88c c63d d8ac 53bd
00000340: f0a9 d63d db7f 5c3e 8b3a cc3d c031 fd3d
00000350: 557f 44be e06d 0fbe 856e 02be 4d61 b3be
00000360: 703a d9bd 1e18 f93d c2ce f23d 876b 3ebb
00000370: 883b 0c3e 17aa 17be 70d5 2f3e 0e3a 7dbe
00000380: c1a0 0e3c 28e6 02be dd5c fe3d 934f 7ebe
00000390: 24e4 bcbb 2652 033e 3834 2bbd 3f50 de3c
000003a0: f1e3 25bc 183f 50bd 4f26 a43d a22c 4bbb
000003b0: 05de 37be f662 173e af52 823d ce97 a4bd
000003c0: a5f2 0e3d 9007 1f3e d1d7 dc3d 77c4 4e3e
000003d0: 9f88 253d 7894 963d 7c07 fbbc 3dbe 7bba
000003e0: 02a9 303e bdf0 593d 8078 c73d 23db 89be
000003f0: ae8d cc3c b4f8 ad3d a26c 133e 8d39 323e
-0.1795771 0.0127257975 -0.018440563 -0.025445946 -0.064232826 0.021516807 -0.04037888 -0.11364489
-0.08136824 0.046902377 0.05254955 -0.050114967 0.052452743 -0.044100247 0.023356857 -0.20575844
0.061973628 -0.04466132 0.01759035 0.17077318 -0.05711808 0.058034107 0.059075426 -0.124529265
-0.029646413 -0.06620584 -0.08071616 0.039587528 0.18149501 0.11115232 0.007026923 -0.1002667
0.008515842 0.10372689 0.15938616 0.0044025774 -0.31010163 0.09293967 0.0019897548 -0.16541551
0.055571623 -0.0049165804 0.07299604 -0.21774219 -0.14585498 -0.08802527 -0.2769497 -0.10744889
-0.18692435 -0.07740581 -0.090343416 -0.027566282 -0.035848394 -0.061576813 0.044240184 -0.07116223
0.26544964 0.123520024 -0.2527195 0.033077672 0.1106679 -0.19178748 -0.05439647 -0.22903152
0.2548311 -0.12490324 0.04797474 -0.07513704 -0.2826163 0.43883166 -0.0314846 -0.045508876
-0.20776774 0.41285154 -0.1663264 -0.11564029 -0.058223244 -0.10437467 -0.07701595 -0.01323454
-0.09289823 0.08536556 0.011871556 0.05959035 0.32994714 -0.2530654 -0.11300437 -0.035434075
-0.10261562 -0.15350923 0.04791709 -0.0028952416 0.07620586 -0.090791434 -0.14159343 -0.011404829
0.042196337 -0.11503446 0.08182737 0.10991885 0.009601453 -0.076199755 -0.019234361 0.09875271
-0.07644332 -0.10783389 0.026096163 0.07312286 -0.13474038 -0.060581937 -0.15602604 0.03978037
-0.09208374 0.08135121 -0.057072163 -0.01887381 0.022123998 0.15583935 0.12233791 -0.007401026
-0.17004406 0.16238032 -0.059599556 -0.07546516 -0.14074793 -0.4478321 -0.039758608 0.107014425
0.06982132 0.059557192 -0.14862993 -0.0037473543 -0.05319012 -0.110697776 0.04119803 0.19312072
-0.023494212 0.20136058 0.022463929 0.25219172 0.032371987 -0.049542543 0.1366343 0.020189852
-0.06152695 0.20543167 -0.3239573 0.18047 -0.15381779 0.16861318 -0.33785775 0.1114462
-0.22444889 -0.14590815 -0.15773791 0.25483215 -0.066554576 -0.10250117 -0.036747236 0.043802783
-0.069903925 -0.1027633 0.123245366 -0.10896903 -0.13028196 0.022759845 0.19830889 -0.020632867
0.0054278444 0.14667343 0.093206234 0.1331439 0.01998111 -0.044390634 -0.08000032 0.06537465
0.10869699 -0.047369856 -0.00633211 -0.041721642 -0.05038789 -0.014403514 0.02884529 -0.11400843
-0.061197974 -0.08995379 0.03791601 -0.0007274643 0.03753846 -0.13834848 -0.100171454 -0.072310485
0.3780052 -0.062375177 0.021269398 -0.07140788 0.081720725 0.14855112 -0.018051974 0.0038429506
-0.019298192 0.015246717 -0.04148009 -0.046951015 -0.096168645 0.011950877 0.09694797 -0.05167851
0.10481632 0.21533148 0.09972104 0.12363005 -0.19189198 -0.14006758 -0.12737472 -0.35035172
-0.10606849 0.12162803 0.11855842 -0.002905579 0.13694584 -0.14810978 0.17171264 -0.24729177
0.008705319 -0.1278311 0.12420056 -0.24835043 -0.005764501 0.12824306 -0.041797847 0.027137874
-0.010125146 -0.05084142 0.08015119 -0.0031001945 -0.17955787 0.14783844 0.06363427 -0.08036767
0.034899373 0.15530229 0.10783351 0.20192133 0.040413495 0.07352537 -0.030643217 -0.0009603238
0.17251971 0.0532081 0.097397804 -0.26925 0.024969902 0.08494702 0.14396909 0.17404766

network_body.linear_encoder.seq_layers.0.bias f4 [128]
00000000: 48f7 21bd 307e a7bc c67e a5bb e74f a33b
00000010: e4a4 27bd 3c50 0cbd 9f29 86bd aa2b ddba
00000020: 8cbb 70bc 00fc ee3c 5ab2 54bc b543 a3bb
00000030: c70b 343c 0902 08bd bf23 5a3d 133c a43a
00000040: 1e8a e33b c0fa 04bd 5df8 e5bc b1df d8bc
00000050: a067 98bc 2d55 73bd 5c91 d0bc 640e 4a3c
00000060: 990d dfbb 4b08 bcbc 6390 17bd 46a4 b53c
00000070: c0e5 7fbc 3274 8e3c cbd7 cdbc 26ca 333c
00000080: c54f 223d 2aa6 bfbc ecec 84bb e1a8 87bd
00000090: 9071 04bb 8f6b 293c ba21 59bc db89 23bc
000000a0: 4f52 88bd f6f3 30bd f6cd 95bc 471d 17bb
000000b0: aff1 bbbc 48fc 28bd 99af 813c 4251 63bc
000000c0: 58ef d33c 355c 313b dd16 083c 82d2 e53c
000000d0: d6f6 dbbc 3a43 af3a e569 7d3c d9e8 373d
000000e0: 370c 10bd c55b 45bd a4ca 223c 7054 b0bd
000000f0: c927 7bbb 30d5 b33c ae32 bb3c eb53 e5ba
00000100: e8dd a1bc 7abb adbc f72f 27bd a996 d4bb
00000110: 275c 823b 7efb 7fbd 0676 2e3d b877 2bbd
00000120: dbf8 ccbc 4dfc cabc 716f dbbc e17f a1bc
00000130: 80ad 2d3d 96b7 01bd 939c 10bc c399 7cbc
00000140: e46a 0f3d 15f7 bdbc 024b acba e8a6 7ebd
00000150: b620 8f3b dc03 803c 37bf 11bd cbe7 56bd
00000160: 7187 46bc 607a 5bbc 307d 31bd d487 0abc
00000170: c520 22bd b473 e7bc 2241 91bd 3c65 ffbc
00000180: 0022 8fbd 698e 3fbd e2ac 3639 ab2c bfbc
00000190: 6d1a 41bd c9f1 febc ef6f 373c 2ed5 ba3c
000001a0: fc81 993c 34f0 fb3c b852 a93c 33eb 18bd
000001b0: c59e eebb 2d5e f6bc b803 6a3d 6e9b 65bd
000001c0: 41f7 69bd 4628 afbc acc1 70bd 5166 97bd
000001d0: 6d81 ca3c 5419 003d 97b2 99bc eefa e7ba
000001e0: fd2c fd3b 6cb0 513c 31a3 c83c b24a 14bd
000001f0: e44a 82bd b546 4dbd f9ba b1bc 1b1d c5bc
-0.039542466 -0.020445913 -0.005050513 0.0049838903 -0.040928736 -0.034256205 -0.06550907 -0.0016873975
-0.014693152 0.029172897 -0.012981975 -0.0049824365 0.010989136 -0.033205066 0.053256746 0.001253011
0.006943955 -0.032465696 -0.02807253 -0.026473852 -0.0186041 -0.0594074 -0.025459938 0.012332533
-0.006807041 -0.022953173 -0.037002932 0.022173058 -0.0156187415 0.01738939 -0.025127312 0.010973489
0.039626855 -0.023394663 -0.0040565636 -0.06624008 -0.002020929 0.010340585 -0.01325267 -0.009981598
-0.06656324 -0.04320141 -0.018286686 -0.0023058222 -0.022942392 -0.04125622 0.015830802 -0.013874354
0.025870964 0.0027063016 0.008306232 0.02805448 -0.026851099 0.0013371476 0.015467142 0.044899795
-0.0351679 -0.04818322 0.009936009 -0.08609855 -0.0038323274 0.021952242 0.022851314 -0.0017496323
-0.019759133 -0.02120756 -0.040817227 -0.0064876867 0.0039782706 -0.0624957 0.042593025 -0.04186222
-0.025021007 -0.02477851 -0.026786538 -0.019714298 0.04240179 -0.03166922 -0.008826393 -0.015417519
0.03501405 -0.023189107 -0.0013144913 -0.062170893 0.004367913 0.01562684 -0.035582747 -0.05246715
-0.012117253 -0.013395876 -0.04333228 -0.0084552355 -0.039582033 -0.028253414 -0.07092501 -0.031176202
-0.06988907 -0.046766672 0.00017421276 -0.023336729 -0.047144342 -0.031121152 0.011196121 0.02280673
0.01873874 0.030754186 0.020669326 -0.03733368 -0.0072821104 -0.030074203 0.057132453 -0.056056432
-0.057120565 -0.021381509 -0.05877845 -0.07392562 0.024719918 0.031274155 -0.018761916 -0.0017698684
0.0077263103 0.01279841 0.024491878 -0.036204048 -0.063619405 -0.05011626 -0.0216956 -0.02406173

network_body.linear_encoder.seq_layers.2.weight f4 [128, 128]
00000000: e1f7 7cbc 66a0 84bd 81ee debd 002a b23c
00000010: a63a 32bd 2b6b 6d3d f8dc 393d fb14 563d
00000020: 6ea6 643d cf56 e3bc e258 7ebd 6cbd fa3c
00000030: 59f0 a8bd 74bf 82bc 896d 0d3d 4b37 4dbd
00000040: 1c61 973d d1fb 2ebd 4593 dfbd 215d af3d
00000050: 02bc 20bd 3d84 033e 92b7 3e3c 122a 0cbd
00000060: 7b53 ecbd bbf4 febd 8f68 dabb 8764 cb39
00000070: e050 0cbd 22fe 0abe 8210 c0bc 9378 83bd
00000080: 5d20 2e3c ea06 833d 99cb 41bd c2f0 e9bc
00000090: b759 84bd 84e0 f63b 64a9 cebd c999 14bc
000000a0: aaa7 49bd 6675 8b3d c291 fe3c 2d29 ad3d
000000b0: aa54 60bc 40a5 a9bd 1744 c63c a65d a23c
000000c0: 3fac 38bd 734b b5bc 2a92 eb3d 9dbd c0bb
000000d0: 3d97 04be 7ff7 3d3d d59b ce3c 1d8c dfbd
000000e0: 8ced 1c3e c90d 883d 017f 343d 566a 52be
000000f0: 6803 eb3c a9ae 993c eb76 1cbd ea94 c73c
00000100: 4545 083e e67a 38be 5db5 373d fc13 dd3a
00000110: 96f0 a4bd 97a2 31be ae73 803d ecd6 10be
00000120: b151 1dbd 40f5 e83d 5925 ea3d 2757 493a
00000130: f5fb dc3d 68fd fabd c336 023e cbae 7c3c
00000140: e97a 753c 416e c6bc 39c0 903b d295 e8bd
00000150: 0bbb a6bd c07b 14bd bf8c 4c3d 7dd6 ee3c
00000160: 2177 8fbc 11f2 083e e986 b6bd 46b0 643d
00000170: b7f7 0dbe 3f5e 843e ef25 08bd 7a6b 1bbd
00000180: 0ab0 0ebc 08b8 57bd cae8 4e3d 92c6 98bd
00000190: f13f 12be 0b28 1a3d 8fa0 a4bd 1f5c b63c
000001a0: 1568 163d 6013 b83c 8f99 93bd 815a 7abc
000001b0: f676 02be 406d 4dbd 2d8f f63c d32f afbc
000001c0: 90b6 293d 9539 97bc 9002 0b3c 9319 1a3d
000001d0: 794b 7e3d b879 d9bc 7d14 df3d 6a3d 723d
000001e0: 37cf 403d 754f 083d 1ece 723d 7470 203e
000001f0: 1d11 183d f4c6 0e3c ed1b e73d 9f1b c03c
00000200: 125f 87bd 0572 0ebd 43ca 663d 814c 00bd
00000210: 2ccb 20be 9b43 03be dc90 643d 5ccd a9bd
00000220: 7462 76be 714f e33c 844a 93bc 8f12 bdbc
00000230: 3ec7 f3bc 8761 b5bd 97a4 99bd 827e 26be
00000240: 8dab 66be 1df2 26be 4840 d03d 7095 edbd
00000250: 3fbc 72bd 0aba 01bd 5e4d a03d 1f6b 8ebd
00000260: 9fb0 003d f729 86be 81dd 183e 2d6f 3b3d
00000270: 72ce 2d3d 9ee5 07bc 4e08 10be 2887 b7bb
00000280: d9d4 023e ec6d 973d 4eaf ac3d 5b14 1a3e
00000290: 53c0 0c3e 6834 ed3d 7517 be3b f0fb bcbd
000002a0: 970d cc3c 96b7 24bc 1200 6f3d 7e53 7fbe
000002b0: ccab 0d3e 8284 cabb 001d 2f3d 9ce3 253d
000002c0: 5a48 a3bd 8c19 dc3d e27e 07bd e037 f5bd
000002d0: 1226 833e 836b e63d 5ddb 923d dcc3 aebd
000002e0: 439c 5a3d 2c24 df3d ab6a 44bc 90f4 90bd
000002f0: 851c 43bd 0a46 0a3d dfb4 d8bd 13ef 50bd
00000300: f959 783c 184a 0bbd 457a c4bb bf38 d33d
00000310: 239e b63d 8d61 143e 5d69 8b3d 9d08 e4bd
00000320: d2bb 903d 0d30 c4ba 3530 36bd 6717 d9bd
00000330: a7a3 51be 8bfc 643c 0476 2cbb 580b 80bd
00000340: f25c 2a3e 75ae e1bd c517 c73d 02a7 063d
00000350: b2e0 73bb 4c22 563c a12b 3ebd 6c1e 153c
00000360: ba46 49bd 255c dd3d aaca bdbc 2e53 94be
00000370: 4389 ecbd f489 833d a666 3cba e6a2 753d
00000380: 3f5c e23d e2bf 6d3d ba19 03be bd47 83bd
00000390: 1652 b33d 41ee a4bd bb64 21bd c7a3 5fbd
000003a0: 16c1 16be f70c 7f3d 2e42 9a3d cd59 c33d
000003b0: be83 c93d d73d d2bc a467 a5bc c39f c3bc
000003c0: 2f96 8bbd 867d 42be 5ea6 5a3b f1da 58bc
000003d0: 2b73 1abe 9feb 9bbd 5360 debd f8d5 b7bd
000003e0: 308c 0b3e 67c1 f0bd 1f26 073b a829 efbd
000003f0: 5006 42bd 9a53 a4bd c533 03bc 0ff4 bebd
-0.015439958 -0.06475906 -0.10885335 0.021748543 -0.043512963 0.05796353 0.045376748 0.052266102
0.055822782 -0.027751355 -0.062096484 0.030607902 -0.08248968 -0.015960433 0.03452829 -0.05010156
0.07391569 -0.04272062 -0.10916761 0.08562685 -0.0392418 0.12843414 0.011640446 -0.03421981
-0.1153936 -0.124490224 -0.0066652964 0.00038794076 -0.034256816 -0.13573506 -0.023445372 -0.06419482
0.010627833 0.06397803 -0.047313306 -0.028557185 -0.06462424 0.0075340886 -0.100909024 -0.009069868
-0.049232163 0.06809501 0.031075362 0.08455119 -0.0136920605 -0.08283472 0.02420239 0.019820046
-0.04508614 -0.022130704 0.11502488 -0.0058819787 -0.12948318 0.04637861 0.02522079 -0.10915396
0.15324992 0.06643254 0.044066433 -0.20548376 0.028688148 0.018760042 -0.038199347 0.024363
0.13307674 -0.18015632 0.044850696 0.0016866918 -0.080537006 -0.1734718 0.06272064 -0.14144486
-0.038407985 0.11374903 0.11432905 0.0007680528 0.107902445 -0.12255365 0.12716202 0.015422533
0.014982917 -0.024222495 0.004417446 -0.11356701 -0.08141144 -0.03625083 0.049938913 0.02915501
-0.01751286 0.13373591 -0.08912451 0.05583217 -0.13864027 0.25853154 -0.0332393 -0.037944295
-0.008708963 -0.05266574 0.050514974 -0.07459749 -0.14282204 0.037635844 -0.080384366 0.022260724
0.036720354 0.022470176 -0.07207023 -0.015280367 -0.12740692 -0.050153017 0.030097568 -0.021385109
0.04143387 -0.018460074 0.008484498 0.037622046 0.062083695 -0.026547298 0.1089258 0.0591406
0.047072615 0.0332789 0.0592786 0.15667897 0.037125695 0.008714426 0.11284623 0.02345067
-0.0660993 -0.034776706 0.056345236 -0.03132296 -0.15702504 -0.12818758 0.05580221 -0.08291122
-0.24060994 0.027747842 -0.017979868 -0.023080138 -0.029758092 -0.088564925 -0.07502096 -0.16259196
-0.22526379 -0.16303296 0.10168511 -0.116007686 -0.059261557 -0.03167156 0.078272566 -0.069540255
0.03141844 -0.26203892 0.14928247 0.045760322 0.04243321 -0.008294491 -0.14065668 -0.0056008287
0.12776507 0.07394013 0.08431874 0.15046827 0.13745241 0.11582261 0.005801136 -0.09227741
0.024908824 -0.010053536 0.058349676 -0.24934193 0.13835067 -0.006180347 0.042752266 0.04050027
-0.07972784 0.1074706 -0.03307999 -0.11973548 0.25614983 0.11250975 0.071707465 -0.08533451
0.05337168 0.10895571 -0.011988322 -0.070778966 -0.04763462 0.0337582 -0.105813734 -0.05100925
0.01515817 -0.03400621 -0.005996021 0.10313558 0.08916881 0.14490338 0.06807206 -0.11134455
0.07067074 -0.0014967934 -0.044479568 -0.10600167 -0.20472585 0.013976227 -0.002631546 -0.06252164
0.16637018 -0.11019603 0.097213306 0.032874115 -0.0037212786 0.0130697 -0.046428327 0.009101491
-0.049139716 0.10808591 -0.023167927 -0.2896971 -0.11549618 0.06422797 -0.00071869267 0.059969805
0.11052751 0.05804432 -0.12802783 -0.06410167 0.08755891 -0.08053256 -0.039402705 -0.05459955
-0.14722094 0.062268224 0.07532154 0.095386125 0.09839581 -0.025664253 -0.020191021 -0.023879891
-0.068157546 -0.18993196 0.0033363323 -0.013235793 -0.15082996 -0.076133005 -0.10858216 -0.08976358
0.13627696 -0.117556386 0.0020622087 -0.11677867 -0.0473693 -0.08023758 -0.008007948 -0.09323894

network_body.linear_encoder.seq_layers.2.bias f4 [128]
00000000: dd34 2bbd a09a 62bc e9f3 09be 6215 23be
00000010: 4b98 9abc 2c71 99bc 6a16 0ebd 00f0 863c
00000020: 09c7 2f3d 6e47 b63c 9238 0d3a e410 90bc
00000030: 14e0 1bbe 87db f33c 5f3c e3bd a017 7b3d
00000040: 06ee d03b 71b9 973d 9a1a b2bd 3958 57bb
00000050: 8e4c bebb c6f2 26bd f3f1 b53a e9f0 edbc
00000060: a1a0 04be 0253 06be ef99 443d 9644 803d
00000070: fe84 c8bd e04c 07bd ccc2 d4bb 9701 78bd
00000080: c718 903a c225 f7bc 65d2 703c 3374 2bbe
00000090: 93f1 dcbc 8a53 443d 4fa9 43bc 3808 0abd
000000a0: 1008 85bd c0bb 0a3c 2859 883d c1fe 413c
000000b0: f9cf 21be b2d1 bbbb 5e0c 0dbd f2fe 1dbb
000000c0: d63d 92bc c0a1 9d3c ce45 2dbe 906d 0bbc
000000d0: eb38 12be 1cfa 15be 1183 16be c197 d63b
000000e0: 7e14 f43d df87 01bd 951a 1dbc 6616 3fbe
000000f0: d4df 083d 0efc 073e c2d0 673c 74a9 0a3d
00000100: 519e 28be ef40 dc3b b2c2 8ebc 16ca ffbb
00000110: 1716 dabc a453 953c 3b23 60bd 98d7 bd3c
00000120: 7477 f0bc 8cfc 04bc 8bea 0f3c 608c 2abe
00000130: 07da 11bc 9726 b9ba 8f83 8abd 8768 f93b
00000140: 5d5f 25be 3327 ee3c f561 c53c 65e6 e53b
00000150: f1ed 0cbe c99e 1cbe 602d ffbd 1ef3 593c
00000160: 9577 b23c bb87 1bbe 271e 5e3c 8cbc 32bd
00000170: 2500 04be 214d 36be 5b12 4ebc 4fe3 16bc
00000180: 3666 bcbc 6384 82bc 6e6d 853c a0ca b3bc
00000190: 867f 88bc b994 3abe b907 593c 78e8 aa3d
000001a0: 87ed 1fbc 7548 6d3a 4611 6dbb 6d36 16be
000001b0: 3551 cdbb 9970 d6bd aac7 05be 8528 9e3c
000001c0: 2578 1cbd 8111 123d 3fc5 e43c 49c2 e83a
000001d0: afa5 0bbe 1ccc bbbc 6416 6abc 04c4 38be
000001e0: 70fd 1ebe fe6a 273d 49a6 21be e51b 4fbc
000001f0: dfc4 9a3c 7568 a0bd 5c95 2fba 2a68 16be
-0.04179846 -0.013830811 -0.1347195 -0.15926126 -0.018871447 -0.018730722 -0.034689344 0.016471863
0.042914424 0.022250857 0.0005387153 -0.01758618 -0.15222198 0.029767765 -0.11095499 0.061301827
0.006376031 0.07408417 -0.0869648 -0.0032858981 -0.005807466 -0.04075887 0.0013881311 -0.029045539
-0.129519 -0.13117602 0.047998365 0.06263082 -0.09790991 -0.033032298 -0.006492948 -0.06054839
0.0010993712 -0.030169372 0.014698599 -0.16743545 -0.02697066 0.04793123 -0.011942222 -0.033699244
-0.064956784 0.008467615 0.0665763 0.011840523 -0.15801992 -0.0057317847 -0.034435622 -0.0024108258
-0.017851751 0.019242167 -0.1692116 -0.008510008 -0.14279525 -0.1464619 -0.14698435 0.006548852
0.11917971 -0.031623717 -0.009588857 -0.18660888 0.033416584 0.13279745 0.014148893 0.03385301
-0.16466643 0.006721608 -0.017426822 -0.007806073 -0.026621861 0.01822836 -0.0547211 0.023174092
-0.029353835 -0.0081168525 0.008783947 -0.16655111 -0.008902079 -0.001412588 -0.06763374 0.0076113376
-0.1614966 0.029071426 0.024094561 0.0070159906 -0.13762642 -0.15294947 -0.124598265 0.013302593
0.021785537 -0.15188496 0.013556994 -0.043636844 -0.1289068 -0.1780286 -0.0125776185 -0.009209468
-0.022997957 -0.015932268 0.016287532 -0.021947205 -0.01666237 -0.18220796 0.01324647 0.08345121
-0.009761221 0.00090516295 -0.0036173626 -0.146692 -0.006265784 -0.10470695 -0.13064447 0.01930643
-0.038200516 0.035661224 0.027926086 0.0017758097 -0.13637422 -0.022924475 -0.014287565 -0.18043524
-0.15526366 0.04087352 -0.15786089 -0.012640928 0.018892704 -0.078324236 -0.00066979765 -0.14688173

distribution.log_sigma f4 [1, 2]
00000000: b94f 15bf 5fe4 7dbf
-0.5832477 -0.9917659

distribution.mu.weight f4 [2, 128]
00000000: b73a 013c 1961 843d 7765 bab9 06eb c5bb
00000010: 5cfa 8dbd c25e cabb f2a8 dabb 5f0d 94ba
00000020: 349f e03d 4149 49bb d840 0cbc 3784 753a
00000030: 1517 d33c 49e4 3fbc cbb4 6dbb 928c 043e
00000040: cf8d f53a 2256 033e 277e 82bd 1a80 983d
00000050: 0ef2 cf3b 147f 94bb ccc2 9e3d 595b 7a3b
00000060: 6e50 af3b b20f 563d 3df1 22be 17ac 3cbe
00000070: 128e cd3b b0be 9abd c86f dcbb 2b56 c8bd
00000080: e070 333c 58a3 fc3a 0767 a93a 2410 0abd
00000090: 54e7 7cba 25e5 19be 7433 713d 6d9e a5bc
000000a0: 9760 7cbd 13aa efbd 4a23 043e ae1d 90bb
000000b0: e8be 603b 48cf b9bd 44a8 e2bb 9286 d83b
000000c0: bd5b 69b9 a8f6 2f3a 132d 903a 4f0f 9c3b
000000d0: 3a9b 57ba 4e7f 65bc d580 8aba 3a9a 92b9
000000e0: a8cb 283e 8b1f 833c fec2 f23c 77b2 d9bb
000000f0: 5072 d33d c931 373e 241b 64bc 0acb aaba
00000100: 2313 b3bb 2436 1abc 901d df3b 708f a63b
00000110: f21a a939 0ed5 d9ba c081 5f3a 1d99 55bc
00000120: f93a cfbb 64b2 773a 6271 9dba 8f51 09bd
00000130: 5c00 0b3c d124 62bb 96a3 96bd d4aa 17bc
00000140: cebc 7fbc 2b9f cb3d f6e8 3fbb ebca b33d
00000150: 1532 9f3c e442 75bc 724d 833c b588 9abb
00000160: 50ed 01be 6d89 adbc f808 0b3b 77ca 493d
00000170: dbe2 0b3b a536 08bc 953d c03b bf2a 8f3a
00000180: 4736 9939 c1e3 90bb 50f0 15bc f475 233c
00000190: 8c3a 33bb 7524 3fbc 818c 893d 9cbd 153e
000001a0: 427d c33b 3d08 eabb 57ce a83b 8c06 8dbc
000001b0: aef4 1bba 21a8 263c ea70 2abc fbb8 343a
000001c0: 6a0a 423d 5cea b639 e99f 47bc a116 a03d
000001d0: d189 14bc fa3a 263b 3dfb 2a3c 1f32 933b
000001e0: ce1d 2ebd 9ede 10be 09c7 3abc 5dda 21bd
000001f0: 80f2 27bb b17c 8bbd 393a e4bb de93 91bc
00000200: 085b 7fba 3481 d03b 9138 04be 6d0a dabd
00000210: 888f 123c 9475 1e3b ba58 6f3c d42c 31bb
00000220: f92d 133c d5f0 7f3c d0ba df38 c732 c5bb
00000230: ddb6 cdbd 9fcd 683b 42f8 2abe a476 123d
00000240: 9cae c83b 0961 ba3c e527 16bc a968 d33b
00000250: 64be dbba abb7 deba 34f8 673c 2eef 08bc
00000260: 2a55 0dbe 2871 09be e285 ec3c 473e a03c
00000270: 331a 03be 5d43 6c3b 1196 e53b bc68 a3ba
00000280: 9646 93bb dc33 b7bb 8f78 6ebb 1697 2abe
00000290: e19b 59bb 18dc b93c 4a34 4a3c ccb7 28bb
000002a0: dae0 b4bc a1bb 5d3c 3cb8 773c 401a 0c3c
000002b0: 5c0c ecbd b0d5 503c 4348 d53b 6d89 3bbc
000002c0: 09e3 05bc 1264 14bc 5bc0 06be 7521 60bb
000002d0: c8bc 27be f964 fcbd 87d9 17be 20d2 0a3b
000002e0: 755f b93c 6919 00bc 4509 ddb9 96a9 e4bd
000002f0: b9d9 163c 4e7a 483d 8fef 823c b99c 0cbc
00000300: 0ea5 02be 7985 683c 6425 9abb bb6e efbb
00000310: c149 ebbb b4c0 cdbb d842 4fbb 790a 253c
00000320: 549d 943b 653e ef39 3e09 d63b 63b9 11be
00000330: d170 fa3a e198 51bc a666 1ebc f0d3 1c3c
00000340: baa3 02be 5fdd 933c 0edd 8e39 169c b03b
00000350: 4dfd 2bbe a279 f2bd 111e dbbd dab7 373b
00000360: 4f27 b13c 5343 02be 8c95 363c ee45 4ebc
00000370: ae3f 06be bbba fdbd fdde 7dbc e106 82bc
00000380: d4ac bdbb e130 e2bb 2c07 483a 0583 2bbc
00000390: e5df 263c 2616 0dbe 5294 8d3c 8e6c 853c
000003a0: 75e5 90bb 3645 c73b 4a40 02bc e4a1 ffbd
000003b0: 7332 7a39 e07c fdbd e3e8 20be 3418 1fbc
000003c0: ab5e 89bb 678c 033c 10f7 003c caff 573c
000003d0: 5827 f1bd 69fa e4bb e4f6 92bb a273 f5bd
000003e0: 7f1f 0ebe 848f d03c 3464 01be b69a 43bb
000003f0: 18d4 913b 2711 9dbb dba4 3e3c 0776 1cbe
0.007887534 0.064638324 -0.00035552282 -0.00603998 -0.06932518 -0.006175847 -0.006672972 -0.0011295489
0.109678656 -0.0030713829 -0.008560382 0.000936571 0.025767842 -0.011712142 -0.003627109 0.12944248
0.0018734279 0.12825826 -0.06371718 0.074463084 0.006345994 -0.0045317505 0.07751998 0.003820142
0.005350164 0.052261062 -0.15912338 -0.18425022 0.0062730396 -0.07555902 -0.0067271926 -0.0978206
0.0109522045 0.0019274754 0.0012924381 -0.0337068 -0.00096475077 -0.15028818 0.05888696 -0.020217145
-0.061615553 -0.11702361 0.12904087 -0.0043980693 0.0034293476 -0.09072739 -0.0069170315 0.006607839
-0.00022254787 0.0006712475 0.0010999761 0.004762567 -0.00082247297 -0.014007403 -0.0010566959 -0.00027962198
0.16483939 0.016006252 0.029633995 -0.006643589 0.10324538 0.17890085 -0.013922486 -0.0013030481
-0.0054649278 -0.009412322 0.006808944 0.005083017 0.00032254268 -0.0016619281 0.0008526109 -0.013036993
-0.0063241688 0.00094488845 -0.001201194 -0.033525046 0.008483972 -0.0034506808 -0.0735542 -0.009257037
-0.015608979 0.09942468 -0.0029283143 0.08778938 0.01943306 -0.014969561 0.01602814 -0.004716004
-0.12688184 -0.021183694 0.0021215063 0.04926535 0.0021344933 -0.0083138095 0.005866716 0.0010922774
0.00029222874 -0.0044216816 -0.009151533 0.009976853 -0.002734813 -0.011666407 0.06716252 0.14623111
0.0059658596 -0.0071420954 0.0051515508 -0.017215036 -0.0005949241 0.010171921 -0.010402897 0.00068940193
0.047373213 0.00034888356 -0.012184122 0.07816816 -0.009066061 0.0025364743 0.010435876 0.004492059
-0.042508893 -0.14147422 -0.011399993 -0.039514888 -0.002562672 -0.068108924 -0.0069649485 -0.017770704
-0.0009741043 0.0063630585 -0.12912203 -0.1064652 0.008945353 0.0024178969 0.014608556 -0.0027034776
0.008983129 0.015621384 0.00010668265 -0.006018016 -0.10044644 0.003552295 -0.16696265 0.035757676
0.0061243307 0.022751348 -0.009164785 0.0064516854 -0.0016765115 -0.0016991993 0.014158297 -0.008357806
-0.13802019 -0.13422072 0.028872434 0.019560946 -0.12802963 0.0036050894 0.0070064147 -0.0012467126
-0.0044944985 -0.005590899 -0.0036387776 -0.16659197 -0.0033204483 0.022687957 0.012341568 -0.0025744317
-0.022079874 0.013533504 0.0151196085 0.00855118 -0.11525795 0.01274626 0.0065088584 -0.011446339
-0.008171805 -0.009057062 -0.13159315 -0.003419963 -0.16380608 -0.123239465 -0.14829074 0.0021182373
0.022628525 -0.007818558 -0.0004215931 -0.111651585 0.009207183 0.048944764 0.015983371 -0.0085822875
-0.12758276 0.014191979 -0.0047041643 -0.0073069013 -0.007180423 -0.0062790755 -0.0031625535 0.010073298
0.0045353565 0.0004563212 0.0065318635 -0.14230876 0.0019107108 -0.012792797 -0.009668028 0.009572014
-0.12757769 0.018049894 0.0002724905 0.0053897006 -0.16795845 -0.11839606 -0.10699094 0.0028033168
0.02162519 -0.12720995 0.011144053 -0.012589915 -0.1311023 -0.12389132 -0.015495059 -0.01587242
-0.005788425 -0.0069027995 0.0007630463 -0.010468249 0.010185217 -0.1377798 0.017282639 0.016287114
-0.0044218847 0.0060812486 -0.007949898 -0.1248205 0.00023860652 -0.12377334 -0.15713839 -0.00971036
-0.0041921935 0.00802908 0.007871404 0.013183543 -0.11775082 -0.006987859 -0.004484998 -0.11984946
-0.13879202 0.025459059 -0.1263588 -0.0029846854 0.0044503324 -0.0047933045 0.011635984 -0.15279399

distribution.mu.bias f4 [2]
00000000: e653 af3c d188 203e
0.02140231 0.15677191

critic.network_body.linear_encoder.seq_layers.0.weight f4 [128, 77]
00000000: 99f0 85bd aa4a 223e 5a5e f63d da3a 37be
00000010: c807 1f3d 1aa0 203d 6ef3 77be 2333 61be
00000020: bd7a a1bd c5c1 e93d 50fc c3bc dc06 123d
00000030: d10d d33d 077e 0bbd 238f 123d 71e8 07be
00000040: 512d 06bd b736 7ebd 3815 653d f992 123d
00000050: 92b0 d0bc 5889 ca3d d848 7bbe 5ee9 9a3d
00000060: 4bba 223d f81a efbd c192 70bd 31e0 213e
00000070: 07bd 46bc 5cec acbd 486a da3d 9331 233d
00000080: 3e91 cd3d 0f8c b33d 4086 4fbc 3acc 31bd
00000090: df8f f53d c921 81be 2df3 153d 6bec 8b3e
000000a0: 96c4 0e3e 4c31 b8bd 85cf 503e c12c 023e
000000b0: 3f36 9a3d 11dd f4bd f3cf dcbd ae83 d5bc
000000c0: 7195 9c3e 73ab 363d 7c39 3c3e c31a 043d
000000d0: 308a 60bd 051a 063c c09b dcbd 223d ed3d
000000e0: b172 d8bb 4d39 e0bd 3c57 aebd 3bb7 eabd
000000f0: e30c d2bd 09a2 84bd c7e0 803d c256 c5bd
00000100: 7cf0 5a3d de21 353c c749 5d3e 5333 1dbe
00000110: 89eb 84bd 70e5 00be 911d ed3d f60d dbbe
00000120: 5070 91bc a752 5f38 d6dd 36b8 a664 12bd
00000130: c07a 793b d472 0ebd 5a92 efbd f954 a3bd
00000140: 0913 993d 52a9 323d e30a 0a3d f21d cb3c
00000150: 7b19 853d 9cde 203e 0d0d e2bd e959 1b3e
00000160: 2ddb 2aba d9f8 a3bb dac3 10be 585b 81bd
00000170: 3433 c7bd 3bd9 743e b266 04bd 6fb3 03be
00000180: 4fa0 803e c1b8 8e3d 2d15 873d ed8f 63be
00000190: 6aab 0cbe 24a2 2f3d b195 803e 78d2 2cbe
000001a0: 50cb 1b3e 2114 833e 7267 b2bc 55ea f9bd
000001b0: 4428 ddbc ff16 7f3d 8a57 80be 0683 51be
000001c0: 479f d3bd fcef 333d f258 7abd a2d0 6d3e
000001d0: 77f1 e2bb 228a 863b 7161 af3d 251c 9fbe
000001e0: 260f 303e 42e9 44bd 0576 5ebe 6622 c03a
000001f0: 7261 663d 717a 063e 3a31 dcbd e591 3c3e
00000200: f351 87bc 335e 91bd 625d e4bc 43f0 b43d
00000210: 4237 553b fed8 27be 2b92 69bd 037b f63d
00000220: 19f4 b83d 6612 e3bd 5caf 1fbe 5adc 8f3d
00000230: 84c6 893c 88dd 9d3c be17 51be 0e3d a23d
00000240: afd8 fe3d 1811 62be 3359 89be 84df a0bd
00000250: fc6c 9e3c 9b82 83be 69ad 39be 142d 8a3d
00000260: 99f7 a2bd eb5b 433e 83f8 6cbc 00aa b33d
00000270: 020f 013e 1c1c 0d3e 9858 fbbc edd4 d53d
00000280: 02ba ae3d 61c8 82be 9777 6dbd 9c10 03be
00000290: e3f2 b4bd 4163 babc 3ca4 55bd fe20 a63e
000002a0: b251 443e 123f e5be 8b19 3dbc 227f fabd
000002b0: f65d a93c 536b 6ebd fafd e2bd 1dea 5c3d
000002c0: 6b0e ff3d 7283 04bf 52ad f03d c1a6 d2bd
000002d0: c0df ebbc 2578 1cbc b877 7bbe 8797 b63d
000002e0: 3a7b 063e e1fe 173d b60c d13d 2cb4 1a3d
000002f0: e11b 823d 02aa 92be 2db3 803d 9f5a 973c
00000300: 4b26 733e e1de 82bd de11 143d 4158 96bd
00000310: 4f4d e63d 9105 45bd 6b1d e03c aac3 d9be
00000320: a713 20be f8a6 83bd d359 783e 456a 24be
00000330: 5081 773c c406 90bd d15b fd3d 2116 8dbe
00000340: 0889 f9bd 42c7 a23c d717 db3d f44a 2dbe
00000350: 4ace 07bd 2273 25be c6d3 9bbd 5506 20be
00000360: a9ad 5cbc f986 8ebd e0cd 0e3d ef05 c2bd
00000370: 19bc 9a3d d1f7 7a3d fd69 d7bb e697 03bd
00000380: 72c9 803e 0edf 043e fba4 a3bd eca1 55be
00000390: 0b05 f4bd 8bbe 2dbe dd20 cfbb f581 36be
000003a0: 3f1f 473c 7df6 f93c 3ef4 6d3e 360c 19be
000003b0: 5011 833e f755 95bc cd36 953d 4500 bbbd
000003c0: b728 3bbb 9ba8 0ebd 6239 013e 38cc 2bbd
000003d0: 88d3 0c3e 2c1f 17be 2587 e3bc 55e8 bcbb
000003e0: 14b9 9fbd 31b9 063e b8aa 383e 5fb4 7fbb
000003f0: 841f 9fbd 92d1 96bd 7133 2bbe aae3 4abe
-0.06540031 0.15848795 0.12029715 -0.17893544 0.03882578 0.039215185 -0.24213955 -0.21992163
-0.078847386 0.11413912 -0.023924023 0.035651073 0.1030537 -0.034055736 0.035781037 -0.13272263
-0.03275806 -0.0620639 0.05592844 0.035784695 -0.02547482 0.098894775 -0.24539506 0.075640425
0.039728444 -0.11675066 -0.058733705 0.15808178 -0.012130029 -0.084435195 0.10664803 0.0398422
0.100374684 0.087669484 -0.012666285 -0.043407656 0.11990332 -0.2522109 0.036608864 0.2732881
0.13942179 -0.08993778 0.20391662 0.12712385 0.07529878 -0.119562276 -0.10781851 -0.026063766
0.30582765 0.0445971 0.18381304 0.032252084 -0.054819286 0.0081849145 -0.107718945 0.11583926
-0.006605469 -0.10948429 -0.085127324 -0.1146073 -0.10256364 -0.06476218 0.06292873 -0.09635688
0.053452 0.011055438 0.21610175 -0.1535161 -0.06490237 -0.12587523 0.11577905 -0.4278409
-0.01775375 5.324432e-05 -4.3598782e-05 -0.035740517 0.003806755 -0.034777477 -0.11697836 -0.079751916
0.07474334 0.043618508 0.03370179 0.024794552 0.06499001 0.15709919 -0.110376455 0.15171017
-0.0006517645 -0.00500403 -0.14137211 -0.063162506 -0.09726563 0.23910992 -0.0323245 -0.12861417
0.25122306 0.06968833 0.06595836 -0.22222872 -0.13737264 0.04287924 0.25114205 -0.16877162
0.15214276 0.25601295 -0.021777842 -0.122028984 -0.02699674 0.06227779 -0.25066787 -0.20460138
-0.10333114 0.04393004 -0.06111998 0.23224118 -0.0069257575 0.004105822 0.08563507 -0.3107616
0.17193279 -0.048074014 -0.21724708 0.0014658689 0.056245275 0.13132645 -0.10751577 0.1841503
-0.016518569 -0.07098045 -0.02787656 0.08834889 0.0032534157 -0.1639137 -0.057024162 0.120351814
0.09030933 -0.110874936 -0.15594238 0.070244506 0.016818292 0.019270673 -0.20419213 0.079218015
0.12443673 -0.22076833 -0.26825866 -0.07855132 0.019339077 -0.25685582 -0.18132557 0.06746879
-0.07957382 0.19078033 -0.014463547 0.08772659 0.12603381 0.13780254 -0.030681893 0.10441003
0.08531572 -0.25543502 -0.057975378 -0.12799305 -0.088353895 -0.022752406 -0.05215858 0.32447046
0.1917179 -0.4477468 -0.011541734 -0.1223128 0.020674687 -0.05820782 -0.110835984 0.053934205
0.12453922 -0.5176307 0.11751808 -0.10285712 -0.028793216 -0.009550129 -0.24557388 0.0891562
0.13132945 0.037108306 0.102075025 0.03776948 0.06352974 -0.2864533 0.06284175 0.018475829
0.23745076 -0.06390167 0.036149852 -0.07341052 0.11245214 -0.04810101 0.027357778 -0.42532092
-0.15632497 -0.06428331 0.24253015 -0.16056164 0.015106514 -0.070325404 0.12371028 -0.27555946
-0.1218434 0.019870404 0.106979065 -0.16923124 -0.033155717 -0.16157201 -0.07608752 -0.15627415
-0.013469138 -0.06959338 0.034864306 -0.09473788 0.07555408 0.061271492 -0.006573914 -0.032127284
0.2515369 0.12975714 -0.07990452 -0.2086255 -0.11915024 -0.16967218 -0.0063210563 -0.17823012
0.012153446 0.030513043 0.23237702 -0.14946064 0.25599146 -0.018229468 0.07285843 -0.09130911
-0.0028558203 -0.034828763 0.12619546 -0.041942805 0.13752568 -0.14757985 -0.027774403 -0.005765001
-0.07798973 0.13156582 0.18033874 -0.0039017422 -0.07769683 -0.07364191 -0.16718842 -0.1981341

critic.network_body.linear_encoder.seq_layers.0.bias f4 [128]
00000000: 9fb8 febb 66c7 de3a b1e7 9fbc ddc9 2a3c
00000010: 8467 dabb 997a b7bc fece 6dbd 154a afbb
00000020: 1137 ecbc 5e96 87bb d9b3 4cba 5cd9 52bd
00000030: 615f 313d 755d cdbc 5c23 8b3d d221 893c
00000040: 10f6 58bc 92b5 54bc c6e3 703c 7496 3cbc
00000050: ce81 4e3c 1776 7a3c 2fcf 6abc 233c b33c
00000060: 8bb3 413d 62cb 0abc a760 cc3c 9aa4 abbc
00000070: a8a7 f13c 9a59 a5bc 6add 723a cbcf e13c
00000080: d581 ad3c 480b 143d d990 383c f410 bebb
00000090: 06ed 123c 1208 683c c04d 5b3d 5888 14bc
000000a0: 2a37 043c 8ce1 193c 2026 f6ba d7fa 25bd
000000b0: a9bf 853c c6c3 40bd e3c5 1f3d f439 03bd
000000c0: ad76 9abc 4789 db3b 5a2b c53b ccce dd3b
000000d0: acef 6f3d 23be b93c ca40 61bc 2187 b53b
000000e0: 97f6 4d3c f1e9 c2bc 6605 edba b8f5 a33c
000000f0: 290c 25bd 8882 d83c 20c2 56bb 5ac5 73bc
00000100: d84f 1e3d 4b10 c1bc 589e 1f3c faf7 92bc
00000110: f774 5dbb 5a85 eabb 96e2 373c a7fd a3bc
00000120: d8b3 f1bb 2c11 14bd 14ac b9bb 2e67 c83c
00000130: 4d0c 9c3c 8a1e 8abc 98a7 4aba 3412 4cb9
00000140: d754 523b d624 dd3c c4d7 0f3d 8e60 d0bc
00000150: 9517 b83c a00a aa3c a469 90bb 51ec 923c
00000160: 93b6 843c efad f8bc 419f 123d 0002 6b3d
00000170: 349f 803c 3899 f63c fc23 7ebc 59cc 9b3b
00000180: 21c7 0c3c aabe 00bd e2fb c5bc 58b9 053b
00000190: 9194 e7bc 51b7 3ebc df03 bd3b 8de2 343d
000001a0: b930 573c b3a0 533c 18d2 adbc 33af a33b
000001b0: 8c15 f93c 8482 ab3c 186d 8abb 5cd5 95bc
000001c0: 22c2 b13b c582 a23b e9a5 543c 9b48 993b
000001d0: bf9a 91bc a7e7 84bc 099f 1a3c 51f6 e2bb
000001e0: e604 f7bc 9e61 aa3c e6f1 a23a 0aca 013c
000001f0: e741 0cbb 91cd ddbc d2c2 063d 4f6a 583d
-0.0077734734 0.0016996681 -0.019519659 0.0104241045 -0.006665172 -0.022397326 -0.05805873 -0.0053494074
-0.028834851 -0.004137798 -0.0007808782 -0.05147682 0.04330385 -0.025068978 0.06793854 0.01673976
-0.01324226 -0.012982743 0.014702743 -0.01151048 0.01260419 0.015286944 -0.014331623 0.021879261
0.047290366 -0.008471342 0.024948431 -0.020952512 0.02949889 -0.020184327 0.00092645606 0.027564904
0.021180073 0.03614357 0.011265003 -0.005800361 0.008967644 0.01416208 0.053540945 -0.00906571
0.008069793 0.0093921535 -0.0018779673 -0.040522423 0.016326742 -0.047061704 0.03900708 -0.03203769
-0.018855417 0.0066997143 0.006017131 0.006769037 0.05857818 0.022673672 -0.013748357 0.0055397903
0.012570999 -0.023793193 -0.0018083274 0.020014629 -0.0402948 0.02642943 -0.0032769516 -0.014878595
0.038650364 -0.02356734 0.009742342 -0.01794051 -0.003379164 -0.00715701 0.011223456 -0.020018412
-0.0073761754 -0.03614919 -0.0056662653 0.024463262 0.019048834 -0.016860265 -0.0007730662 -0.00019461737
0.0032094026 0.026995104 0.03511788 -0.025436666 0.022472182 0.02075702 -0.0044071246 0.01793495
0.01620034 -0.030356376 0.035796408 0.057374954 0.015700914 0.030102357 -0.015511509 0.0047545847
0.008592398 -0.03143183 -0.024167959 0.0020404663 -0.028269084 -0.011640386 0.0057682837 0.04416137
0.013134175 0.012916732 -0.021218345 0.0049952506 0.030405782 0.020936258 -0.004224431 -0.018290214
0.0054247538 0.0049594366 0.012979009 0.0046778447 -0.017773984 -0.016223742 0.009437331 -0.006926336
-0.030153703 0.0207985 0.001243171 0.007921705 -0.0021401586 -0.02707556 0.03290064 0.05283576

critic.network_body.linear_encoder.seq_layers.2.weight f4 [128, 128]
00000000: be6e 353d 82c0 19be 2408 903d 3bb4 df3d
00000010: 2d52 1c3d ad29 a73d 00c2 aabc 338a 2bbd
00000020: acaa d33c 18d9 033d 37ad 62bd 2d43 ad3d
00000030: 86ae 273c 05ba 4cbe 4099 1fbc aae1 6b3c
00000040: 973c 1bbe 640c 02be c092 603d f0dd d4bc
00000050: 170d 7d39 14b3 1a3e f4ab 0f3e 485d ef3c
00000060: 4b04 b23d 0f0f 493d 94e9 4fbd cdf6 06bd
00000070: a07f 603d 29e3 873c b624 01bd 1a86 4abd
00000080: 413a 083e 7572 0bbd 5f33 15be 16d7 36be
00000090: 2463 853d 5b11 abbd c064 cfbd e9a8 373d
000000a0: 53f4 2c3d cf51 1f3d 8546 ec3d 17cd ba3d
000000b0: f4fe 4f3e 3fb1 833d 9995 3b3c 87e4 433c
000000c0: 2283 a1bd 855e 83bd cc2d a4bd 8ac5 f23d
000000d0: 1541 3abc 6c94 d23b 4c8c f83b 5f9a 3ebe
000000e0: 2fcf 7dbd 9312 07bd 83e1 18be 4999 d2bc
000000f0: 270d ce3c b66b 61bd 77c3 00bd e61b 9fbd
00000100: 5d01 34bc 35b3 10be d695 07be f4fb 91bc
00000110: 9ab7 a5bc ca9a b53c 9a69 02be a39e 7e3b
00000120: 24a8 fdbd b6ff b5bc ffe4 a4bd cdef c7bc
00000130: f2f9 5bbd c4fb bbbd dce7 d43d 4ce1 ffbc
00000140: 4018 0fbd 3d73 e53d cb7b 2bbd a55f 38bc
00000150: e58d 483d 067f 51bd 683b 543e fc05 77bd
00000160: 3fdf 41be 1abf 30bd 0b7c 50be f90d ee3d
00000170: 2f32 0cbd b37f 4ebc 9c8c 64bd 5de2 903e
00000180: b46f 1c3e c3b9 a3bd 7d3e 5cbd b936 fcbb
00000190: e44a 3cbe dd6f b03c 0ed2 93bd bd10 daba
000001a0: 2a47 e6bc e852 2ebe 5e18 6f3d 5722 863d
000001b0: 5bdd a33b ef0c 55bd cb74 65bd 556d e9bc
000001c0: 4fe9 bbbc 730e 183d 4a43 c5bc 99ee 85bc
000001d0: 6aa2 47bd dad1 433c 1080 9e3d 41ae 33be
000001e0: 047b e8bd 853e ea3c 61d8 a5bc 09e6 c4bd
000001f0: 94f7 3b3e 4d62 9ebc a88d f33c 5644 cabd
00000200: 5d11 88bd 4331 91bb 0dcc c2bc 2b2e 963d
00000210: 3e27 b73d f1d6 1cbd 87e3 933b f721 d4bd
00000220: 83d0 0b3e 73ea 733d 9af8 d13d db09 5ebd
00000230: adc0 8dbd 263b a2bc e3a3 c93d 2b1b 8b3d
00000240: d4fe 12bd 9260 fe3d 1910 ae3d d61d 03bd
00000250: 7aeb c93c 1542 cb3d ef2d a13d 5c31 9a3c
00000260: bc8d d33d e2ff 29bd bdce 853d daa2 6ebd
00000270: 71af 3b3d aace 0cbe c35a 9abd a36a aa3c
00000280: dbb4 f53d 12a9 543d bcfc c7bd 3e95 adbd
00000290: 1012 6cbe 976a 2e3d 1588 103d 3e72 e33c
000002a0: 49bb 113d 9a7c c5bd a3d6 713d 34cb fe3b
000002b0: 8a06 27bd 22ef 18bd 7aec f1bd 1540 c53b
000002c0: 95b1 9fbd 1c53 81be 8bf8 c8bd b381 80bd
000002d0: cc07 f9bc 5f66 4a3e 52ee a73d 4d01 22be
000002e0: 47ee 43bc 47b1 a03d 701e 0f3d 29e7 613c
000002f0: ef29 463d b78b eabb 2e49 53bd 6895 e63d
00000300: 1961 9abd c3c4 b53d b0c8 223e 1589 463d
00000310: 3033 c13c ab0d cdbd 43a6 78bd b12b 9fbb
00000320: 46ed 1ebd e589 9e3d 1b5d 6fbd 850b 263e
00000330: e617 0f3e 1092 303d f442 0abc 702a 8e3d
00000340: dac1 aabd 2bd1 0bbc 166e aebd b4f4 2d3e
00000350: b6ad fe3d 4026 a5bd 014b 25be e7a5 e63c
00000360: 812b debd 4809 fbbd d115 a03b 7377 f8bc
00000370: aa4b 033e 91cd 2fbd bdc3 c63c 93f7 6b3b
00000380: e435 3abd 2951 2abe a3c7 4dbe cdf9 3ebc
00000390: 5a6b 9bbc 2cf1 07bd f057 473e 6ee5 1b3e
000003a0: e6e1 aabc e710 f7bd 8394 473e 31a3 67bd
000003b0: 7f7a f93d cb95 85be 1e3c 4d3e 1ffd adbd
000003c0: 05cf a73d eec9 14be 90e4 95bd 8b10 bcbd
000003d0: 4782 21bd 48eb c6bd 0053 90bc ae11 b03c
000003e0: 3609 d5bd c24c 483e 18ad 023d 3ceb 3cbd
000003f0: f599 74bd ddee 983b 47ef a4bd 77d8 333c
0.044295065 -0.15014842 0.07032803 0.10923048 0.038164306 0.08162246 -0.02084446 -0.041879844
0.025838219 0.03218946 -0.05534097 0.084600784 0.010234481 -0.19992836 -0.0097411275 0.014397064
-0.15159832 -0.12700039 0.05482745 -0.025984734 0.00024132837 0.15107375 0.14030439 0.029219285
0.08692225 0.049086627 -0.050759867 -0.03295021 0.054809213 0.01658781 -0.03152915 -0.049444295
0.13303472 -0.0340447 -0.14570378 -0.17855486 0.0651305 -0.0835292 -0.101266384 0.04483882
0.042225193 0.038896378 0.11536888 0.09121149 0.203121 0.064302914 0.011449241 0.011956341
-0.0788634 -0.064145125 -0.080165476 0.11854084 -0.011368056 0.0064263847 0.007585084 -0.18613575
-0.061965164 -0.032976698 -0.14929776 -0.025707858 0.025152756 -0.05503436 -0.03143641 -0.07768993
-0.010986653 -0.14130862 -0.13240752 -0.017820336 -0.02022915 0.022168536 -0.12735596 0.003885188
-0.12385586 -0.022216659 -0.0805149 -0.024406338 -0.053705163 -0.0917888 0.10395786 -0.03123536
-0.034935236 0.112036206 -0.041866105 -0.011253272 0.048963446 -0.05114653 0.20725787 -0.06030844
-0.18932818 -0.043151 -0.20359819 0.11623759 -0.034227546 -0.012603688 -0.055798158 0.282977
0.15276986 -0.079944156 -0.05377053 -0.007696953 -0.18387944 0.021537716 -0.07217799 -0.0016637068
-0.028110106 -0.17023814 0.058372848 0.065495186 0.005000753 -0.052014288 -0.056019586 -0.028494516
-0.022938399 0.037123155 -0.024079937 -0.016349124 -0.048738874 0.011951888 0.0773927 -0.17546941
-0.11351588 0.028594265 -0.020244779 -0.09614188 0.18356162 -0.019333983 0.029730633 -0.09876315
-0.06643937 -0.0044309213 -0.02377894 0.073330246 0.08943032 -0.03829092 0.0045132074 -0.10358041
0.1365376 0.05954976 0.10252495 -0.054208618 -0.069215156 -0.019803595 0.09845712 0.06792291
-0.035887554 0.12420763 0.08499164 -0.032010876 0.024648417 0.099247135 0.07870089 0.018822365
0.10329768 -0.041503794 0.06533573 -0.058260776 0.04582161 -0.13750711 -0.07536843 0.020802801
0.11997386 0.05191905 -0.09765002 -0.08475731 -0.23053765 0.04258212 0.035286028 0.027764436
0.035579 -0.096429065 0.059042584 0.0077756885 -0.04077772 -0.03733743 -0.118126824 0.006019602
-0.07797543 -0.2525872 -0.09813031 -0.06274738 -0.030399226 0.19765614 0.08199753 -0.15820809
-0.011958665 0.07846313 0.034941137 0.013788023 0.048379835 -0.0071577686 -0.05158346 0.11258966
-0.07538051 0.0887542 0.15896869 0.048470575 0.023583978 -0.100123726 -0.060705435 -0.0048575033
-0.0388005 0.07741145 -0.0584384 0.16215332 0.1397396 0.043108046 -0.008438814 0.06941688
-0.083377555 -0.008533756 -0.08517091 0.16987878 0.124354765 -0.08063936 -0.16141893 0.02815528
-0.108481415 -0.1225763 0.004885413 -0.030330395 0.12821832 -0.042920653 0.024263257 0.003600572
-0.04546155 -0.16632523 -0.20095687 -0.011656237 -0.018972088 -0.033188984 0.19467139 0.15224239
-0.02085967 -0.12063771 0.19490246 -0.056552116 0.121815674 -0.26090845 0.20042464 -0.08495545
0.08193783 -0.14530155 -0.073189855 -0.09182843 -0.039430883 -0.09712845 -0.017617702 0.021492805
-0.104021475 0.19560531 0.031903356 -0.046122774 -0.059717137 0.0046671466 -0.08053451 0.010976902

critic.network_body.linear_encoder.seq_layers.2.bias f4 [128]
00000000: f903 bbbc 46b2 4cbd b9cd d5bc 5898 bebc
00000010: d918 3f3c 834f 2f3c 3375 cbbc 5369 dabc
00000020: c79e f0bc 9f66 b1bc dc0d 703b d16b aebb
00000030: e003 583a 69bd 393b e975 04bd d065 453c
00000040: e01c 9b3b 9e91 433c d208 b7bc 6d7d 793b
00000050: c831 9f3b 28cc 2b3b 260f a6bc cc7a aa3b
00000060: ea46 203c d25e 40bb 7c0a 86bc 4761 313c
00000070: 6070 c6bc e9f1 9bbc 50f3 663c 9bad 0abb
00000080: 870d 5abc c845 203c 832d 863c a166 153c
00000090: f6c6 c5bc bcad 71bc 9392 423c 117b e5bc
000000a0: 27dd f4b9 7b09 d0bc c1ff 9d3a bf52 9ebc
000000b0: 5cc9 863b b58a 313a 4d02 943a 3716 a9bc
000000c0: 460f 583c 842b d13b b6f9 b3bc e92e 99bc
000000d0: 2ff1 423d aee6 a3bc 8c09 bdbc 0fd3 7c3c
000000e0: 7dcd 16bd 63a7 643c 4893 f83b 65f9 aebc
000000f0: b559 acbc 1a71 3b3b 9ce4 8cbb 5e43 96bc
00000100: d413 c03b 5049 f3bb d411 463c 668c 373c
00000110: 36b9 8bbc f2ac 183c bf0b afbc 2c1b a83c
00000120: 0eac dd3b d2ac b4bc b71d 2b3b 7db5 f33b
00000130: 0401 09bd b01e 8bbc ff55 95bc f428 14ba
00000140: 9491 c03c 7be8 323c 8788 fdbc c533 7339
00000150: 0061 413c 92b3 4e3b 7a3c 353c deb3 823c
00000160: 5a68 0e3c 2047 a73b ca9b 4fbc bf6c 93bb
00000170: acb3 3b3c 654b 2b3c 2236 dfbb da5e 093c
00000180: 2fb3 3d3b f0e1 dfbc f468 d3bc 9e64 843c
00000190: 6bff eb3b 7bf5 25bb 53ab b2bb 1882 60bb
000001a0: 8313 c4bc 3254 423c 0583 95bc 2dac 88bc
000001b0: cede de3b 56d9 e8bc 67bb c2bc 941e 683c
000001c0: 376d d5bc 28ab f7bb 62f5 643c 17b0 c2bc
000001d0: 9b19 dc3b fb35 b8bc ba72 4f3c 1bb6 0f3c
000001e0: aec2 d5bc 35ff 733c e87e 683c b2fb 2e3b
000001f0: 6f8d cb3c 3ad5 bdbc 1fbd 303c 4da8 8aba
-0.022829043 -0.049974702 -0.026099073 -0.023266003 0.011663639 0.010700109 -0.024836158 -0.02666155
-0.029372586 -0.021655379 0.0036629355 -0.0053229113 0.00082403235 0.0028341657 -0.03233901 0.0120482
0.004733667 0.011936573 -0.022343073 0.0038069144 0.0048582293 0.0026214216 -0.020270895 0.005202627
0.009782532 -0.0029353392 -0.016362421 0.010826415 -0.024223506 -0.01903625 0.014096096 -0.0021160606
-0.013308889 0.009782262 0.016379124 0.009118707 -0.024142724 -0.014750894 0.011875766 -0.028012784
-0.00046704078 -0.025395146 0.001205437 -0.019326566 0.0041133594 0.0006772683 0.001129219 -0.020640476
0.013187235 0.0063833613 -0.021969657 -0.018699126 0.04759329 -0.020007458 -0.023075841 0.01543118
-0.036817063 0.013955924 0.0075859167 -0.021359155 -0.02103887 0.002860135 -0.0042997133 -0.01834267
0.0058617387 -0.007424511 0.0120892115 0.011202907 -0.017056089 0.009318577 -0.021367906 0.020520769
0.0067648953 -0.022055063 0.002611024 0.0074374066 -0.033448234 -0.016982406 -0.018229483 -0.00056518544
0.023506917 0.0109196855 -0.03094889 0.00023193572 0.011802912 0.0031540138 0.011061782 0.015954908
0.008691872 0.0051049143 -0.01267142 -0.0044990475 0.011456411 0.010454987 -0.006811873 0.008384431
0.0028945913 -0.027329415 -0.025806881 0.01616126 0.007202079 -0.002532332 -0.0054525523 -0.003425723
-0.023935085 0.011860894 -0.018250952 -0.016683662 0.0068014627 -0.028423946 -0.023771001 0.014167447
-0.026053054 -0.007558245 0.013974519 -0.023765607 0.0067169196 -0.022486677 0.01266163 0.008771445
-0.026093807 0.014892389 0.014190413 0.0026700315 0.024847714 -0.023172963 0.0107872775 -0.0010578722

critic.value_heads.value_heads.extrinsic.weight f4 [1, 128]
00000000: eed2 e1bd 4b00 2ebc c5e4 36be ad08 41be
00000010: d50b 2c3e 16d8 f03d d05c abbd d757 29be
00000020: 6988 6abd 921e b6bd fa1e 333d 41ca ec3c
00000030: a2d8 c93c 9c44 e43d 58af 01bd 9c20 43bd
00000040: 31cd f6bc e552 283c 53ea 60bd 84b9 153e
00000050: 8692 653c 8a4c 6c3d 5928 cbbd 9711 b23d
00000060: 7d75 ab3d 88e5 91bc efa1 a73b a7cb 2f3e
00000070: d9d6 93bd d8a9 96bb db42 563e 5f0b 03bd
00000080: 1f1a 9abb ae20 483e 02d4 a03d 2269 a53d
00000090: d735 05be 9ac4 06bd aa85 e53d 670d a6bd
000000a0: de2f 8dbc 5048 3ebe b30f f13c 73a2 26bd
000000b0: 74cb 223e 0dba 763c e0ad 5f3c af04 cfbd
000000c0: 469d a73c da2d a6bc 9199 c7bc b845 73bd
000000d0: dae8 a7bc f54b 363d e1d3 50be 3949 e3bc
000000e0: 81f9 2bbd 7864 613c 46af 293d fcb4 30bd
000000f0: f6b8 4ebe c0a9 a93d 9fad 2b3d f2a4 16bc
00000100: abeb 733e 8fae 303d 86a7 1e3e a108 183e
00000110: e91e 6bbd c956 593d d619 2ebe c907 3e3b
00000120: 4c9b ca3c 3280 04be db00 b8bc b2a3 c33d
00000130: 95c4 8bbd 2545 52bd 2420 20bd 5ec3 ebbc
00000140: 5863 2cbc 1f33 e63b 877a b8bd f030 bcbc
00000150: 7d7b 763d 2b79 d53d 72df a33d 715c ee3d
00000160: 737e a83d af88 433e 8144 2bbd 6c84 7f3d
00000170: de49 aa3c 90ad 283e a3db 163d 4a0d 053e
00000180: 54a0 0b3d 7fc2 4cbe 1e6d 94bd 72a0 863d
00000190: 15a8 fb3c 83a2 1fbd 21c3 b2bc 846c 77bd
000001a0: 960c 23be 721d d43d 67fb 2bbe d6b2 92bc
000001b0: 9f36 523d 69a3 06bd 8d5e 3dbe 773e 0abb
000001c0: 19e1 a4bd ed0a f53c 0327 263e dce0 36bd
000001d0: ac2f 5a3d 2cbb 93bd 875a 443d 675d 973d
000001e0: cecf 1abe b85e fe3d df78 403d 4f9d e23d
000001f0: 5c79 803c 54f2 59be ab9e c43c f371 e93c
-0.1102656 -0.010620187 -0.17860706 -0.18850966 0.16801389 0.11759965 -0.08367312 -0.16537414
-0.057258997 -0.088925496 0.043730713 0.028905036 0.024639431 0.11145899 -0.03166136 -0.04763852
-0.03012714 0.01027367 -0.05491097 0.1462155 0.014011985 0.05769018 -0.09919805 0.08694761
0.083720185 -0.017809644 0.0051157395 0.17167531 -0.07218713 -0.0045978837 0.20923941 -0.031993266
-0.004702821 0.19543716 0.07852937 0.08076693 -0.1300882 -0.032902338 0.11207135 -0.08108025
-0.017234739 -0.18582273 0.029426431 -0.040682267 0.15897924 0.015059006 0.013652295 -0.10108315
0.020460736 -0.020285536 -0.024365218 -0.05939266 -0.020496774 0.044506032 -0.20393325 -0.027744876
-0.041985992 0.013756864 0.04142692 -0.04314135 -0.20187744 0.0828433 0.041913625 -0.009194599
0.23820369 0.043135222 0.15493593 0.14847042 -0.057402525 0.05306128 -0.17002043 0.002899634
0.024732254 -0.12939528 -0.022461345 0.09552707 -0.068246044 -0.051335473 -0.03909315 -0.028779682
-0.010521732 0.007025137 -0.09007745 -0.022972554 0.06017636 0.104235016 0.08001603 0.116387255
0.08227243 0.1909511 -0.041813377 0.062382147 0.020787176 0.16472459 0.036830556 0.1299335
0.034088448 -0.1999607 -0.07247375 0.06573571 0.030719796 -0.038973343 -0.02182156 -0.060406223
-0.1592277 0.10357179 -0.16795121 -0.017907541 0.051321622 -0.032870684 -0.184931 -0.002109436
-0.080507465 0.029912436 0.1622582 -0.044648036 0.05326812 -0.072134346 0.047937896 0.07390862
-0.15118334 0.1242041 0.04699027 0.110651605 0.015682869 -0.21283847 0.02400144 0.028496718
