Learning/results/test5/KartAgent/KartAgent-11264.onnx (onnx, 108737 bytes, 7 tensors)

41 f4 [1, 2]
00000000: f09e 3e3c 0760 bdbb
0.011634573 -0.0057792696

distribution.mu.bias f4 [2]
00000000: b6b2 45b9 2722 66ba
-0.00018853959 -0.0008778893

distribution.mu.weight f4 [2, 128]
00000000: f85a 1dbc 64da 4a3c f26f 4c3b 56c9 0f3d
00000010: ef5e 423c 3b00 5e3c 9184 933b baa0 203d
00000020: 810f 4bbd cedf 58bc 04c9 7bbc 9e2d 5e3b
00000030: 5dea b83b 3bcd 0dbd 1ad3 5dbc d666 c1bc
00000040: 1d0f 023b 1751 353a de9e 2b3d 544f 843c
00000050: e699 efbb 409f c0bb cb9c 503c 9979 1b3d
00000060: 4b4a aebc bfb6 27bc 0efd 0a3d b0c8 8f3c
00000070: 1f2e 3fbc 59c2 85ba c232 3cbd e6c6 35bb
00000080: f701 263d 741b 093d b9b5 c73c 1350 aabb
00000090: 322f 5abc 28fa ccbc 3673 1e3c 661a 3b3d
000000a0: dbc4 0c3c 6e60 b8bb 9d57 35bc 1c62 933c
000000b0: ed86 903c 13d3 a3bb a0a9 82bb acbe d23b
000000c0: fae9 013c 8889 c2bb 055e 4bbc 2dd9 323c
000000d0: da3d a7bb d1c5 983c 335c d9bc 128d 843c
000000e0: 2db5 afbc 0504 393c 5a3b 933b 837d 073d
000000f0: f60b 603b 608d e0ba fc81 e1bc 658a efbc
00000100: 49cc ba3c 6600 50bc e9bd 053c 00e2 873b
00000110: d46e e8bc 3baf 9dba 213e 82bc 9788 913c
00000120: 3964 463c fe2a f3bb 31be dab9 e298 263c
00000130: 650b 67bc 732e 7c3b f6e4 da3c 9923 7b3c
00000140: 584d 9b3b fa7e ce3a 2a0b 50ba b91b 133d
00000150: 0d19 c63c afa8 2d3c 5c6a 453a 0422 a93c
00000160: 06f9 88bc 5dfd 4c3c 40f7 94bc 8ba1 edbc
00000170: ebe3 82bc 4a9a d73c ae48 b9ba 18a8 54bc
00000180: 0f56 863c 40ba 80bc eba3 ce3c 89c6 ecbc
00000190: a417 ec3b 249b 303d 7a84 76bc f6f8 953b
000001a0: bf35 893b 3087 beba b280 ec3a 4db8 543c
000001b0: a458 3f3c dfc0 e83b 031a 8fbc 9eaf 583a
000001c0: ca1e 5a3c af89 853a 9f9d af3c f0c3 e73b
000001d0: 7671 f13c 9c96 29bc d44f 483b 35a3 af3a
000001e0: b091 a53b 2594 1e3c 545d f7bb 98d3 723b
000001f0: ca9d 013d c21b 85bb 9343 26bc 32b7 2d3c
00000200: 0471 8fbc bc35 31bb 628b d4ba 97f9 3abc
00000210: 37f9 eebc ebbd e73b ae74 65bc 00dc e53c
00000220: afd6 853b ea64 84bb 6f61 0abd bb0b f63a
00000230: a9d0 cabb 17fa 22bc 9fc1 733c 698b 1c3d
00000240: b69b 36bc 8bcf d4bc 1e07 85bc b26a 343b
00000250: 2a99 32bc 9fc4 bcbb 989b 3cbc a278 41bd
00000260: 066c 1fbd 8454 5e3c 6e6c 963c c9bb 59bc
00000270: d898 a5bb 0818 7abb eb66 87bc 4a6c 413b
00000280: fb6b d93c 568b 193c e64c 753c a59e a23c
00000290: acd3 18bc d24a 60bc ab99 acbb 5a94 a3ba
000002a0: afe5 973b a715 d33b da44 4fbb eb2d cabc
000002b0: 0d2b aabb b61a 3e3a 6729 eabb 5a12 6b3c
000002c0: 4cbf 3c3d 15b2 bebc a76a b3bc 0813 46bc
000002d0: 7e28 aabc 8204 c5bc 8b9e e9b9 104e 2b3a
000002e0: d7eb ad3b 4a52 ee3b ddbf 8eba 772b 54bc
000002f0: 3aed 77bb 3ecf 343d c566 e2bb 8891 95bc
00000300: 6204 e7bc bbb2 aebc d62a 3bbc 0e3e 7a3b
00000310: b573 c9bc 499c 82bc f294 cdbb 9b99 49b9
00000320: 1c23 413c 2744 33ba 1594 093d 21e5 913c
00000330: f2e7 a4bc 71a4 a03c ade0 b3bb 6268 ac3c
00000340: 58ab 253b 4630 143c 69e1 883a 8d6d a3bc
00000350: 52c6 d9bc 7860 07bc 2f81 52bc 79c8 9cbc
00000360: a676 b1bc 8e6b ff3b e5cb e0ba 862d 4e3c
00000370: 24af 26bd eb68 d039 c7f2 c83a 053a 2b3d
00000380: 9cc5 0ab7 3165 21bc c6fd 72bc 7fb2 023c
00000390: 043e 88bb 7017 14bd 4460 0a3d 9a2f 8c3c
000003a0: fb25 16bb ebca 243c 0396 c23b d19c e03c
000003b0: 5723 703b ba36 c33b e903 41bc 8722 03bc
000003c0: c4ad c9b9 9f01 e639 5b61 4dbb 5f31 b53c
000003d0: 4146 853b fe38 2db9 4a3f 89bc 975a 4e3b
000003e0: 2661 26bb 2603 e63b 35ba 123b 42d4 ecbc
000003f0: 9aef 2b3b 8a79 b0ba 6e5d c73c 0836 73b9
-0.009604208 0.01238117 0.0031194654 0.03510412 0.011863454 0.01354986 0.004501887 0.03921578
-0.049575333 -0.013236953 -0.01536775 0.0033901702 0.0056431727 -0.03461955 -0.0135391 -0.023608606
0.0019845434 0.00069166854 0.041899554 0.016151108 -0.0073120473 -0.005878359 0.012732695 0.03795776
-0.02127566 -0.010236441 0.033932738 0.01755175 -0.011668711 -0.0010205015 -0.045946844 -0.002773696
0.040529218 0.033473447 0.024378644 -0.005197534 -0.013316916 -0.025021628 0.009671023 0.045679472
0.008591856 -0.0056267297 -0.011068252 0.017991118 0.017642463 -0.0049995272 -0.003987506 0.0064314213
0.0079293195 -0.005936805 -0.012412553 0.010916037 -0.005103809 0.018649014 -0.026533222 0.016180549
-0.021448696 0.011292462 0.0044931592 0.03307868 0.0034186817 -0.0017131977 -0.027527802 -0.029240796
0.022802489 -0.0126954075 0.008162954 0.0041468143 -0.02837316 -0.0012030372 -0.015898766 0.017765326
0.012108856 -0.0074208966 -0.00041721904 0.010168286 -0.014101838 0.0038479834 0.026720505 0.015328311
0.0047394447 0.0015754395 -0.0007936234 0.03591511 0.024181867 0.010599299 0.00075308024 0.020646103
-0.016720306 0.012511578 -0.018184304 -0.029007694 -0.01597782 0.026318688 -0.001413604 -0.01297953
0.016398458 -0.01571381 0.025224647 -0.028903263 0.0072049666 0.043116704 -0.015046233 0.0045767976
0.0041873152 -0.0014536139 0.0018043725 0.012983394 0.011678848 0.00710307 -0.017468458 0.0008265915
0.013313005 0.0010188128 0.021437464 0.007072918 0.029473048 -0.0103508495 0.003056516 0.001340008
0.0050527677 0.009678875 -0.0075489674 0.003705239 0.03164462 -0.004062147 -0.010147947 0.010602759
-0.017509945 -0.0027040085 -0.0016215856 -0.011412046 -0.02917157 0.0070722005 -0.014004869 0.028059006
0.00408443 -0.00404035 -0.033784326 0.0018771806 -0.006189425 -0.009947321 0.014877706 0.03821889
-0.011145523 -0.02597787 -0.016238745 0.0027529416 -0.010900775 -0.0057607437 -0.011511706 -0.047234185
-0.03892138 0.013569955 0.01836225 -0.0132894 -0.005053621 -0.0038161296 -0.016528567 0.0029514008
0.026540747 0.009371599 0.014971947 0.019851038 -0.00932781 -0.013689714 -0.005267342 -0.0012480125
0.0046355347 0.00644179 -0.0031626732 -0.024680099 -0.0051931203 0.0007251905 -0.007146049 0.014347637
0.046080872 -0.023278276 -0.021901442 -0.012089498 -0.020771261 -0.024050001 -0.00044559347 0.00065347645
0.0053076553 0.007272993 -0.001089092 -0.012949816 -0.0037830607 0.044142954 -0.0069092237 -0.018257871
-0.028200332 -0.02132546 -0.011423787 0.003818396 -0.024591306 -0.015943663 -0.006273859 -0.00019226076
0.011788156 -0.00068384636 0.033588488 0.017809452 -0.020130131 0.019609662 -0.00548943 0.021045867
0.002527913 0.009044712 0.0010443154 -0.019949699 -0.026583824 -0.008262746 -0.012848183 -0.019138562
-0.021663021 0.007794804 -0.0017150609 0.012584096 -0.04069437 0.00039751022 0.0015331142 0.04180338
-8.2714505e-06 -0.009850786 -0.014831012 0.007977127 -0.0041577835 -0.036155164 0.033783212 0.017112542
-0.0022910822 0.010058145 0.005938293 0.027418526 0.0036642158 0.0059574516 -0.011780717 -0.008003837
-0.00038467173 0.00043870226 -0.0031338546 0.022118269 0.004067213 -0.00016519797 -0.016753811 0.0031487101
-0.0025387495 0.0070194183 0.002238882 -0.028909806 0.0026235343 -0.0013463956 0.024336543 -0.00023194414

network_body.linear_encoder.seq_layers.0.bias f4 [128]
00000000: 67fa ebbb ee49 ac39 9a99 f13b 9631 49bc
00000010: 2b44 5bbc 00e8 683b b4bb b93b 5250 6d3c
00000020: a51c 21bb 6ea0 e0bb bcff a839 109d 7f3c
00000030: a334 1dbb c2e0 e63b 7522 363c 707d 93ba
00000040: 1335 daba a612 7a3c 7bc0 f5bb e277 093c
00000050: e5b5 3e3c db35 bdba cd59 12bc 8c4c 79bb
00000060: 3643 033c 7b9c 263b cc84 f9bb 83d4 c13b
00000070: 59e4 a1bc 0369 363a 6c80 e53a d7fc b9bc
00000080: f616 0f3c 1e2a d6bb 4b98 26bb 0016 b53a
00000090: ac3e 8bbb e379 91bb 74c5 b53a a589 2b3c
000000a0: 8119 383c 42d4 1ebc 9656 47bb 492d 223b
000000b0: 10eb 65ba b5b6 d3bb 9ae8 4abb d5ef 1cbb
000000c0: e84b bd39 3442 dd3c c17b d2bb 84cf 3a3c
000000d0: cda9 733c b5cc 6f3c d735 30bb 1671 e9bb
000000e0: 006c 83ba 4537 22bc 784c 1239 458c a1bc
000000f0: 373b 3dbb 95ef 973a f80f 853b 191d 863a
00000100: 80e5 013b bac1 55bc 0148 af3b 3658 973b
00000110: 2bb2 86bb 25f8 0dbc 9b3d 05ba 84b1 713a
00000120: f586 613b a945 30bc 68aa 84bc 49b8 a6bb
00000130: 083b a1b8 96b8 603b ae55 813b 5a80 333c
00000140: 1d37 163c dbbf efbb 3028 b33b c883 5f3c
00000150: 1910 0a3b 6f4e 20bb c269 6cbb bd89 0a38
00000160: 8d53 6bbb 937c 103b 0a83 493b 5c6d b8bb
00000170: 6a97 84bb b35b b63b c68b ef3b b8b1 0cbc
00000180: 5ac8 9b3c 4400 bc3b 2d42 e9b8 a49e c2ba
00000190: 87bf 563c 4899 24bb 570a 2b3a c4a2 043b
000001a0: e798 123c e9c1 9d3b 13de 67bb df12 70ba
000001b0: 5f99 f2bb 1b07 793c 829e 433a b29e 55bc
000001c0: ba90 0f3b 746e 9ebc afa7 10bc 2ccc 29bb
000001d0: 6bb8 a8bb c571 81bb 707f 8d3b 0644 e1bb
000001e0: 2317 9139 869c b8bb 4ad3 923b 2546 8a3b
000001f0: 72ad f4bb 657b ae3b fe65 733a abc2 1abc
-0.007201481 0.00032861478 0.007373047 -0.012279889 -0.013382952 0.0035538673 0.005668128 0.014484482
-0.0024583724 -0.006855062 0.00032233994 0.015601411 -0.0023987673 0.007045836 0.011116614 -0.0011252593
-0.0016647897 0.015263235 -0.007499752 0.008390399 0.011640047 -0.0014435606 -0.008932543 -0.003804001
0.00801163 0.002542286 -0.0076147076 0.005915226 -0.019762205 0.0006958397 0.0017509586 -0.022703571
0.008733502 -0.0065357825 -0.0025420364 0.0013815761 -0.0042494144 -0.004439579 0.001386805 0.010469829
0.011236549 -0.009694161 -0.00304166 0.002474623 -0.0008770684 -0.0064609894 -0.0030961395 -0.0023946662
0.00036105444 0.027009107 -0.006423444 0.011402015 0.014872027 0.014636208 -0.002688756 -0.0071240766
-0.0010026693 -0.009900873 0.00013952132 -0.019720206 -0.0028874406 0.0011591787 0.0040607415 0.001023206
0.001982063 -0.013046676 0.0053491597 0.00461867 -0.0041105947 -0.008665119 -0.00050827273 0.00092198723
0.0034412716 -0.010758796 -0.016194537 -0.0050878865 -7.688074e-05 0.003428971 0.0039469814 0.010955894
0.0091684135 -0.007316572 0.005467437 0.013642259 0.0021066724 -0.0024460813 -0.0036073779 3.3030043e-05
-0.0035907954 0.0022046908 0.0030748271 -0.005628271 -0.0040463703 0.0055651306 0.0073103635 -0.008587293
0.019016434 0.0057373364 -0.00011122632 -0.0014848304 0.013107187 -0.0025115777 0.0006524673 0.0020238617
0.008947588 0.0048143757 -0.003538017 -0.00091580854 -0.007403537 0.015199448 0.0007462279 -0.013038324
0.0021906332 -0.019339778 -0.008829041 -0.002590905 -0.0051489375 -0.00395033 0.0043181702 -0.006874564
0.00027673793 -0.0056338934 0.004480754 0.0042197877 -0.0074669654 0.0053247684 0.00092849124 -0.0094458265

network_body.linear_encoder.seq_layers.0.weight f4 [128, 77]
00000000: 45b0 8b3d 5036 8cbd adc7 4ebd 47d9 18bd
00000010: 7549 c5bd 7c33 75be 0a46 c03c f46a 663d
00000020: 9414 07be e888 963d 74c4 fabd b5ac 73bc
00000030: f2bb 19bd 8cb2 2fbd 64df 083e 42d8 26be
00000040: 2e05 f93b 3d39 35be 7fe5 84bd 6953 1b3e
00000050: 9de5 093e 9a1e 57be db01 febd 4f98 043e
00000060: e729 b8bd 46a3 c63c fb4d 6b3d ee1a d9bd
00000070: ad57 11be c58e 0c3e ce5d 0a3e d781 c8bd
00000080: 0b0f 6f3e e9c4 d23d ccc7 bc3d a0c6 9cbd
00000090: f58d cdbd 8b7d 5aba c094 a43c 925d 43bd
000000a0: 9b8a 3fbd bb19 673e b0ef a0bd 27fa dcbd
000000b0: 9453 143e 93f2 37be a870 403d aff1 c93d
000000c0: 4e90 e3bd 90a5 47be b966 99bd 7a1f ab39
000000d0: 8e96 e3bd 4759 363e fd3e 64be c253 a73d
000000e0: 729b 3d3d 1b63 12be ada3 24bd c84a 323e
000000f0: 1f13 e43d 594b 16be 8983 17bd f5c6 003e
00000100: ae07 b53c c61e ca3d bb61 22bd 129b 81bd
00000110: cbcf 573e 04a4 ed3d 92e1 9a3c 48ef 8fbd
00000120: 6514 563e 1610 8a3d bfde 463d db53 3c3e
00000130: 805d 62bd 4c8b 46be 5817 95bc 481c c23d
00000140: 03ad 8fbd 38f8 0e3e 02a3 aabd 09fe 8e3d
00000150: f8fd 1e3e 9ba1 b8bd b235 1d3e 0dde 8e3c
00000160: d0e1 aabd ad1e b33d 67ee 4abe 8c1b 20bd
00000170: f742 a43d d559 743d 7612 e3bd 3cf6 88bd
00000180: f4c2 08bd 9d85 0fbe 3492 cd3c f8c2 e43d
00000190: cb5a 823d e1da 25bc 0fc9 303e 914f 3f3c
000001a0: 6089 dbbc 2c56 1c3e 8708 e4bd 6e27 173e
000001b0: 8d49 03bb a8a3 293e 831d a2bd 7b5f 173d
000001c0: acad a83a 024f 8e3d 6926 a53c 8746 f93d
000001d0: 705e 8dbe 893d 943d df2f 4dbd f073 c73d
000001e0: ba38 06bd 7fec f63d 5175 0ebe ace9 32bd
000001f0: 0136 303e b259 3fbe d7b4 fa3d eddd 733d
00000200: fb93 b03d 4fe6 b53d e647 8d3e 986d a23d
00000210: 50aa 30be 41b4 833d 86f1 893d 351c 243d
00000220: ac59 313e 11d6 b2bc f6fc 99bd 4249 fc3d
00000230: d78c c93d 4599 b13d acd1 65bd 2f5a 99bc
00000240: 9de5 343e 5bf1 613d a6cf 743e d809 99bb
00000250: fb39 27bc fe82 8fbe 0791 d7bd 2da1 f03d
00000260: 6fd4 733c 0b4c af3b 9e89 d23c 3262 e73d
00000270: 1367 533e e19f a23b 0a2f 8dbd 23d7 08be
00000280: 27cf 033e 73fc 9e3d ce9a acbc 360a e1bd
00000290: eba0 653e 50b9 cf3d ee06 a4bb eb93 40bd
000002a0: d2aa 303d 7f98 09bb d2d9 15be c3e5 50bc
000002b0: b0d9 1e3d c5ac 433e 1f33 d0bd a99d 763e
000002c0: 6979 85be c04c 853c e10e e53c 7b5b 2ebe
000002d0: ca72 0fbd b508 913d 7cae 00be a248 983d
000002e0: 0ef5 2a3d 4ab4 613d 701b 573e ee58 e2bb
000002f0: e973 a0bc 531a 073d 719b 59bc 13dd f7bc
00000300: 08fd 533d 4fe1 9c3d ff55 c33d dcce 2d3d
00000310: 634d bcbd 0eda fc3b 90f8 fdbd df9d 08be
00000320: 97e3 29be 6155 16be 277b d139 371b 8abe
00000330: f66c b4bd f0e9 753d 4544 dcbb be4a 6cbd
00000340: affc 8bbd 6179 1c3e 601e ee3d c2ba b33d
00000350: f09e 8dbd 5c6a e13d ecfc fdbd 19b0 57bd
00000360: 4637 bebd 0f8d 22bb d5f3 27bd 444b d3bc
00000370: 5041 573e 920a 82bd dded 92bd c364 8ebd
00000380: d163 aabb b044 583d 8125 a03d 1013 e5bc
00000390: 4f18 22be 4848 2abd 3e4f 2f3c 36b4 6cbd
000003a0: e0f4 07be 0b53 a93d 1363 60bc be11 24bb
000003b0: ae25 933e 90a1 bf3d b633 54bc 2c47 a7bc
000003c0: 5bc5 a7ba 030d f1bc 81c2 64bd c132 a6bd
000003d0: dfaf 003c f73e 953d 57af c6bd e0a9 2d3d
000003e0: e28c 1d3e 2193 09be 9d62 893c 21f6 20bd
000003f0: d3e7 703d 91f4 3f3e 71aa a5ba 4a3f b9bd
0.0682073 -0.06846297 -0.050483394 -0.037316587 -0.096331514 -0.23945421 0.023470897 0.056254342
-0.13191444 0.073503315 -0.12244502 -0.0148727195 -0.037532754 -0.042894885 0.13366467 -0.16293433
0.0075994944 -0.17697616 -0.064890854 0.15168537 0.13466497 -0.21007767 -0.12402698 0.12948726
-0.08992367 0.024247777 0.057447415 -0.106008396 -0.14193602 0.13726337 0.13512346 -0.0979039
0.23345582 0.10291464 0.09217796 -0.07655072 -0.10036842 -0.00083347474 0.02009046 -0.047696657
-0.046763044 0.22568409 -0.07858217 -0.107899 0.14485008 -0.17963628 0.046982437 0.098605506
-0.11111508 -0.19496751 -0.07490296 0.00032639113 -0.111127004 0.17807494 -0.22289653 0.081702724
0.046290822 -0.14295618 -0.040195156 0.1741134 0.111364596 -0.1467718 -0.036990676 0.12575896
0.022098389 0.09869151 -0.039643984 -0.063284054 0.2107536 0.11603549 0.018906388 -0.07028061
0.20906217 0.067413494 0.04855227 0.18391363 -0.05526495 -0.19389075 -0.018199608 0.094780505
-0.07015421 0.13961875 -0.083318725 0.06982047 0.15526569 -0.09015199 0.15352514 0.017439866
-0.083438516 0.08746085 -0.19817506 -0.03908877 0.08020585 0.059655983 -0.110875055 -0.066875905
-0.033389047 -0.14015813 0.02509413 0.1117 0.06364974 -0.010122986 0.17264198 0.011676685
-0.026798904 0.15267247 -0.11134439 0.14761135 -0.0020032853 0.16566336 -0.07915785 0.03695629
0.0012869141 0.06948663 0.020159917 0.12171655 -0.27611113 0.072382994 -0.05009448 0.0973891
-0.032768942 0.12056827 -0.1391194 -0.043679878 0.17208101 -0.1868656 0.12241524 0.059537817
0.08621975 0.088818185 0.27593917 0.079310596 -0.17252469 0.06430865 0.0673552 0.040065963
0.17319363 -0.02183059 -0.075189516 0.1231866 0.09841316 0.08671812 -0.05610816 -0.01871976
0.17665716 0.055161815 0.23907337 -0.004670363 -0.010206695 -0.28029627 -0.10525709 0.11749492
0.014882191 0.005349641 0.025700387 0.11298026 0.20644788 0.0049629067 -0.068937376 -0.13363318
0.12871991 0.077629946 -0.02106991 -0.10988276 0.22424667 0.101427674 -0.005005709 -0.047016066
0.043131657 -0.0020995436 -0.14633873 -0.012750092 0.03878182 0.19108875 -0.101660006 0.2408358
-0.2606919 0.016271949 0.027961196 -0.17027085 -0.03502158 0.07081739 -0.1256656 0.074357286
0.04173761 0.055103578 0.2100656 -0.006907574 -0.01958652 0.03298409 -0.013281689 -0.030256784
0.05175498 0.07660162 0.09537887 0.042433605 -0.09194448 0.007716424 -0.12400925 -0.13341473
-0.16590725 -0.14681007 0.00039955342 -0.26973888 -0.08809845 0.060037553 -0.0067220055 -0.057688467
-0.06835305 0.15280677 0.11626887 0.087758556 -0.069150805 0.110066146 -0.12401757 -0.052658174
-0.09287886 -0.0024803316 -0.04100402 -0.025792725 0.21021008 -0.063496724 -0.07174275 -0.069528125
-0.0051998873 0.05279988 0.07819653 -0.027963191 -0.15829585 -0.04157284 0.010700045 -0.05778905
-0.13277006 0.08267792 -0.013695496 -0.002503499 0.28739685 0.093569875 -0.012951782 -0.02041968
-0.0012799905 -0.02942515 -0.055849556 -0.08115149 0.007854431 0.072874 -0.09701412 0.042398334
0.15385774 -0.13435031 0.016770655 -0.039297227 0.058814835 0.18745638 -0.0012639296 -0.090452746

network_body.linear_encoder.seq_layers.2.bias f4 [128]
00000000: 9bc1 1abb f211 913b eed1 493c ee3d dcba
00000010: a9b7 013b e8d4 9f3b d865 7bbb d96b e93a
00000020: 4f69 ebba 927d 8abb e5f9 f4b9 5340 6a3b
00000030: 2d00 763b 2e52 a6b9 9a53 1bbb 34c2 933b
00000040: ec1f 943b b6e4 333b 06e4 283b c6e7 b9ba
00000050: 609f 85bb f144 c9bb 8225 2f3b 2246 333b
00000060: 9b9f 133a 6039 96bb 76b9 44bb b2b1 c8ba
00000070: 7d46 f1ba 537b 42bc 34e4 02bb 7fe9 193b
00000080: 0285 efb9 122a e63a ea43 11bb e3b7 2eb9
00000090: 5c88 54bb 5cbb deba 86c7 7a3b 4499 f03a
000000a0: de2f ad3b 635d 54bb 407a a4ba f473 cf3a
000000b0: dd64 11bb a7cc cbba 0d6c 0cbc 00ec c63a
000000c0: 47f2 c1b9 3f2b 09bb ee8c 8d3a e9b0 b9bb
000000d0: a9e5 40bb 8cea 61bb 5fd8 feba fa4e b43b
000000e0: d1df 9239 8299 89ba e3b9 113b a9d8 aeba
000000f0: f9cc 0f3c 343c 5cba 49ff 153b e10a 5e3a
00000100: 2b46 843a 08db 8cb9 6999 b93b 248c 883c
00000110: ad3f 40ba 3c83 5ebb dd24 3e3b b5a7 1abb
00000120: 9a69 a7b9 a4b0 35bb 947d 1a3b 379b a43b
00000130: 6b10 07ba 97ed d23a b0cb 043b 96b7 67bb
00000140: 88f3 4f3c b6d4 353c 5456 83bb 5c14 3ebb
00000150: efd8 2b3a 052b beba 7151 e83b 2254 ceb9
00000160: fcd4 6c3b 030e 73bb eb41 5ebb 2e90 ff3a
00000170: 81a1 383b e79a 04bb 37d4 5cbc 7b07 373b
00000180: 7cdd 963c c8f2 24bb c4ae fa3a 93cd e8ba
00000190: 3b22 1a3b 7b0b 2b38 1a15 193b 45da 283b
000001a0: 04ec 8fba 613c b139 2894 813b 1e5e 9cbb
000001b0: 7044 893b 34ba 61ba 8772 45bb 8a8a 34bc
000001c0: d7b2 b5bb d5a2 19bb 7623 d5ba a6a6 893b
000001d0: a823 02ba da42 8bbb fa28 0fbb 7b4c d4ba
000001e0: b6fd 1dbc 1df0 aabb f0c7 05bc b6c0 aaba
000001f0: fca4 633b 6926 6d37 658c 283b 2ccb babb
-0.0023613933 0.004427188 0.012318118 -0.0016803124 0.0019793308 0.0048776753 -0.0038360264 0.001780863
-0.0017960462 -0.004226395 -0.00046725493 0.0035743907 0.0037536726 -0.00031723216 -0.0023700953 0.004509235
0.004520407 0.0027449555 0.0025770678 -0.0014183454 -0.004077837 -0.0061422517 0.0026725237 0.0027355035
0.0005631388 -0.0045844764 -0.003001777 -0.0015311746 -0.0018407848 -0.011870223 -0.0019972445 0.0023485122
-0.0004568473 0.0017560145 -0.0022165724 -0.00016662436 -0.003242991 -0.0016993093 0.0038265898 0.0018356224
0.005285247 -0.0032404296 -0.001254864 0.0015827403 -0.0022185363 -0.0015548662 -0.008570683 0.0015176535
-0.0003699234 -0.0020930318 0.0010799447 -0.0056668413 -0.0029433763 -0.0034472076 -0.0019443146 0.005502579
0.00028014046 -0.0010498019 0.0022236041 -0.0013339716 0.008776897 -0.0008401305 0.0022887758 0.0008470249
0.0010091712 -0.00026866072 0.00566404 0.016668387 -0.0007333707 -0.0033952734 0.0029013671 -0.0023598496
-0.00031931401 -0.0027723694 0.0023573386 0.005023386 -0.0005152288 0.0016092536 0.0020263009 -0.0035357228
0.01269234 0.0110980775 -0.004008094 -0.0029003834 0.0006555458 -0.001450867 0.0070897867 -0.00039354066
0.003613769 -0.003708721 -0.0033913802 0.0019497925 0.0028172436 -0.002023393 -0.01347833 0.0027928043
0.018416159 -0.0025169123 0.001912557 -0.0017761461 0.0023518938 4.078027e-05 0.0023358525 0.0025764864
-0.0010980372 0.00033805057 0.003954429 -0.004771962 0.0041890666 -0.0008610815 -0.0030128078 -0.011019358
-0.005545001 -0.0023443003 -0.0016261179 0.0042007742 -0.00049644196 -0.0042499127 -0.0021844492 -0.0016197109
-0.009643009 -0.005216612 -0.008165345 -0.0013027403 0.003473579 1.4135244e-05 0.0025718447 -0.0057004895

network_body.linear_encoder.seq_layers.2.weight f4 [128, 128]
00000000: b3fe 863d e7ec bdbd 4bda 363d be6f 28bd
00000010: 2932 2bbe 7c8b 553e ec96 20be 9ff4 8e3d
00000020: 27db 3a3e 9e00 0dbd af0d bfbc ec33 ffbd
00000030: fb68 103d e2c1 36be f29f fcbc 95d4 903d
00000040: 217f 0dbe 769b d5bd ce86 643e fb8b ac3c
00000050: 2807 a33c ec73 93bd 763e 1a3e 71b0 e43d
00000060: 428f d7bc 9430 ad3d d1aa 003e 4a0f 573d
00000070: e8f1 0b3d 879e 6abc 332d f0bc 5997 07be
00000080: 40dc 403d 625d 0cbd 9726 00be 2365 3abc
00000090: a71c 45bd 448b ac3d 2256 993a c7df 23be
000000a0: 3e55 ea3c 2f06 503b 47c7 bebd 9e64 e9bd
000000b0: abe6 b23c 3512 173d 0b9f cf3d 1c95 d03b
000000c0: dddb b93d 82ce b5bd 6250 99bd 4523 163e
000000d0: f64e 4c3c ac4d 063e bdb7 aa3d e4af b53d
000000e0: c3dc 933d c42b f53c ad9d 75bd 0775 843c
000000f0: 89bf d43d 8345 643d a41c c8bc 0e9a 363d
00000100: 6114 d0bb b5a5 a4bd c3c4 2dbe 2790 e0bc
00000110: edeb 39bd e7a8 42bc a136 a83d a237 eb3d
00000120: 17fb f33c bfe7 cf3b 7788 213c dea9 483d
00000130: 7282 8dbc 9a97 4b3d 6423 f9bb 0b45 abbd
00000140: 5fb8 b83c c8d7 893d ea44 d23d ffd9 c53c
00000150: 0cc0 62bc 0dbc 503b 9a03 c2bd 0533 9dbc
00000160: d1fd 923d 5390 97bd 8da0 d8bd 08e9 2d3e
00000170: 3b9c 813c 5bfa 9d3d a2aa 15bd 7c10 343c
00000180: 7ecd 8cbd edf9 9a3c 7cc7 0bbd d5d0 e53d
00000190: e50e ec3d b73e c03d 57d6 063c a5a9 c33c
000001a0: aa13 7b3c 4a00 84bc e477 693d 5331 8a3d
000001b0: e794 093e 877d b3bd 7f48 67bd 9df0 93bc
000001c0: e56a 9ebd cbb6 243b d5e3 233d 8495 1d3d
000001d0: af41 a5bd db8d 4cbd f08b 063c 0a35 4a3d
000001e0: 5b9b 43be 889e 64bd b995 b43c 5f6c 8dbc
000001f0: 7ff3 2abd 7995 89bd df39 b8bb 8b94 8ebd
00000200: 82e8 f13c 67a9 afba f822 e1bd c405 fabd
00000210: 86dc 9b3d 89de fe3d a756 e73d de7f f53b
00000220: 8e03 253d 4b0d 9c3d 430b 8cbd 5b6a debc
00000230: 98c5 953d 241a 763d 6542 1abe 8a60 9c3d
00000240: d908 babd 5e72 2a3e 201d b33d 30df 2b3e
00000250: 44a2 873d 0e36 363e 6df1 963d fc0c 373d
00000260: 3541 f43d 85f2 493e 7b05 e7bd 5e6d 59bd
00000270: c6af 53bc 8c78 6dbd d66f 043e d6d2 353d
00000280: 58ce ffbc e104 c73d ca47 ccbd bc3b 2e3d
00000290: b89f 043c 6bd9 40be 3d13 573d b99f d33d
000002a0: 4104 123c 8275 ac3c d12a 0ebe d5f9 2b3d
000002b0: ce88 37bd fff8 0cbe 7c0a 953c 0a8a d4bd
000002c0: 4782 6fbc cb4b 513b 133e 9e3d e083 ab3d
000002d0: c8ac 193e deb3 363d 9cd6 373c c52a 89bd
000002e0: 7d69 2fbd 9c5c bfbd d7f1 04be 3d41 5f3e
000002f0: 8f97 89bd 343f 37bc a2a4 e4bc 42cc a53d
00000300: ffb3 343e 902a 1bbb 60d3 56bc 991a f43c
00000310: b224 723b 90a7 4dbd f5cf aa3d 366d 13bd
00000320: 89d2 2a3d be5d e13c a50a f83d 7658 30bd
00000330: ba2a 433e 2616 273e 9363 0ebe 9434 443d
00000340: 3d28 903d 6c6f 90bc 5630 413d e791 bc3d
00000350: ef1e bfbc 5a8e 153d 7fc8 ccbc b3b3 883d
00000360: 1b3a 903d 729f 143e 80a9 6fbe 7474 90be
00000370: 5a75 6c3d 7364 2cbe 841a 87bc e077 26bc
00000380: c2ce f5bc d579 b53b dfed 29bd 7152 33bd
00000390: 6cc3 143e a493 793c d90e d53d b2f7 2c3e
000003a0: 36b1 723d 8c87 f0bd 70e0 ccbd bc00 4c3d
000003b0: cc86 1e3d 68aa 5fbe 1129 4c3d 9c8d d4bd
000003c0: e157 523d 3212 9ebd 7be2 173e 5dc8 83bd
000003d0: 8b0c 45be 32c3 ea3c 5798 cf3d eee9 093e
000003e0: fcf1 e1bd 97c0 3a3e 90c9 adbd 66e6 14be
000003f0: 66d9 c9bd abc5 78bc ba66 2abe b62f cabd
0.06591549 -0.09273701 0.044641774 -0.04112219 -0.16718353 0.2085399 -0.15682572 0.069802515
0.18247662 -0.034424417 -0.023321955 -0.12461075 0.035256367 -0.17847398 -0.030837987 0.07071797
-0.13818027 -0.104300424 0.22317049 0.021062842 0.019900873 -0.07199845 0.1506289 0.11166466
-0.026313428 0.08456531 0.12565161 0.052504815 0.034166247 -0.014320022 -0.029318428 -0.13241328
0.047085047 -0.034268744 -0.12514721 -0.011376652 -0.048123028 0.08425 0.0011698643 -0.16003333
0.0286051 0.0031741967 -0.09315353 -0.11396144 0.021838507 0.036882598 0.10137757 0.0063654315
0.09075139 -0.08877279 -0.07486035 0.14661892 0.012469998 0.13115567 0.083358265 0.08871439
0.07219841 0.029928096 -0.059964824 0.016169084 0.10388095 0.055730354 -0.02442772 0.04458051
-0.0063500856 -0.080394186 -0.1696959 -0.027412487 -0.045391012 -0.01188109 0.08213545 0.114852205
0.029782815 0.006344765 0.009859196 0.048990123 -0.017274115 0.049705125 -0.007603096 -0.08362778
0.022548852 0.0673061 0.102670506 0.0241518 -0.013839733 0.0031850368 -0.09473343 -0.019189367
0.07177318 -0.074005745 -0.10577498 0.16983426 0.015821567 0.07713767 -0.03653968 0.010990258
-0.06875132 0.018918002 -0.03412579 0.11221472 0.115262784 0.09386962 0.008229814 0.023884604
0.0153245125 -0.01611342 0.056999102 0.06747689 0.13435708 -0.08764177 -0.056465622 -0.01805907
-0.07735232 0.0025133367 0.0400122 0.038472667 -0.08069169 -0.04993997 0.008212075 0.04936699
-0.19102232 -0.05581525 0.02204405 -0.01726359 -0.041736122 -0.06717963 -0.005622133 -0.06961926
0.029529814 -0.0013401926 -0.10992998 -0.12208131 0.07610421 0.12444789 0.112958245 0.0074920496
0.040286593 0.07619723 -0.068380855 -0.027150324 0.07313079 0.060083523 -0.1506439 0.07635601
-0.09083719 0.1664519 0.087457895 0.16784358 0.066227466 0.17794058 0.07370267 0.044690117
0.119265 0.1972142 -0.11280342 -0.053082816 -0.012920326 -0.05797629 0.12933287 0.044390522
-0.031226322 0.097177275 -0.0997463 0.042537436 0.008094721 -0.18832938 0.05250858 0.10333199
0.008912147 0.021052126 -0.1388352 0.041986305 -0.0448082 -0.1376686 0.018193476 -0.10377891
-0.014618463 0.0031936045 0.077266835 0.083747625 0.15007317 0.04460513 0.0112206 -0.06697611
-0.04282521 -0.09343836 -0.1298288 0.2180223 -0.06718361 -0.011184502 -0.027910534 0.080956
0.17646788 -0.0023676492 -0.013111919 0.029797839 0.0036948142 -0.05020863 0.08340446 -0.035992824
0.04170469 0.02751052 0.12111405 -0.043053113 0.19059268 0.16317043 -0.13905172 0.047901705
0.07038925 -0.017631255 0.047165237 0.09207516 -0.02333018 0.03651271 -0.024997948 0.066749
0.07042333 0.14513949 -0.23404503 -0.28213847 0.057729103 -0.16835193 -0.016492136 -0.010160416
-0.030005816 0.005538205 -0.041486617 -0.043779794 0.14527673 0.015232954 0.104032226 0.16891363
0.059251033 -0.117446035 -0.100037456 0.049805388 0.03870277 -0.21842349 0.04984385 -0.10378572
0.05135334 -0.07718314 0.14832489 -0.06434701 -0.19243066 0.02865753 0.101364784 0.13468143
-0.11032483 0.1823753 -0.084857106 -0.14541015 -0.098559186 -0.0151838465 -0.1664075 -0.098723814
