Learning/results/test5/KartAgent/KartAgent-704.onnx (onnx, 108737 bytes, 7 tensors)

41 f4 [1, 2]
0	0x00000000	0.0
1	0x00000000	0.0

distribution.mu.bias f4 [2]
0	0x00000000	0.0
1	0x00000000	0.0

distribution.mu.weight f4 [2, 128]
0	0x3b707ee2	0.0036696722
1	0xbb8334d4	-0.0040041003
2	0xb9206473	-0.0001529621
3	0x3bb87e2d	0.0056302757
4	0xbc175ce7	-0.009238458
5	0xbd1ad2d7	-0.03779873
6	0xbb6017d0	-0.003419388
7	0xbc0f6fd4	-0.008754689
8	0xbc2e6b9c	-0.010645773
9	0xba0986fd	-0.000524625
10	0x3d089c80	0.033352375
11	0x3a79372d	0.0009506818
12	0xbcaa2e83	-0.020774132
13	0xbca050d5	-0.019569794
14	0xbaadf3d1	-0.0013271515
15	0xbc4a8703	-0.012361291
16	0x3c75e1ef	0.01500748
17	0xbb3a9de0	-0.0028475448
18	0xbb35c837	-0.0027737746
19	0xbc639440	-0.013890326
20	0x3ca5a86f	0.020221917
21	0xbbf4cc50	-0.007470645
22	0xbcf8c3bb	-0.030366769
23	0x3c639642	0.013890805
24	0x3c5e0d88	0.013553031
25	0xbc767fa7	-0.015045083
26	0x3be5409f	0.006996229
27	0xbc6dae50	-0.014506891
28	0x3c2da9c4	0.010599557
29	0x3c361258	0.011112772
30	0xb9b88613	-0.00035195108
31	0xbbaab574	-0.005209619
32	0x3c37cd70	0.011218414
33	0xbcc8bfd5	-0.024505535
34	0x3c9bc10b	0.019012948
35	0x3c1fa317	0.0097434735
36	0x3b0c7263	0.0021430484
37	0x3bfe035b	0.007751865
38	0xbc8ef0ef	-0.01744887
39	0xbc5ef610	-0.013608471
40	0x3cb6b191	0.022301467
41	0xbac0a7ab	-0.0014698406
42	0xbc6d8c3b	-0.014498766
43	0xbbeffbe0	-0.007323727
44	0x3c08f534	0.008359242
45	0xbb7e0b95	-0.0038764228
46	0x3c2ac6fb	0.010423417
47	0xbce6d5ff	-0.028178213
48	0x3c294b8c	0.010332953
49	0x3c932bbb	0.017965188
50	0xbafcd398	-0.0019289134
51	0x3be6a22d	0.007038376
52	0xbb0eb96d	-0.0021778003
53	0x3c19aebf	0.009380042
54	0x3c964c16	0.018346827
55	0xbbab701f	-0.0052318717
56	0x3cfad532	0.030619238
57	0x3c8be98e	0.017079141
58	0xbcc11ff9	-0.023574816
59	0xbbedffba	-0.007263151
60	0xbcbe3fd9	-0.023223804
61	0x3aac59c9	0.0013149317
62	0xbc936c02	-0.017995838
63	0xbca876e1	-0.020564498
64	0xbc93b41f	-0.018030224
65	0x3c31b643	0.010846677
66	0x3bc82e3c	0.006109027
67	0x3bb3230f	0.005466826
68	0x3c59ed2b	0.013301174
69	0xbd0da4b3	-0.034580898
70	0x3b9fb5ec	0.0048739817
71	0x3c6486b7	0.013948134
72	0xbbc780f0	-0.0060883686
73	0x3c2f89ca	0.010714004
74	0x3cd9acbb	0.026571622
75	0xbba4f0c9	-0.0050335866
76	0xbd07c627	-0.033147957
77	0x3c7824d3	0.015145498
78	0x3c369976	0.011144986
79	0xbbdc254f	-0.0067183147
80	0xbbd59742	-0.0065182755
81	0x3b9df4bc	0.0048204344
82	0x3cc33d49	0.023832934
83	0xbc707e3a	-0.014678532
84	0xbb0f0293	-0.0021821603
85	0xbce59a15	-0.028027574
86	0x3cd4203a	0.025894273
87	0x3bd55857	0.006510775
88	0x3c0163e2	0.007897349
89	0x3c75d297	0.015003822
90	0x3c4c2d4d	0.012461972
91	0xbc4b776b	-0.012418608
92	0x3b43580f	0.0029807126
93	0xbc9664b8	-0.018358573
94	0x3c83d85e	0.016094383
95	0xbbb40afb	-0.005494473
96	0x3cf2390a	0.029568214
97	0xbcfa9e83	-0.030593162
98	0x3c6e4d63	0.014544818
99	0x3c10f507	0.008847482
100	0xbaee7c0a	-0.0018194926
101	0x3c87452c	0.016512476
102	0x392368fa	0.00015583998
103	0x3b4aa04d	0.00309183
104	0x3b9f920b	0.0048697046
105	0xbd060258	-0.03271708
106	0xbc4095b7	-0.011754445
107	0x3c2b80a8	0.010467686
108	0xbc4b43c3	-0.012406292
109	0x3c834efe	0.016028877
110	0xbc66e27a	-0.014092082
111	0x3c219837	0.009862951
112	0xbb2d2352	-0.0026418758
113	0x3c993925	0.018704006
114	0xbcc31d9b	-0.023817828
115	0x3c31d47c	0.010853883
116	0x3cb4c781	0.022067787
117	0x3ca20ac7	0.01978053
118	0x3c9548a9	0.018223124
119	0xba485803	-0.00076425093
120	0x3c11cf56	0.00889953
121	0xbc8bbae4	-0.01705689
122	0x3c837c1b	0.016050389
123	0xbc116e5a	-0.0088764075
124	0xbb9127a1	-0.004429773
125	0xbc17fbcb	-0.009276341
126	0xbbed0332	-0.007233047
127	0x3c87280e	0.016498592
128	0xbb937fad	-0.004501304
129	0xbc2a1200	-0.010380268
130	0xbaaa928f	-0.0013013649
131	0x3c56cbd8	0.013110124
132	0x3cb56d5a	0.02214687
133	0x3bfaf978	0.0076591335
134	0x3c080edc	0.008304324
135	0xbbdb7d97	-0.006698321
136	0x3ad3ec03	0.001616836
137	0xbc126f73	-0.008937704
138	0x3cabe261	0.02098197
139	0x3b073baa	0.0020634928
140	0xbc234651	-0.009965495
141	0xbbaa5bc0	-0.0051989257
142	0x3c52134d	0.0128219845
143	0x3b35e674	0.002775577
144	0x3cf97465	0.030451009
145	0xb9426e17	-0.00018542293
146	0xbc8b988f	-0.017040519
147	0xbc9ec344	-0.01938022
148	0x3cb903e5	0.022584865
149	0x3b3a300f	0.0028409993
150	0xbb95326c	-0.00455313
151	0xbc9789eb	-0.018498382
152	0xbb25ea30	-0.0025316589
153	0x3c9cafb7	0.019126756
154	0x3ca2306f	0.019798486
155	0xbd370302	-0.044680603
156	0xbc9c3235	-0.01906691
157	0xbbdd7d5f	-0.00675933
158	0x3a81278a	0.0009853703
159	0x3c8aa97f	0.016926525
160	0xbc1274e0	-0.008938998
161	0xbc4403d8	-0.011963807
162	0x3bd6a62f	0.0065505723
163	0xbac1f427	-0.0014797495
164	0xbb256e8c	-0.0025242893
165	0x3c5bcd0a	0.013415584
166	0x3b5843bf	0.0032999364
167	0x3c6e3ea5	0.014541303
168	0x3b54ee93	0.0032490834
169	0x3c4bff1a	0.012450958
170	0x3bd7ddb3	0.006587708
171	0x3c089c86	0.008338099
172	0xbc62e8f8	-0.013849489
173	0xbc0fef4b	-0.008785079
174	0xbcddc5d8	-0.027071878
175	0x3cedd9f5	0.029034594
176	0x3ce025e7	0.027361823
177	0x3cbd988b	0.023144027
178	0x3cc82165	0.024429986
179	0x3c3aa372	0.011391507
180	0xbc9cd8dd	-0.019146377
181	0x3c3b1a50	0.011419848
182	0x3d2e9c9a	0.042629816
183	0x3ca7c0c2	0.020477656
184	0x3cefc448	0.029268399
185	0x3b89da29	0.004206915
186	0x3d211937	0.039330687
187	0x3c0c1c77	0.008551708
188	0xbc477409	-0.012173661
189	0xbd3d0fae	-0.04615753
190	0x3c747ecd	0.01492281
191	0xbc2c2179	-0.010506027
192	0xbcae8ec3	-0.021308308
193	0xbb62c838	-0.0034604203
194	0x3c8be863	0.017078584
195	0xbd1c253d	-0.03812145
196	0x3c2ada4d	0.0104280235
197	0xbc95e0e2	-0.018295709
198	0x3b687d1d	0.0035474964
199	0x3cd1054b	0.02551522
200	0xbace2fa8	-0.0015730755
201	0xbc548feb	-0.012973766
202	0x3bf226a2	0.0073898593
203	0x3ce2363d	0.027613753
204	0x3bd32095	0.006443093
205	0x3b67c415	0.0035364677
206	0xbc19b8ec	-0.009382468
207	0x3c8acfe9	0.016944842
208	0xbcf2f23f	-0.029656528
209	0xbc3e109f	-0.011600642
210	0x3b1ac27f	0.0023614464
211	0x3c1091e5	0.0088238465
212	0xbbf69afa	-0.007525799
213	0xbbe662cf	-0.007030822
214	0xbafe2600	-0.0019389987
215	0xbc12676d	-0.008935791
216	0xbb75da15	-0.003751402
217	0xbbdacbb0	-0.0066771135
218	0x3c17f6f3	0.009275186
219	0xbaeadb20	-0.0017918088
220	0xbcd4fc1d	-0.025999123
221	0xbc9141eb	-0.017731627
222	0x3ba74319	0.005104434
223	0xbc124bfb	-0.008929248
224	0xbd2cba6b	-0.04216997
225	0x3a5310f5	0.0008051538
226	0x3c40c2af	0.011765166
227	0xbcde7727	-0.027156426
228	0xbc0cd2d5	-0.008595188
229	0x3c9ca792	0.019122873
230	0x3a28e026	0.0006442092
231	0x3c70fffb	0.014709468
232	0x3a3008ff	0.0006715208
233	0xbc52f5cb	-0.012875984
234	0xbc5666ca	-0.01308603
235	0x3d44ece7	0.04807749
236	0x3cc3b5ce	0.023890402
237	0x3cbbfb62	0.022947017
238	0x3cb6bd03	0.022306925
239	0xbc3ecce6	-0.011645531
240	0x3c45f89a	0.012083197
241	0x3ccafc0b	0.024778387
242	0x3c1bb382	0.009503247
243	0x3ce68f0a	0.028144378
244	0xbc889992	-0.01667479
245	0xbcec77a5	-0.028865645
246	0xbae88902	-0.0017741027
247	0x3cfb7653	0.03069607
248	0xbd37a057	-0.044830646
249	0xbbb0f83f	-0.005400687
250	0xbc9643ea	-0.01834293
251	0x3c0febbf	0.008784234
252	0xbb7216ba	-0.0036939816
253	0xbcdb98ea	-0.026806314
254	0x3c696792	0.0142458845
255	0xbd2581f4	-0.040407136

network_body.linear_encoder.seq_layers.0.bias f4 [128]
0	0x00000000	0.0
1	0x00000000	0.0
2	0x00000000	0.0
3	0x00000000	0.0
4	0x00000000	0.0
5	0x00000000	0.0
6	0x00000000	0.0
7	0x00000000	0.0
8	0x00000000	0.0
9	0x00000000	0.0
10	0x00000000	0.0
11	0x00000000	0.0
12	0x00000000	0.0
13	0x00000000	0.0
14	0x00000000	0.0
15	0x00000000	0.0
16	0x00000000	0.0
17	0x00000000	0.0
18	0x00000000	0.0
19	0x00000000	0.0
20	0x00000000	0.0
21	0x00000000	0.0
22	0x00000000	0.0
23	0x00000000	0.0
24	0x00000000	0.0
25	0x00000000	0.0
26	0x00000000	0.0
27	0x00000000	0.0
28	0x00000000	0.0
29	0x00000000	0.0
30	0x00000000	0.0
31	0x00000000	0.0
32	0x00000000	0.0
33	0x00000000	0.0
34	0x00000000	0.0
35	0x00000000	0.0
36	0x00000000	0.0
37	0x00000000	0.0
38	0x00000000	0.0
39	0x00000000	0.0
40	0x00000000	0.0
41	0x00000000	0.0
42	0x00000000	0.0
43	0x00000000	0.0
44	0x00000000	0.0
45	0x00000000	0.0
46	0x00000000	0.0
47	0x00000000	0.0
48	0x00000000	0.0
49	0x00000000	0.0
50	0x00000000	0.0
51	0x00000000	0.0
52	0x00000000	0.0
53	0x00000000	0.0
54	0x00000000	0.0
55	0x00000000	0.0
56	0x00000000	0.0
57	0x00000000	0.0
58	0x00000000	0.0
59	0x00000000	0.0
60	0x00000000	0.0
61	0x00000000	0.0
62	0x00000000	0.0
63	0x00000000	0.0
64	0x00000000	0.0
65	0x00000000	0.0
66	0x00000000	0.0
67	0x00000000	0.0
68	0x00000000	0.0
69	0x00000000	0.0
70	0x00000000	0.0
71	0x00000000	0.0
72	0x00000000	0.0
73	0x00000000	0.0
74	0x00000000	0.0
75	0x00000000	0.0
76	0x00000000	0.0
77	0x00000000	0.0
78	0x00000000	0.0
79	0x00000000	0.0
80	0x00000000	0.0
81	0x00000000	0.0
82	0x00000000	0.0
83	0x00000000	0.0
84	0x00000000	0.0
85	0x00000000	0.0
86	0x00000000	0.0
87	0x00000000	0.0
88	0x00000000	0.0
89	0x00000000	0.0
90	0x00000000	0.0
91	0x00000000	0.0
92	0x00000000	0.0
93	0x00000000	0.0
94	0x00000000	0.0
95	0x00000000	0.0
96	0x00000000	0.0
97	0x00000000	0.0
98	0x00000000	0.0
99	0x00000000	0.0
100	0x00000000	0.0
101	0x00000000	0.0
102	0x00000000	0.0
103	0x00000000	0.0
104	0x00000000	0.0
105	0x00000000	0.0
106	0x00000000	0.0
107	0x00000000	0.0
108	0x00000000	0.0
109	0x00000000	0.0
110	0x00000000	0.0
111	0x00000000	0.0
112	0x00000000	0.0
113	0x00000000	0.0
114	0x00000000	0.0
115	0x00000000	0.0
116	0x00000000	0.0
117	0x00000000	0.0
118	0x00000000	0.0
119	0x00000000	0.0
120	0x00000000	0.0
121	0x00000000	0.0
122	0x00000000	0.0
123	0x00000000	0.0
124	0x00000000	0.0
125	0x00000000	0.0
126	0x00000000	0.0
127	0x00000000	0.0

network_body.linear_encoder.seq_layers.0.weight f4 [128, 77]
0	0x3e103c37	0.1408547
1	0x3d97b461	0.074074514
2	0xbe4b0182	-0.19824794
3	0x3d25008b	0.04028372
4	0x3d79547e	0.060871594
5	0x3e819c13	0.25314388
6	0xbdfd1760	-0.12357974
7	0xbcbbbfbd	-0.022918576
8	0x3e124533	0.1428421
9	0x3d8d168f	0.06889068
10	0x3db80bdd	0.08986638
11	0x3da6a849	0.081375666
12	0xbd68b2b9	-0.05681107
13	0xbe0a86db	-0.13528006
14	0xbc83cb52	-0.016088162
15	0x3e2a1e5b	0.16613142
16	0x3d227e9c	0.039671525
17	0xbc432baa	-0.011912266
18	0xbd9867b1	-0.074416526
19	0xbe1fa274	-0.15589315
20	0xbc2eea1c	-0.010675933
21	0xbda60fa9	-0.08108456
22	0x3d5e8d28	0.054333836
23	0x3d0483ba	0.032352187
24	0x3e316a7b	0.17325775
25	0xbe1679ac	-0.14694852
26	0x3e9b01d4	0.30274832
27	0xbc8ae120	-0.016953051
28	0x3e16daac	0.14731854
29	0xbde351cc	-0.11099586
30	0x3dcd3cd6	0.10021369
31	0xbd87c8b5	-0.06630079
32	0x3e4eedb5	0.20207866
33	0x3e2d0ac1	0.16898634
34	0x3cd8ab4b	0.026448866
35	0x3e0e19af	0.13876985
36	0x3cabe15b	0.020981481
37	0x3e8f1e51	0.27952817
38	0x3e0cf52e	0.13765404
39	0x3df6179e	0.12016223
40	0xbe30d382	-0.17268184
41	0xbda5e693	-0.08100619
42	0xbda6e2f4	-0.081487566
43	0xbdd995e5	-0.10624293
44	0xbdf9177f	-0.12162685
45	0xbe27ad4a	-0.16374698
46	0x3cf3fce9	0.029783683
47	0xbe31b371	-0.17353608
48	0x3d97d368	0.074133694
49	0xbd5e4ae8	-0.054270655
50	0xbe3e9c9f	-0.18614434
51	0xbe8c6daa	-0.27427417
52	0x3dfb6254	0.12274614
53	0xbd2b956a	-0.04189054
54	0xbe1f7c13	-0.15574674
55	0xbdfbc942	-0.12294246
56	0x3df6ca43	0.12050297
57	0x3da7a439	0.0818562
58	0xbdf0a363	-0.117499135
59	0xbe1d9726	-0.1538969
60	0x3c83f102	0.016106132
61	0x3d80368c	0.06260404
62	0x3d8280d3	0.063722275
63	0xbe1e2755	-0.15444691
64	0xbdaf66da	-0.08564539
65	0xbbc5148e	-0.006014413
66	0xbd10d32d	-0.035357643
67	0xbc713055	-0.014720996
68	0x3dbc56bf	0.09196233
69	0x3e6bb61f	0.23018692
70	0x3e2c2319	0.16810264
71	0x3df82f55	0.12118403
72	0x3da8d816	0.0824434
73	0xbe2c7a5e	-0.16843554
74	0xbdd97024	-0.10617092
75	0xbd787ff2	-0.060668893
76	0x3dcbaf15	0.099455036
77	0x3d518a5b	0.051157337
78	0x3e1229f6	0.1427382
79	0x3e0d2581	0.13783838
80	0x3e1d4217	0.15357243
81	0x3d4d0c7a	0.050060727
82	0xbd6968ae	-0.056984596
83	0xbd937b83	-0.07201292
84	0xbe356b00	-0.17716599
85	0x3e6c6b3b	0.2308778
86	0x3e35fdcc	0.17772597
87	0xbe37935c	-0.17927307
88	0xbe4953a2	-0.1966081
89	0xbe0efe1b	-0.13964121
90	0x3c5401ef	0.012939914
91	0xbc60ea33	-0.013727712
92	0x3e8a9f4b	0.27074656
93	0x3e00e63b	0.12587826
94	0x3e021c5c	0.1270613
95	0x3e54262e	0.2071769
96	0xbd84425b	-0.06457969
97	0x3d9d6e6b	0.07687076
98	0x3d826809	0.063674994
99	0x3cc2b6b8	0.023768768
100	0xbd046946	-0.03232696
101	0x3da08350	0.07837546
102	0x3df33ec1	0.11877204
103	0x3e5d74cd	0.21626587
104	0xbd61e11d	-0.055146325
105	0x3dcb487b	0.09925934
106	0x3dd1e8bd	0.102494694
107	0xbc7b0666	-0.01532135
108	0x3da0e811	0.07856763
109	0xbdd1fb0d	-0.10252962
110	0x3d01a718	0.031653494
111	0x3c9eb161	0.01937169
112	0x3e38a146	0.18030271
113	0x3d5a0724	0.053229466
114	0x3da632c1	0.08115149
115	0x3da15956	0.078783676
116	0xbc60d04d	-0.013721538
117	0x3d8d2756	0.06892268
118	0x3db69824	0.08915737
119	0x3cf41161	0.029793443
120	0x3dd384ef	0.103280894
121	0x3d4194db	0.0472611
122	0x3e0e60f6	0.13904175
123	0xbdfc1357	-0.12308376
124	0x3e0fed56	0.1405538
125	0xbd1eebff	-0.038799282
126	0x3c69ecbd	0.014277634
127	0xbe0bae1d	-0.13640638
128	0xbe433aba	-0.19065371
129	0xbe2dd13c	-0.16974348
130	0xbdf62c26	-0.120201394
131	0xbe0727e4	-0.13198811
132	0x3dc89edf	0.09795927
133	0xbe13050b	-0.14357392
134	0xbd7c1ebc	-0.061552748
135	0xbe2b53fe	-0.16731259
136	0x3e20e9d2	0.15714195
137	0xbd8fa6c4	-0.0701423
138	0xbd25f062	-0.04051245
139	0xbaf37547	-0.001857438
140	0xbe8194eb	-0.25308928
141	0x3e054944	0.1301623
142	0x3e31a5d4	0.17348415
143	0xbd7419b9	-0.059594844
144	0x3e0cbea4	0.13744599
145	0x3c366b00	0.011133909
146	0xbde173f4	-0.110084444
147	0x3d559868	0.0521473
148	0xbe03ce2b	-0.12871616
149	0x3e0ab838	0.13546836
150	0x3e22513b	0.158513
151	0xbd6be94b	-0.057595532
152	0x3bf0dc5a	0.0073504867
153	0x3d40d97b	0.047082406
154	0x3dba3162	0.0909145
155	0xbddb3de1	-0.10705162
156	0x3ceb8a80	0.028752565
157	0xbdaa68b6	-0.08320753
158	0x3d0538fd	0.03252505
159	0x3dfbf628	0.1230281
160	0xbd2d58a9	-0.04232088
161	0x3c8dd450	0.017313153
162	0xbce58dcd	-0.028021717
163	0xbe898efd	-0.26866904
164	0xbe493605	-0.19649513
165	0x3d4999b4	0.04921885
166	0xbd6c2e85	-0.057661552
167	0x3c8ba4f1	0.017046424
168	0x3bec2d9a	0.0072075846
169	0x3e38d0a8	0.18048346
170	0xbd97d5c5	-0.0741382
171	0x3e74559a	0.2386078
172	0x3d3f4ecc	0.046706006
173	0xbb9a0bc3	-0.004701109
174	0x3c051f7e	0.008125184
175	0xbd8de17c	-0.06927773
176	0x3e00cc40	0.12577915
177	0xbe7ba046	-0.24572858
178	0xbdaf8034	-0.08569375
179	0x3dffb5a8	0.1248582
180	0xbdac829b	-0.084233485
181	0xbc46cc68	-0.012133695
182	0x3d166336	0.03671571
183	0x3c149c25	0.009070431
184	0xbd9915f2	-0.07474889
185	0xbe310870	-0.17288375
186	0xbdd3707f	-0.10324191
187	0x3e223d82	0.15843776
188	0x3e51d41a	0.20491067
189	0xbbd86c34	-0.0066046957
190	0xbd7f7985	-0.06237175
191	0xbd9bd46a	-0.07608874
192	0xbc519763	-0.012792441
193	0xbd32f9a1	-0.043695096
194	0xbe400953	-0.18753557
195	0xbdfdc23d	-0.12390564
196	0xbca79a6b	-0.020459374
197	0xbc84989a	-0.016186047
198	0xbca5c816	-0.02023701
199	0x3d142f15	0.036177713
200	0x3d1e5278	0.038652867
201	0x3e916b4e	0.2840218
202	0xbdb7564d	-0.089520074
203	0xbd28b2b3	-0.041186046
204	0x3d5bdcaa	0.05367724
205	0x3e2c7234	0.1684044
206	0xbe15f446	-0.14643964
207	0xbdcc2124	-0.099672586
208	0xbdb7e7ff	-0.089797966
209	0x3e14e508	0.14540493
210	0xbe261701	-0.16219713
211	0x3ea304ff	0.3183975
212	0x3d6e422e	0.058168583
213	0x3cfd305b	0.030906847
214	0x3e0e1ff1	0.13879372
215	0x3e398536	0.18117222
216	0xbd474324	-0.048648015
217	0x3e7a3ceb	0.24437301
218	0x3df3805e	0.118897185
219	0xbd6a7c9d	-0.057247747
220	0x3e24effd	0.16107173
221	0xbca85d94	-0.020552434
222	0x3bbf5cca	0.0058399187
223	0xbdb4bb44	-0.088247806
224	0xbcae2bcf	-0.021261124
225	0x3dd8b1ad	0.10580764
226	0xbe4b7cd3	-0.19871835
227	0x3d43f2fb	0.047839146
228	0xbd6e47d6	-0.058173977
229	0xbdf7a418	-0.12091845
230	0xbde5ff5c	-0.112303466
231	0x3dc57227	0.096409135
232	0x3c313821	0.010816605
233	0x3dec5d0f	0.11541187
234	0xbe13700d	-0.14398213
235	0xbd543d57	-0.05181631
236	0xbdcc5908	-0.09977919
237	0xbd554603	-0.05206872
238	0x3b492b17	0.003069585
239	0x3e337a3b	0.17527096
240	0x3e1d0d41	0.15337087
241	0x3d2f4de1	0.04279888
242	0x3e33c51d	0.17555661
243	0x3d637f08	0.05554107
244	0x3da9e7b0	0.08296144
245	0xbd811e05	-0.06304554
246	0xbe64d21d	-0.22345777
247	0xbd44300e	-0.04789739
248	0x3d155c23	0.03646482
249	0x3ea13c1f	0.3149118
250	0x3e49d9ef	0.19712041
251	0xbe289eb2	-0.16466787
252	0xbd3cc6b8	-0.04608795
253	0x3de94b96	0.1139137
254	0xbe05e881	-0.13076974
255	0x3da982a4	0.08276871

network_body.linear_encoder.seq_layers.2.bias f4 [128]
0	0x00000000	0.0
1	0x00000000	0.0
2	0x00000000	0.0
3	0x00000000	0.0
4	0x00000000	0.0
5	0x00000000	0.0
6	0x00000000	0.0
7	0x00000000	0.0
8	0x00000000	0.0
9	0x00000000	0.0
10	0x00000000	0.0
11	0x00000000	0.0
12	0x00000000	0.0
13	0x00000000	0.0
14	0x00000000	0.0
15	0x00000000	0.0
16	0x00000000	0.0
17	0x00000000	0.0
18	0x00000000	0.0
19	0x00000000	0.0
20	0x00000000	0.0
21	0x00000000	0.0
22	0x00000000	0.0
23	0x00000000	0.0
24	0x00000000	0.0
25	0x00000000	0.0
26	0x00000000	0.0
27	0x00000000	0.0
28	0x00000000	0.0
29	0x00000000	0.0
30	0x00000000	0.0
31	0x00000000	0.0
32	0x00000000	0.0
33	0x00000000	0.0
34	0x00000000	0.0
35	0x00000000	0.0
36	0x00000000	0.0
37	0x00000000	0.0
38	0x00000000	0.0
39	0x00000000	0.0
40	0x00000000	0.0
41	0x00000000	0.0
42	0x00000000	0.0
43	0x00000000	0.0
44	0x00000000	0.0
45	0x00000000	0.0
46	0x00000000	0.0
47	0x00000000	0.0
48	0x00000000	0.0
49	0x00000000	0.0
50	0x00000000	0.0
51	0x00000000	0.0
52	0x00000000	0.0
53	0x00000000	0.0
54	0x00000000	0.0
55	0x00000000	0.0
56	0x00000000	0.0
57	0x00000000	0.0
58	0x00000000	0.0
59	0x00000000	0.0
60	0x00000000	0.0
61	0x00000000	0.0
62	0x00000000	0.0
63	0x00000000	0.0
64	0x00000000	0.0
65	0x00000000	0.0
66	0x00000000	0.0
67	0x00000000	0.0
68	0x00000000	0.0
69	0x00000000	0.0
70	0x00000000	0.0
71	0x00000000	0.0
72	0x00000000	0.0
73	0x00000000	0.0
74	0x00000000	0.0
75	0x00000000	0.0
76	0x00000000	0.0
77	0x00000000	0.0
78	0x00000000	0.0
79	0x00000000	0.0
80	0x00000000	0.0
81	0x00000000	0.0
82	0x00000000	0.0
83	0x00000000	0.0
84	0x00000000	0.0
85	0x00000000	0.0
86	0x00000000	0.0
87	0x00000000	0.0
88	0x00000000	0.0
89	0x00000000	0.0
90	0x00000000	0.0
91	0x00000000	0.0
92	0x00000000	0.0
93	0x00000000	0.0
94	0x00000000	0.0
95	0x00000000	0.0
96	0x00000000	0.0
97	0x00000000	0.0
98	0x00000000	0.0
99	0x00000000	0.0
100	0x00000000	0.0
101	0x00000000	0.0
102	0x00000000	0.0
103	0x00000000	0.0
104	0x00000000	0.0
105	0x00000000	0.0
106	0x00000000	0.0
107	0x00000000	0.0
108	0x00000000	0.0
109	0x00000000	0.0
110	0x00000000	0.0
111	0x00000000	0.0
112	0x00000000	0.0
113	0x00000000	0.0
114	0x00000000	0.0
115	0x00000000	0.0
116	0x00000000	0.0
117	0x00000000	0.0
118	0x00000000	0.0
119	0x00000000	0.0
120	0x00000000	0.0
121	0x00000000	0.0
122	0x00000000	0.0
123	0x00000000	0.0
124	0x00000000	0.0
125	0x00000000	0.0
126	0x00000000	0.0
127	0x00000000	0.0

network_body.linear_encoder.seq_layers.2.weight f4 [128, 128]
0	0x3d061c76	0.032741986
1	0x3dad92c0	0.08475256
2	0xbbf6d096	-0.0075321896
3	0xbd6c4c82	-0.05769015
4	0x3d9657e1	0.0734098
5	0x3dc5ff83	0.096678756
6	0xbe130215	-0.14356263
7	0x3e3d359d	0.18477483
8	0xbcf07005	-0.02935029
9	0xbd3b1f0c	-0.045683905
10	0xbd37631a	-0.044772245
11	0xbe471b1b	-0.19443934
12	0xbd9ce49d	-0.07660792
13	0x3d174838	0.036934108
14	0xbe81eb85	-0.25375
15	0xbe033ba0	-0.12815714
16	0xbd22d132	-0.039750285
17	0xbac5cc65	-0.0015090822
18	0x3cf2d66d	0.029643262
19	0x3d4ffb8a	0.050776996
20	0x3d527d2f	0.051388916
21	0x3d640e11	0.055677477
22	0xbe2016ae	-0.15633652
23	0x3c511d22	0.012763293
24	0xbbfaf382	-0.007658423
25	0x3dc958a9	0.09831364
26	0xbd902bbc	-0.07039592
27	0xbda1b2c7	-0.07895427
28	0xbda5a587	-0.080882125
29	0xbda7a9cc	-0.08186683
30	0x3d95c914	0.07313743
31	0xbc8b2997	-0.016987605
32	0x3dc46a45	0.09590582
33	0x3e144b36	0.14481816
34	0x3cd19931	0.025585743
35	0x3ab2233a	0.0013590821
36	0xbdb1b2a2	-0.0867665
37	0x3d97c043	0.07409718
38	0x3da7d218	0.08194369
39	0x3d4e120f	0.05031019
40	0xbd747f70	-0.059691846
41	0x3dadc5e2	0.08485009
42	0xbcd4a55e	-0.02595776
43	0xbdf73dc7	-0.1207233
44	0xbe4b9530	-0.1988113
45	0x3b60815f	0.0034256799
46	0x3d5d8ee0	0.054091334
47	0xbe0814fc	-0.13289255
48	0xbdb74e24	-0.08950451
49	0xbb4148bc	-0.0029492816
50	0xbc91f49c	-0.017816834
51	0x3db6a3b9	0.08917946
52	0xbe0dab89	-0.13834967
53	0x3d06f484	0.032948032
54	0xbd6f0861	-0.0583576
55	0x3b331975	0.0027328406
56	0x3d234da7	0.039868977
57	0x3e5ae547	0.21376525
58	0xbbfc733c	-0.0077041667
59	0x3dbacf67	0.0912159
60	0x3e452e83	0.19256024
61	0xbc035906	-0.00801683
62	0x3de55a40	0.111988544
63	0xbb891c27	-0.004184264
64	0x3b9343a5	0.004494148
65	0x3dee7aee	0.11644541
66	0xbe269958	-0.16269433
67	0xbe0738ed	-0.13205309
68	0x3dd18b2a	0.102316216
69	0xbd614e75	-0.055006463
70	0xbd8e9163	-0.06961324
71	0x3d2a3e9d	0.04156362
72	0xbcc3ae10	-0.02388671
73	0xbe2bb70f	-0.1676905
74	0x3cc82e30	0.024436086
75	0x3d923023	0.071380876
76	0xbcace783	-0.021106487
77	0xbda84395	-0.08216015
78	0x3c40ce1d	0.011767891
79	0x3c83d838	0.016094312
80	0x3e15653d	0.145894
81	0x3db5f578	0.0888471
82	0xbb08d34c	-0.0020877896
83	0x3d315f8a	0.043304004
84	0x3c05f5c5	0.008176272
85	0x3cd5d2fb	0.02610158
86	0x3d3116bd	0.043234576
87	0xbcfb6b17	-0.030690713
88	0x3df4f639	0.11961026
89	0x3d82dbcd	0.0638958
90	0x3e5ab6fb	0.21358864
91	0x3c8b4b66	0.017003726
92	0x3d746be1	0.059673194
93	0xbcbb58fe	-0.022869583
94	0x3ddbdb3c	0.10735175
95	0x3d022eb8	0.031782836
96	0x3e20bf60	0.15698004
97	0x3db583b7	0.08863013
98	0xbd4167ad	-0.047218014
99	0xbde7cd70	-0.11318481
100	0x3dc362d4	0.09540334
101	0x3d0d3fa8	0.034484535
102	0xbc91c5ae	-0.017794456
103	0x3c37cabf	0.011217772
104	0xbb6a8894	-0.0035786973
105	0xbb84af71	-0.0040492346
106	0xbc99ae8e	-0.018759992
107	0xbbeba1e1	-0.0071909283
108	0x3c9b2748	0.01893963
109	0x3ca36ca7	0.01994927
110	0xbdc2f4ac	-0.09519324
111	0x3df5f68b	0.12009915
112	0xbd068443	-0.03284098
113	0x3dc14681	0.09437276
114	0xbc0259e0	-0.007955998
115	0xbd69762e	-0.05699747
116	0xbd4a514d	-0.04939394
117	0xbd1ddf70	-0.038543165
118	0xbca6606a	-0.020309646
119	0xbd22e3ec	-0.039768144
120	0x3e3266d2	0.17422035
121	0xbcd3825c	-0.025818996
122	0x3c8b1d11	0.016981633
123	0xbc3d067d	-0.011537191
124	0xbdd06c48	-0.10176903
125	0x3e03da0e	0.1287615
126	0x3ca0d92d	0.019634807
127	0x3d9ca422	0.07648493
128	0xbb8be644	-0.004269393
129	0xbcac937b	-0.021066418
130	0x3dd9ee8b	0.106412016
131	0xbc968ce5	-0.01837773
132	0x3ea878c2	0.3290463
133	0xbd8f7015	-0.070038
134	0xbde88374	-0.11353198
135	0xbd87539f	-0.06607746
136	0xbe157a4f	-0.14597438
137	0x3c9e10ac	0.01929506
138	0xbb8ee0b0	-0.004360281
139	0xbdf34706	-0.11878781
140	0x3e8b943b	0.27261528
141	0x3ca770a8	0.02043946
142	0x3d4bfe74	0.049803212
143	0xbe12e165	-0.14343794
144	0xbe2d25a6	-0.16908893
145	0xbd7658d9	-0.060143325
146	0xbda3941e	-0.079872355
147	0x3e2542f6	0.16138825
148	0xbdaea414	-0.08527389
149	0xbcea22f7	-0.028581126
150	0x3e8791e4	0.26478493
151	0xbc7ecde4	-0.015552018
152	0x3db55f5c	0.08856079
153	0xbd4873c1	-0.048938517
154	0xbd379ce5	-0.04482736
155	0x3d6d300b	0.057907145
156	0xbd8efb18	-0.06981486
157	0xbc993777	-0.018703206
158	0xbd7e9751	-0.062156025
159	0x3d073488	0.033009082
160	0x3d39da26	0.04537406
161	0x3d4d1d94	0.050077036
162	0x3df37aff	0.11888694
163	0x3c20a10e	0.009804023
164	0xbd85e2d7	-0.06537407
165	0x3ce94258	0.028474018
166	0x3d23f18a	0.04002527
167	0xbbc28366	-0.005936074
168	0xbd601267	-0.05470505
169	0x3dd91539	0.10599751
170	0x3e026bbd	0.12736411
171	0x3d109128	0.03529468
172	0xbe7f81eb	-0.24951904
173	0xbe014d4c	-0.12627143
174	0xbd438c8a	-0.04774145
175	0x3d87e7d4	0.066360146
176	0x366a6071	3.4924853e-06
177	0xbc1edb6e	-0.009695871
178	0xbc6176a9	-0.013761201
179	0x3e10f103	0.14154439
180	0xbd8e4136	-0.06946032
181	0xbcefcaf7	-0.029271586
182	0x3c7f6f83	0.015590551
183	0xbbf72e28	-0.007543344
184	0xbd253a60	-0.040338874
185	0xbd8cdeb9	-0.068784185
186	0xbcc27ab7	-0.023740156
187	0x3d25d059	0.0404819
188	0xbbac6f15	-0.0052622654
189	0xbcccac3a	-0.024984468
190	0xbd572abd	-0.052530993
191	0x3e23703b	0.15960781
192	0xbcef7150	-0.029228836
193	0xbd879bc2	-0.06621505
194	0xbdcb2e47	-0.09920936
195	0xbd7853ad	-0.060626674
196	0x3d89375b	0.06700011
197	0x3c97b072	0.018516753
198	0x3d4e78b5	0.050408084
199	0xbd8c893c	-0.06862113
200	0x3e137e3a	0.1440362
201	0xbdc4841c	-0.0959551
202	0xbd0726f3	-0.03299613
203	0xbda6699f	-0.081256144
204	0x3c850e66	0.016242217
205	0x3dda3bf4	0.106559664
206	0xbdd8c464	-0.105843335
207	0xbc39055c	-0.011292782
208	0xbd52e367	-0.0514864
209	0xbdc23a80	-0.09483814
210	0xbe51836e	-0.20460293
211	0xbc261f2f	-0.010139271
212	0x3e813225	0.2523357
213	0xbbd951b5	-0.0066320547
214	0x3d31b201	0.04338265
215	0xbd0155eb	-0.03157608
216	0xbdb09538	-0.08622211
217	0x3d02ec49	0.03196362
218	0x3d3bc47d	0.045841683
219	0x3c12ec4d	0.008967471
220	0x3dad8c1c	0.08473989
221	0x3dcac381	0.09900571
222	0x3c576b15	0.013148089
223	0xbdd422f4	-0.10358229
224	0x3d28c267	0.04120102
225	0x3dca78bd	0.0988631
226	0x3d8b02a4	0.06787613
227	0x3b34a70e	0.0027565393
228	0xbdc59315	-0.09647194
229	0x3b94e666	0.004544067
230	0xbcbdb30f	-0.02315667
231	0x3d5873be	0.052844755
232	0xbd2ac857	-0.041694965
233	0xbd13e988	-0.036111385
234	0xbd3cd532	-0.046101756
235	0x3d9a723d	0.075413205
236	0xbdca4f7a	-0.0987844
237	0xbd8a26a4	-0.06745651
238	0x3ba51121	0.0050374423
239	0xbc37ed2a	-0.011225978
240	0x3c092c06	0.008372312
241	0xbe21dfd6	-0.15808043
242	0xbdd0bdba	-0.101924375
243	0xbe38b057	-0.18036018
244	0x3e1d7eed	0.1538045
245	0x3e0d0e9a	0.13775101
246	0x3e162405	0.14662178
247	0x3cc7f314	0.0244079
248	0xbc89ad32	-0.016806219
249	0xbdfbb12c	-0.12289652
250	0x3e0898f5	0.13339598
251	0xbdc64b3a	-0.09682317
252	0xbcad10a9	-0.021126108
253	0x3d800bb4	0.06252232
254	0x3c02a810	0.00797464
255	0x3cf33278	0.029687151
