Assets/Brains/test5/KartAgent.onnx (onnx, 108737 bytes, 7 tensors)

41 f4 [1, 2]
000000 76 6c 55 3c fd b6 14 3c
       0.013026347 0.009076831

distribution.mu.bias f4 [2]
000000 73 78 90 bb 0a bb 3e ba
       -0.00440889 -0.0007275796

distribution.mu.weight f4 [2, 128]
000000 7d 25 a2 bc 03 74 be 3c c0 49 d4 bb 7a 6e ab 3c
       -0.019793266 0.023248678 -0.0064785182 0.020926703
000010 a0 1c a2 3c 13 a0 3b 3c fb 7a 59 bc 9d c1 20 3c
       0.01978904 0.011451739 -0.01327395 0.009811786
000020 0d 72 ac bc 6d 9a 1d 3d 97 7b f8 3b 5b 72 86 bb
       -0.021050477 0.03847735 0.0075830924 -0.0041029877
000030 ce 4f d0 bb b2 f8 55 bc 1c af 46 3c f8 b6 64 3c
       -0.0063571697 -0.013059782 0.01212671 0.013959639
000040 e2 46 d3 bb 61 bd 6c bb 4c 09 87 bc 33 0b fd 3c
       -0.006447659 -0.003612362 -0.016483925 0.03088913
000050 6b 72 f1 3c 32 9f 3a bc 8b 7f 21 bd 95 94 e2 3c
       0.029473504 -0.011390494 -0.039428275 0.02765874
000060 db 39 1c 3a a2 a0 0a 3d 1d f7 f5 3c 9e 08 b6 ba
       0.0005959549 0.033844598 0.03002506 -0.0013888066
000070 d3 ab b1 bb b8 45 64 3c 7c 66 3b bc d9 c0 db bb
       -0.0054220944 0.013932638 -0.011438008 -0.006706339
000080 a6 ce c4 3c 1b 08 a6 bc 97 da 72 bc bc e0 30 3d
       0.024024319 -0.020267537 -0.014822624 0.043183073
000090 64 d3 8c 3c ce ed c6 3c 06 09 10 bd 74 c5 36 bb
       0.017190643 0.024283316 -0.035164855 -0.0027888687
0000a0 87 95 b9 3c da 74 88 bc 20 81 49 3d d2 d4 98 bc
       0.022654308 -0.016657282 0.04919541 -0.018656168
0000b0 42 bf 41 3c 87 a4 82 3c e7 43 3a bd a1 48 07 bd
       0.011825385 0.015947593 -0.045474913 -0.03302825
0000c0 3d e5 19 bd a1 2f 98 ba ff 24 3b 3c b8 3c e3 bb
       -0.037572134 -0.0011610874 0.011422395 -0.0069347285
0000d0 a9 f7 33 bd f0 0a 3e 3c d6 74 88 3c f6 b0 b7 3c
       -0.04393736 0.011599287 0.016657274 0.022423249
0000e0 43 f4 2c bd 74 e6 8a bc 6d 75 77 3c 1f 9d e7 bc
       -0.042225134 -0.016955592 0.01510368 -0.028273163
0000f0 3a fc 2c 3d a7 8d e3 bb b8 f5 dd 3c c5 95 1a 3d
       0.04223273 -0.0069443765 0.027094707 0.037740488
000100 8f 02 58 3c f5 db d8 bb f6 64 28 bc 0c e4 81 3b
       0.013184204 -0.006618018 -0.010277977 0.003963953
000110 23 3b 9d bc 34 c1 85 3c d6 8a 74 3c 14 b8 b7 3c
       -0.019193238 0.016327478 0.014925679 0.022426642
000120 05 4e 4f bc 69 1f 8c bb 68 33 aa 3c 12 f7 cd 3c
       -0.012652879 -0.0042762053 0.020776466 0.025142226
000130 1b b2 59 3b 29 b7 54 3c b6 e8 89 3b 67 3e 6f 3c
       0.0033217731 0.012983122 0.0042086495 0.01460228
000140 bd bf 85 3c ff c7 13 bc b6 0d cb bb 5e 9c 62 bc
       0.01632678 -0.009019851 -0.006196703 -0.013831226
000150 2a 61 56 bc 0a e2 da bc 7b f4 1e bb 27 eb 3b bc
       -0.013084689 -0.026719112 -0.0024254608 -0.011469639
000160 ea 42 67 3c 1d 80 1c 3b 29 15 8e 3c 17 23 5c 3c
       0.014115075 0.0023880072 0.017344074 0.0134361
000170 4e ac 4e bc 1f f3 d4 3a 15 76 38 3c 1f 54 a3 3b
       -0.012614323 0.0016246772 0.011258622 0.0049843933
000180 54 88 7c 3c 3d 05 8d ba 9e 5f 9f 3c 81 ec 87 bc
       0.0154133625 -0.0010759007 0.019454774 -0.016592266
000190 64 8d b5 3b d4 56 64 3c 99 15 52 bc 8c 2c 0f 3c
       0.0055405367 0.013936717 -0.012822532 0.008738648
0001a0 63 73 c4 3c 25 9f 9d 3c a6 16 01 3c 19 c5 17 bd
       0.023980802 0.019240925 0.007878935 -0.0370532
0001b0 95 a3 70 bb de 25 e3 bb ca ce b5 3b 68 f3 ea bb
       -0.0036718596 -0.0069320044 0.005548333 -0.0071701296
0001c0 af b2 38 bb 8f ca db 3b 46 15 9a bb d1 cb 7f 3c
       -0.0028182676 0.0067074965 -0.004702243 0.015612558
0001d0 65 79 69 bb fa 43 02 3d 77 6c 64 3b 97 f4 9b 3c
       -0.0035625335 0.03180311 0.003485469 0.019037528
0001e0 b9 f8 86 3c 02 db 01 3d e8 71 77 3c de 30 b0 3b
       0.016476022 0.031703003 0.015102841 0.005376919
0001f0 91 dc 94 3c f2 48 93 bb 98 02 2b 3c 1a c6 2f bc
       0.01817158 -0.0044947797 0.01043763 -0.010728383
000200 8f ad 5c bc 62 26 1f bc a8 c7 cf bc 4a 05 0a 3d
       -0.013469114 -0.009713741 -0.025363758 0.03369645
000210 e4 de f0 bb e3 02 c2 3b 24 2b 97 bc 18 d1 08 bc
       -0.0073507894 0.0059207543 -0.018453188 -0.008350633
000220 a3 d2 6b bc d8 d6 47 3b 5b c2 c0 3b ba 72 48 bc
       -0.014393481 0.0030493047 0.005882544 -0.012234384
000230 3b 8a aa 3b b4 33 0c bc e6 52 8b bc 3c 6b e6 3c
       0.0052044666 -0.008557249 -0.017007302 0.028127305
000240 4d be 00 bd 7e 47 b9 3c 3b 4d 9b bc cf 47 c0 3c
       -0.031431485 0.022617098 -0.018957725 0.023471741
000250 95 84 ee 3c 02 05 e5 3a b3 a2 af bc b8 c5 2d bc
       0.029115954 0.0017472806 -0.021439886 -0.010606222
000260 19 05 01 3b fc eb 55 3c 4f ca 03 3c 08 79 4f bb
       0.0019686876 0.013056751 0.00804384 -0.0031657834
000270 3d b3 24 3d 64 55 84 bc bc b6 de 3b 4e ff 09 3d
       0.040209997 -0.016153999 0.006796686 0.033690743
000280 53 82 51 bc b3 ab b5 3c 92 5a 80 3c 5c a3 33 bc
       -0.012787419 0.0221766 0.015668187 -0.010964241
000290 7b c6 fb 3a 4c 05 69 bc 5e 51 f3 bc c2 2c 14 bb
       0.0019208932 -0.014222454 -0.029701885 -0.0022609686
0002a0 21 22 5c 3c 35 c7 38 3c 1c 2d 05 bb 40 fe 20 3c
       0.013435871 0.011277963 -0.0020321077 0.009826243
0002b0 4a 46 b0 bc ca 6c de 3c 9e 9d 0c 37 58 61 d9 3b
       -0.021517891 0.027151484 8.381348e-06 0.0066339187
0002c0 a6 ac 5f bc a7 11 0e 3c ca 1f b6 3b c8 76 8d 3c
       -0.013652002 0.008671201 0.005557989 0.017268553
0002d0 9b 79 89 bc 35 c3 96 3c a4 7e a2 bb bc 30 bd bc
       -0.016781619 0.018403629 -0.0049589444 -0.023094527
0002e0 37 bd 9b 39 9f b1 c7 b8 3c 08 98 3c db b2 aa 3c
       0.0002970488 -9.522144e-05 0.018558614 0.020837238
0002f0 46 67 66 3c 23 d0 b6 bc 12 ba 0c bc 6e b2 b7 ba
       0.014062708 -0.022316044 -0.0085892845 -0.0014014968
000300 67 69 7d 3b 02 85 f2 bc b9 54 08 bc ad 79 80 bc
       0.003866756 -0.029604439 -0.008320981 -0.01568302
000310 f3 0b 37 bb 16 2d 2d 3b 54 32 14 bd 33 6c b5 3c
       -0.0027930706 0.0026424578 -0.03618081 0.02214632
000320 93 5b b4 3c 2a ed f9 3c 1f f3 d7 bc f7 42 34 3b
       0.022016322 0.030508596 -0.026361046 0.0027505734
000330 df 44 5c bc 7f 6b 7c bc 4f 61 fd 3c 37 52 ef bc
       -0.0134441545 -0.015406488 0.03093019 -0.029214008
000340 98 a9 bd bc 8d 84 e7 bc 72 41 e7 ba 13 9d 2c 3c
       -0.023152158 -0.028261447 -0.0017643406 0.010535496
000350 1e 2e 94 bc a2 b9 b8 bc 9c 83 83 bc ca 84 38 3b
       -0.018088397 -0.022549454 -0.016053967 0.002815532
000360 1b fb 97 bc ea 95 b1 ba d4 26 d1 bb 6e 10 7e 3c
       -0.018552354 -0.0013548706 -0.0063828025 0.015506847
000370 af a8 e3 bc ca 41 1e bb 7f c3 53 3c cd 65 09 bb
       -0.027790396 -0.00241481 0.012925028 -0.002096522
000380 70 d9 17 3c e8 a9 9f 3c 18 6e 44 3c 2e bc 2d 3c
       0.00926815 0.019490197 0.011989139 0.010603948
000390 9f 4f cc 3c 31 e5 f7 3b bd d1 bb 3c 57 b2 46 3c
       0.02494031 0.0075651635 0.02292716 0.0121274805
0003a0 19 09 d9 3a 58 0f df bb a3 b0 56 bc b3 80 a0 bb
       0.0016558497 -0.006807249 -0.013103637 -0.0048981546
0003b0 d0 a3 0e bd 7f 3a ec 3c 2c c8 ac 3c 2c b9 14 bb
       -0.034824193 0.028836487 0.021091543 -0.002269338
0003c0 aa f6 e2 3b 14 0b 3a bc 4b 04 b0 3b 0a 87 b9 bc
       0.0069263773 -0.01135518 0.0053716055 -0.0226474
0003d0 c6 10 9d 3a cd 94 86 ba 8d 10 9d 3b 5c 4a 01 3d
       0.0011983148 -0.0010267735 0.004793233 0.031565055
0003e0 8a 47 0e 3c 3f 76 16 bc d5 44 de 3b 13 0c 61 3c
       0.008684048 -0.0091834655 0.0067831078 0.013735789
0003f0 5e 43 68 3b 13 bd 24 3d 0e 59 35 bb 55 d0 cd 3c
       0.0035440545 0.040219378 -0.002767149 0.025123755

network_body.linear_encoder.seq_layers.0.bias f4 [128]
000000 15 3e c5 bb 63 6c 92 ba 9e b5 1f bb 5b e1 5d 3b
       -0.0060193636 -0.0011171218 -0.0024369727 0.0033856246
000010 b5 27 77 bb 96 d5 16 3c 70 3d 04 bc 3b be d8 3b
       -0.0037712876 0.009206196 -0.0080712885 0.006614474
000020 c8 23 7a bb 09 e8 23 bb cb 91 8e 3b 1f f4 91 bb
       -0.00381683 -0.002501013 0.004350876 -0.0044541503
000030 36 3a 5a ba 88 ab 9f bb 18 d9 73 bb 42 c3 65 3b
       -0.0008324714 -0.004872743 -0.0037208255 0.003505901
000040 11 be 1c bc 2b a9 39 3c 91 76 1d ba ad 6f 20 bb
       -0.0095668 0.011331837 -0.00060067425 -0.0024480626
000050 86 47 52 bc 8b 29 5f bb a5 52 23 3b 03 27 69 3a
       -0.012834435 -0.003405186 0.0024921086 0.0008894058
000060 dc 66 8a 3b ca 6c 9d 3b b3 ba ec 3b 02 04 e1 3b
       0.0042236876 0.0048042284 0.0072244047 0.006866933
000070 9d dc c5 3b d0 25 02 3c 45 3f a9 37 74 73 95 ba
       0.006038262 0.0079435855 2.0175832e-05 -0.0011402206
000080 f9 d1 79 bb bd 93 17 bb 06 3b 96 ba ba d5 a8 3b
       -0.0038119538 -0.002312883 -0.0011461682 0.0051524313
000090 54 85 fe bb c0 c4 4b 3b 34 78 c4 bb 7e b1 9f 3a
       -0.007767359 0.0031092614 -0.0059957746 0.0012183634
0000a0 f7 54 c1 bb f7 d5 82 bb 5e 2b 9f 3b 35 1e dd 3a
       -0.005900021 -0.0039927918 0.0048574647 0.0016869964
0000b0 65 6f cc 3a 41 32 a3 bb d3 2a 3a bc 93 29 c8 b8
       0.0015597163 -0.004980356 -0.011362749 -9.544487e-05
0000c0 08 21 1e 3a 22 84 b4 3b b7 65 fe 3a 07 48 19 3b
       0.0006032144 0.0055089155 0.0019408975 0.002338888
0000d0 4e fe 85 3a 6a 4f c3 3a a4 99 2e 3a 05 d0 b0 bb
       0.0010222883 0.0014900987 0.00066604675 -0.0053958916
0000e0 b5 43 34 3b 55 3e 3e bb 4a 89 71 3a 3d 35 85 ba
       0.0027506177 -0.0029028852 0.0009213878 -0.0010162961
0000f0 63 ac d1 3a af 8b 31 bb 1d 62 b3 39 17 14 cb bb
       0.001599681 -0.0027091315 0.0003421464 -0.0061974633
000100 c1 43 2f 3b 5e 9d 94 ba cf 42 31 bb 3f e9 82 3b
       0.0026743265 -0.0011338403 -0.0027047878 0.0039950903
000110 6a 96 9d 3b 0e ef 43 bb d7 a0 26 3c 77 b3 5e 3a
       0.0048091905 -0.0029897126 0.010170183 0.000849537
000120 ad c0 1a 3c c6 91 0e 3a 7a 62 48 ba 3b 7f 00 3b
       0.009445352 0.0005438592 -0.00076440687 0.0019607085
000130 45 95 89 bb 19 1f d1 b9 0d 3a e0 ba aa ee 6d 3b
       -0.0041987025 -0.00039886756 -0.0017107144 0.0036305585
000140 85 c9 3e b9 16 48 7c 3b 99 db 03 bb 74 11 01 3b
       -0.00018194884 0.0038495115 -0.0020119904 0.001969424
000150 c7 56 d8 b9 95 3d 2f 3b 65 e7 d9 bb 8d 3a bb bb
       -0.00041263385 0.0026739587 -0.006649899 -0.005713767
000160 41 3e 2e ba 60 ee 5f bb 5d f2 2c bb df 39 43 3c
       -0.000664685 -0.0034169182 -0.0026389577 0.011915653
000170 5a 08 a9 37 7c a0 27 bb cc 2c a4 bb 18 10 d2 3a
       2.0150259e-05 -0.0025577834 -0.005010223 0.0016026525
000180 f5 cd 0a bb 43 77 2b bb 8c 30 05 3c 0c 35 0c bb
       -0.002117989 -0.0026163615 0.00812925 -0.0021393923
000190 86 67 2d 3b 7b b5 73 bb 0b f0 19 ba d1 75 2b bc
       0.002645941 -0.0037187028 -0.0005872256 -0.010465101
0001a0 63 a6 51 3b be 3c b9 bb 0c 38 d0 ba 76 88 b8 bb
       0.0031990043 -0.005652993 -0.0015885844 -0.005631502
0001b0 e9 bf 05 bb eb 0e 8c 3a c3 c2 d1 3b 82 d2 1a 3b
       -0.0020408577 0.0010685598 0.0064013912 0.0023624008
0001c0 df b6 58 3b c5 20 54 3b f8 a1 d5 b9 a3 68 10 bc
       0.0033067984 0.0032368165 -0.00040747202 -0.00881401
0001d0 42 4e bb 3b db e6 90 3b b9 2e c0 bb 87 b1 18 3c
       0.005716116 0.0044220514 -0.005864945 0.00931967
0001e0 50 e5 a3 ba e1 b4 32 ba 75 37 c2 3b ba f3 f7 bb
       -0.0012504254 -0.0006817114 0.005927021 -0.0075668963
0001f0 ab a9 de bb 75 0c 30 3c 46 3f 07 3a cc 5c ad bb
       -0.0067951283 0.0107451575 0.000515927 -0.0052906033

network_body.linear_encoder.seq_layers.0.weight f4 [128, 77]
000000 53 43 b4 bd 42 ca 53 3d f1 ab 19 3d c7 84 82 bd
       -0.088019036 0.05170656 0.03751749 -0.063729815
000010 e6 c7 75 3d 80 c1 90 bd 65 39 8d 3d 1a 98 6f bd
       0.06000509 -0.07068157 0.06895713 -0.058494665
000020 fa 73 04 3b 7a a1 c0 bd 63 72 fd 3c 6d c1 b6 3d
       0.002021073 -0.09405799 0.030938333 0.08923612
000030 db 9c b6 bd f4 bb 81 3c 46 65 2a be 11 06 e7 bc
       -0.089166366 0.015836693 -0.16640195 -0.028201135
000040 04 da 3c bd 93 94 b8 3d 32 47 23 bb cb d1 ea bd
       -0.046106353 0.09012713 -0.0024914262 -0.11465796
000050 e0 77 0d 3e c1 90 a7 bd a7 50 a6 be 66 79 85 3e
       0.1381526 -0.081819065 -0.32483408 0.26069182
000060 23 8a 4d be 72 a8 c9 3d a4 f8 9c bd 81 3f 9b bd
       -0.20072226 0.098465815 -0.07664612 -0.07580472
000070 89 12 a1 bd c0 fc d6 3d 6e 00 dd 3d 09 64 c1 3d
       -0.078648634 0.10497427 0.107910976 0.09442908
000080 be 89 40 3e 58 b1 00 3c d1 da 5e 3c de 30 19 3e
       0.18802544 0.007854782 0.013601975 0.14960048
000090 93 f7 0e bd a0 98 8e 3b 20 08 18 3e 9d ad 78 3d
       -0.034904074 0.0043516904 0.1484685 0.060712446
0000a0 0e f8 75 3d f3 0d 8a 3c 43 f3 40 be 03 b1 5e 3c
       0.060051017 0.016852355 -0.18842797 0.013592008
0000b0 39 58 0f 3e 65 23 61 3e 8a fc 01 3d ad e3 22 bd
       0.13998498 0.21986158 0.03173498 -0.03976791
0000c0 44 ab f0 bc 05 77 82 bc a9 3e 82 bd 13 c5 ba 3d
       -0.02937854 -0.015925894 -0.06359608 0.0911962
0000d0 e0 38 1d bc f5 24 78 3d b2 2a 0b bd 23 5d f6 b9
       -0.00959608 0.06058212 -0.033976264 -0.0004699017
0000e0 fc b1 5b bd cf 74 84 bd f4 db cf 3d a3 e5 8d 3d
       -0.053636536 -0.06467592 0.101493746 0.06928565
0000f0 48 b3 ed 3d 83 dd 52 be 23 10 4a 3e 5e 3e c1 bd
       0.11606461 -0.20592313 0.19732718 -0.09435724
000100 36 28 12 3d 93 98 8a bd cc 5f d1 3d 3e 36 3f 3c
       0.03568288 -0.067673825 0.1022335 0.011670647
000110 6a fc f8 bb 08 92 2b 3e b1 2b b6 bd f9 6c 3a 3d
       -0.0075984495 0.16754925 -0.08895052 0.04551408
000120 73 27 dc 3d 84 55 b9 3b d3 9a 0d be c1 7d 3f be
       0.10749712 0.005655946 -0.13828592 -0.18700315
000130 de a4 db 3d 6a 8f 08 be 55 cb 3f be ab 91 c5 bd
       0.10724805 -0.13335958 -0.18729909 -0.096469246
000140 d8 1c 6c be c7 94 ff 3d 3f 5b 1d 3e 76 aa 59 3e
       -0.23057878 0.12479549 0.15366839 0.21256432
000150 26 e4 0f 3e 62 94 27 3e 5e 47 90 3d 8e 51 a7 bd
       0.14051875 0.16365197 0.07044862 -0.08169852
000160 a3 c2 b8 3d 04 d6 43 3e 45 00 2a 3c 0f ec 9d be
       0.09021499 0.19124609 0.010376041 -0.3084416
000170 66 fa 60 3e 98 a6 6a be c8 ab e1 3d cf 8d 80 be
       0.2197052 -0.22915113 0.11019093 -0.2510819
000180 6e 55 bd 3d fa 25 74 be e8 17 61 be f9 8c 1b be
       0.0924481 -0.23842612 -0.21981776 -0.15190496
000190 28 13 25 be f8 5a 55 3d 13 0d 93 3c 05 a4 aa bd
       -0.16120589 0.052088708 0.01795057 -0.083320655
0001a0 1d eb cd bd 05 aa c9 3c c3 81 96 bd 68 e3 86 be
       -0.1005461 0.024617204 -0.07348969 -0.26345372
0001b0 46 4b 53 be ab 89 4d 3e e0 72 c8 3d 16 c9 c1 3d
       -0.20634183 0.20072047 0.09787536 0.09462182
0001c0 77 72 02 3d 80 2e c9 bd c8 81 00 3c ab 4d c4 bc
       0.031847443 -0.09823322 0.007843442 -0.023962816
0001d0 ab e3 e4 3d 7e bf 16 3c ca 09 32 bd 9f 5f 45 3e
       0.11176237 0.009200929 -0.043466367 0.19274758
0001e0 8a 1f 55 3e 86 b4 29 3e 08 ce 87 bc c3 5a bb bc
       0.20812812 0.1657277 -0.016577736 -0.022870427
0001f0 d7 ae aa 3d c5 91 7b 3d c8 d0 47 3d 91 7f 89 bd
       0.08334129 0.061418314 0.048783094 -0.067137845
000200 14 e4 41 bd 78 af 3f 3e 90 53 86 3d 7c 8c 39 be
       -0.047336653 0.1871928 0.06558907 -0.18119997
000210 31 ca b0 3d 3b 11 11 3e c2 a7 05 be 1e a6 03 be
       0.08632315 0.14166729 -0.13052276 -0.12856337
000220 83 b3 16 3e 22 53 c6 bc fb f8 37 bd f5 cb a8 3d
       0.14716916 -0.024209563 -0.04491518 0.08242027
000230 41 c3 89 3c 33 c7 15 3d 4a c2 cb bd af 72 a5 3d
       0.016816737 0.036566924 -0.09949167 0.08078515
000240 60 93 70 bd 99 1f 8a bd 2b 8d 47 3d 35 1e 9a 3d
       -0.058734298 -0.06744308 0.048718613 0.07525293
000250 ff 75 1b 3e df d9 86 3d 3b 43 58 3d 86 36 55 3c
       0.1518173 0.06584524 0.05279849 0.013013488
000260 82 23 a2 bd 24 dc 81 3e 2c 38 83 3d 77 92 ca 3d
       -0.07916929 0.25363266 0.06407198 0.09891217
000270 33 58 9a 3d ed d0 b0 bd a6 95 2b bd 2c 57 e9 3c
       0.07536354 -0.086335994 -0.041890763 0.02848395
000280 aa fe 0d be 5b e7 58 3c ba bc 44 3e 88 fc 24 3c
       -0.13866678 0.013238753 0.19212618 0.010069974
000290 f6 02 af bc ff 85 40 3d ed 1a 9c 3d 3d 2a 36 3d
       -0.021363717 0.04700279 0.07622323 0.044473875
0002a0 99 6a 02 3e 36 73 d0 3d 62 61 2d bd b6 65 99 bc
       0.12735976 0.10178225 -0.0423292 -0.018725257
0002b0 f2 f1 b0 bc 61 92 10 bc 8f 06 9e bd e0 85 15 be
       -0.021599744 -0.008823962 -0.07716095 -0.1460185
0002c0 5b d3 ca bd 52 40 6f bd 26 72 05 3e bd e7 50 be
       -0.09903594 -0.05841095 0.13031825 -0.20400901
0002d0 36 d2 55 bd e8 15 21 3e ec a6 b5 3c 06 95 89 3e
       -0.052202426 0.15731013 0.022174321 0.26871508
0002e0 fe c8 ab 3d e5 c4 a4 3d 7e 47 12 bd a6 26 16 bc
       0.083879456 0.08045367 -0.03571271 -0.009164488
0002f0 5f c2 28 bd 56 8c d8 bb 7b fa 2c 3d ca ac 73 3d
       -0.04120099 -0.006608526 0.042231064 0.059490956
000300 46 0b 92 3c 69 01 65 3d da be 4e 3e 6c 28 c2 bc
       0.017827641 0.055909548 0.20189992 -0.023700915
000310 6b 41 a0 bd 56 3c 1e 3e a4 81 20 3d 43 45 58 bc
       -0.078249775 0.15452704 0.039186135 -0.013200107
000320 62 e7 4a 3e a1 47 fb 3d 9c 21 4d 3d 52 c2 6a be
       0.19814828 0.122695215 0.05008088 -0.2292569
000330 45 a7 0f 3d 63 4b e5 3d 34 5a 18 3d 46 2c e1 bd
       0.03507163 0.111960195 0.0371954 -0.109947726
000340 f3 ba 1f 3e be 30 c1 3d dc 49 38 be 91 4c 32 bd
       0.15598659 0.09433125 -0.17996925 -0.04353005
000350 b0 33 76 bd e4 96 d8 be 54 36 e3 bd 91 53 be 3a
       -0.060107887 -0.4230262 -0.11094347 0.0014520754
000360 75 4c 09 3e 3f bd 26 be 47 be 86 3d 06 3e ae 3d
       0.13408072 -0.16283129 0.06579261 0.08507924
000370 c0 02 17 be d0 6a 28 3e 3c f9 25 bd 3a 00 08 3d
       -0.14747143 0.16446996 -0.04052089 0.03320334
000380 c5 a6 d8 3d c0 a3 f8 bd cd b3 0b be 77 4e 14 3d
       0.10578684 -0.12140608 -0.13642807 0.036207642
000390 ab 13 80 3e 2e aa de 3c 83 26 1b bc e2 6c dd bc
       0.25015005 0.027180757 -0.009469631 -0.027029458
0003a0 b6 aa 3f be bc fc f1 bd e0 a6 ea bd f0 a5 19 3e
       -0.18717465 -0.118157834 -0.1145761 0.15004706
0003b0 3e 84 bb 3d e1 58 80 3c 38 6e bf bb 46 a0 8a 3d
       0.091560826 0.01566738 -0.0058419965 0.06768851
0003c0 43 37 c4 3c 5b a6 83 bd 3e 09 d1 bd 33 cd 9b 3d
       0.023952132 -0.06428214 -0.10206841 0.07607498
0003d0 d6 22 b1 bd cf 8f 86 bc d2 e9 2a 3c c3 02 f1 bb
       -0.086492226 -0.016425995 0.010431724 -0.0073550656
0003e0 a6 63 ef bd e0 f8 b3 3c 27 7e 76 be 22 1e a9 bd
       -0.11688928 0.021969259 -0.24071561 -0.082577005
0003f0 aa ad 35 be 27 84 fc bd 49 78 98 3c e5 c3 b8 3d
       -0.17742029 -0.123298936 0.018612044 0.09021739

network_body.linear_encoder.seq_layers.2.bias f4 [128]
000000 91 d2 97 3b fb de da ba 4e a1 6d 3b f4 64 d3 ba
       0.004633256 -0.0016698533 0.0036259475 -0.0016128109
000010 47 e5 25 bb 59 4d 2c 3b d9 02 4c 3b 50 e6 d7 39
       -0.0025313662 0.002629122 0.0031129627 0.00041179592
000020 ac 91 14 3b 7a 44 23 bb d8 b4 12 37 4f 5e d0 ba
       0.0022669835 -0.0024912641 8.744384e-06 -0.0015897247
000030 57 1a 52 3b 0d 21 60 3b 2f 32 5d 3a 7f 8f 2d bb
       0.0032059157 0.0034199387 0.0008437959 -0.0026483235
000040 28 1e 04 3a a1 f0 2e 39 4e 67 20 3b ab 75 95 bb
       0.0005039894 0.00016683574 0.0024475637 -0.0045611463
000050 39 89 fd ba d7 12 45 3a ac 9e 44 3b 32 2e 49 bb
       -0.0019343264 0.0007517761 0.0030001802 -0.00306977
000060 2f a0 a6 3b 97 2a 30 bb e7 5a 6b bb 4b 48 d8 3b
       0.0050850133 -0.0026880854 -0.0035912336 0.006600415
000070 b8 a0 3e ba a6 48 46 ba ff 0a 66 3b e8 13 f0 ba
       -0.0007271874 -0.0007563926 0.003510177 -0.0018316479
000080 fe a9 78 ba 47 0a 4d 3a b5 5f db b9 24 0c 22 bb
       -0.000948578 0.0007821661 -0.00041842242 -0.0024726475
000090 e1 47 b9 bb 69 eb b8 ba 89 f7 87 3b 3c b7 ce bb
       -0.0056543206 -0.0014108244 0.0041493815 -0.0063084643
0000a0 9b 86 c6 ba 31 ee 66 3a 41 b9 5a ba a3 77 73 3b
       -0.0015146317 0.0008809297 -0.0008343645 0.0037150166
0000b0 1d 2c c0 ba 14 b0 15 bb f0 5f 85 3b fe 03 76 3b
       -0.0014661584 -0.0022840546 0.0040702745 0.0037539
0000c0 f1 e9 6e 3b eb 91 bd bb c4 87 0d 3b 6b d5 43 bb
       0.0036455358 -0.005785217 0.0021595815 -0.0029881846
0000d0 fb 4a 8d 3b 89 4a 7c 3b c8 b3 a1 b9 fc ae 9c bb
       0.004311917 0.0038496575 -0.0003084226 -0.004781602
0000e0 27 1a 34 3b 03 95 35 3b 81 e5 6b ba b9 6d 23 3a
       0.0027481408 0.0027707226 -0.00089987373 0.00062343065
0000f0 98 d4 33 bb ce 03 40 3b 23 ed 5f bb 9f 04 5e bb
       -0.0027439948 0.0029299143 -0.0034168444 -0.0033877266
000100 9e 10 a4 bb 92 c9 4c 3b 00 7e 06 ba 19 f2 06 3b
       -0.0050068637 0.0031248075 -0.000513047 0.0020591079
000110 67 54 dd 3b 8f 3b f5 38 e2 51 e8 ba ad 9f 1b 3a
       0.0067544463 0.00011693604 -0.0017724598 0.00059365743
000120 e6 48 a0 3a 8b f3 52 39 3f 7b 37 bb 1e fd 80 bb
       0.0012228757 0.00020117887 -0.0027997044 -0.003936424
000130 e9 e2 0c 3a 34 c1 4f bb 5c 1b 45 bb bc 99 ef ba
       0.00053743884 -0.0031700851 -0.0030076122 -0.0018280069
000140 fe b1 bb b8 e0 7d ad 39 05 33 6d bb e1 f8 85 3a
       -8.9500085e-05 0.00033090916 -0.003619374 0.0010221266
000150 8c e6 a1 3b 1d 99 8d 3b ae 9e 50 ba 1d 05 82 3b
       0.0049408134 0.004321231 -0.00079582154 0.0039678947
000160 23 00 26 bb 3e a2 3a 3b 5f b5 ba bb 88 d8 86 bb
       -0.0025329671 0.0028478052 -0.0056978907 -0.004115168
000170 5c 0d 23 3b d2 4c 5c 3b 7c be eb bb 3d 37 6f ba
       0.002487979 0.0033615124 -0.0071943384 -0.00091253576
000180 95 db 66 bb c8 f8 12 bb c6 f5 cd bb 38 c2 80 b9
       -0.0035226096 -0.0022426117 -0.006285402 -0.00024558767
000190 03 0d 44 3b 6b fb e8 bb 5e 20 ba 39 4d fd af bb
       0.0029914982 -0.0071100495 0.000355008 -0.005370772
0001a0 2a 11 cc bb 21 01 13 bb 8f 38 01 3b eb 6d 5f 3b
       -0.006227632 -0.0022431093 0.001971755 0.0034092616
0001b0 27 d1 14 3b 0b 3a 2a 3b a9 f2 b3 3a fb 80 94 bb
       0.0022707672 0.0025974538 0.0013728935 -0.004531977
0001c0 d9 24 48 bb 34 71 26 3b a4 4f 38 bb 0f 85 2c 3a
       -0.003053954 0.0025397064 -0.0028123641 0.00065811066
0001d0 e9 6d 1d bc 45 3f 72 bb 64 fe 3e 3c 77 79 35 bb
       -0.009608724 -0.003696398 0.011657331 -0.0027690807
0001e0 19 7c 6b bb 84 1b 13 bb ea ad 93 bb 29 8c 4c 3a
       -0.0035932122 -0.002244682 -0.004506816 0.0007802868
0001f0 2f 3f 09 bb 10 ce e0 ba fb ec 41 ba d9 0a 05 ba
       -0.0020942201 -0.0017151255 -0.00073976786 -0.0005075164

network_body.linear_encoder.seq_layers.2.weight f4 [128, 128]
000000 24 e4 c7 3d 40 d7 b6 3c 46 da 07 3e a9 6f 0c be
       0.09760311 0.022319436 0.13266858 -0.1371447
000010 45 a5 6e bd 5b ad c7 bd 69 84 fc bc 0c f9 9c bc
       -0.058263082 -0.09749862 -0.030824857 -0.019161724
000020 f2 a6 13 bd 35 d6 b5 bd b7 3d ea bc 3d 0e 64 be
       -0.036047883 -0.088787474 -0.028593881 -0.22271056
000030 cb de 26 bd 1a 33 a9 bd 3c 73 b8 bc 11 94 31 3e
       -0.040739816 -0.082617 -0.022515886 0.17341639
000040 9e 69 a6 bd 9f 3f 11 be 24 5b 53 be 5b 5e 3c bd
       -0.08125614 -0.14184426 -0.20640236 -0.045988422
000050 f8 ee cd 3c 78 75 06 3c e3 f7 31 bd e3 67 80 bd
       0.025138363 0.008206718 -0.043449294 -0.06269815
000060 cb 72 6a 3d 38 9c bd bd 6c c7 14 be b2 c3 5f bd
       0.05723838 -0.09258312 -0.14529198 -0.05462999
000070 a5 47 ab bd 35 96 2a 3e e6 a5 8b 3d 90 27 93 bd
       -0.083632745 0.16658862 0.06818752 -0.0718528
000080 b8 ad 9e bd 07 98 4e 3c 67 b7 b4 bd ea 4a 04 3e
       -0.07747978 0.012609488 -0.08824044 0.12919202
000090 a8 9e 13 3d 37 eb 7f bd 91 6e 2b 3e 91 ba 18 bd
       0.03603998 -0.062480178 0.16741396 -0.0372873
0000a0 a3 de 88 bd 3c 0a 58 3e 91 81 5a bd 9d 6b 93 bd
       -0.066830896 0.21097654 -0.05334622 -0.0719826
0000b0 33 a7 98 3d a5 24 f2 bb 18 6d 87 3d 1e 2f 5f 3e
       0.07453766 -0.0073896223 0.06612605 0.21795318
0000c0 a8 84 d2 bd da cc 45 ba f7 8d 58 3e e5 71 90 bd
       -0.102792084 -0.0007545479 0.21147905 -0.07052974
0000d0 94 b0 60 3e bb c9 13 3e 4f 2e f4 3c be 81 b8 3d
       0.21942359 0.14432423 0.029807238 0.09009121
0000e0 20 ac fd 3c 22 15 fc bc 88 e9 99 3d d1 20 b9 bd
       0.030965865 -0.030771796 0.07515246 -0.09039462
0000f0 3d b1 88 3d 83 9b 72 bd dd 73 6d bd 45 3f ac bd
       0.066744305 -0.05923034 -0.057971824 -0.08410505
000100 25 3d fe 3d 3e 4c b5 bd 87 27 9e 3d 32 29 47 3c
       0.12414006 -0.08852433 0.07722383 0.012155818
000110 5d fc f2 3c 5a ec 95 bd 6b 41 20 3c 7c 50 de bd
       0.029661352 -0.07320471 0.009781222 -0.10855195
000120 49 c8 6b 3d e0 eb 01 be 94 d5 0b be 26 0b 67 3e
       0.057564054 -0.12687635 -0.13655692 0.22562847
000130 17 12 94 bc 70 b6 38 bd 5f d9 bc 3d a8 78 0e 3e
       -0.018075032 -0.04509586 0.09221148 0.13913214
000140 6d d3 0a 3e 24 02 c1 3a 3a c9 ac 3d be 48 d8 bd
       0.13557215 0.0014725369 0.084368184 -0.105607495
000150 25 ab e3 3d cb dc 5b bd 14 3e 47 3b d3 85 0d bd
       0.111166276 -0.05367736 0.0030401992 -0.034551453
000160 9d 40 c7 bd 54 91 1d 3d fd 8d 1b bb 5b 2b 82 bd
       -0.09729121 0.038468674 -0.0023735755 -0.06355926
000170 fc b8 95 bd d0 cd 81 3a 65 3d 5c bc b5 30 3d be
       -0.073106736 0.0009903256 -0.013442372 -0.18475612
000180 72 1b 65 bd 33 ac d1 3d d3 bc c8 bd 19 68 db 3c
       -0.055934377 0.102379225 -0.0980164 0.026783036
000190 d2 c1 16 bd 31 26 41 3d 89 78 db bc 22 8e ac bd
       -0.036805935 0.047155563 -0.026790874 -0.08425547
0001a0 3e 5e 3c 3d 4d d4 1c be 8c 54 74 3d 54 95 0d be
       0.045988314 -0.15315361 0.059650943 -0.13826495
0001b0 6a 51 a1 3c 25 2c 3b 3e 91 21 1b bd 81 9b d3 bd
       0.019692142 0.18278559 -0.03787381 -0.103323944
0001c0 fd 3d 9b bd 08 12 1f be 7f 44 b9 bd 55 99 bd bb
       -0.07580183 -0.15534222 -0.09046268 -0.005786101
0001d0 ef cf 74 bd 9e 1d f0 bd 7f 86 ba 3d f4 93 00 3e
       -0.059768613 -0.11724399 0.09107684 0.1255644
0001e0 f7 91 0a be 5a 56 94 ba de 65 0a 3e 18 c1 1e 3e
       -0.13532244 -0.0011317239 0.13515422 0.15503347
0001f0 11 e9 2e bc f1 91 14 be 71 6e d1 bd cc 11 1d 3d
       -0.010675685 -0.14508797 -0.10226143 0.03834705
000200 bf 3f 8a bd c5 dd 5b bd 9e 21 5c 3b 4e 3d b2 3b
       -0.0675044 -0.053678293 0.0033589373 0.005439437
000210 ec 1e e3 bd e4 73 f9 3d 5c 8e c9 3d 67 11 27 bd
       -0.11089882 0.121803075 0.09841606 -0.04078808
000220 9d df d0 bc 10 cc ef bc c9 42 4a be 61 49 64 3d
       -0.025497252 -0.02927211 -0.19752039 0.055734042
000230 73 9b 8a be 30 a0 dd 3d ba e3 d3 3c 21 75 54 be
       -0.27071723 0.10821569 0.025865424 -0.20747806
000240 26 ea cb bd a0 7e ca bc 18 73 f8 bd b6 1d 2c 3e
       -0.0995677 -0.024718583 -0.121313274 0.16808209
000250 a6 a4 46 3d b1 51 be bd 33 4a a3 3d e6 23 41 bc
       0.048496865 -0.09292925 0.07973137 -0.011788344
000260 70 6b 83 bd d4 a3 22 3d 0f 16 14 3e 73 08 31 bc
       -0.064169765 0.03970702 0.1446154 -0.010805237
000270 01 67 b2 3d 95 26 e8 bd f5 76 82 3d 32 a7 86 3c
       0.08711053 -0.11335484 0.063703455 0.016437147
000280 bf 54 2d bd 86 10 30 3d e6 12 ef 3d 36 4a 14 3e
       -0.04231715 0.042984508 0.116735265 0.14481434
000290 d2 09 c1 bb 55 b9 ea bc f7 17 89 bd f8 9a 93 3e
       -0.0058910633 -0.028652826 -0.06694024 0.2882917
0002a0 9e 83 d8 bd ba 71 81 3c 6f 56 6c bd 23 d5 a3 3b
       -0.10571979 0.0158013 -0.057699617 0.004999773
0002b0 9a b2 8e 3c b6 f9 f0 3c 2a 63 f9 3d 20 d2 82 3d
       0.017419148 0.029415946 0.12177117 0.063877344
0002c0 b3 d9 1c 3e 05 ad ab 3b 1d 60 1a 3e 60 a4 7b 3d
       0.1531742 0.0052391314 0.15075727 0.061436057
0002d0 06 65 e5 bd 52 3e c7 bd 03 99 f5 3d 15 c2 59 3d
       -0.11200909 -0.097286835 0.11992075 0.053163607
0002e0 ca 39 59 3d 88 40 68 3b 76 cc 5d 3e a6 34 4f bd
       0.053033628 0.0035438854 0.21660027 -0.05058732
0002f0 28 02 9d bd 25 74 b3 3d 9d d8 28 bc 72 d1 67 bd
       -0.07666427 0.08762387 -0.010305551 -0.056596227
000300 d3 d8 4e bd 2d 58 20 be e6 37 1a be 3e e1 b2 3c
       -0.05049975 -0.15658636 -0.15060386 0.02183592
000310 e2 6a 72 be fc e7 8a bc e0 d6 59 3e 47 68 7d 3d
       -0.23673585 -0.016956322 0.21273375 0.061867025
000320 f3 0d e8 bd 14 ae 97 bd 14 b7 86 3d e8 16 eb 3d
       -0.113307856 -0.0740625 0.06577888 0.114789784
000330 01 b7 d1 bd 07 c3 0d bd b4 97 1a bd 1e 57 d9 bd
       -0.10239983 -0.03460982 -0.03774233 -0.106123194
000340 85 1f 9f bd 31 75 44 bd af 7a 0f bd 78 32 a7 3d
       -0.07769684 -0.047963325 -0.03502911 0.08163923
000350 0d 22 f0 3d 1c a5 3d bc c8 fb 12 3d 3a 19 2a bd
       0.11725245 -0.01157501 0.03588465 -0.041527964
000360 a5 2c 4b 3c fe 3f 6e bd bb 67 a3 3d 42 01 b6 3d
       0.012400781 -0.058166496 0.079787694 0.08886959
000370 be 0f 0c 3e f3 b5 5d bb 6a 62 61 be dd 97 64 3d
       0.1367788 -0.0033830374 -0.22010198 0.05580889
000380 86 e1 27 bc 48 de b5 3d 59 87 8d 3d 1c 60 48 3d
       -0.01024664 0.088802874 0.06910581 0.048919782
000390 45 d1 cb bc 87 c5 93 bd c4 7e f0 3c d9 c1 df bd
       -0.02488006 -0.0721541 0.029357322 -0.109256454
0003a0 37 45 fd ba 4c f5 87 3d cf 1f 84 bd 4b e0 ed 3c
       -0.0019322996 0.066385835 -0.064513795 0.029037615
0003b0 f8 be db bd 2b 8d b5 bc 46 10 90 3d 26 eb ec bc
       -0.10729784 -0.02216204 0.07034354 -0.028920721
0003c0 58 0e c3 bd 1d a8 94 bc e0 b0 45 3d 23 c7 7f 3d
       -0.0952422 -0.018146569 0.048264384 0.06244577
0003d0 78 23 83 3a 9c 61 5c bd d8 f4 1d bd fa 64 73 bd
       0.0010005077 -0.053804025 -0.03856358 -0.05942247
0003e0 5c b1 90 3c 67 2e be bc b1 68 c0 3c e1 1b df bb
       0.017662697 -0.023215486 0.02348742 -0.0068087433
0003f0 30 eb d0 bc cc 34 28 be b5 d5 f7 bc 32 3e 18 be
       -0.025502771 -0.1642639 -0.03025327 -0.14867476
