Learning/results/test4/KartAgent/KartAgent-1408.onnx (onnx, 108225 bytes, 7 tensors)

39 f4 [1, 2]
0	0x00000000	0.0
1	0x00000000	0.0

distribution.mu.bias f4 [2]
0	0x00000000	0.0
1	0x00000000	0.0

distribution.mu.weight f4 [2, 128]
0	0x3b94cd44	0.004541071
1	0x3c214306	0.00984264
2	0xbc84cb58	-0.016210243
3	0x3bd9ad0d	0.0066429437
4	0xbc1bc99c	-0.009508517
5	0xbc13ee13	-0.009028929
6	0x3c5cd052	0.013477402
7	0xbc4bf628	-0.012448825
8	0x3bccdd1d	0.0062519447
9	0xbc810b27	-0.015752388
10	0x3c5bbfe3	0.013412449
11	0x3bea792b	0.0071555576
12	0xbc5b1e1b	-0.013373877
13	0xbb7409c5	-0.0037237268
14	0x3ca3e0bb	0.02000462
15	0x3c633f28	0.013870038
16	0xbc4d5d02	-0.012534382
17	0x3a200a0f	0.00061050145
18	0x3c0b14d1	0.00848885
19	0x3bb928c2	0.0056506107
20	0xbba76ed2	-0.0051096464
21	0xbc289dc1	-0.010291518
22	0xbbdd8d1a	-0.0067612054
23	0x3bbc53dc	0.0057473015
24	0xbb51d548	-0.0032017995
25	0x3c628e97	0.013827941
26	0x3c0f139b	0.008732702
27	0x3919a8ee	0.00014654148
28	0xbcaacb54	-0.020848908
29	0xbceba21f	-0.028763829
30	0x3c588eca	0.013217637
31	0xbce4b7fd	-0.027919764
32	0x3d0d0c01	0.034435276
33	0x3bcfab18	0.0063375346
34	0xbcb9e26f	-0.02269098
35	0x3c44973b	0.011998947
36	0x3d0f8295	0.035036642
37	0xbc316423	-0.010827097
38	0xbba13ade	-0.0049203476
39	0xbb3048ad	-0.0026898787
40	0xbc379faf	-0.011207505
41	0x3d0002c5	0.03125264
42	0xbc256893	-0.010095733
43	0xbcc3f14b	-0.023918768
44	0xbb138a3f	-0.002251282
45	0x3c5bf99a	0.013426209
46	0xbbdac0e8	-0.0066758282
47	0x3d1bc855	0.03803285
48	0xbc5dbb9a	-0.013533497
49	0xbb1d7933	-0.002402854
50	0x3ce8ccdb	0.028417995
51	0x3d1116ff	0.03542232
52	0xbc0a134f	-0.008427455
53	0x3c9aaaa9	0.018880205
54	0xbc6f6b0b	-0.014612923
55	0xbbea3e8d	-0.00714857
56	0x3c8eb15f	0.017418562
57	0x3d25cc24	0.040477887
58	0x3c82614f	0.015915541
59	0xbc3f5b6d	-0.011679512
60	0xbb8714ab	-0.004122337
61	0x3ce904ea	0.028444726
62	0x3be23183	0.006902875
63	0x3bcb98b4	0.006213272
64	0x3bb49fef	0.0055122296
65	0x3c04a366	0.008095598
66	0x3cd0dc12	0.025495563
67	0x3b8cb707	0.0042942795
68	0x3c9349eb	0.017979583
69	0x3c285c9a	0.010275984
70	0xbb6cadef	-0.0036114415
71	0x396865cd	0.00022163168
72	0xbc998a30	-0.01874265
73	0xbd1802f3	-0.037112188
74	0xbc9c337f	-0.019067524
75	0xbc2a8d96	-0.010409733
76	0x3ca91000	0.020637512
77	0xbd08be27	-0.03338447
78	0xbd016cdc	-0.031597957
79	0x3bd7a05d	0.006580396
80	0x3bf37305	0.007429483
81	0xbc34c103	-0.011032346
82	0x3bda3d2f	0.0066601257
83	0xbc1634f2	-0.009167897
84	0xbc9e534f	-0.019326834
85	0xbc44e430	-0.012017295
86	0x3cf1c357	0.02951209
87	0x3c3b32bb	0.011425669
88	0x3be2a67a	0.006916818
89	0xbc316aef	-0.010828718
90	0xbc5e3b2d	-0.013563913
91	0xb91a53ac	-0.00014717755
92	0xbcabb38f	-0.020959644
93	0xbbcf2e5f	-0.0063226665
94	0x3b50f058	0.0031881537
95	0xbc8da66b	-0.017291268
96	0xbbc747ce	-0.006081558
97	0x3c0169f0	0.007898793
98	0x3cf3a97f	0.029743908
99	0x3c8b16d5	0.01697866
100	0x3d263910	0.040581763
101	0xbcab8b8c	-0.020940565
102	0xbcc30d21	-0.023809971
103	0x3c57d863	0.013174149
104	0x3b530797	0.0032200569
105	0x3cb4b495	0.022058764
106	0xbcd32363	-0.02577371
107	0x3b38fbcb	0.0028226252
108	0x3b96999f	0.00459595
109	0xbd375fbb	-0.04476903
110	0xba8aab6e	-0.0010579654
111	0x3c82e9bb	0.015980592
112	0x3c86f0dc	0.016472273
113	0xbc7980c3	-0.015228453
114	0xbce3702d	-0.02776345
115	0xbcc8709e	-0.024467763
116	0x3b08d223	0.0020877204
117	0x3c96927c	0.018380396
118	0x3bb052d7	0.005380969
119	0xbc4e23e5	-0.0125818
120	0xbc32fb8a	-0.010924229
121	0x3c4a590f	0.012350335
122	0xbc72e72f	-0.014825626
123	0xbd301eef	-0.04299825
124	0x3bac88bb	0.005265323
125	0x3b125f62	0.0022334685
126	0x3cbb5636	0.022868257
127	0x3bf7a0fd	0.007557033
128	0xbb87bcb3	-0.0041423677
129	0xbc769a93	-0.015051502
130	0x3cb63923	0.022244042
131	0xbcba5825	-0.022747109
132	0x3ca62cf9	0.020285117
133	0xbca5722c	-0.020196043
134	0x3c8e4dda	0.017371107
135	0x3cbf7d27	0.023375107
136	0xbbe69063	-0.007036255
137	0x3d1c63b1	0.03818101
138	0xbc28ef0b	-0.010310899
139	0xbb9c350e	-0.004767067
140	0xbc68318b	-0.014171968
141	0xbbe3c3a3	-0.006950812
142	0xbc5ea0d5	-0.01358815
143	0xb9c57b59	-0.0003766667
144	0xbc8e07b8	-0.017337665
145	0x3be93350	0.0071167126
146	0x3ccd4373	0.025056576
147	0x3c4bb67a	0.0124336425
148	0x3bbcdd79	0.0057637063
149	0xbbfe433d	-0.0077594803
150	0x3cce86cf	0.025210766
151	0x3bad815b	0.0052949614
152	0xbcc644c0	-0.024202704
153	0x3c2051cf	0.00978513
154	0xbb5b39b2	-0.0033451137
155	0xbcb6e8cb	-0.022327801
156	0x3cae6ec8	0.021293059
157	0x3cf94255	0.030427137
158	0x3b45e01d	0.0030193396
159	0xbb3ee463	-0.0029127828
160	0xbcaf279b	-0.02138119
161	0x3cbf401c	0.023346
162	0x3bc1aaa9	0.005910237
163	0xbc092311	-0.008370177
164	0xbca92608	-0.020648018
165	0xbc855b2b	-0.016278824
166	0xba071024	-0.00051522464
167	0x3bdcfe57	0.006744187
168	0xbbf4b547	-0.007467899
169	0x3c2e1ca0	0.010626942
170	0xbcf88bd7	-0.030340118
171	0xbc67d88f	-0.014150753
172	0x3b82195c	0.003970308
173	0x3bf8717d	0.007581888
174	0x3c137696	0.009000441
175	0x3bb0be9f	0.0053938176
176	0x3c896975	0.016773919
177	0x3c070387	0.008240587
178	0x3c93291b	0.017963937
179	0xb9cca3c3	-0.00039031924
180	0xbc0e212c	-0.008674901
181	0x3bfe425f	0.007759377
182	0x3b4db937	0.0031390914
183	0xbb82a88c	-0.0039873775
184	0xbc978b7f	-0.018499134
185	0x3bbf2666	0.005833435
186	0xbd0af763	-0.033927333
187	0xbcbed64f	-0.02329555
188	0x3bcaa45b	0.0061841435
189	0xbbf6d592	-0.007532784
190	0x3cf0231f	0.029313622
191	0xbc7156f0	-0.0147302
192	0xbb7bbf9f	-0.0038413776
193	0xbd1adf17	-0.03781041
194	0xbc640857	-0.013918004
195	0xbcb81967	-0.02247305
196	0xbb9dbbba	-0.0048136385
197	0xbca2f2a3	-0.019891089
198	0xbce17687	-0.027522339
199	0xbbbaed60	-0.005704567
200	0x3b29a56f	0.002588596
201	0x3c184c6a	0.009295562
202	0xbcfb8fad	-0.030708158
203	0xbc223acb	-0.009901713
204	0xbb3a6ca9	-0.0028446114
205	0x3cc32577	0.023821576
206	0xbbea1baf	-0.0071444134
207	0xbc49d633	-0.0123191355
208	0x3caa94bc	0.020822875
209	0xbcabe0f7	-0.020981295
210	0x3c578e78	0.013156526
211	0xbbafacba	-0.005361167
212	0xbc50e71f	-0.012750416
213	0xbd1b2262	-0.037874587
214	0x3b6c3ef8	0.0036048274
215	0xbb97795f	-0.004622623
216	0x3ca73cc5	0.02041472
217	0x3b7741f2	0.0037728515
218	0xbbe5e2e2	-0.007015572
219	0x3bafff03	0.005370976
220	0x3c9c6246	0.01908983
221	0x3c2afcba	0.010436231
222	0xbc612b43	-0.013743225
223	0xbaca9201	-0.001545489
224	0x3be09087	0.0068531665
225	0xbc52637b	-0.012841101
226	0x3c8daabd	0.017293328
227	0xbbd02825	-0.006352442
228	0x3c9d925f	0.019234834
229	0x3d09df51	0.033660237
230	0x3cb4f478	0.022089228
231	0x3ce16c8f	0.027517585
232	0xbc6125b2	-0.013741897
233	0x3c91d48a	0.017801542
234	0x3ce7d08b	0.028297683
235	0x3bc7a663	0.006092833
236	0xbadfb9a2	-0.0017068873
237	0xbbd473d2	-0.0064835334
238	0x3c903415	0.01760296
239	0x3bb1a541	0.005421311
240	0x3c4440da	0.011978352
241	0xbb66c132	-0.0035210368
242	0x3b3f422d	0.002918373
243	0x3c82c02f	0.01596078
244	0x3c27aba2	0.010233792
245	0x3c78b0b2	0.015178846
246	0xbbc78e22	-0.0060899416
247	0xbc97f80c	-0.018550895
248	0xbcf22558	-0.029558823
249	0xbc8920f1	-0.01673934
250	0xbcc6637d	-0.024217362
251	0xbc973c23	-0.018461293
252	0x3d022eca	0.031782903
253	0x3c15c52f	0.0091412505
254	0x3c299051	0.010349349
255	0x3ab67324	0.0013919813

network_body.linear_encoder.seq_layers.0.bias f4 [128]
0	0x00000000	0.0
1	0x00000000	0.0
2	0x00000000	0.0
3	0x00000000	0.0
4	0x00000000	0.0
5	0x00000000	0.0
6	0x00000000	0.0
7	0x00000000	0.0
8	0x00000000	0.0
9	0x00000000	0.0
10	0x00000000	0.0
11	0x00000000	0.0
12	0x00000000	0.0
13	0x00000000	0.0
14	0x00000000	0.0
15	0x00000000	0.0
16	0x00000000	0.0
17	0x00000000	0.0
18	0x00000000	0.0
19	0x00000000	0.0
20	0x00000000	0.0
21	0x00000000	0.0
22	0x00000000	0.0
23	0x00000000	0.0
24	0x00000000	0.0
25	0x00000000	0.0
26	0x00000000	0.0
27	0x00000000	0.0
28	0x00000000	0.0
29	0x00000000	0.0
30	0x00000000	0.0
31	0x00000000	0.0
32	0x00000000	0.0
33	0x00000000	0.0
34	0x00000000	0.0
35	0x00000000	0.0
36	0x00000000	0.0
37	0x00000000	0.0
38	0x00000000	0.0
39	0x00000000	0.0
40	0x00000000	0.0
41	0x00000000	0.0
42	0x00000000	0.0
43	0x00000000	0.0
44	0x00000000	0.0
45	0x00000000	0.0
46	0x00000000	0.0
47	0x00000000	0.0
48	0x00000000	0.0
49	0x00000000	0.0
50	0x00000000	0.0
51	0x00000000	0.0
52	0x00000000	0.0
53	0x00000000	0.0
54	0x00000000	0.0
55	0x00000000	0.0
56	0x00000000	0.0
57	0x00000000	0.0
58	0x00000000	0.0
59	0x00000000	0.0
60	0x00000000	0.0
61	0x00000000	0.0
62	0x00000000	0.0
63	0x00000000	0.0
64	0x00000000	0.0
65	0x00000000	0.0
66	0x00000000	0.0
67	0x00000000	0.0
68	0x00000000	0.0
69	0x00000000	0.0
70	0x00000000	0.0
71	0x00000000	0.0
72	0x00000000	0.0
73	0x00000000	0.0
74	0x00000000	0.0
75	0x00000000	0.0
76	0x00000000	0.0
77	0x00000000	0.0
78	0x00000000	0.0
79	0x00000000	0.0
80	0x00000000	0.0
81	0x00000000	0.0
82	0x00000000	0.0
83	0x00000000	0.0
84	0x00000000	0.0
85	0x00000000	0.0
86	0x00000000	0.0
87	0x00000000	0.0
88	0x00000000	0.0
89	0x00000000	0.0
90	0x00000000	0.0
91	0x00000000	0.0
92	0x00000000	0.0
93	0x00000000	0.0
94	0x00000000	0.0
95	0x00000000	0.0
96	0x00000000	0.0
97	0x00000000	0.0
98	0x00000000	0.0
99	0x00000000	0.0
100	0x00000000	0.0
101	0x00000000	0.0
102	0x00000000	0.0
103	0x00000000	0.0
104	0x00000000	0.0
105	0x00000000	0.0
106	0x00000000	0.0
107	0x00000000	0.0
108	0x00000000	0.0
109	0x00000000	0.0
110	0x00000000	0.0
111	0x00000000	0.0
112	0x00000000	0.0
113	0x00000000	0.0
114	0x00000000	0.0
115	0x00000000	0.0
116	0x00000000	0.0
117	0x00000000	0.0
118	0x00000000	0.0
119	0x00000000	0.0
120	0x00000000	0.0
121	0x00000000	0.0
122	0x00000000	0.0
123	0x00000000	0.0
124	0x00000000	0.0
125	0x00000000	0.0
126	0x00000000	0.0
127	0x00000000	0.0

network_body.linear_encoder.seq_layers.0.weight f4 [128, 76]
0	0x3da837a4	0.082137376
1	0xbdb4841c	-0.0881426
2	0x3dd0cefb	0.101957284
3	0xbbf7cce0	-0.007562265
4	0x3e204a3f	0.15653323
5	0x3e46c669	0.19411625
6	0xbd3c50b3	-0.0459754
7	0xbe6a0cd9	-0.22856463
8	0x3c189e5a	0.009315098
9	0xbe5954d0	-0.2122376
10	0xbe1854bf	-0.14876078
11	0xb83aea75	-4.456421e-05
12	0x3bb87614	0.0056293104
13	0xbce5122d	-0.027962768
14	0x3bd7d900	0.0065871477
15	0xbe124787	-0.14285098
16	0x3ca4a0a6	0.020096134
17	0x3ce5b786	0.028041612
18	0xbda42931	-0.08015669
19	0xbcdd4486	-0.027010214
20	0xbdf18932	-0.11793746
21	0xbde81432	-0.11331977
22	0x3e28ec4b	0.16496389
23	0x3d57205b	0.05252109
24	0xbdc9c779	-0.098524995
25	0x3e0912cd	0.13386078
26	0x3d2c3d0e	0.042050414
27	0x3d83955f	0.06424975
28	0x3e420d0a	0.18950287
29	0x3d75b098	0.059982866
30	0x3bb36fbe	0.005475967
31	0x3e859098	0.2608688
32	0xbe3e2d23	-0.18571906
33	0xbe0e9ad0	-0.13926244
34	0xbd351522	-0.044209607
35	0x3d94f02f	0.07272374
36	0xbe094947	-0.1340686
37	0xbd89a47c	-0.06720826
38	0xbe999e88	-0.30003762
39	0x3dedcc04	0.116111785
40	0xbd0a9f73	-0.03384347
41	0xbdf57187	-0.11984544
42	0xbd8d803c	-0.069092244
43	0xbca91771	-0.02064106
44	0xbd6179b1	-0.055047695
45	0xbe172f58	-0.14764154
46	0x3dbfd6ea	0.093671635
47	0xbda51794	-0.08061138
48	0xbe1c1eb8	-0.15246093
49	0xbe0bad24	-0.13640267
50	0x3e84956e	0.25895256
51	0x3bd5714e	0.006513751
52	0x3bb09807	0.005389217
53	0xbd9b1cb3	-0.07573833
54	0x3d779269	0.060442362
55	0xbdd97050	-0.10617125
56	0xbd9dcfd1	-0.077056535
57	0x3b46a1c7	0.003030883
58	0xbb1ce120	-0.0023937896
59	0xbe4aaaeb	-0.19791763
60	0x3e96695e	0.29377264
61	0xbe6ab9e1	-0.2292247
62	0x3c2b807a	0.010467643
63	0x3c844de2	0.016150419
64	0xbd6d05f7	-0.057867017
65	0x3dd393e6	0.10330944
66	0x3da5dfcc	0.080993265
67	0xbd7b4210	-0.0613423
68	0xbcbb6f4a	-0.022880215
69	0xbd4ae1b8	-0.04953167
70	0x3e1dca44	0.1540919
71	0x3c334fce	0.01094432
72	0xbdd27a19	-0.102771945
73	0x3d078212	0.03308303
74	0xbd63a399	-0.05557594
75	0xbcbd36b3	-0.023097372
76	0x3d17e97c	0.037087902
77	0xbe169c34	-0.14708024
78	0xbc3dd284	-0.011585835
79	0x3dc0a156	0.094057724
80	0xbd185089	-0.03718618
81	0x3b9ce65a	0.0047882022
82	0x3d7ad832	0.061241336
83	0x3d196065	0.037445445
84	0xbdb99ba4	-0.09062889
85	0xbd84d983	-0.064867996
86	0xbbd3adfb	-0.006459949
87	0xbdc8a48d	-0.097970106
88	0x3c87e9bd	0.016590947
89	0x3d98e5f5	0.07465736
90	0x3d040c25	0.032238144
91	0xbdf2f87f	-0.11863803
92	0x3ce13ed5	0.027495781
93	0x3dddb2f5	0.10825149
94	0xbd8c9e4f	-0.068661325
95	0xbd87bc77	-0.06627744
96	0x3c392a14	0.011301536
97	0xbe2e2000	-0.17004395
98	0x3b82fc3c	0.003997354
99	0xbdaef542	-0.08542873
100	0x3dc6b9a8	0.0970338
101	0xbdf80b49	-0.121115275
102	0xbd68a6f8	-0.05679986
103	0x3d069a33	0.0328619
104	0xbd6dd292	-0.058062144
105	0x3e44022a	0.1914145
106	0xbd7f7223	-0.06236471
107	0x3be85344	0.007090004
108	0xbe21e22c	-0.15808934
109	0x3d5d3a4f	0.054010686
110	0xbe02de73	-0.1278017
111	0x3cbd8c3e	0.023138162
112	0x3d320c05	0.043468494
113	0x3d91cce7	0.0711916
114	0x3de8b995	0.11363522
115	0xbe5aa890	-0.21353364
116	0xbde734a7	-0.112893395
117	0x3d61ac26	0.055095814
118	0xbe454842	-0.19265845
119	0x3e0118ce	0.12607118
120	0x3e1100d7	0.14160477
121	0x3e1a03cf	0.15040515
122	0x3c06e274	0.008232702
123	0x3d27776a	0.040885366
124	0xbe0d50e4	-0.13800389
125	0xbe8777cf	-0.26458594
126	0xbd4cf36c	-0.050036833
127	0x3c0fdb1f	0.00878027
128	0x3d861d27	0.06548529
129	0x3d12993a	0.03579066
130	0xbe2fbf7d	-0.1716289
131	0x3e548779	0.20754804
132	0x3e270201	0.16309358
133	0xbd9d7ad1	-0.07689441
134	0x3d18479c	0.037177667
135	0x3dad1e11	0.08453
136	0xbd635eb3	-0.055510234
137	0xb9bbdf5a	-0.0003583383
138	0x3d4a705c	0.04942356
139	0x3c0edc04	0.008719448
140	0x3e285289	0.16437735
141	0x3d6a41a4	0.057191506
142	0x3e1ac550	0.15114331
143	0x3d7f054b	0.062260907
144	0x3e0736c9	0.13204493
145	0xbe0b822f	-0.1362388
146	0x3da81ec4	0.08208993
147	0x3d26083a	0.04053519
148	0x3e49d40e	0.19709799
149	0xbd58ac99	-0.052898977
150	0x3e677d1e	0.22606322
151	0xbd33dc44	-0.043911234
152	0x3d75f093	0.060043883
153	0xbe482d35	-0.19548495
154	0xbc072c52	-0.008250313
155	0x3e6bb9b3	0.23020057
156	0xbd2da633	-0.042394828
157	0xbd9d3ebd	-0.07677982
158	0x3b510538	0.003189398
159	0x3dc09fcb	0.09405478
160	0xbd8b5da4	-0.0680497
161	0xbc8a6872	-0.016895507
162	0xbd93894f	-0.07203924
163	0xbe030bcd	-0.1279747
164	0x3e260dbb	0.16216175
165	0x3d8bb187	0.0682097
166	0xbd78b896	-0.06072291
167	0xbc319589	-0.010838875
168	0xbda2d60f	-0.07950985
169	0xbcdce994	-0.026966847
170	0xbd340703	-0.043952
171	0x3e3ca8fa	0.18423834
172	0xbd98b957	-0.07457226
173	0x3d7fb023	0.062423836
174	0xbe2d04f0	-0.16896415
175	0x3e53e7fb	0.20693962
176	0x3e41093f	0.18851183
177	0x3de63f70	0.112425685
178	0xbdfd9e86	-0.123837516
179	0x3d3d68c8	0.046242505
180	0x3e2c1ee1	0.16808654
181	0xbe9a725f	-0.30165383
182	0x3e2c3e32	0.168206
183	0x3e14fd94	0.14549857
184	0xbdadcb34	-0.084860235
185	0x3d87374b	0.06602343
186	0x3da100f9	0.07861514
187	0xbcf77b7e	-0.030210253
188	0x3c9e5b12	0.019330535
189	0x3e05aa1d	0.13053174
190	0xbd946bbb	-0.072471105
191	0xbe59fb95	-0.21287377
192	0xbddd3071	-0.10800255
193	0xbdbc4517	-0.09192865
194	0xbd9e8bd0	-0.07741511
195	0x3cb9ff37	0.022704704
196	0x3d222880	0.039589405
197	0xbe7e61c5	-0.24841984
198	0xbdc10e6a	-0.094265774
199	0x3da12f20	0.078703165
200	0xbc98e7ff	-0.018665312
201	0x3d1f93e6	0.038959406
202	0x3b97ec2a	0.0046363072
203	0xbd86e9da	-0.065875724
204	0x3e001827	0.12509213
205	0x3d137111	0.0359965
206	0xbc27cee2	-0.010242196
207	0xbdef6878	-0.11689848
208	0x3e9500d7	0.29102203
209	0xbcdd3568	-0.027003005
210	0x3dcec004	0.10095218
211	0xbe347879	-0.17624082
212	0x3dce7dbd	0.100825764
213	0x3e37c315	0.17945512
214	0xbe82a9e6	-0.25520247
215	0x3c5352b8	0.01289814
216	0x3a01423c	0.0004930829
217	0x3de051b9	0.10953087
218	0xbd14c7f0	-0.036323488
219	0xbc90045a	-0.0175802
220	0xbe0ba8de	-0.13638636
221	0x3dd8b974	0.105822474
222	0xbda9c6cf	-0.08289873
223	0x3df45624	0.119304925
224	0x3d83bfd3	0.06433072
225	0xbe4b03c1	-0.19825651
226	0x3e72c9fa	0.2370986
227	0x3d128231	0.03576869
228	0xbd6f2972	-0.058389135
229	0x3e8b53d3	0.2721239
230	0xbe029719	-0.12752952
231	0xbd46cc78	-0.04853484
232	0xbe085af7	-0.1331595
233	0x3daa8782	0.08326627
234	0xbd91db71	-0.07121933
235	0x3e219b20	0.15781832
236	0x3d6a1861	0.057152156
237	0xbd9c88ae	-0.07643257
238	0x3d116b58	0.03550276
239	0xbddea2c5	-0.108708896
240	0x3e7c5a4f	0.24643825
241	0xbd5198bb	-0.051171046
242	0x3be3b74d	0.0069493414
243	0x3a8f150f	0.001091631
244	0xbdc6a0f6	-0.096986696
245	0xbe859237	-0.26088116
246	0x3ced473a	0.028964628
247	0x3db75e88	0.08953577
248	0x3dbee0c1	0.09320212
249	0xbd3931f4	-0.045213655
250	0x3dd5a719	0.10432262
251	0xbe13d140	-0.14435291
252	0x3c3b0dfa	0.0114169065
253	0xbd7a6f0b	-0.061141055
254	0xbdf6afa0	-0.120452166
255	0xbdb7cf7d	-0.08975122

network_body.linear_encoder.seq_layers.2.bias f4 [128]
0	0x00000000	0.0
1	0x00000000	0.0
2	0x00000000	0.0
3	0x00000000	0.0
4	0x00000000	0.0
5	0x00000000	0.0
6	0x00000000	0.0
7	0x00000000	0.0
8	0x00000000	0.0
9	0x00000000	0.0
10	0x00000000	0.0
11	0x00000000	0.0
12	0x00000000	0.0
13	0x00000000	0.0
14	0x00000000	0.0
15	0x00000000	0.0
16	0x00000000	0.0
17	0x00000000	0.0
18	0x00000000	0.0
19	0x00000000	0.0
20	0x00000000	0.0
21	0x00000000	0.0
22	0x00000000	0.0
23	0x00000000	0.0
24	0x00000000	0.0
25	0x00000000	0.0
26	0x00000000	0.0
27	0x00000000	0.0
28	0x00000000	0.0
29	0x00000000	0.0
30	0x00000000	0.0
31	0x00000000	0.0
32	0x00000000	0.0
33	0x00000000	0.0
34	0x00000000	0.0
35	0x00000000	0.0
36	0x00000000	0.0
37	0x00000000	0.0
38	0x00000000	0.0
39	0x00000000	0.0
40	0x00000000	0.0
41	0x00000000	0.0
42	0x00000000	0.0
43	0x00000000	0.0
44	0x00000000	0.0
45	0x00000000	0.0
46	0x00000000	0.0
47	0x00000000	0.0
48	0x00000000	0.0
49	0x00000000	0.0
50	0x00000000	0.0
51	0x00000000	0.0
52	0x00000000	0.0
53	0x00000000	0.0
54	0x00000000	0.0
55	0x00000000	0.0
56	0x00000000	0.0
57	0x00000000	0.0
58	0x00000000	0.0
59	0x00000000	0.0
60	0x00000000	0.0
61	0x00000000	0.0
62	0x00000000	0.0
63	0x00000000	0.0
64	0x00000000	0.0
65	0x00000000	0.0
66	0x00000000	0.0
67	0x00000000	0.0
68	0x00000000	0.0
69	0x00000000	0.0
70	0x00000000	0.0
71	0x00000000	0.0
72	0x00000000	0.0
73	0x00000000	0.0
74	0x00000000	0.0
75	0x00000000	0.0
76	0x00000000	0.0
77	0x00000000	0.0
78	0x00000000	0.0
79	0x00000000	0.0
80	0x00000000	0.0
81	0x00000000	0.0
82	0x00000000	0.0
83	0x00000000	0.0
84	0x00000000	0.0
85	0x00000000	0.0
86	0x00000000	0.0
87	0x00000000	0.0
88	0x00000000	0.0
89	0x00000000	0.0
90	0x00000000	0.0
91	0x00000000	0.0
92	0x00000000	0.0
93	0x00000000	0.0
94	0x00000000	0.0
95	0x00000000	0.0
96	0x00000000	0.0
97	0x00000000	0.0
98	0x00000000	0.0
99	0x00000000	0.0
100	0x00000000	0.0
101	0x00000000	0.0
102	0x00000000	0.0
103	0x00000000	0.0
104	0x00000000	0.0
105	0x00000000	0.0
106	0x00000000	0.0
107	0x00000000	0.0
108	0x00000000	0.0
109	0x00000000	0.0
110	0x00000000	0.0
111	0x00000000	0.0
112	0x00000000	0.0
113	0x00000000	0.0
114	0x00000000	0.0
115	0x00000000	0.0
116	0x00000000	0.0
117	0x00000000	0.0
118	0x00000000	0.0
119	0x00000000	0.0
120	0x00000000	0.0
121	0x00000000	0.0
122	0x00000000	0.0
123	0x00000000	0.0
124	0x00000000	0.0
125	0x00000000	0.0
126	0x00000000	0.0
127	0x00000000	0.0

network_body.linear_encoder.seq_layers.2.weight f4 [128, 128]
0	0x3d028065	0.031860728
1	0xbda817d1	-0.082076676
2	0xbd360699	-0.044439886
3	0x3d332548	0.043736726
4	0xbdc62d66	-0.09676628
5	0xbdb9a597	-0.09064787
6	0x3d47d463	0.048786532
7	0x3ce7bcec	0.028288327
8	0xbe27bcb1	-0.16380574
9	0x3ddf5c7a	0.109063104
10	0xbe1b6fe8	-0.15179408
11	0xbdad8c8e	-0.08474074
12	0x3d053d89	0.032529388
13	0x3dc31e40	0.09527254
14	0x3dac9aed	0.08427987
15	0x3d2fa339	0.04288027
16	0x3df40d0b	0.1191655
17	0xbd90ec04	-0.070762664
18	0xbd438e31	-0.047743026
19	0x3e45950a	0.19295135
20	0x3dff8614	0.12476745
21	0x3e5fecb1	0.21867634
22	0x3e075d60	0.13219213
23	0x3c7d39e7	0.0154556995
24	0x3d9df025	0.077118196
25	0x3c91e050	0.017807156
26	0xbbd6680c	-0.006543165
27	0xbdefbf89	-0.11706454
28	0xbe1b238f	-0.15150283
29	0x39e39061	0.00043404385
30	0x3d2c6bbf	0.042094942
31	0xbdc04025	-0.093872346
32	0x3d335876	0.043785535
33	0xbd829903	-0.06376841
34	0xbc378cf4	-0.011203039
35	0xbd64c177	-0.055848565
36	0x3c470207	0.012146479
37	0x3c0735be	0.008252559
38	0xbdb164b9	-0.086617894
39	0xbc608e1b	-0.013705756
40	0xbda9a86f	-0.08284079
41	0x3b6203e1	0.0034487175
42	0x3e2f45e1	0.171165
43	0xbcbaaad4	-0.022786535
44	0xbdbd6576	-0.09247868
45	0x3c3e005a	0.0115967635
46	0x3c30930f	0.010777249
47	0xbd86546e	-0.065590724
48	0x3da1bfc6	0.07897906
49	0x3b50cfe1	0.0031862187
50	0x3da4faec	0.08055672
51	0xbdad4dca	-0.08462103
52	0xbd33b90a	-0.04387764
53	0xbd923f77	-0.07141011
54	0xbd92672b	-0.07148584
55	0x3e174908	0.14773953
56	0xbdc7e5f0	-0.09760654
57	0x3dd54973	0.104144
58	0x3d85e15f	0.06537127
59	0x3d125a2a	0.03573052
60	0xbdfe356b	-0.124125324
61	0xbd67f29d	-0.05662786
62	0xbdaba793	-0.083815716
63	0x3d1b01d6	0.037843548
64	0x3da418b7	0.080125265
65	0xbd0043c1	-0.031314615
66	0x3db3db8d	0.0878211
67	0x3bed5ee9	0.00724398
68	0x3da39143	0.07986691
69	0x3dc92582	0.09821607
70	0x3d2fa08b	0.042877715
71	0x3c7c1aa7	0.015387214
72	0xbe5f496f	-0.21805356
73	0xbc80206f	-0.015640466
74	0xbccbbe11	-0.024870904
75	0xbe1b9854	-0.15194827
76	0xbd852e63	-0.06502988
77	0x3dbcb5e5	0.09214381
78	0x3d92d6cf	0.07169878
79	0xbb868ba2	-0.004106001
80	0x3d4aff8c	0.049560115
81	0x3d6ae78b	0.057349723
82	0x3daef94c	0.08543643
83	0x3db363e5	0.08759288
84	0xbc898543	-0.016787177
85	0x3d73b042	0.059494264
86	0xbc679b0d	-0.014136088
87	0xbd83bd85	-0.06432632
88	0x3cb172f9	0.021661269
89	0xbd7120dd	-0.05886923
90	0x3d76b82d	0.060234237
91	0xbd6797b7	-0.05654117
92	0xbd3736e9	-0.0447301
93	0x3dd741f7	0.10510629
94	0xbdf3daa4	-0.11906937
95	0x3d2918b5	0.041283328
96	0x3c4340fc	0.011917349
97	0x3d9cc508	0.07654768
98	0xbcde1766	-0.027110767
99	0xbd860ccc	-0.065454096
100	0x3d933498	0.07187766
101	0xbc58ed7b	-0.0132402135
102	0x3e0eb63b	0.13936703
103	0x3d8b9312	0.06815161
104	0xbe0563d3	-0.13026361
105	0x3e55e8d0	0.20889592
106	0x3c606ec9	0.013698288
107	0xbe311004	-0.17291266
108	0x3dc064ff	0.093942635
109	0x3d63f070	0.05564922
110	0x3db21f15	0.08697335
111	0x3e1ce303	0.15320973
112	0xbd19e42b	-0.037571114
113	0xbd5a1e39	-0.05325148
114	0x3d907766	0.070540234
115	0x3806855b	3.2072287e-05
116	0x3d8504c2	0.06495048
117	0xbdc65ba1	-0.096854456
118	0x3e26036f	0.16212247
119	0xbdef48b4	-0.11683789
120	0x3e46fb29	0.19431747
121	0xbd6ff43b	-0.058582526
122	0xbdafc5ea	-0.08582671
123	0xbd0e3ef4	-0.034728006
124	0x3e26ddd0	0.16295552
125	0x3df94340	0.1217103
126	0xbd0eaea9	-0.034834538
127	0x3e170058	0.14746225
128	0x3d002dc7	0.031293657
129	0x3d3208cb	0.043465417
130	0xbdbc99fb	-0.09209057
131	0x3c815571	0.015787812
132	0x3b93fc8b	0.0045161895
133	0xbd1f1479	-0.038837884
134	0x3d6d19f2	0.05788607
135	0x3d0d45b0	0.034490287
136	0xbda59fbf	-0.0808711
137	0x3c90546e	0.017618384
138	0x3de95144	0.11392453
139	0xbc632281	-0.013863207
140	0xbd4db49c	-0.05022107
141	0xbd8986be	-0.06715153
142	0xbdc7286d	-0.097245075
143	0x3e280809	0.16409315
144	0xbcd9ff86	-0.0266111
145	0x3e1f4623	0.15554099
146	0x3d6648b5	0.056221683
147	0x3dcdd59d	0.10050509
148	0x3b0b4240	0.0021249205
149	0xbd6b5d6e	-0.05746215
150	0x3d085faa	0.033294357
151	0x3bad3ff9	0.005287167
152	0x3da92b24	0.082601815
153	0x3c84e815	0.016223947
154	0xbc1cbee9	-0.009567001
155	0x3d78a742	0.060706384
156	0x3d875ffe	0.06610106
157	0x3e00d96a	0.12582937
158	0xbdb1ff4c	-0.08691272
159	0x3d71d8b7	0.059044566
160	0xbd3ba61c	-0.04581271
161	0xbd72cfe8	-0.059280306
162	0xbe2d5286	-0.16926011
163	0x3e0b230e	0.13587591
164	0x3d2c44ea	0.04205791
165	0xbd96eb46	-0.073690936
166	0xbdaac3b9	-0.083381124
167	0xbd34a34a	-0.044101037
168	0x3d878090	0.06616318
169	0x3de66747	0.11250167
170	0xbd43a056	-0.04776033
171	0x3d179cdd	0.03701483
172	0x3cb8cadb	0.022557667
173	0xbd4c5f15	-0.049895365
174	0xbe00bd08	-0.1257211
175	0x3cd9c955	0.02658526
176	0x3db12a1a	0.08650608
177	0x3d92d489	0.07169444
178	0x3c169be4	0.009192441
179	0xbe08ca98	-0.13358533
180	0x3d33f46e	0.04393428
181	0x3c4cdedb	0.012504305
182	0xbd67e13e	-0.056611292
183	0xbb0d4371	-0.002155509
184	0xbbca67b8	-0.006176915
185	0xbd37d648	-0.04488209
186	0x3e3567e5	0.17715414
187	0xbe180151	-0.14844252
188	0x3d0c7411	0.034290377
189	0xbe19f617	-0.15035282
190	0x3cc9e4f8	0.024645314
191	0xbd7fbc4e	-0.06243544
192	0x3d232548	0.039830476
193	0x3df4ff55	0.11962763
194	0xbd7db64e	-0.061941437
195	0x3d909e7e	0.0706148
196	0x3e0beaa1	0.13663723
197	0x3cb58394	0.022157468
198	0x3dfb18db	0.122606
199	0xbdd6b5b4	-0.10483876
200	0x3b6af01b	0.003584868
201	0xbdb9378b	-0.09043797
202	0xbdcbb33c	-0.099462956
203	0xbdaaee1a	-0.083461955
204	0xbd06366a	-0.032766737
205	0xbdd3b066	-0.1033638
206	0xbe25d077	-0.16192804
207	0x3c8575f8	0.016291603
208	0xbc6552e3	-0.0139968125
209	0xbe2f51b4	-0.17121011
210	0xbd453d3e	-0.04815411
211	0xbe1893bd	-0.14900108
212	0xbe2e5e2a	-0.17028108
213	0xbd9c170c	-0.07621583
214	0xbc27d487	-0.010243542
215	0x3dc0508f	0.09390365
216	0xbdceeb5e	-0.101034865
217	0xbd3285c3	-0.043584596
218	0xbdab725d	-0.083714224
219	0x3d9c66da	0.07636805
220	0x3e484547	0.19557677
221	0xbd87b426	-0.066261575
222	0x3e1f3c2d	0.15550299
223	0x3e0e4e3d	0.13897033
224	0x3d5728f0	0.052529275
225	0x3ad5d68c	0.001631455
226	0x3dc66622	0.09687449
227	0x3d1ee688	0.03879407
228	0xbd006500	-0.03134632
229	0xbd2efd28	-0.042721897
230	0xbdaa3538	-0.08310932
231	0xbd544ea8	-0.051832825
232	0xbd9a590f	-0.07536518
233	0xbbc7bec9	-0.0060957414
234	0xbd5a1540	-0.05324292
235	0xbc5389c6	-0.012911266
236	0xbc625b9d	-0.013815788
237	0x3d8ce628	0.06879836
238	0x3d76795d	0.060174335
239	0xbe859e7d	-0.2609748
240	0x3cbb2825	0.02284629
241	0x3d307514	0.043080404
242	0xbd67fc6f	-0.056637224
243	0xbda9fd1b	-0.08300229
244	0x3df8ac5c	0.1214225
245	0x3d399369	0.045306597
246	0x3e013b21	0.12620212
247	0xbcce948a	-0.025217313
248	0xbcdb4fb8	-0.026771411
249	0xbd54e239	-0.051973555
250	0x3e1029c6	0.14078435
251	0x3de099d0	0.109668374
252	0xbd4aa7ab	-0.049476307
253	0x3dbc5716	0.09196298
254	0xbcd1f7ba	-0.02563082
255	0x3d4f1a1a	0.050562
